results/train/DQN_robot_weight_5kg/best_model.pt (torch, 160586 bytes, 8 tensors)

layer1.weight f4 [128, 40]
-0.034795538 -0.011956023 0.059785496 0.050333902 -0.022026943 -0.13123931 0.044752195 0.024182847
-0.065913916 0.11542968 0.07885313 -0.068677604 0.11258342 -0.08632864 -0.054040555 -0.113571115
-0.12090067 -0.021566937 0.068615444 0.052603386 0.016995141 -0.07513326 -0.12737271 0.08698103
0.025933126 -0.124219015 0.0402107 0.11429516 -0.097528815 0.048058756 -0.02562834 -0.07586418
-0.085584395 0.13374232 -0.07855928 -0.1097486 -0.06403925 -0.0932208 0.041226994 -0.08996274
-0.07657578 0.09570936 -0.063822605 0.016132843 -0.0074564875 -0.049550563 -0.08233385 0.029604215
0.047724232 -0.031304415 0.112983584 -0.1038806 -0.008702886 -0.07046452 -0.024321856 -0.03771924
-0.0050463555 -0.033574346 0.00076962716 0.077991545 -0.06957109 -0.027142785 -0.07401046 -0.017474733
0.021477625 0.056187555 -0.11037284 -0.09764153 0.122052684 -0.11331827 0.11914436 0.081533566
-0.04054845 0.083976515 0.050770443 -0.03944629 -0.079074904 -0.06514505 -0.12976576 -0.0868376
0.04474929 -0.010979682 0.09657937 -0.044603985 -0.053939976 0.052626822 0.03182846 -0.018195482
-0.0035433443 0.08428379 0.07224223 0.070737675 -0.083712175 -0.0259084 -0.11456553 -0.13349341
-0.08698844 0.021865048 -0.07513371 0.10025398 -0.070933655 0.037499733 0.0412757 0.13073148
0.03870521 0.052650683 0.02565486 -0.12504101 -0.10962479 0.08701978 0.030193755 0.05394117
-0.10491653 -0.12039194 -0.025515612 -0.04197391 -0.095327504 0.119804405 0.03154771 -0.12049117
0.025823465 0.07737451 -0.008170816 0.008592545 -0.054026898 0.0024953708 0.059749667 0.117626965
-0.07684073 -0.1151163 0.10868003 0.02678251 0.07232327 -0.045054156 0.0137729235 -0.06609344
-0.11118036 -0.09166467 0.0408114 -0.1075273 -0.027555143 0.017041314 0.0071268477 -0.088153146
0.055593222 -0.04536764 -0.014335188 -0.0057095047 -0.09504597 -0.07402669 0.066416614 -0.069356464
0.035954237 -0.020686263 -0.12141132 -0.0541841 -0.028338006 0.060734842 -0.09996634 0.11892692
-0.09945894 0.029995242 0.13129541 -0.032507148 0.07223274 0.08588064 0.101969 -0.0886085
0.13340631 0.075319484 -0.09992696 0.12295794 -0.005461762 -0.0057942457 -0.059191134 -0.1335496
0.02692596 -0.011204314 -0.016961847 -0.1095643 -0.022723418 0.10002656 -0.10578672 -0.011352164
-0.03834833 -0.057225265 -0.13226585 -0.0544202 0.042427804 -0.0636033 -0.09961005 0.07144956
0.06683261 -0.057767455 -0.11321157 -0.12179734 -0.010524564 -0.004897744 -0.069181785 -0.047538515
-0.11435091 -0.014679407 -0.12681022 0.025809895 -0.10073258 0.11435037 -0.033747423 -0.029160826
-0.026456047 0.08430518 -0.06161565 0.055453915 -0.012674106 0.06689243 0.04072105 0.011100739
-0.064139366 -0.113201946 0.050337385 0.0874643 -0.077718005 -0.07734589 -0.06804745 0.109973505
-0.06554659 -0.07829488 -0.019981947 0.059092227 -0.08533536 -0.02366752 0.012075389 -0.124176726
-0.045338083 0.08782663 -0.049956784 -0.03576227 0.029080406 0.024974277 0.039647274 0.10894405
0.23796418 -0.04400485 -0.09748495 -0.15096524 0.1589103 0.069518 0.10967421 0.0732456
0.11706675 0.065818526 0.07250548 -0.045536846 0.045151424 0.11376069 0.050123565 -0.06688395
00000000: c485 0ebd 32e3 43bc a3e1 743d ec2a 4e3d
00000010: d971 b4bc 9963 06be 144e 373d 1b1b c63c
00000020: e0fd 86bd 6566 ec3d c07d a13d d8a6 8cbd
00000030: 2392 e63d 12cd b0bd a159 5dbd f997 e8bd
00000040: c59a f7bd 25ad b0bc 4186 8c3d a676 573d
00000050: 6539 8b3c 77df 99bd fe6d 02be 1c23 b23d
00000060: b571 d43c 8a66 febd fab3 243d 9513 ea3d
00000070: 30bd c7bd 42d9 443d 86f2 d1bc ae5e 9bbd
00000080: df46 afbd bff3 083e b0e3 a0bd e0c3 e0bd
00000090: 0327 83bd 8cea bebd a3dd 283d 633e b8bd
000000a0: c3d3 9cbd 4503 c43d 6db5 82bd 0629 843c
000000b0: 8d55 f4bb 88f5 4abd a69e a8bd 8a84 f23c
000000c0: 7c7a 433d 0f39 00bd f063 e73d 5abf d4bd
000000d0: 8d96 0ebc b44f 90bd a13e c7bc 7d7f 1abd
000000e0: e65b a5bb 4185 09bd cec0 493a 08ba 9f3d
000000f0: 4a7b 8ebd 8c5a debc cc92 97bd 2c27 8fbc
00000100: d8f1 af3c ec24 663d 280b e2bd 48f8 c7bd
00000110: c2f6 f93d 6913 e8bd f501 f43d 12fb a63d
00000120: 2216 26bd e1fb ab3d abf4 4f3d 6f92 21bd
00000130: 06f2 a1bd c56a 85bd 51e1 04be e9d7 b1bd
00000140: 084b 373d 20e4 33bc 68cb c53d abb2 36bd
00000150: 2af0 5cbd 398f 573d 8f5e 023d b10e 95bc
00000160: 7437 68bb fb9c ac3d bcf3 933d eade 903d
00000170: 4a71 abbd da3d d4bc 55a1 eabd 7fb2 08be
00000180: ff26 b2bd 541e b33c b4df 99bd f551 cd3d
00000190: aa45 91bd 5299 193d b510 293d 79de 053e
000001a0: 5b89 1e3d 3ea8 573d 242a d23c c00a 00be
000001b0: f682 e0bd 6d37 b23d e558 f73c 6bf1 5c3d
000001c0: 7ade d6bd 0d90 f6bd 1e06 d1bc d6ec 2bbd
000001d0: 113b c3bd 035c f53d 2c38 013d 13c4 f6bd
000001e0: bb8b d33c 8776 9e3d e3de 05bc bfc7 0c3c
000001f0: 4f4b 5dbd 6089 233b 11bc 743d 68e6 f03d
00000200: ac5e 9dbd 18c2 ebbd a393 de3d ff66 db3c
00000210: 391e 943d b58a 38bd d4a7 613c ff5b 87bd
00000220: 87b2 e3bd b0ba bbbd db29 273d 4637 dcbd
00000230: 53bb e1bc 3a9a 8b3c 5588 e93b a389 b4bd
00000240: b8b5 633d 6bd3 39bd 23de 6abc cc16 bbbb
00000250: 76a7 c2bd 4e9b 97bd 6f05 883d c30a 8ebd
00000260: c044 133d 3d76 a9bc 80a6 f8bd 26f0 5dbd
00000270: 1b25 e8bc 19c5 783d 27bb ccbd f58f f33d
00000280: 21b1 cbbd 95b8 f53c 4e72 063e 3726 05bd
00000290: c2ee 933d 30e2 af3d 20d5 d03d 6078 b5bd
000002a0: aa9b 083e 1a41 9a3d 82a6 ccbd 5fd1 fb3d
000002b0: 95f8 b2bb a8dd bdbb 6772 72bd 3ac1 08be
000002c0: d593 dc3c 4d92 37bc 92f3 8abc 3f63 e0bd
000002d0: 7626 babc bada cc3d b5a6 d8bd 6dfe 39bc
000002e0: 2313 1dbd 0a65 6abd b370 07be b7e7 5ebd
000002f0: c7c8 2d3d 7242 82bd 5b00 ccbd 2654 923d
00000300: 89df 883d 919d 6cbd 78db e7bd e270 f9bd
00000310: 396f 2cbc 417d a0bb 2eaf 8dbd bfb7 42bd
00000320: cf30 eabd e581 70bc 8ada 01be 466f d33c
00000330: e24c cebd 8730 ea3d bd3a 0abd afe2 eebc
00000340: 5aba d8bc 32a8 ac3d b160 7cbd a523 633d
00000350: 0ea7 4fbc e6fe 883d 1ecb 263d e0df 353c
00000360: 805b 83bd 6cd6 e7bd 932e 4e3d 7c20 b33d
00000370: 9e2a 9fbd 8667 9ebd 765c 8bbd ca39 e13d
00000380: 4a3d 86bd 1159 a0bd 2eb1 a3bc b10a 723d
00000390: 4ec4 aebd 63e2 c1bc dad7 453c 5e50 febd
000003a0: 6db4 39bd 73de b33d 7c9f 4cbd 757b 12bd
000003b0: 083a ee3c db96 cc3c 2e65 223d 0f1e df3d
000003c0: e2ac 733e 6e3e 34bd 31a6 c7bd a296 1abe
000003d0: 62b9 223e 745f 8e3d df9c e03d ca01 963d
000003e0: b1c0 ef3d ddcb 863d c17d 943d d884 3abd
000003f0: b3f0 383d 5dfb e83d 5e4e 4d3d 74fa 88bd

layer1.bias f4 [128]
0.10371639 0.040226743 -0.07575479 -0.066780165 0.11564783 -0.12879978 -0.017033456 0.11824554
-0.089689136 0.15262394 0.07479889 0.1047394 0.04113185 -0.003244529 0.13362728 -0.11353661
0.028866597 -0.122798145 0.06630892 0.051766384 0.12797911 0.13629532 0.036100816 0.0850064
0.14550464 0.102970846 -0.09848228 -0.09546235 0.034547977 -0.06348782 0.11512569 0.09086552
-0.07379146 0.117383994 -0.04103824 -0.13103649 -0.00018568047 0.1016148 -0.12555191 -0.07664185
0.13900822 0.09047685 0.031166155 0.14879948 0.12290496 0.11814646 -0.12782457 0.038152557
0.14195661 0.09154325 0.09677084 -0.017527848 -0.033973087 0.033966787 0.0011892981 -0.106229395
-0.0046131015 0.09513348 0.06916738 0.120735124 -0.0433521 0.0010526225 -0.021707332 -0.09687663
-0.07981554 -0.010763466 -0.030504713 -0.056503106 0.13452631 0.10260576 0.005764739 -0.044005908
-0.054289818 0.06549929 0.051566284 0.061546102 0.052558262 -0.07676105 0.08207851 -0.0011796576
0.111885875 0.1001657 -0.1269479 0.07035569 0.09862044 0.0022308526 0.06488398 -0.03362806
-0.0007256874 0.035454236 0.0010020954 -0.11341168 0.09346101 0.117311545 -0.0586202 0.026445111
0.022429448 0.060240556 0.057925064 -0.010985317 -0.08882482 0.1160362 0.08635659 -0.033269253
0.02415308 -0.01459622 0.04424754 -0.05977815 0.12984343 0.092799634 -0.03795973 -0.1267153
-0.01648548 -0.030340938 -0.045328878 0.013516346 0.069753624 -0.09600372 -0.09994712 -0.1310928
0.1564544 -0.037576593 -0.0118982745 -0.005858121 0.060742375 0.13281032 -0.059365142 -0.029196825
00000000: 4269 d43d ccc4 243d 5425 9bbd 0ac4 88bd
00000010: c5d8 ec3d 17e4 03be bf89 8bbc b82a f23d
00000020: f0ae b7bd 7349 1c3e 2930 993d 9c81 d63d
00000030: df79 283d 2aa2 54bb 97d5 083e e285 e8bd
00000040: a479 ec3c 987d fbbd f9cc 873d fd08 543d
00000050: f50c 033e 0091 0b3e 73de 133d d617 ae3d
00000060: 2bff 143e 61e2 d23d 14b1 c9bd c481 c3bd
00000070: 2e82 0d3d e705 82bd 05c7 eb3d b417 ba3d
00000080: fa1f 97bd 0567 f03d b717 28bd 6e2e 06be
00000090: 39b3 42b9 6c1b d03d ae90 00be 67f6 9cbd
000000a0: 2c58 0e3e ed4b b93d 2a50 ff3c e45e 183e
000000b0: 98b5 fb3d c5f6 f13d 72e4 02be db45 1c3d
000000c0: 135d 113e 077b bb3d ca2f c63d 9096 8fbc
000000d0: 5d27 0bbd c220 0b3d 39e2 9b3a cc8e d9bd
000000e0: 8029 97bb 58d5 c23d a1a7 8d3d fa43 f73d
000000f0: f991 31bd 26f8 893a 93d3 b1bc 4167 c6bd
00000100: 5476 a3bd 4059 30bc 05e5 f9bc cd6f 67bd
00000110: 44c1 093e f822 d23d 23e6 bc3b 8a3f 34bd
00000120: 005f 5ebd 7e24 863d 2b37 533d c417 7c3d
00000130: 5547 573d e634 9dbd c718 a83d be9e 9aba
00000140: 6c24 e53d ad23 cd3d a1fe 01be a516 903d
00000150: 83f9 c93d 7f33 123b e4e1 843d 94bd 09bd
00000160: 0f3c 3eba 7638 113d be58 833a 6244 e8bd
00000170: 7c68 bf3d 0941 f03d bc1b 70bd 6ba3 d83c
00000180: f6bd b73c cdbe 763d d542 6d3d c2fb 33bc
00000190: cae9 b5bd 63a4 ed3d b9db b03d 5745 08bd
000001a0: aedc c53c fc24 6fbc e93c 353d efd9 74bd
000001b0: adf5 043e bc0d be3d a97b 1bbd a8c1 01be
000001c0: 8f0c 87bc 8f8d f8bc c6aa 39bd aa73 5d3c
000001d0: fdda 8e3d 999d c4bd 13b1 ccbd 313d 06be
000001e0: 9535 203e eae9 19bd fbf0 42bc 7bf5 bfbb
000001f0: ffcc 783d 6eff 073e dd28 73bd 2e2e efbc

layer2.weight f4 [128, 128]
0.03377553 -0.05368683 -0.019807328 -0.028356249 -0.07311552 0.025743784 0.07008017 -0.06728158
-0.0183478 0.040519323 0.009085901 0.071530454 0.032342218 -0.009468225 -0.042322792 0.06258763
-0.07248926 0.02279981 0.049295645 -0.038985364 -0.007846769 -0.001583758 0.04991123 0.021113446
0.07048128 -0.01188041 0.02927897 -0.050958365 -0.04356145 -0.030552985 0.0024105597 0.019732766
-0.06525876 -0.072128296 -0.0066082543 -0.006450381 -0.051733755 0.032707255 -0.07434852 0.014568171
0.027316028 0.009002362 0.005482903 -0.0070908866 -0.06669809 0.0031416365 0.009387329 0.02720471
-0.015855841 -0.06389651 -0.043427534 -0.07027764 -0.03835088 -0.060617555 0.07468945 0.0037860738
-0.020589741 -0.018187027 -0.049338046 -0.07382754 0.04290408 0.049907714 0.045807663 -0.046436545
0.008717565 0.061870564 -0.011476112 -0.04707043 0.017983554 0.07310553 -0.040290736 -0.014700241
0.013252872 -0.034654554 0.0009290948 0.06374495 -0.003813955 0.031652268 0.05083426 -0.01399508
0.0011689414 0.022891624 0.0408914 0.028495235 -0.041257255 -0.06736475 0.043678086 0.06033062
0.0340477 -0.05495191 -0.061274484 0.03224883 -0.036043253 0.003664224 -0.00720698 0.042569593
0.027866056 -0.0036400033 -0.017883113 -0.06992706 -0.007756235 -0.005811214 -0.007735161 -0.0057253353
-0.0047296346 -0.008243129 -0.03483474 0.0038226158 -0.014084519 -0.001113741 -0.05969195 -0.023736585
-0.03324341 0.0025566274 0.030126888 -0.040562592 0.053919297 0.023102034 -0.059418827 -0.06973673
-0.01282689 -0.06606826 -0.057302505 -0.070208 0.05569185 -0.050851323 0.04964324 -0.045516837
-0.044951413 -0.066747725 0.024379132 -0.07096991 0.010813997 0.05893178 -0.02780317 0.038981054
0.037693977 0.008691019 -0.020056885 0.06312397 -0.017572967 -0.028654926 0.06462619 -0.07353177
-0.25705624 -0.018635407 -0.046598215 0.113998346 0.102153875 -0.10428457 0.06454588 0.050472543
0.09455317 0.0022544558 -0.07304029 -0.09893615 -0.020906549 0.1083504 0.02508075 -0.06775238
-0.3983798 -0.033955578 0.08345642 0.04843788 -0.09428405 0.033585876 0.032862503 -0.0457086
0.042615894 0.10261284 -0.06784832 -0.0003560416 -0.0018922299 -0.234306 -0.002970326 -0.27060813
0.09460345 0.04552577 -0.013620729 0.020995717 0.093808845 0.039454047 0.056078397 -0.023562247
0.2028454 -0.38119122 -0.026993379 -0.044280253 -0.14875917 -0.020373903 0.02457501 0.020689918
-0.018848695 -0.02356521 -0.03070163 0.07374529 0.09107747 0.039006647 -0.0027877905 0.0013754448
0.06459137 -0.04771887 0.03723899 -0.010520278 0.036152344 0.067192785 0.0078311805 -0.020450717
0.036948387 0.013357985 -0.32078856 0.08587569 -0.15569143 0.068624586 0.06398574 0.10270533
0.10884408 -0.044741463 0.00665427 0.0023899619 -0.05588776 0.06783213 0.016244048 -0.19777457
-0.021753518 -0.37805277 -0.06764477 0.109632455 0.04978843 -0.06808177 0.021006 0.08977661
0.06912929 0.061161455 0.01098959 0.019024106 0.094960265 0.09340483 -0.002598615 -0.04625367
-0.0979385 -0.015690612 -0.0012209443 -0.04435417 -0.0077085695 -0.05346013 0.05784065 -0.071292534
0.094826035 0.009303321 0.009482762 0.07023882 -0.21185516 0.030109607 0.016963486 0.11222161
00000000: 3658 0a3d b9e6 5bbd fa42 a2bc 5d4b e8bc
00000010: 97bd 95bd a1e4 d23c 3186 8f3d edca 89bd
00000020: 204e 96bc 97f7 253d 08dd 143c 8f7e 923d
00000030: 4679 043d 9d20 1bbc aa5a 2dbd f12d 803d
00000040: 4075 94bd abc6 ba3c 3bea 493d 1eaf 1fbd
00000050: bc8f 00bc 1a96 cfba b86f 4c3d 1bf6 ac3c
00000060: 7d58 903d 0da6 42bc 73da ef3c b8b9 50bd
00000070: 7e6d 32bd 414a fabc 7bfa 1d3b 9ca6 a13c
00000080: 62a6 85bd 00b8 93bd 0e8a d8bb b85d d3bb
00000090: c6e6 53bd 0bf8 053d 0944 98bd 57af 6e3c
000000a0: ddc5 df3c a57e 133c eda9 b33b ab5a e8bb
000000b0: 0299 88bd eae3 4d3b 50cd 193c 69dc de3c
000000c0: 1ce4 81bc 2cdc 82bd 12e1 31bd b9ed 8fbd
000000d0: d015 1dbd 1d4a 78bd c8f6 983d c71f 783b
000000e0: d1ab a8bc f6fc 94bc b116 4abd e532 97bd
000000f0: 30bc 2f3d 086c 4c3d d1a0 3b3d 3f34 3ebd
00000100: 1ed4 0e3c fd6b 7d3d 4d06 3cbc eccc 40bd
00000110: 3f52 933c 5ab8 953d e607 25bd 48d9 70bc
00000120: 9322 593c eff1 0dbd 7f8e 733a b68c 823d
00000130: 8cf3 79bb cfa5 013d 9637 503d 9f4b 65bc
00000140: 2a37 993a 3787 bb3c be7d 273d d76e e93c
00000150: 5efd 28bd 88f6 89bd cbe7 323d 3d1d 773d
00000160: 9a75 0b3d 4115 61bd f4fa 7abd 5917 043d
00000170: 17a2 13bd 7a23 703b 8828 ecbb 745d 2e3d
00000180: 5b47 e43c 1f8d 6ebb 9b7f 92bc eb35 8fbd
00000190: 0428 febb ff6b bebb 3c77 fdbb 989b bbbb
000001a0: 0dfb 9abb 300e 07bc dfae 0ebd da84 7a3b
000001b0: c1c2 66bc f2fa 91ba 8c7f 74bd 3a73 c2bc
000001c0: 3e2a 08bd 178d 273b aacc f63c f624 26bd
000001d0: 7bda 5c3d 7a40 bd3c 2861 73bd 21d2 8ebd
000001e0: e027 52bc cc4e 87bd 08b6 6abd 36c9 8fbd
000001f0: 231d 643d 7a49 50bd b656 4b3d dd6f 3abd
00000200: f91e 38bd 08b3 88bd bfb6 c73c ac58 91bd
00000210: 312d 313c 7362 713d 79c3 e3bc 99aa 1f3d
00000220: 0065 1a3d c764 0e3c 564e a4bc 2447 813d
00000230: 2ff5 8fbc bcbd eabc bc5a 843d d397 96bd
00000240: e09c 83be 48a9 98bc c5dd 3ebd f777 e93d
00000250: 0d36 d13d 2693 d5bd a130 843d 4cbc 4e3d
00000260: 18a5 c13d 7ebf 133b 2696 95bd 099f cabd
00000270: 3644 abbc d1e6 dd3d 2576 cd3c c3c1 8abd
00000280: 70f8 cbbe 0115 0bbd 33eb aa3d cc66 463d
00000290: ff17 c1bd 5891 093d d59a 063d f138 3bbd
000002a0: 018e 2e3d ae26 d23d 0ff4 8abd 18ab bab9
000002b0: b304 f8ba e9ed 6fbe cda9 42bb 268d 8abe
000002c0: 74bf c13d 3b79 3a3d 7a29 5fbc 36ff ab3c
000002d0: da1e c03d 919a 213d 76b2 653d 9d05 c1bc
000002e0: b4b6 4f3e 7f2b c3be 3821 ddbc 365f 35bd
000002f0: 5354 18be 2ce7 a6bc 8851 c93c e77d a93c
00000300: 9468 9abc d40b c1bc fc81 fbbc c507 973d
00000310: d386 ba3d 6fc5 1f3d 5db3 36bb 4548 b43a
00000320: 7b48 843d dd74 43bd e987 183d 3e5d 2cbc
00000330: 7b14 143d 5f9c 893d 5a4e 003c 4388 a7bc
00000340: 3157 173d 73db 5a3c 663e a4be 98df af3d
00000350: 936d 1fbe 0c8b 8c3d f50a 833d 2c57 d23d
00000360: a5e9 de3d d342 37bd 100c da3b e8a0 1c3b
00000370: 90ea 64bd 92eb 8a3d 3d12 853c 6b85 4abe
00000380: 6f34 b2bc 2290 c1be 5789 8abd fb86 e03d
00000390: f4ee 4b3d 746e 8bbd c614 ac3c cddc b73d
000003a0: a893 8d3d 6f84 7a3d ae0d 343c 71d8 9b3c
000003b0: 877a c23d 084b bf3d 864d 2abb 7d74 3dbd
000003c0: fb93 c8bd 9989 80bc 1808 a0ba b8ac 35bd
000003d0: 2b98 fcbb 02f9 5abd 51ea 6c3d d201 92bd
000003e0: 2734 c23d f56c 183c 965d 1b3c 5fd9 8f3d
000003f0: 8ff0 58be 6ca8 f63c 02f7 8a3c 72d4 e53d

layer2.bias f4 [128]
-0.064283475 0.037385862 -0.04374208 -0.07718344 -0.0045533115 0.047110207 -0.03866692 0.041632563
-0.05713846 0.058771845 0.06633564 0.0067500053 0.04449498 -0.0055923546 0.002787566 -0.055058397
0.042684898 0.06262452 -0.040904928 -0.04900281 -0.016019903 -0.0055412296 0.11887366 -0.022262812
0.05742468 0.020169195 0.0879056 0.0480216 0.029615708 0.059477203 0.020363756 -0.033024
-0.06478941 -0.012737734 0.018214518 0.06901766 0.08409182 -0.061764736 -0.026810803 0.032105315
0.10814255 0.07112437 -0.030343838 0.055626705 0.027625808 0.01064331 0.12504792 0.031499982
0.09023854 0.03948045 0.06598057 0.0787761 0.04813448 0.06849027 0.04660968 0.063714065
0.027438836 0.05871068 -0.019307321 0.036177795 -0.007808836 -0.030369231 0.103650875 -0.06821854
-0.040130433 -0.061589614 0.08064405 0.029411726 0.04703747 -0.05392479 -0.06401219 -0.056153525
0.009869303 0.09838178 -0.018254017 0.036031175 0.018460067 0.0055592284 0.037588164 0.037887983
-0.030662486 0.023481548 0.08567426 -0.05821757 -0.0036399968 0.10861332 0.0326681 0.101183206
0.056901257 0.01970459 0.035224307 -0.04543561 -0.03995885 0.020842439 0.09866183 0.03785355
0.030748991 0.05435896 0.10738946 0.014541397 -0.008583518 -0.022529054 0.08444198 0.012827377
0.012256435 0.065476365 0.0036284102 -0.013170083 -0.033799153 0.06927578 -0.030629419 0.08936469
-0.04814135 -0.0747118 -0.07410247 0.112382516 -0.023855768 -0.041169375 0.05098665 0.09022847
0.03319284 -0.077237494 -0.036546275 -0.061787482 0.034734767 0.04649443 -0.008543838 -0.0016024923
00000000: 0ea7 83bd eb21 193d e52a 33bd 5a12 9ebd
00000010: f233 95bb a2f6 403d 3461 1ebd e886 2a3d
00000020: 050a 6abd bfba 703d fbda 873d 262f dd3b
00000030: 5e40 363d 1240 b7bb 99af 363b ea84 61bd
00000040: 5cd6 2e3d 4941 803d ed8b 27bd 2cb7 48bd
00000050: 2c3c 83bc 3493 b5bb 0974 f33d 8060 b6bc
00000060: 2436 6b3d de39 a53c da07 b43d 4cb2 443d
00000070: a49c f23c 5e9e 733d e4d1 a63c 2c44 07bd
00000080: 4fb0 84bd eeb1 50bc 9d36 953c 2259 8d3d
00000090: 5538 ac3d 05fd 7cbd 54a2 dbbc dd80 033d
000000a0: d779 dd3d a7a9 913d a493 f8bc d4d8 633d
000000b0: 854f e23c 4761 2e3c 900c 003e 2006 013d
000000c0: fcce b83d 41b6 213d d220 873d 5d55 a13d
000000d0: a928 453d a044 8c3d cbe9 3e3d 857c 823d
000000e0: 69c7 e03c 9c7a 703d 632a 9ebc 2b2f 143d
000000f0: 44e1 ffbb e5c8 f8bc e946 d43d 29b6 8bbd
00000100: cf5f 24bd 6445 7cbd b528 a53d dcf0 f03c
00000110: 5daa 403d 3ee0 5cbd d318 83bd 3d01 66bd
00000120: dbb2 213c 637c c93d 7389 95bc 6d95 133d
00000130: 9139 973c 302a b63b 0cf6 193d 6e30 1b3d
00000140: e52f fbbc 605c c03c fd75 af3d 8c75 6ebd
00000150: 038d 6ebb a970 de3d fcce 053d 2439 cf3d
00000160: 4b11 693d 856b a13c 5d47 103d b11a 3abd
00000170: e4ab 23bd c3bd aa3c 370f ca3d 530c 1b3d
00000180: 4fe5 fb3c 80a7 5e3d 01ef db3d 0a3f 6e3c
00000190: e2a1 0cbc da8e b8bc ebef ac3d eb29 523c
000001a0: 37cf 483c 7918 863d 9fca 6d3b 55c7 57bc
000001b0: fb70 0abd 76e0 8d3d 8cea fabc d604 b73d
000001c0: dd2f 45bd 8002 99bd 09c3 97bd ce28 e63d
000001d0: 2c6d c3bc 38a1 28bd 61d7 503d b4c9 b83d
000001e0: 37f5 073d b12e 9ebd 8cb1 15bd df14 7dbd
000001f0: 0b46 0e3d f270 3e3d 74fb 0bbc b80a d2ba

layer3.weight f4 [128, 128]
0.010451587 -0.062895544 0.063334875 0.05872866 -0.068304315 -0.006089595 0.0077495263 0.012016135
-0.00410734 0.00046494362 0.005156093 0.06952182 0.05403816 -0.06419086 -0.004303374 0.037447736
0.05121821 -0.020622479 -0.0028617852 0.07195263 0.030895414 -0.0010380442 0.030548386 -0.008634051
-0.028281774 -0.04718602 0.03709798 0.059830185 0.06466955 0.008813017 0.01869279 0.009255111
-0.07049529 0.013150478 -0.04618798 -0.038683016 0.023807148 0.063094206 -0.047537345 0.0156041775
-2.3401071e-05 -0.07715033 0.008343631 -0.025840683 0.008332515 -0.040192164 -0.06704471 0.009076547
0.019129455 -0.04048667 -0.053243365 -0.039862096 -0.021183461 0.039562788 -0.0016649524 0.055325862
0.046231102 -0.020074703 0.0700493 0.068812884 -0.03757281 0.011616529 0.059969455 -0.01607174
0.06256325 0.05937873 -0.05070736 0.008265563 -0.025938932 -0.044975977 -0.040776182 0.073791094
-0.00922718 0.0548069 0.053474076 0.055986904 0.022292439 0.019876007 -0.017973274 -0.06276399
0.070153154 0.061838478 -0.062464263 -0.00019055417 0.05018721 -0.030870158 0.008948324 0.013008183
0.007232318 -0.06773761 0.033804234 -0.07273323 0.049467478 0.07311261 -0.07062821 -0.055516556
-0.051838137 0.06244066 -0.051774617 0.010020203 0.045447074 0.017662082 0.04764294 0.020420838
-0.034131195 -0.032105293 -0.060466412 -0.008871566 0.072293036 -0.021734694 -0.0027862778 -0.021135068
0.02505925 0.0733809 -0.027708795 -0.064962715 0.02721983 -0.018293764 -0.0043578334 0.012757408
0.03464596 -0.02619505 -0.032424115 -0.02910226 -0.06644882 -0.067624524 -0.0055024894 0.028502012
-0.025254024 0.055719003 0.0608919 0.0022146343 0.056750257 -0.032936692 0.04116852 0.034479745
0.009693713 0.028563267 0.065179594 0.035048082 0.068816066 0.047218543 -0.019398414 -0.05655493
0.0901882 -0.013998041 -0.0259079 -0.013195399 0.0733575 -0.066428766 0.06853293 0.046753064
-0.04008576 0.054578546 0.048455916 -0.022905972 -0.31394178 0.0210189 -0.059557572 0.030883092
0.033061676 -0.04379509 0.07546235 -0.01657816 0.068259485 0.06341416 0.4208561 0.09054825
0.019369489 0.015307057 0.031425614 -0.008557145 0.056279667 0.013877296 0.085056745 0.046703056
0.041500412 0.00020503074 -0.037399873 -0.0048472825 -0.0024005962 0.057239313 0.10070891 0.0910675
0.078812145 0.09532578 -0.08066611 0.104398265 -0.024321117 -0.29338396 0.015136456 -0.009165514
-0.02157744 0.018073644 0.037121825 0.016315956 0.048684213 0.030232595 -0.056774262 0.030134475
-0.05425513 0.047555063 -0.06983444 -0.04183292 0.07277184 0.03508991 -0.04423427 0.019347358
0.03660601 0.022055201 -0.019383823 0.0109015405 -0.0067893723 0.018296046 0.038593072 0.046118684
0.04635218 0.09294351 -0.012395498 -0.088753775 -0.22620222 0.019573899 0.047919348 -0.053013057
0.022322543 -0.15238215 0.016841857 0.08119739 -0.07382168 0.0312266 -0.023258505 -0.05981565
-0.11544736 0.0025704068 0.023282746 -0.0340823 -0.050004374 0.0322115 0.026339604 -0.011680501
0.043215677 -0.028675837 -0.044597823 0.04669467 -0.04868263 -0.27851102 0.06574853 0.025319753
-0.02467306 0.00034717005 0.062297698 0.0096783005 0.06872013 0.027025416 -0.06418047 -0.07058925
00000000: 223d 2b3c 61cf 80bd b7b5 813d 778d 703d
00000010: 22e3 8bbd 3a8b c7bb bdef fd3b 53df 443c
00000020: dd96 86bb adc3 f339 71f4 a83b 7561 8e3d
00000030: 1e57 5d3d 7f76 83bd 5103 8dbb cc62 193d
00000040: 30ca 513d 79f0 a8bc ca8c 3bbb e75b 933d
00000050: 6118 fd3c fc0e 88ba 9c40 fa3c d675 0dbc
00000060: 2eaf e7bc 2146 41bd 0df4 173d 7f10 753d
00000070: 7871 843d 7964 103c 9f21 993c c0a2 173c
00000080: d65f 90bd 1a75 573c 9b2f 3dbd 1572 1ebd
00000090: 3507 c33c 8937 813d 85b6 42bd aaa8 7f3c
000000a0: 6b4d c4b7 fe00 9ebd bab3 083c d7af d3bc
000000b0: 1a85 083c 8aa0 24bd bd4e 89bd ccb5 143c
000000c0: 60b5 9c3c 5ad5 25bd b715 5abd 7046 23bd
000000d0: f088 adbc 970c 223d 883a daba 5f9d 623d
000000e0: d35c 3d3d b473 a4bc 0276 8f3d c5ed 8c3d
000000f0: f2e5 19bd 4153 3e3c 88a2 753d e2a8 83bc
00000100: 2921 803d 1c37 733d 85b2 4fbd 496c 073c
00000110: e27d d4bc bb38 38bd ed04 27bd c91f 973d
00000120: 992d 17bc 337d 603d a207 5b3d 8652 653d
00000130: a29e b63c 02d3 a23c b03c 93bc 688a 80bd
00000140: 75ac 8f3d 584a 7d3d 87da 7fbd 7fcf 47b9
00000150: 1b91 4d3d 6ae3 fcbc fe9b 123c 4620 553c
00000160: 15fd ec3b 04ba 8abd 4f76 0a3d 29f5 94bd
00000170: 699e 4a3d 10bc 953d 86a5 90bd 5465 63bd
00000180: 3a54 54bd c7c1 7f3d 9f11 54bd c72b 243c
00000190: b626 3a3d 12b0 903c 3e25 433d 9a49 a73c
000001a0: 27cd 0bbd d780 03bd a1ab 77bd 0b5a 11bc
000001b0: 5f0e 943d f50c b2bc fc99 36bb 7323 adbc
000001c0: 0e49 cd3c ba48 963d 8efd e2bc 2c0b 85bd
000001d0: 1ffc de3c cedc 95bc 28cc 8ebb 7304 513c
000001e0: ece8 0d3d 0097 d6bc 26cf 04bd dd67 eebc
000001f0: 5216 88bd ba7e 8abd 3a4e b4bb 0d7d e93c
00000200: 87e1 cebc 9c39 643d c969 793d 6623 113b
00000210: f572 683d a0e8 06bd 52a0 283d a23a 0d3d
00000220: 61d2 1e3c 83fd e93c e17c 853d 948e 0f3d
00000230: 70ef 8c3d 3b68 413d 6ce9 9ebc 24a6 67bd
00000240: 97b4 b83d 0a58 65bc ce3c d4bc 8431 58bc
00000250: 753c 963d ce0b 88bd fe5a 8c3d 2480 3f3d
00000260: f730 24bd c18d 5f3d b679 463d 4ea5 bbbc
00000270: fabc a0be d42f ac3c a4f2 73bd 8afe fc3c
00000280: ae6b 073d 7b62 33bd 018c 9a3d ecce 87bc
00000290: a1cb 8b3d 48df 813d 737a d73e 5c71 b93d
000002a0: c3ac 9e3c 73ca 7a3c 25b8 003d 4433 0cbc
000002b0: 8285 663d 995d 633c 3b32 ae3d b44b 3f3d
000002c0: 56fc 293d 85fd 5639 9c30 19bd f4d5 9ebb
000002d0: 5253 1dbb c573 6a3d 7940 ce3d 9981 ba3d
000002e0: 4368 a13d 2a3a c33d 4634 a5bd c2ce d53d
000002f0: 143d c7bc 6c36 96be e6fe 773c f42a 16bc
00000300: 2cc3 b0bc 2e0f 943c 0e0d 183d 0aa9 853c
00000310: 1969 473d 59aa f73c 218c 68bd 93dc f63c
00000320: a13a 5ebd 19c9 423d 5c05 8fbd ff58 2bbd
00000330: 6709 953d 70ba 0f3d fe2e 35bd 5a7e 9e3c
00000340: 2ff0 153d 1cad b43c d3ca 9ebc 609c 323c
00000350: 6279 debb 97e1 953c c513 1e3d f2e6 3c3d
00000360: c9db 3d3d 2b59 be3d 7d16 4bbc 8ac4 b5bd
00000370: 8ea1 67be 7159 a03c 1447 443d 3824 59bd
00000380: c4dd b63c 110a 1cbe eff7 893c d14a a63d
00000390: d22f 97bd edce ff3c 9f88 bebc 4101 75bd
000003a0: aa6f ecbd 4574 283b 75bb be3c e299 0bbd
000003b0: 63d1 4cbd 35f0 033d 27c6 d73c 925f 3fbc
000003c0: ec02 313d 97e9 eabc 35ac 36bd e942 3f3d
000003d0: 7067 47bd ff98 8ebe 2aa7 863d 5f6b cf3c
000003e0: 281f cabc 6004 b639 df2b 7f3d bc91 1e3c
000003f0: 24bd 8c3d 6864 dd3c 0d71 83bd 1991 90bd

layer3.bias f4 [128]
-0.0040582223 0.049742136 0.025366051 -0.053780023 0.06644718 0.028716723 0.075098574 -0.0058180923
0.052500617 -0.037770126 -0.03500489 0.093041226 0.06705766 -0.00594785 -0.00029291146 -0.04849716
-0.014705486 0.06162268 -0.05951822 0.09796729 0.029003056 -0.050494026 0.023546264 -0.06394544
0.050824866 0.04354633 -0.028047025 -0.024139246 0.06861933 -0.056080263 -0.0034520968 -0.050711274
0.036983155 0.004629218 0.014121597 -0.054971352 0.04996201 -0.007789615 0.050990924 0.025087714
-0.044646867 0.034627672 0.04040401 -0.038626004 0.06380749 -0.014606628 -0.001509728 0.033802416
0.0922858 0.011080979 0.09336961 0.07571497 -0.049967866 0.08435983 0.07244774 -0.02166161
-0.018942123 0.08003488 -0.0553764 -0.0050429283 0.0032123653 0.09393665 0.021767162 -0.05537451
0.06712772 -0.07135333 0.025139028 -0.03085169 -0.0697546 -0.01096149 0.024385056 0.04762491
-0.06976588 -0.06276955 0.082359225 -0.04109503 -0.01569627 0.034681763 -0.041814085 -0.013894753
0.01315403 0.06088423 0.08546801 0.0044130944 0.07628497 -0.066293575 0.027367039 0.0607358
-0.023591608 0.038426246 0.10326468 0.06623879 0.029386366 -0.06832827 0.06566124 -0.027997794
9.628361e-06 -0.029420488 0.044383623 -0.059794743 0.043343406 0.09383365 0.016841209 0.083766386
-0.014909559 -0.07326232 0.05996774 0.02513854 -0.010070509 -0.012951979 0.0530993 -0.059438854
0.03713668 0.021966202 0.026055912 -0.019745845 0.030855408 0.039570544 0.017229887 -0.04272354
0.020007726 0.05444713 -0.040410616 -0.062159654 0.08814121 0.0936483 0.09937915 0.008038118
00000000: d6fa 84bb 69be 4b3d 77cc cf3c 7148 5cbd
00000010: 7615 883d 553f eb3c 48cd 993d b2a5 bebb
00000020: e30a 573d d9b4 1abd 4a61 0fbd 668c be3d
00000030: 8755 893d 2fe6 c2bb e991 99b9 f5a4 46bd
00000040: 47ef 70bc 1068 7c3d 61c9 73bd 13a3 c83d
00000050: d197 ed3c d3d2 4ebd 18e4 c03c d4f5 82bd
00000060: bc2d 503d a35d 323d e0c2 e5bc abbf c5bc
00000070: 4b88 8c3d 6bb4 65bd 933c 62bb a0b6 4fbd
00000080: a67b 173d b2b0 973b 455e 673c a429 61bd
00000090: f7a4 4c3d 0740 ffbb dcdb 503d c084 cd3c
000000a0: a2df 36bd bfd5 0d3d ad7e 253d 4d36 1ebd
000000b0: 80ad 823d a350 6fbc 11e2 c5ba 6774 0a3d
000000c0: 5600 bd3d ff8c 353c 9138 bf3d 7310 9b3d
000000d0: 1bab 4cbd d9c4 ac3d 7b5f 943d b073 b1bc
000000e0: 832c 9bbc 54e9 a33d 5dd2 62bd 263f a5bb
000000f0: 8c86 523b dc61 c03d 0c51 b23c 62d0 62bd
00000100: 427a 893d b221 92bd 5df0 cd3c afbc fcbc
00000110: 80db 8ebd d297 33bc 2bc3 c73c 5612 433d
00000120: 6ae1 8ebd 528d 80bd f4ab a83d 4353 28bd
00000130: 7795 80bc 770e 0e3d 3f45 2bbd d1a6 63bc
00000140: 0084 573c be61 793d da09 af3d b89b 903b
00000150: 4b3b 9c3d edc4 87bd d730 e03c 1ac6 783d
00000160: 3043 c1bc d764 1d3d 6f7c d33d 34a8 873d
00000170: adbb f03c b1ef 8bbd 6679 863d a15b e5bc
00000180: 7f89 2137 3c03 f1bc 9acb 353d 55eb 74bd
00000190: db88 313d db2b c03d 93f6 893c b68d ab3d
000001a0: 3947 74bc 8e0a 96bd bca0 753d 57ef cd3c
000001b0: c7fe 24bc 8a34 54bc a77e 593d 2876 73bd
000001c0: a21c 183d 77f2 b33c 3573 d53c 0ac2 a1bc
000001d0: 7bc4 fc3c b914 223d b125 8d3c e1fe 2ebd
000001e0: 3ee7 a33c f403 5f3d 9a85 25bd 1f9b 7ebd
000001f0: 6183 b43d aeca bf3d 4c87 cb3d 4fb2 033c

output_layer.weight f4 [9, 128]
0.018663993 0.032960717 -0.04931311 -0.0014281485 0.04298253 -0.023556095 -0.08585668 0.10693446
0.13018574 0.016609877 -0.040613245 -0.01640894 0.022889696 -0.05422216 -0.04221525 -0.023194818
0.022852682 -0.026702197 -0.055065054 0.035794817 0.06107673 -0.0017557706 0.0238292 -0.042820577
-0.027817061 -0.010667554 0.02790045 -0.052000068 0.054719836 -0.0074038715 -0.03966218 -0.03677308
0.018353349 0.08018731 -0.009579502 0.018046722 0.0014849454 0.14405869 -0.060638055 0.10646801
-0.057893272 -0.0045597185 0.085684605 -0.051693745 0.008751104 0.03846961 0.015685264 -0.060759258
0.08262441 -0.02786903 0.11049859 0.033468124 0.012018173 0.090277806 -0.049938176 0.049527578
-0.04755635 0.060407586 0.010365648 0.068110496 0.021371402 0.06140511 -0.06992596 0.06533579
-0.05654202 -0.0041332543 -0.071047746 -0.045671884 0.05983718 0.089802526 0.1134032 -0.008169748
0.02611815 -0.040210765 0.06154567 -0.07105036 0.12303613 0.048401862 0.041653387 0.033066243
-0.04841924 0.084286824 0.1158284 0.1345047 0.09506646 5.175692e-06 -0.07092656 0.00091566535
0.056701954 0.1090254 0.08761742 -0.03572799 -0.009729791 -0.07019467 0.05824441 -0.12021337
0.001999781 -0.030904792 -0.00529385 0.06842192 0.010186463 0.017885238 0.06821028 0.099156566
0.06599694 -0.031948607 -0.06299073 0.024883678 -0.07342896 0.019745698 0.06916724 -0.023333209
0.021873496 0.10737653 0.0571823 -0.048291575 0.12192713 -0.046950255 0.033167392 -0.03560688
0.09069246 0.09392663 -0.025840322 0.05210578 0.032535724 0.106906414 0.10438872 0.027707802
-0.029033849 0.030957798 -0.041066166 0.048581325 0.09064597 0.07008194 -0.031641304 0.09314137
0.12697065 -0.0023175732 -0.013037309 0.08729663 -0.03422363 -0.010709459 -0.05247209 -0.011098696
0.009140341 0.11019484 0.05097763 0.08611585 0.06331649 0.024298906 -0.021056766 0.003506624
-0.040948518 0.08782464 -0.06496123 -0.063687384 0.034885786 0.07254752 -0.02933877 0.036734033
-0.05406812 0.009438892 0.062356833 -0.012851839 -0.060119614 0.098852195 -0.033959083 0.119609825
0.058999386 0.012487373 0.12835795 -0.036914825 0.036243744 0.053887237 0.05179734 -0.026351076
0.047045507 -0.0029367954 0.048236888 0.007786763 -0.01075941 0.10298721 -0.003033314 -0.06539951
0.07380074 -0.0018040517 0.0026990583 -0.013381747 0.021302339 0.085856736 -0.09040643 0.014048712
-0.07526093 -0.07368732 0.01286804 -0.027303288 0.0041159433 0.029846614 0.08019807 -0.04889982
-0.018803185 -0.0022261855 0.08594545 -0.05557987 0.06718106 0.105682924 0.046872754 0.067710795
-0.05812763 0.05822658 0.100998186 0.0028321152 0.063602805 -0.046607677 -0.023283834 -0.016012095
0.04080408 0.01423297 0.061682373 0.0055261734 -0.05238444 0.06441366 0.10789767 -0.06134876
0.048469394 -0.055469774 0.08643976 0.021743182 0.076836884 0.09352749 0.04582891 0.1256612
0.028321344 -0.012379484 -0.027808344 0.031903245 0.063284956 0.10359388 0.07967038 -0.069433264
-0.044978317 0.013171045 -0.024131548 -0.021038825 0.07010415 -0.02106888 -0.05651128 0.046364125
0.12098075 0.103590325 -0.02415939 -0.061441176 0.031839088 0.06960579 0.013451104 0.023694431
00000000: 3be5 983c d101 073d 8bfc 49bd b630 bbba
00000010: 730e 303d b6f8 c0bc a1d5 afbd 7400 db3d
00000020: 694f 053e 7011 883c 135a 26bd 0b6c 86bc
00000030: 2c83 bb3c 0e18 5ebd e6e9 2cbd 0f03 bebc
00000040: 8c35 bb3c 91be dabc e58b 61bd 969d 123d
00000050: 982b 7a3d e321 e6ba 7435 c33c a164 2fbd
00000060: 9be0 e3bc f7c6 2ebc 7c8f e43c 06fe 54bd
00000070: e821 603d 2d9c f2bb cf74 22bd 5e9f 16bd
00000080: c359 963c 3f39 a43d 58f3 1cbc b8d6 933c
00000090: 80a2 c23a 1f84 133e 9c5f 78bd e60b da3d
000000a0: 7f21 6dbd b169 95bb 697b af3d d2bc 53bd
000000b0: ca60 0f3c 4f92 1d3d 627e 803c b3de 78bd
000000c0: fd36 a93d 984d e4bc 164d e23d df15 093d
000000d0: dfe7 443c 92e3 b83d f98b 4cbd 6edd 4a3d
000000e0: 72ca 42bd f26d 773d aed4 293c 847d 8b3d
000000f0: 1413 af3c ed83 7b3d 5735 8fbd c5ce 853d
00000100: 9b98 67bd 4070 87bb 7b81 91bd 7112 3bbd
00000110: d517 753d 63ea b73d f03f e83d 68da 05bc
00000120: bbf5 d53c 0bb4 24bd 5017 7c3d da82 91bd
00000130: 5efa fb3d 0841 463d be9c 2a3d 7870 073d
00000140: 4153 46bd 929e ac3d 7137 ed3d 9abb 093e
00000150: 34b2 c23d dbaa ad36 f241 91bd 4309 703a
00000160: 4f40 683d b548 df3d c370 b33d 8357 12bd
00000170: b469 1fbc 39c2 8fbd b191 6e3d 6d32 f6bd
00000180: c20e 033b 0c2c fdbc 0878 adbb cb20 8c3d
00000190: 1fe5 263c 1084 923c d5b1 8b3d 9912 cb3d
000001a0: 6729 873d 8bdc 02bd 4901 81bd dbd8 cb3c
000001b0: ec61 96bd bbc1 a13c 8ea7 8d3d 4925 bfbc
000001c0: 0c30 b33c 3ae8 db3d fd37 6a3d 63cd 45bd
000001d0: eeb4 f93d e94e 40bd 88da 073d 85d8 11bd
000001e0: f8bc b93d 9b5c c03d 15af d3bc df6c 553d
000001f0: 2e44 053d c0f1 da3d c1c9 d53d 79fb e23c
00000200: 65d8 edbc 359b fd3c ff34 28bd 36fd 463d
00000210: 98a4 b93d 1f87 8f3d 509a 01bd e7c0 be3d
00000220: 9804 023e 6de2 17bb 709a 55bc 93c8 b23d
00000230: 142e 0cbd ba76 2fbc f9ec 56bd 4ed7 35bc
00000240: 5ec1 153c d5ad e13d ebcd 503d 825d b03d
00000250: 13ac 813d 800e c73c 3d7f acbc 63cf 653b
00000260: a2b9 27bd 68dd b33d 650a 85bd 886e 82bd
00000270: 66e4 0e3d cb93 943d dc57 f0bc 6d76 163d
00000280: 8876 5dbd 95a5 1a3c e169 7f3d 8590 52bc
00000290: fc3f 76bd 0573 ca3d ae18 0bbd fff5 f43d
000002a0: 57a9 713d d797 4c3c 4470 033e 0034 17bd
000002b0: 5274 143d ddb8 5c3d 7329 543d 36de d7bc
000002c0: cab2 403d 4077 40bb 0b94 453d 1a28 ff3b
000002d0: 3d48 30bc f5ea d23d 90ca 46bb 2ef0 85bd
000002e0: d824 973d ee75 ecba afe2 303b 1d3f 5bbc
000002f0: 3e82 ae3c a8d5 af3d 0227 b9bd 922c 663c
00000300: 6722 9abd 61e9 96bd 79d4 523c 25ab dfbc
00000310: 09df 863b e380 f43c e33e a43d 2d4b 48bd
00000320: 2309 9abc 32e5 11bb 2b04 b03d b8a7 63bd
00000330: 3996 893d 4a70 d83d a5fd 3f3d f5ab 8a3d
00000340: 3d17 6ebd ff7e 6e3d 23d8 ce3d 029b 393b
00000350: 3042 823d b1e7 3ebd bdbd bebc cc2b 83bc
00000360: 2e22 273d 6731 693c a8a6 7c3d e714 b53b
00000370: 1191 56bd 4feb 833d 74f9 dc3d d648 7bbd
00000380: d887 463d 4634 63bd 5407 b13d c21e b23c
00000390: a85c 9d3d 578b bf3d 18b7 3b3d 54ad 003e
000003a0: 2a02 e83c 52d3 4abc 53ce e3bc faac 023d
000003b0: 8b9b 813d 0729 d43d 392a a33d 0733 8ebd
000003c0: 2f3b 38bd 5ecb 573c 86af c5bc 9d59 acbc
000003d0: c492 8f3d a598 acbc 5f78 67bd 4fe8 3d3d
000003e0: c1c4 f73d 2a27 d43d eae9 c5bc bea9 7bbd
000003f0: b469 023d 7b8d 8e3d 0562 5c3c d31a c23c

output_layer.bias f4 [9]
0.10712301 0.09632097 0.0114330705 0.021438004 0.04268497 0.021299446 -0.03804461 0.0017517674
0.07926838
00000000: 4f63 db3d ee43 c53d c651 3b3c c19e af3c
00000010: 6fd6 2e3d 2d7c ae3c aad4 1bbd 8f9b e53a
00000020: 7657 a23d
