results/train/hyperparam_models_time_400_steps/name_DQN/best_model.pt (torch, 160591 bytes, 8 tensors)

layer1.weight f4 [128, 40]
0	0xbe0c6126	-0.13708934
1	0x3ce5f89f	0.028072653
2	0x3c286572	0.010278093
3	0xbd251f17	-0.040312853
4	0x3dc96226	0.098331735
5	0x3dae1d4d	0.085016824
6	0x3d0a15d2	0.033712216
7	0xbdaa60f8	-0.083192766
8	0x3ea5cc1e	0.32382292
9	0xbc89d035	-0.016822914
10	0xbdca22b1	-0.09869898
11	0xbcfddeb4	-0.030989982
12	0x3dea6c16	0.11446397
13	0x3c84bebb	0.016204229
14	0xbd687ea2	-0.05676139
15	0xbd6b96c6	-0.057516836
16	0xbd3f011f	-0.04663193
17	0xbc01022d	-0.007874054
18	0x3dc99daf	0.09844529
19	0x3d2b4f8f	0.04182392
20	0xbcacbdee	-0.02108666
21	0x3c2f22c0	0.010689437
22	0x3d08477a	0.03327129
23	0xbc4b31d1	-0.012402014
24	0x3bf47bb9	0.007461038
25	0x3d9080ca	0.070558146
26	0xbc9109bd	-0.017704839
27	0xbd39960d	-0.045309115
28	0x3b1c221d	0.0023824044
29	0x3d898d1c	0.067163676
30	0x3cd08f9b	0.025459101
31	0x3d926637	0.07148402
32	0xbd5a58af	-0.05330723
33	0x3d81e0d4	0.06341711
34	0xbcd541e1	-0.02603239
35	0x3d936551	0.07197059
36	0xbd6733e5	-0.056445975
37	0x3d5e9cc5	0.054348726
38	0x3ccb8de7	0.024847938
39	0x3de3fd78	0.1113233
40	0xbe93fcae	-0.28903717
41	0x3d1559fd	0.036462773
42	0x3d5c9e0e	0.05386167
43	0xbd2d959c	-0.042379007
44	0x3d9e6672	0.07734384
45	0x3cc304f2	0.023806069
46	0xbcfff6fd	-0.031245703
47	0x3dd28417	0.102791004
48	0x3e4927e8	0.1964413
49	0x3dd2e44c	0.102974504
50	0xbc0c99ff	-0.008581637
51	0xbc83b77a	-0.0160787
52	0xbb274698	-0.0025524255
53	0xbd1432c9	-0.036181245
54	0xbd2e26d9	-0.042517517
55	0x3dd69bf2	0.10478963
56	0x3d785740	0.060630083
57	0xbccd480b	-0.025058767
58	0x3d0a9f5d	0.033843387
59	0x3dccd7f2	0.10002126
60	0xbb036c3e	-0.002005353
61	0x3dd05068	0.10171586
62	0x3dd50795	0.10401837
63	0xbdb44de5	-0.0880392
64	0x3ca43407	0.02004434
65	0x3dcc182b	0.09965547
66	0x3dc6e0ad	0.09710822
67	0xbdd40c5f	-0.10353922
68	0xbd44c87f	-0.04804277
69	0x3d0d94cd	0.034565736
70	0xbd40e6cb	-0.0470951
71	0xbb64fdc9	-0.0034941307
72	0x3d129dbb	0.035794955
73	0x3cc54396	0.024080079
74	0xbd9dcdd7	-0.077052765
75	0x3d4c5f01	0.04989529
76	0xbd9ffc92	-0.07811846
77	0xbd055294	-0.032549456
78	0xbd984b1b	-0.074362
79	0x3e0003a2	0.12501386
80	0x3e8779c6	0.26460093
81	0x3caac86a	0.020847518
82	0x3dec1144	0.11526731
83	0xbf216873	-0.6305
84	0x3c095999	0.008383178
85	0x3ce7eff4	0.02831266
86	0xbeb93de1	-0.36180022
87	0x3dd40519	0.10352535
88	0xbddfbb75	-0.109244265
89	0x3d8a7c3e	0.067619786
90	0xbda97ec9	-0.082761355
91	0xbd8f58d7	-0.06999367
92	0x3e0a8d44	0.13530451
93	0xbc9f4c71	-0.01944563
94	0x3c67e341	0.014153303
95	0x3da41fa7	0.0801385
96	0x3e0edf89	0.1395246
97	0xbcae6997	-0.021290584
98	0xbd3edeac	-0.046599075
99	0xbca782e2	-0.020448152
100	0x3d71c66a	0.059027113
101	0xbe021b07	-0.12705623
102	0x3dcf7405	0.10129551
103	0x3d01d06c	0.031692907
104	0x3e1451f6	0.1448439
105	0xbe0f42fd	-0.13990398
106	0x3d811607	0.063030295
107	0x3d8f8231	0.07007254
108	0x3da1d0a1	0.07901121
109	0xbcefd059	-0.029274153
110	0x3bc959f6	0.0061447574
111	0x3dae82e4	0.08521059
112	0xbb12a488	-0.00223759
113	0x3dbbe41c	0.09174368
114	0x3cc2fc8b	0.023802062
115	0x3d23e912	0.040017195
116	0x3ce0d7a0	0.027446568
117	0xbd05bf79	-0.032653306
118	0xbddf07f3	-0.10890188
119	0x3d413f65	0.0471796
120	0xbeb120ab	-0.34595236
121	0x3e01b551	0.12666823
122	0x3cdfbf10	0.027312785
123	0xbc70ea5c	-0.014704313
124	0x3d9fd16c	0.07803616
125	0x3ddc0efa	0.10745044
126	0xbd14c71f	-0.03632271
127	0x3d28dac8	0.04122427
128	0x3e672f3f	0.22576617
129	0x3e0db364	0.13837963
130	0x3c3de849	0.011591026
131	0x3df7d3b5	0.12100927
132	0xbd295b11	-0.041346613
133	0xbd605cad	-0.054775883
134	0x3dd34bce	0.10317193
135	0x3c54ba86	0.012983924
136	0xbd81cba1	-0.06337667
137	0x3dd90669	0.10596926
138	0x3b3d7812	0.0028910679
139	0x3de0492b	0.10951456
140	0x3dd8acad	0.1057981
141	0xbd77cb6d	-0.060496736
142	0x3df0f3c8	0.117652476
143	0x3defea3d	0.11714599
144	0x3ce1cd5e	0.027563747
145	0x3d64a28c	0.05581908
146	0xbd3c7c6e	-0.046017103
147	0xbdbbb997	-0.09166258
148	0x3dae65e7	0.0851553
149	0x3ca8d77a	0.02061056
150	0xbd4801ab	-0.048829716
151	0x3ccf0030	0.025268644
152	0xb9a5a629	-0.0003159505
153	0x3d9021bb	0.070376836
154	0xbd4a6dce	-0.049421124
155	0xba9668b6	-0.0011475298
156	0xbcbe03ab	-0.023195108
157	0x3d6a48e2	0.057198413
158	0x3a146d16	0.0005662007
159	0x3e0bf16a	0.13666311
160	0x3eb5fab3	0.3554283
161	0xbcaff828	-0.021480635
162	0xbd1eeb09	-0.038798366
163	0x3e661845	0.22470196
164	0xbc1d0ef4	-0.009586085
165	0xbd0c8fa0	-0.03431666
166	0x3e662af4	0.22477323
167	0xbd3a0ecf	-0.04542428
168	0xbdfc0d24	-0.12307194
169	0xbd3d5687	-0.046225097
170	0x3e00a7d9	0.12564029
171	0x3dae8079	0.08520598
172	0x3cca24f4	0.024675824
173	0xbdb61529	-0.08890755
174	0xbd9ad7c8	-0.07560688
175	0xbd630366	-0.055423163
176	0xbbba9ca6	-0.0056949435
177	0xbd140b75	-0.03614374
178	0x3db8cf96	0.09023969
179	0x3dc96583	0.09833815
180	0xbd39a54d	-0.04532366
181	0x3de32862	0.11091687
182	0xbdcd1146	-0.1001306
183	0x3d469857	0.048485126
184	0x3d7bd417	0.06148156
185	0x3d87e000	0.066345215
186	0xbdc64ecd	-0.09682999
187	0xbe0b4444	-0.1360026
188	0xbdd8a894	-0.10579029
189	0xbd697205	-0.056993503
190	0xbdc2e014	-0.09515396
191	0xbd4962e3	-0.04916657
192	0xbc5dfaba	-0.013548547
193	0x3d3725bb	0.044713717
194	0x3db1c3e7	0.086799435
195	0xbd0e9d55	-0.034818012
196	0xbceed6bf	-0.029155133
197	0xbba9bbf5	-0.005179877
198	0x3e1c3abd	0.15256782
199	0xbdc95276	-0.09830181
200	0xbdebab5d	-0.11507294
201	0x3c315de5	0.010825609
202	0xbd6fb1b1	-0.05851907
203	0x3ce0bcf8	0.027433857
204	0xbd0d3e59	-0.034483287
205	0xbd8ed2e1	-0.06973816
206	0xbd045e0a	-0.032316245
207	0x3d034b81	0.032054428
208	0xbc1b08be	-0.0094625335
209	0x3da3f262	0.08005215
210	0xbdabd9c3	-0.08391144
211	0x3c75f2ac	0.015011471
212	0xbd39e0d0	-0.045380414
213	0x3ca98bdb	0.020696571
214	0xbd8343c5	-0.064094104
215	0xbbe07630	-0.0068500265
216	0xbd22e73c	-0.039771304
217	0xbd5e6156	-0.054292046
218	0xbdbc75ac	-0.09202132
219	0xbde5ba97	-0.1121723
220	0x3d84f0a8	0.06491214
221	0xbc4ce21a	-0.012505079
222	0xbcc96e8e	-0.02458885
223	0xbc0cdd63	-0.008597705
224	0xbd2cd7e0	-0.042198062
225	0x3dceeab2	0.10103358
226	0x3c33e3cf	0.010979607
227	0x3d1962bf	0.037447687
228	0x3da0f5b3	0.078593634
229	0xbce8a6d7	-0.028399868
230	0xbc104e4c	-0.00880773
231	0xbddea21b	-0.10870763
232	0x3cee2d87	0.029074444
233	0x3dbf233e	0.09332894
234	0xbdbaef56	-0.09127681
235	0x3bfc1845	0.007693323
236	0xbbbe4eb9	-0.0058077243
237	0x3cbc50df	0.022987781
238	0x3d96e3eb	0.07367691
239	0xbc73dbcf	-0.014883949
240	0xbd4786a4	-0.048712388
241	0xbda98755	-0.08277766
242	0xbce71afb	-0.028211107
243	0x3de6df50	0.11273062
244	0x3bb698da	0.0055724205
245	0x3d8ce68b	0.0687991
246	0xbbc9c9be	-0.0061580827
247	0x3d3ca4ae	0.04605549
248	0x3d09b732	0.033621974
249	0xbd59720c	-0.05308728
250	0xbda1b646	-0.07896094
251	0xbd1d7d3f	-0.038449522
252	0x3ca0340b	0.019556066
253	0xbd470ae6	-0.048594378
254	0xbcdecb19	-0.027196454
255	0xbaf098fd	-0.0018356141

layer1.bias f4 [128]
0	0x3d88eb78	0.06685537
1	0x3e0c3069	0.13690342
2	0x3df968fd	0.12178228
3	0xbcd526bc	-0.026019447
4	0x3d21fa8c	0.03954558
5	0xbc37168c	-0.011174809
6	0x3d88fb71	0.06688584
7	0xbd255b83	-0.040370476
8	0x3d8bc2cb	0.06824263
9	0x3cefdd73	0.0292804
10	0xbd3e4637	-0.04645368
11	0xbcb24763	-0.021762555
12	0x3db38a29	0.08766586
13	0x3e0f0917	0.13968311
14	0xbc3d0344	-0.011536423
15	0x3c8e3552	0.01735941
16	0x3cea738d	0.028619552
17	0x3de05cdb	0.10955211
18	0xbd4af032	-0.049545474
19	0xbccea6de	-0.025226053
20	0xbcc6c08c	-0.024261735
21	0xbc8363c6	-0.016038787
22	0xbd0ffe1b	-0.035154443
23	0xbd95da60	-0.07317042
24	0x3d1eb224	0.038744107
25	0x3e0d8681	0.1382084
26	0x3db66612	0.08906187
27	0x3d9f4ebf	0.077786915
28	0x3dd045d0	0.10169566
29	0xbd25da68	-0.04049149
30	0x3dc83040	0.09774828
31	0x3d58e3a8	0.052951485
32	0xbd90bca5	-0.07067231
33	0x3c85f12c	0.016350351
34	0xbdacd1f3	-0.08438482
35	0x3d107ffb	0.0352783
36	0x3d1283a5	0.035770077
37	0xbdd72dcc	-0.10506782
38	0xbda75205	-0.08169941
39	0x3d2abefa	0.041686036
40	0x3c557399	0.013028049
41	0xbdccb4e7	-0.09995442
42	0xbd1361f7	-0.0359821
43	0x3c7f4730	0.015580937
44	0x3db51800	0.08842468
45	0x3e17497a	0.14774123
46	0x3df1e674	0.118115336
47	0x3c1d3005	0.009593968
48	0xbd9405a2	-0.07227637
49	0x3da19c44	0.078911334
50	0x3cb115d1	0.021616848
51	0xbd476a56	-0.048685394
52	0xbd9f229a	-0.077702716
53	0xbcf69457	-0.03010003
54	0xbbb5d386	-0.005548897
55	0x3d3f4754	0.046698883
56	0xbdc59c41	-0.09648944
57	0x3dd1e3fe	0.10248564
58	0x3dcf5fdf	0.10125708
59	0xbd938be3	-0.07204416
60	0x3d4f2449	0.050571714
61	0x3dc2747b	0.09494873
62	0xbd21f81a	-0.03954325
63	0xbd73cbcd	-0.05952053
64	0x3c1b651b	0.009484555
65	0xbd1f1d8e	-0.038846545
66	0x3dbb7e17	0.09154909
67	0xbcf8ffad	-0.030395353
68	0xbd569166	-0.052384757
69	0xbd79bfe0	-0.060974002
70	0xbdc5789c	-0.09642145
71	0x3bbd335f	0.005773946
72	0x3c26de29	0.010184803
73	0x3d669196	0.056291185
74	0xb8745378	-5.825187e-05
75	0xbcf9f667	-0.030513002
76	0x3c08ec7f	0.008357166
77	0x3b10b4f4	0.0022080513
78	0x3cb74543	0.022371894
79	0x3e0bdd14	0.13658553
80	0x3dced502	0.10099222
81	0xbda56626	-0.08076124
82	0x3d153845	0.036430616
83	0xbd5fc382	-0.05462981
84	0xbd9ad529	-0.07560188
85	0x3cc80010	0.024414092
86	0xbdafa335	-0.08576051
87	0x3e003fb3	0.125243
88	0x3dd02dc8	0.10164982
89	0xbd6cabec	-0.057781145
90	0x3dd730ee	0.105073795
91	0x3d6c495c	0.05768715
92	0x3daefd5e	0.0854442
93	0x3b5ffeec	0.0034179045
94	0xbcd6eb3a	-0.026235212
95	0xbdd9fab0	-0.10643518
96	0x3d97da6c	0.074147075
97	0xbd8ef937	-0.06981128
98	0x3e0b24ff	0.13588332
99	0x3c976a4a	0.0184833
100	0x3df84c09	0.121238776
101	0xbdbca728	-0.0921157
102	0x3d8fe676	0.07026379
103	0x3d03ef2a	0.032210506
104	0x3e000af0	0.12504172
105	0x3d23816d	0.039918352
106	0x3d1f06e7	0.038824942
107	0x3d726af4	0.05918403
108	0x3d74f9ff	0.059808727
109	0x3dcaea4d	0.099079706
110	0x3cf9fdb5	0.030516485
111	0x3c1093bb	0.008824284
112	0xbdbfdf98	-0.09368819
113	0x3dbefd1f	0.09325623
114	0xbd28b064	-0.041183844
115	0x3d8f922e	0.070103034
116	0x3d51071e	0.051032178
117	0xbdb95698	-0.090497196
118	0x3e0bdeff	0.13659285
119	0xbd899320	-0.06717515
120	0x3dc99855	0.09843508
121	0xbd0de85f	-0.034645434
122	0x3da6d388	0.08145815
123	0x3e08a1af	0.13342927
124	0x3dac3714	0.08408943
125	0xbdb55ad8	-0.08855218
126	0xbd9c88ac	-0.076432556
127	0x3d9bcb5b	0.07607146

layer2.weight f4 [128, 128]
0	0xbbe67a27	-0.0070336047
1	0x3d18ca10	0.037302077
2	0x3db77826	0.08958463
3	0xbd6424ed	-0.055699278
4	0x3ea911bf	0.33021352
5	0xbd1f6b75	-0.03892084
6	0xbc426bbf	-0.011866509
7	0x3d5d5231	0.054033462
8	0x3ccd366c	0.025050364
9	0xbc6a79b6	-0.014311245
10	0xbcc4c79b	-0.02402096
11	0xbcf797cc	-0.03022375
12	0x3dac19a9	0.08403332
13	0x3d306812	0.043068
14	0xbdfde0c3	-0.123963855
15	0x3f22912b	0.6350276
16	0xbc19ca6a	-0.009386638
17	0x3f1f33ec	0.621886
18	0x3c9d35b0	0.01919064
19	0x3f208a25	0.6271079
20	0x3dec3e52	0.11535324
21	0x3cbb1262	0.022835914
22	0xbd686ec1	-0.05674625
23	0x3c6b08cd	0.01434536
24	0x3f0518fc	0.5199125
25	0x3aa06fcd	0.001224035
26	0xbe06c747	-0.13161956
27	0x3f125ca7	0.57172626
28	0x3c1a0846	0.009401387
29	0x3d95f74e	0.0732256
30	0x3d70043d	0.058597792
31	0xbbc5b692	-0.006033727
32	0x3d54c8d2	0.05194933
33	0x3f167e67	0.58786625
34	0xbc42cdea	-0.011889914
35	0x3ecdf6a8	0.40227246
36	0xbe71bc98	-0.23607099
37	0xbcda973a	-0.026683439
38	0x3d535152	0.051591225
39	0x3d17754f	0.03697711
40	0xbd09b940	-0.033623934
41	0x3e9438c1	0.2894955
42	0xbbdb9f26	-0.0067023216
43	0xbd051b7d	-0.032496918
44	0x3d4f1efc	0.05056666
45	0x3d5b77d3	0.05358107
46	0xbd586bd7	-0.05283722
47	0x3e89599b	0.26826176
48	0x3c8d6c1f	0.01726347
49	0xbb2bd240	-0.0026217848
50	0x3ce84e0d	0.02835753
51	0xbf02bb87	-0.51067394
52	0xbc94b8c3	-0.018154508
53	0xbdb32c51	-0.08748687
54	0xbbd74eec	-0.0065706875
55	0xbe5fc1fa	-0.2185134
56	0xbe006fd8	-0.12542665
57	0x3e9025ce	0.28153843
58	0x3f06b9af	0.5262708
59	0xbd4959a5	-0.049157757
60	0x3c7a78c7	0.015287585
61	0x3e37139c	0.17878574
62	0x3d3b9faf	0.045806583
63	0x3d6875c5	0.05675294
64	0xbd424f4d	-0.04743891
65	0x3d762df2	0.06010241
66	0x3e959d97	0.29221794
67	0x3cc6c67a	0.024264563
68	0x3dc6d3a4	0.09708336
69	0x3d12a03d	0.035797346
70	0xbb6d6405	-0.0036222946
71	0x3c94d0e7	0.018166019
72	0xbc762622	-0.01502374
73	0xbe0391eb	-0.12848632
74	0xbb9b6111	-0.004741796
75	0x3da5d6bb	0.08097597
76	0xbd3215e4	-0.043477908
77	0x3f1da732	0.61583245
78	0xbd36f478	-0.044666737
79	0xbd27e8db	-0.040993553
80	0xbd083b7b	-0.03325985
81	0xbc8d0447	-0.017213954
82	0x3f1a119a	0.6018311
83	0x3e3e4fc7	0.1858512
84	0x3cd3af38	0.025840387
85	0xbd4bf4f9	-0.04979417
86	0xbcc6b392	-0.024255548
87	0x3d41a1df	0.047273513
88	0x3e1bc05f	0.15210102
89	0x3cfc5565	0.030802438
90	0xbdf45917	-0.11931055
91	0x3d7bfd21	0.0615207
92	0x3d9c70ed	0.076387264
93	0xbd0b8b83	-0.034068596
94	0x3d762108	0.060090095
95	0xbb72a42c	-0.0037024124
96	0x3d2a048b	0.04150824
97	0x3cf1ab3c	0.029500596
98	0x3e2bd674	0.16781026
99	0x3df6693c	0.120317906
100	0xbd847715	-0.064680256
101	0xbb9b26de	-0.004734858
102	0x3cffe5b8	0.031237468
103	0x3d3b3b77	0.045711007
104	0xbdd83550	-0.105570436
105	0x3cc554d8	0.024088308
106	0x3e252651	0.16127898
107	0x3e1bdf83	0.15221982
108	0xbc4698f5	-0.012121429
109	0x3c38ed5e	0.0112870615
110	0xba8257ac	-0.0009944341
111	0x3b20d092	0.002453838
112	0x3d0d87a5	0.03455319
113	0xbbcda722	-0.0062760273
114	0xbb6da4ea	-0.0036261627
115	0x3ccdb622	0.025111262
116	0xbd86d47f	-0.06583499
117	0xbd812732	-0.06306304
118	0x3cf5a77d	0.029987091
119	0xbd3f900b	-0.04676823
120	0x3b368111	0.0027847926
121	0x3e95e151	0.29273465
122	0xbd8be832	-0.06831397
123	0xbc5cd5d9	-0.01347872
124	0xbc4df8d1	-0.0125715295
125	0xbd01cafc	-0.03168772
126	0x3c86d3e7	0.016458465
127	0x3ba5e165	0.0050622695
128	0xbd4b4dce	-0.049634747
129	0xbd6b946a	-0.057514586
130	0xbd05053f	-0.032475706
131	0xbb798492	-0.0038073403
132	0x3d1c86a8	0.038214356
133	0xbd4997da	-0.049217083
134	0xbd242ee0	-0.040083766
135	0x3d36ed35	0.044659812
136	0xbcf992cf	-0.030465512
137	0x3d7f1138	0.06227228
138	0x3b3b2d49	0.0028560928
139	0xbd3d942f	-0.046283897
140	0x3d39faaf	0.045405086
141	0xbd11fb67	-0.035640147
142	0x3d19851e	0.037480466
143	0x3be758a5	0.007060128
144	0xbd018d36	-0.03162881
145	0x3b1ae4a0	0.0023634806
146	0xbd2e0b2f	-0.042491134
147	0xbc130805	-0.00897408
148	0x3c276af8	0.010218374
149	0xbcce1367	-0.025155736
150	0xbc0ece26	-0.008716142
151	0xbd5a63a9	-0.0533177
152	0x3cbe66b9	0.023242341
153	0x3d63d2ff	0.055621143
154	0xbd156b59	-0.036479328
155	0xbd7b7140	-0.0613873
156	0xbccec55a	-0.025240589
157	0x3c50cd64	0.012744281
158	0xbd28314f	-0.04106265
159	0xbc91e7ce	-0.017810728
160	0xbccb9afc	-0.024854176
161	0xbc8f5abc	-0.01749932
162	0xbd0805a6	-0.03320851
163	0x3b2c7f78	0.0026321094
164	0xbd0965d8	-0.03354439
165	0xbd11056b	-0.035405558
166	0xbc8d39b3	-0.017239427
167	0x3d282508	0.04105094
168	0x3bc8b438	0.0061249994
169	0xbcd20853	-0.025638735
170	0x3cc8bf89	0.024505394
171	0x3d2dc0f5	0.042420346
172	0xbcd53f28	-0.026031092
173	0x3d7ed84b	0.06221799
174	0xbd52ed10	-0.05149561
175	0xbc319f08	-0.010841139
176	0x3d355dd2	0.044278927
177	0x3d4b6ab8	0.04966232
178	0xbd2994b4	-0.04140158
179	0x3d696237	0.05697843
180	0x3cd069f4	0.025441147
181	0x3b868504	0.004105212
182	0x3d34447d	0.044010628
183	0x3cd04d32	0.025427435
184	0xbc102b37	-0.008799366
185	0x3c25b87f	0.010114788
186	0x3cd5b9d8	0.026089594
187	0xbcc21035	-0.023689369
188	0xbc59fea2	-0.013305338
189	0xbd64bbac	-0.05584304
190	0xbd7dc9e0	-0.0619601
191	0xbc0e9078	-0.008701436
192	0x3cdd1216	0.026986163
193	0x3d2cbc73	0.042171907
194	0x3cc149f6	0.023594838
195	0xbd29dd25	-0.041470665
196	0x3d50233e	0.05081486
197	0x3ba61593	0.00506849
198	0xbbd6fa96	-0.006560634
199	0x3d4b130c	0.04957871
200	0x3cfcd3c4	0.030862696
201	0xbc68dff8	-0.014213555
202	0xbc2d301f	-0.010570555
203	0x3d45465e	0.04816281
204	0x3d152143	0.036408674
205	0xbcf59c95	-0.02998189
206	0xbcac6fd7	-0.021049423
207	0xbd43d8e2	-0.047814257
208	0x3d491920	0.049096227
209	0x3bd84176	0.0065996004
210	0xbc6709ba	-0.01410144
211	0x3d09a44a	0.033603944
212	0xbd827cf9	-0.06371493
213	0xbc4559ea	-0.012045363
214	0xbd689712	-0.056784697
215	0x3d82bc36	0.06383555
216	0xbd58e120	-0.05294907
217	0xbd79b7a4	-0.06096615
218	0xbd72e46c	-0.05929987
219	0x3d09cbfb	0.033641797
220	0xbd75b49d	-0.0599867
221	0xbd664b0e	-0.05622392
222	0xbd80dce7	-0.06292134
223	0x3d51a56a	0.05118314
224	0xbca4ec25	-0.020132134
225	0x3d7a4f8d	0.06111102
226	0x3d43ca54	0.047800377
227	0xbcf14648	-0.029452458
228	0xbd48936a	-0.04896871
229	0x3d61601c	0.055023298
230	0xbc103b1e	-0.008803157
231	0x3d1be2c9	0.038058076
232	0xbd76a64f	-0.060217198
233	0xbc87fbc7	-0.016599549
234	0x3ca88750	0.020572335
235	0x3d69f885	0.057121772
236	0xbb5c9e80	-0.003366381
237	0xbca9bb7c	-0.020719282
238	0xbbccb4d2	-0.0062471414
239	0x3d5129db	0.051065307
240	0x3d00c505	0.031437892
241	0xbcae87dc	-0.021305017
242	0xbd80282b	-0.062576614
243	0xbc6760c6	-0.014122194
244	0xbc078738	-0.008271985
245	0xbd710287	-0.0588403
246	0x3add4a10	0.0016883034
247	0x3cb9194a	0.022595067
248	0x3ba85a7a	0.005137739
249	0xbd43b6cc	-0.04778175
250	0x3c29b63f	0.010358392
251	0x3cf65841	0.03007138
252	0xbd14f575	-0.0363669
253	0xbb6c8788	-0.0036091525
254	0x3c285c8c	0.010275971
255	0x3b12a61c	0.002237684

layer2.bias f4 [128]
0	0x3d3e773d	0.046500433
1	0xbd44c03f	-0.048034903
2	0x3cf4285f	0.029804407
3	0xbb1a7832	-0.0023570177
4	0x3d1b4515	0.03790768
5	0xbd538274	-0.05163808
6	0xbd0619ad	-0.03273933
7	0xbbcfc743	-0.0063408925
8	0x3dc18314	0.09448829
9	0x3ce4c96e	0.02792808
10	0xbcf5e5d8	-0.030016825
11	0x3d13a52b	0.03604619
12	0xbc35b5db	-0.011090721
13	0x3d9adcf2	0.07561673
14	0x3da6d158	0.08145398
15	0xbcc47b0e	-0.023984458
16	0xbd5f2e23	-0.05448736
17	0x3cd9d0e0	0.026588857
18	0x3d7fef89	0.062484298
19	0x3d374468	0.04474297
20	0x3d9938f1	0.07481564
21	0x3db15601	0.08658982
22	0xbc5afa2e	-0.013365312
23	0xb9f8c836	-0.00047451415
24	0x3d0a4cff	0.033764835
25	0x3db9c6c9	0.090711184
26	0x3cb12971	0.021626206
27	0xbc8bbfb3	-0.017059183
28	0x3cd6bd43	0.026213294
29	0x3da5a94b	0.08088931
30	0xbd06c0d2	-0.03289873
31	0xbc5b17ee	-0.0133724045
32	0x3da47d88	0.08031756
33	0x3db2a038	0.087219656
34	0xbab5fbf7	-0.0013884295
35	0xbd83032b	-0.063970886
36	0x3d7383e2	0.059451945
37	0x3ce6826f	0.028138367
38	0x3dda905e	0.10672067
39	0x3d8d2b9d	0.06893084
40	0x3cdea56e	0.027178492
41	0x3d09dc53	0.033657383
42	0xbc067387	-0.008206255
43	0xbd02aab2	-0.03190107
44	0xbd18a4de	-0.037266605
45	0x3cd0f0b4	0.025505401
46	0x3d89fb84	0.06737426
47	0x3dceb277	0.10092633
48	0x3d4b3e31	0.049619857
49	0xbd5f8c41	-0.054577116
50	0xbd30eb9c	-0.043193445
51	0x3d8ebe97	0.06969946
52	0x3c79ddf5	0.015250673
53	0x3da041a6	0.078250214
54	0x3d3427c3	0.043983232
55	0x3c623db6	0.013808658
56	0x3ca9af04	0.020713337
57	0xbc4b73c3	-0.012417736
58	0xbd7a6652	-0.061132737
59	0x3cb47307	0.022027506
60	0xbd6f370f	-0.058402117
61	0xbc8c59f4	-0.017132737
62	0x3dc9b593	0.09849086
63	0xbd2a2640	-0.041540384
64	0x3d713d64	0.058896437
65	0xbd2fd0de	-0.0429238
66	0x3d20b09d	0.03923093
67	0x3da97a0e	0.08275233
68	0xbd7a99dd	-0.06118189
69	0x3d66830a	0.056277312
70	0xbbecbf4e	-0.0072249537
71	0x3c7b06b3	0.015321421
72	0x3c0eab11	0.008707778
73	0x3db8b1c1	0.09018279
74	0xbd503286	-0.050829433
75	0x3cba4a06	0.022740375
76	0x3d600ec8	0.054701596
77	0xbc05ef00	-0.008174658
78	0xbd6b393d	-0.057427634
79	0x3bc22bda	0.0059256377
80	0x3d9195a8	0.07108623
81	0xbce3b238	-0.027794942
82	0x3cca68e8	0.024708226
83	0xbc65a434	-0.0140162
84	0x3c43df69	0.011955121
85	0x3d1124b0	0.03543538
86	0x3c18b2fb	0.009320016
87	0x3d691285	0.056902427
88	0xbc8f5f59	-0.01750152
89	0x3ccdc7bc	0.025119655
90	0xbca9e410	-0.020738631
91	0xbc7e3bc6	-0.015517181
92	0x3d7220a6	0.059113167
93	0xbc963e83	-0.018340355
94	0x3d0863ab	0.033298176
95	0x3d0c3cf2	0.03423781
96	0xbd25cf8f	-0.040481146
97	0x3dd95ec5	0.10613779
98	0x3c23018e	0.009949101
99	0x3cf82b54	0.030294098
100	0xbceafced	-0.028685058
101	0xbc0958d0	-0.008382991
102	0x3cbd4778	0.023105368
103	0x3dce5414	0.100746304
104	0x3db60e1e	0.088894114
105	0x3dc1a300	0.09454918
106	0x3cb603e5	0.022218654
107	0x3d57a5dd	0.052648414
108	0x3cf8132e	0.030282583
109	0x3d3c6e2b	0.0460035
110	0x3d7f9157	0.062394466
111	0x3d94f6ee	0.072736606
112	0x3d503a6a	0.050836958
113	0xbd6f8c0d	-0.058483172
114	0x3d5b5ae4	0.053553477
115	0x3cd6a3da	0.026201177
116	0x3c939234	0.018014051
117	0xbd0fed25	-0.035138268
118	0xbd150c65	-0.036388773
119	0xbd145b6a	-0.03621999
120	0xbcaf8768	-0.021426871
121	0x3db67761	0.089094885
122	0x3d85508a	0.06509502
123	0x3d09d851	0.03365356
124	0xbd6bd101	-0.05757237
125	0x3b3da9ed	0.0028940395
126	0x3c059a9c	0.0081545375
127	0x3dc296a8	0.09501392

layer3.weight f4 [128, 128]
0	0x3d3d4dd1	0.04621679
1	0x3c7d307a	0.015453452
2	0xbd6e1f5d	-0.05813538
3	0x3c9f4668	0.019442752
4	0xbd7730a7	-0.060349133
5	0xbc97d239	-0.01853286
6	0x3c995b73	0.018720364
7	0xbd3204b6	-0.043461524
8	0x3c406d4a	0.011744807
9	0xbc4f2c8c	-0.012644898
10	0xbd25483f	-0.040352102
11	0xbd22ac8c	-0.039715335
12	0x3c8090cc	0.015694045
13	0x3c4bbdae	0.01243536
14	0x3d3733a4	0.044726983
15	0x3d034dea	0.032056727
16	0xbcead551	-0.02866617
17	0xbd55e38e	-0.052218966
18	0xbd670825	-0.05640425
19	0xbc9cef7d	-0.019157166
20	0xbd47332f	-0.048632797
21	0x3cc7cdf2	0.024390195
22	0x3d6cd821	0.057823304
23	0xbc2caf75	-0.010539879
24	0xbc8f7bd4	-0.0175151
25	0xbd68e596	-0.056859575
26	0xbd15eacc	-0.036600873
27	0x3d2207b6	0.039558135
28	0xbd7041cd	-0.058656503
29	0x3d73cdad	0.05952232
30	0x3cf7115c	0.030159645
31	0xbd280c8e	-0.041027598
32	0xbd61706c	-0.055038854
33	0xbd31734c	-0.043322846
34	0xbd544fd9	-0.05183396
35	0x3cbd5300	0.023110867
36	0xbd685e13	-0.05673034
37	0x3cf7a5a3	0.030230349
38	0x3d67b64e	0.056570344
39	0x3c1f2506	0.009713417
40	0xbcf8751d	-0.030329281
41	0xbcc8288b	-0.024433395
42	0xbd22a234	-0.03970547
43	0x3b9c519c	0.004770471
44	0x3d4056df	0.046957847
45	0xbd4d961f	-0.050191995
46	0xbd1ec617	-0.038763132
47	0x3c685e62	0.014182659
48	0xbcf4177a	-0.02979635
49	0x3d63ea98	0.055643648
50	0x3b9108bb	0.0044260896
51	0xbd7d5316	-0.061846815
52	0x3d529509	0.051411662
53	0x3cc9ffe4	0.024658151
54	0xbcb2b5ab	-0.021815142
55	0xbcdfdbe4	-0.027326532
56	0x3d79686d	0.060890604
57	0x3d6bd7af	0.05757874
58	0x3cf31125	0.029671261
59	0xbd82363c	-0.06358001
60	0x3bdda317	0.0067638266
61	0x3d6404c9	0.055668626
62	0xbd5525c8	-0.052037984
63	0xbd1b5311	-0.037921015
64	0x3c6a26a1	0.014291436
65	0x3d535afa	0.051600434
66	0xbbb24ea5	-0.005441504
67	0xbcd67110	-0.02617696
68	0xbd1eee93	-0.03880174
69	0xbcb94b55	-0.022618929
70	0xbbc4d7e9	-0.006007184
71	0xbd28d5a5	-0.041219372
72	0x3c3c7596	0.011502644
73	0xbd30563c	-0.04305099
74	0xbd59a66f	-0.05313724
75	0xbc83876a	-0.016055781
76	0xbd44a993	-0.04801328
77	0xbd8010c1	-0.062531956
78	0xbcc0afcb	-0.023521325
79	0x3cc0bfdf	0.023528991
80	0xbc2d13b2	-0.010563778
81	0x3c0f8f3c	0.008762177
82	0x3c9acb47	0.018895758
83	0xbce6d865	-0.028179357
84	0x3b5b95f3	0.0033506125
85	0xbc6e0cb1	-0.014529393
86	0x3cc4cf2b	0.024024567
87	0x3d75d6ff	0.06001949
88	0xbbf34981	-0.007424534
89	0xbd006c1f	-0.031353112
90	0xbd1b1954	-0.03786595
91	0xbcea605d	-0.028610403
92	0xbd186678	-0.037207097
93	0xbd1918e6	-0.03737726
94	0xbc2adc58	-0.010428511
95	0xbd1b4b32	-0.03791351
96	0x3d322b79	0.04349849
97	0xbca2a57f	-0.019854305
98	0xbcae1e20	-0.0212546
99	0xbd1a1e9e	-0.037626855
100	0xbcdea561	-0.027178468
101	0x3c583885	0.013197069
102	0x3d68e5cf	0.056859788
103	0x3c6e6038	0.0145493075
104	0xbd226bda	-0.039653637
105	0x3c9a4287	0.01883055
106	0xbcd63675	-0.026149014
107	0xbcab5fce	-0.020919707
108	0xbd4d0d74	-0.050061658
109	0xbd3f6652	-0.04672844
110	0xbd4f3906	-0.05059149
111	0xbb95a1da	-0.0045664134
112	0x3cb6d379	0.022317635
113	0x3d105f50	0.035247147
114	0xbd2e3a29	-0.042535935
115	0xbd1b1174	-0.03785844
116	0x3d1b5b3f	0.037928816
117	0x3d5de624	0.054174557
118	0x3cd05224	0.025429793
119	0x3d515b1a	0.05111227
120	0x3d18ebcd	0.037334252
121	0x3d3054b7	0.04304954
122	0xbd5cfbd9	-0.05395112
123	0xbd29d178	-0.04145953
124	0x3d455642	0.048177965
125	0xbd5b23f1	-0.053501073
126	0xbc1ee372	-0.009697782
127	0xbb9ac4fb	-0.004723189
128	0x3ce658c6	0.028118502
129	0x3ae1dee2	0.0017232562
130	0x3ce51532	0.027964208
131	0x3d087815	0.033317644
132	0x3cd1c278	0.025605425
133	0x3ba95085	0.0051670694
134	0x3c5e7e62	0.013579937
135	0x3bbfba20	0.0058510453
136	0xbd2ce2ad	-0.042208362
137	0xbd514084	-0.051086918
138	0x3c4a706c	0.012355905
139	0xbd82c9ce	-0.063861474
140	0x3d3ca2a3	0.04605354
141	0x3c20e24f	0.009819581
142	0xbcde34cc	-0.027124785
143	0xbd5fee3c	-0.054670557
144	0xbd4fce1a	-0.050733663
145	0x3d4ef4b9	0.050526354
146	0xbcf5ff18	-0.030028865
147	0x3c5df4ff	0.013547181
148	0xbcbfd5f9	-0.02341746
149	0x3d01e762	0.031714804
150	0x3d5f70b3	0.054550838
151	0xbbacdcaf	-0.005275331
152	0x3c0663e7	0.0082025295
153	0x3d5a74e1	0.05333412
154	0xbd270561	-0.040776614
155	0x3d696f9c	0.056991205
156	0xbce819c7	-0.028332604
157	0x3d216625	0.039404053
158	0xbd10089c	-0.03516446
159	0x3cfd03aa	0.030885536
160	0xbb91a058	-0.0044441633
161	0x3d2a4097	0.041565504
162	0x3cdfe2a2	0.027329747
163	0x3d817008	0.063201964
164	0xbc939a19	-0.018017815
165	0x3d29538e	0.04133945
166	0xbd1b7bbd	-0.037959803
167	0x3c786d77	0.015162817
168	0x3d2d0f2b	0.042250793
169	0xbd432ed2	-0.047652073
170	0xbb403bc7	-0.0029332505
171	0x3cf15875	0.029461125
172	0x3d4d87f0	0.05017847
173	0x3d5778d2	0.052605458
174	0xbd2829fc	-0.041055664
175	0xbc4a3aee	-0.0123431515
176	0x3a80458a	0.0009786349
177	0x3bdcf6ef	0.006743304
178	0x3d7a0e20	0.061048627
179	0x3cc6730b	0.024224779
180	0x3cceb8a6	0.025234532
181	0xbb680c3c	-0.0035407683
182	0xbd705485	-0.058674354
183	0x3c48c275	0.012253393
184	0xbccfa774	-0.025348403
185	0xbc171087	-0.009220249
186	0xbcdfd69b	-0.027324012
187	0x3c8f3d35	0.01748524
188	0xbd48a742	-0.048987634
189	0x3d2a49ca	0.041574277
190	0x3d565966	0.05233135
191	0x3d2cc7fe	0.042182915
192	0xbd7d682f	-0.061866935
193	0xbd58ba67	-0.052912142
194	0xbd3a45ec	-0.04547684
195	0x3cfcadaf	0.030844538
196	0x3d53f972	0.05175156
197	0x3d4ea8d6	0.050453983
198	0x3d80310b	0.06259354
199	0x3ba5a020	0.005054489
200	0x3d452ac3	0.048136484
201	0x3ca47a98	0.020077989
202	0xbcf1e8d1	-0.02952996
203	0xbc3d424e	-0.011551453
204	0xbc828620	-0.015933096
205	0x3c762caf	0.015025302
206	0xbc50e85e	-0.012750713
207	0xbc797ceb	-0.015227537
208	0xbba575ee	-0.0050494587
209	0x3d62dcde	0.055386417
210	0x3d595120	0.053055882
211	0x3cc208c5	0.023685822
212	0x3bbe8755	0.0058144727
213	0x3d0bee96	0.03416308
214	0xbd7804b7	-0.06055137
215	0xbd7cb938	-0.061700076
216	0xbcb19186	-0.021675836
217	0xbb367a53	-0.0027843907
218	0x3d3d81dc	0.04626642
219	0xbd26d3ad	-0.040729214
220	0x3d4698f1	0.0484857
221	0xbc949c86	-0.018141042
222	0x3d821669	0.06351931
223	0xbcb5a911	-0.022175344
224	0xbce47c2e	-0.027891245
225	0xbbec73fd	-0.0072159753
226	0xbd5a0210	-0.053224623
227	0x3c436b47	0.011927432
228	0x3c3184f1	0.010834918
229	0x3d5e9ec5	0.054350633
230	0x3c89ab52	0.016805325
231	0x3d3b1598	0.04567489
232	0xbd60ead7	-0.05491146
233	0x3d67b1dc	0.056566104
234	0xbb30e844	-0.002699391
235	0xbc48dd02	-0.012259724
236	0x3c1a185a	0.00940522
237	0xbd711ee5	-0.058867354
238	0x3d4ec3a4	0.050479546
239	0xbc6c811c	-0.014435079
240	0x3ca584b1	0.020204874
241	0xbca45669	-0.020060735
242	0xbc8420f3	-0.016128993
243	0xbb6bbf1a	-0.003597206
244	0xbd096684	-0.033545032
245	0xbd4ac158	-0.049500793
246	0x3c3f21d8	0.011665784
247	0x3d309acd	0.04311638
248	0x3d523d98	0.05132827
249	0xbd74df18	-0.05978307
250	0x3d65d28e	0.056109004
251	0xbd7febd8	-0.062480778
252	0x3d2af500	0.041737556
253	0xbce29f4c	-0.02766385
254	0x3cb12505	0.021624098
255	0xbd34726b	-0.04405443

layer3.bias f4 [128]
0	0x3c8efd18	0.017454669
1	0xbc95b6b0	-0.018275589
2	0x3e05bdc8	0.13060677
3	0xbcd0cd59	-0.025488542
4	0xbd3bfc9b	-0.0458952
5	0x3daa3e23	0.08312633
6	0x3d718b96	0.05897101
7	0xbc94685a	-0.018116165
8	0x3d1093ba	0.035297133
9	0x3d67385b	0.05645023
10	0x3d02a1bf	0.031892534
11	0x3d821edd	0.06353543
12	0x3dcd42cc	0.10022506
13	0xbd502f94	-0.050826624
14	0x3d927a0a	0.07152183
15	0x3db314b4	0.08744183
16	0x3bb351df	0.0054724063
17	0x3d29e19b	0.04147492
18	0x3c9d6b71	0.019216271
19	0xbc61a396	-0.013771912
20	0x3d9e93f6	0.07743065
21	0xbd535efb	-0.051604252
22	0xbd4ac90c	-0.04950814
23	0x3ce295e9	0.027659373
24	0x3a895268	0.001047683
25	0x3c338085	0.010955934
26	0x3d96774b	0.07346972
27	0x3c71eb71	0.014765606
28	0xb9e7ef39	-0.00044237988
29	0xbd2ca9e8	-0.042154223
30	0xbd024a44	-0.031809106
31	0xbc8b0371	-0.016969414
32	0x3d29756e	0.041371755
33	0xbd0daa5e	-0.034586303
34	0x3d81230d	0.063055135
35	0x3d3c62cf	0.04599267
36	0x3cce6861	0.025196256
37	0x3ca966a0	0.020678818
38	0xbd10c0a9	-0.035339985
39	0xbcdc5881	-0.02689767
40	0x3ccbe666	0.024890136
41	0x3d83cc6c	0.06435475
42	0x3d9e8265	0.077397145
43	0xbc856b93	-0.016286647
44	0x3d289ab7	0.041163173
45	0xbce78b9f	-0.028264819
46	0x3d9582ae	0.07300316
47	0xbb28654c	-0.0025695143
48	0xbc409218	-0.011753581
49	0x3d9f7c0c	0.07787332
50	0x3cf1cdea	0.029517133
51	0xbcef9d14	-0.029249705
52	0x3a68f5a8	0.0008886703
53	0x3bbc74c4	0.0057512242
54	0x3df1b036	0.11801188
55	0x3d84c0da	0.06482096
56	0x3cec94fd	0.028879637
57	0x3c9ebcf9	0.019377219
58	0x3c1ba747	0.009500331
59	0xbd7dd25d	-0.061968196
60	0x3c8ae549	0.016955035
61	0xbd6f12d7	-0.058367576
62	0x3c253a6d	0.010084731
63	0xba1042ce	-0.0005503119
64	0xbd53b0ec	-0.051682398
65	0x3d937886	0.072007224
66	0x3d159ea4	0.036528245
67	0x3cc34fb9	0.023841726
68	0x3dc76264	0.097355634
69	0x3c0aeb56	0.00847896
70	0x3d7998b3	0.06093664
71	0x3c19b6f0	0.009381995
72	0xbd6cacea	-0.05778209
73	0x3b0da469	0.0021612889
74	0xbca9b23a	-0.020714868
75	0xbd81964f	-0.06327497
76	0xbc769a1a	-0.015051389
77	0x3dbf16e3	0.09330537
78	0xbc826831	-0.015918823
79	0x3d341ea0	0.04397452
80	0xbce78d72	-0.028265689
81	0xbb53b366	-0.0032302975
82	0x3d752de4	0.059858218
83	0xbd5ca318	-0.053866476
84	0x3cffb260	0.031212986
85	0xbbde6901	-0.00678742
86	0x3d931f94	0.071837574
87	0xbc5f36f8	-0.013623945
88	0x3db117c4	0.08647111
89	0x3dc67622	0.09690501
90	0x3d73d5ac	0.059529945
91	0x3d0664b7	0.032810893
92	0x3b4e7fa6	0.003150919
93	0x3c9a70e3	0.018852657
94	0x3e2152e7	0.15754281
95	0x3ce235d6	0.027613562
96	0x3c3c7d9d	0.011504558
97	0xbd798a5a	-0.060922958
98	0xbca25e21	-0.019820275
99	0x3d71ed48	0.05906418
100	0xbd06e65b	-0.032934528
101	0xbcd39ed0	-0.025832564
102	0xbd33e87e	-0.043922894
103	0x3d1a8557	0.03772482
104	0xbcd06127	-0.02543695
105	0x3d462038	0.04837057
106	0x3d80a240	0.06280947
107	0x3ceefa17	0.029171987
108	0x391a154d	0.0001469452
109	0x3d7202ff	0.05908489
110	0x3c4bdfe8	0.01244352
111	0x3d81e04b	0.063416086
112	0xbd06dfec	-0.032928392
113	0xbb06a524	-0.0020545209
114	0xbd6a50d8	-0.057206005
115	0x3cd2e7de	0.025745329
116	0x3c042335	0.008065035
117	0x3d7b39fb	0.06133459
118	0x3d3d8e8f	0.046278533
119	0x3d2ef64a	0.04271535
120	0x3d502be6	0.050823115
121	0xbd187daf	-0.037229236
122	0x3c7eb950	0.015547112
123	0x3d61d7d0	0.055137455
124	0x37765a32	1.4683743e-05
125	0x3d577019	0.05259714
126	0x3c8c2d7b	0.01711153
127	0x3d954238	0.07288021

output_layer.weight f4 [9, 128]
0	0xbd049fa0	-0.032378793
1	0x39d1c02e	0.0004000677
2	0xbc9af1f5	-0.018914202
3	0xbe2bb077	-0.16766535
4	0x3d4d2bd2	0.05009062
5	0x3dff03d1	0.124519
6	0xbe3e578d	-0.18588085
7	0xbd189db7	-0.037259784
8	0xba97ecce	-0.0011590959
9	0x3d15141f	0.036396142
10	0xbcb2f0b9	-0.021843301
11	0x3e2fd5c0	0.17171383
12	0x3e296978	0.1654414
13	0xbc70cb1d	-0.0146968635
14	0x3e1dd029	0.15411438
15	0x3e2bdeb6	0.16784176
16	0x3e1085eb	0.14113586
17	0x3debb1a5	0.115084924
18	0x3ad74d40	0.001642622
19	0x3e056a6f	0.13028882
20	0x3d95d056	0.073151276
21	0x3ba47e69	0.005019952
22	0x3bdc3e2c	0.0067212787
23	0x3d9110d5	0.070832886
24	0x3c81c0f2	0.015839074
25	0x3d691ecc	0.056914136
26	0x3d1f44b4	0.03888388
27	0xbcb86c1c	-0.022512488
28	0xbd5d0f11	-0.053969447
29	0x3d7fcbc5	0.06245019
30	0xbd44842c	-0.04797761
31	0x3d40bc05	0.04705431
32	0x3e25cdb8	0.16191757
33	0xbcc0c42e	-0.023531046
34	0x3dd0fdde	0.10204671
35	0x3e264a00	0.16239166
36	0xbe22ba51	-0.15891387
37	0x3e465963	0.19370036
38	0x3d1e22df	0.038607474
39	0x3e333548	0.17500794
40	0xbcc35aa6	-0.023846935
41	0x3db92bb9	0.090415426
42	0x3d76f00e	0.060287528
43	0xbd461c18	-0.048366636
44	0x3d30ebc1	0.043193582
45	0x3cd8d38a	0.026468057
46	0x3dd08a8b	0.10182675
47	0x3de96d57	0.11397808
48	0xbe09ffdd	-0.1347651
49	0x3e14c481	0.14528085
50	0xbdca1c9b	-0.09868737
51	0x3c4f814a	0.012665102
52	0x3e118c6e	0.14213726
53	0x3d9efe1f	0.077633135
54	0x3e0f1ef0	0.13976645
55	0x3d6d5f88	0.057952434
56	0x3e1f46c7	0.15554343
57	0x3dd3a4ba	0.103341535
58	0x3e174f6a	0.14776388
59	0x3bb71b18	0.0055879466
60	0xbc8f4d20	-0.01749283
61	0xbc046fc7	-0.00808329
62	0x3e3ad495	0.18245156
63	0x3dce2de0	0.10067344
64	0x3d043e8a	0.032286204
65	0x3d985e98	0.07439917
66	0x3d4c46ba	0.049872138
67	0xbe917794	-0.28411543
68	0x3e1760ef	0.14783071
69	0x3db4f909	0.08836562
70	0x3dd79303	0.10526087
71	0x3e2e761a	0.1703724
72	0xbcb9e62d	-0.022692764
73	0xbc3e38ad	-0.011610192
74	0xbd7d1952	-0.061791725
75	0x3d16084a	0.036629
76	0xbdd32b98	-0.10311049
77	0x3e3aa125	0.18225534
78	0x3dce1e6b	0.100643955
79	0xbe84af5e	-0.25915045
80	0x3c13cfcd	0.009021712
81	0xbe0a59bb	-0.13510792
82	0x3e0624f5	0.13100035
83	0xbd209ac2	-0.03921009
84	0xbaf9d5b0	-0.0019060876
85	0x3d250c52	0.040294953
86	0x3dfcf2fc	0.12351033
87	0x3d644ed7	0.05573925
88	0x3e14b782	0.14523128
89	0x3e33a2b6	0.17542538
90	0xbd49176e	-0.04909461
91	0xbcf755ac	-0.030192219
92	0x3dd1f94a	0.10252626
93	0xbbac0fac	-0.0052508917
94	0xbe89df82	-0.26928335
95	0x3d4b0047	0.04956081
96	0x3d37b716	0.04485234
97	0x3a4d47f0	0.0007830849
98	0x3db2db3d	0.08733223
99	0x3e09f21c	0.13471264
100	0xbc464f55	-0.012103875
101	0x3d95bab3	0.07311001
102	0x3c32bba7	0.010908998
103	0xbd61b9ba	-0.055108763
104	0xbd294d09	-0.041333232
105	0x3c0ab684	0.008466367
106	0x3da20cd4	0.07912603
107	0x3dbfa1ec	0.09357056
108	0x3d03cd5a	0.03217826
109	0x3e2c1a2a	0.16806856
110	0xbcfda5ad	-0.03096279
111	0x3d2e23ce	0.042514615
112	0xbc65cdcf	-0.014026119
113	0x3db4928f	0.08817016
114	0x3d2fae80	0.042891026
115	0x3e17828f	0.14795898
116	0xbd4b7225	-0.049669404
117	0x3c0552ce	0.008137418
118	0xbe3a7822	-0.1820989
119	0xbd270d56	-0.040784203
120	0xbcb3d4a7	-0.021951986
121	0x3b899964	0.004199194
122	0xbc20afbd	-0.009807524
123	0xbeb106bc	-0.3457545
124	0x3dc06d17	0.09395807
125	0x3e4921bd	0.19641776
126	0x3dd282b5	0.10278837
127	0x3ddeee26	0.10885267
128	0x3d5f6981	0.054543976
129	0xbc306cb3	-0.010768103
130	0xbde338b9	-0.11094803
131	0xbc7efd46	-0.015563315
132	0x3cd3c052	0.025848541
133	0x3d83c978	0.064349115
134	0xbe0473d8	-0.12934816
135	0x3cd27e20	0.025694907
136	0xbd2110b7	-0.03932258
137	0x3deb654f	0.114939325
138	0x3ce5647d	0.028002018
139	0x3dac37c1	0.08409072
140	0x3ddf7c6d	0.10912404
141	0x3b5360f2	0.0032253829
142	0x3df5b12b	0.11996683
143	0x3da9e000	0.08294678
144	0x3dc71265	0.09720305
145	0x3ddb7626	0.107158944
146	0xbcbc5d44	-0.022993691
147	0x3d55099f	0.05201113
148	0x3d6ff29b	0.058580976
149	0xbd52480a	-0.051338233
150	0xbd4fee46	-0.050764345
151	0x3d92e133	0.071718596
152	0xbd03839b	-0.03210793
153	0x3d9948f9	0.074846216
154	0x3e1b3be1	0.1515956
155	0x3d27cf16	0.040968977
156	0x3d567970	0.052361906
157	0x3c18c0ee	0.009323342
158	0xbd60a908	-0.0548487
159	0xbd50ad66	-0.050946616
160	0x3e0ffacb	0.14060514
161	0x3c8c17ae	0.017101135
162	0x3df55588	0.119792044
163	0x3e277483	0.1635304
164	0xbd4afce4	-0.04955758
165	0x3e012dde	0.12615153
166	0x3b5242bb	0.0032083231
167	0x3e4707d0	0.19436574
168	0xbc82e8f3	-0.01598022
169	0x3e0f19fc	0.13974756
170	0x3e0ce7e9	0.13760342
171	0xbc6331a5	-0.013866817
172	0x3df722d9	0.120671935
173	0xbc8a55ad	-0.016886557
174	0x3dcc1a6b	0.09965976
175	0x3e2514ce	0.16121218
176	0xb996ba52	-0.0002874905
177	0x3e24a0bb	0.16076939
178	0xb9887bc0	-0.00026032142
179	0xbc2f4d06	-0.010699516
180	0x3d986e9e	0.074429736
181	0x3dfe9e45	0.12432531
182	0x3e068244	0.1313563
183	0x3c7c7b76	0.015410295
184	0x3e2fd9f6	0.17172989
185	0x3e1e5684	0.1546269
186	0x3da318f8	0.07963747
187	0x3c3c3e28	0.011489429
188	0x3cfeb3b6	0.031091552
189	0x3c4f7d1b	0.012664105
190	0x3ddf8b0c	0.10915193
191	0x3cf88646	0.030337464
192	0x3c8f9919	0.017529057
193	0x3d1be21b	0.038057428
194	0xbd4d474e	-0.05011683
195	0xbe2e8de7	-0.17046319
196	0x3e1fda73	0.15610676
197	0x3dd03d95	0.10167996
198	0x3de1a04d	0.11016903
199	0x3d9281e8	0.07153684
200	0xba93eb2d	-0.0011285298
201	0x3d54a934	0.051919177
202	0xbce77f44	-0.028258927
203	0xbd06493f	-0.032784697
204	0xbc889097	-0.016670508
205	0x3e17ef44	0.14837366
206	0x3e164d17	0.14677845
207	0xbe49e372	-0.1971567
208	0x3d1fc925	0.039010186
209	0xbde378be	-0.11107014
210	0x3e1db59b	0.15401308
211	0xbd1b7af1	-0.037959043
212	0x3d1723e2	0.036899455
213	0xbd7d8b5d	-0.061900485
214	0x3d878d05	0.06618694
215	0xbc027493	-0.007962364
216	0x3e04e428	0.1297766
217	0x3e1e625b	0.15467207
218	0xbc86cfed	-0.016456569
219	0xbd366c93	-0.04453714
220	0x3deb4945	0.114885844
221	0x3dac956e	0.08426939
222	0xbe4ebf82	-0.20190242
223	0x3c8c711a	0.017143775
224	0xbd88e9c2	-0.06685211
225	0xbd256430	-0.04037875
226	0x3dffe975	0.124957
227	0x3dc0eb75	0.0941991
228	0x3d2d197f	0.042260643
229	0x3da9d5e0	0.082927465
230	0xbb977d2d	-0.0046230764
231	0xbc3baae4	-0.011454318
232	0x3c6fc87a	0.0146352
233	0xbc875f19	-0.016524838
234	0x3e0b5bdd	0.13609262
235	0x3e20edab	0.15715663
236	0x3d78f357	0.060778942
237	0x3e24461b	0.16042368
238	0xbc932cb5	-0.017965654
239	0x3dab875d	0.08375428
240	0x3cc201bb	0.023682466
241	0x3da3fbde	0.08007024
242	0x3cf15e2a	0.029463846
243	0x3dc38d22	0.09548403
244	0x3c6c104f	0.014408185
245	0xbcae45ea	-0.021273572
246	0xbd9121b6	-0.07086508
247	0x3c1d81b2	0.009613441
248	0xbd3fa750	-0.04679042
249	0x3cdabbf4	0.026700951
250	0xbca518e4	-0.02015347
251	0xbe2f80f5	-0.17139037
252	0x3d8ed0d3	0.06973424
253	0x3e2e6651	0.17031218
254	0x3e0208f4	0.12698728
255	0x3e148aaf	0.14506029

output_layer.bias f4 [9]
0	0x3cbbf66d	0.022944653
1	0x3dc1b362	0.09458043
2	0x3dcad103	0.09903147
3	0x3dd11e2b	0.10210832
4	0x3db05319	0.086095996
5	0x3c3cd8c9	0.011526295
6	0x3cf3f0b5	0.029777864
7	0x3d1e35bb	0.03862546
8	0x3c84e0ad	0.016220415
