results/train/SAC_dist_30m/best_model.pt (torch, 90861 bytes, 6 tensors)

linear1.weight f4 [128, 40]
000000 f5 8e 9f bd 46 81 c0 bd 04 56 cc 3d a4 d1 18 be
       -0.07790939 -0.09399657 0.09977344 -0.14923722
000010 4a 56 31 3e 65 95 6d bd 6d d0 27 be f9 fa f8 3d
       0.17318073 -0.0580038 -0.16388102 0.12157244
000020 12 15 17 3e 97 b4 28 bd 89 9d 01 be de a3 0f 3e
       0.14754131 -0.04118785 -0.12657751 0.14027354
000030 5d 83 1c 3e 39 8b ce 3d cf 66 ba bb 7c 4f fd bd
       0.15284486 0.10085148 -0.0056885253 -0.12368676
000040 a1 c4 84 3d 92 a0 0c 3d e8 8a c4 bd d0 65 0c be
       0.064828165 0.03433282 -0.09596807 -0.13710713
000050 59 c5 9c 3c e7 88 11 3e eb e8 7e 3d eb 0f 92 bd
       0.019137071 0.1421238 0.062233847 -0.07131942
000060 44 0b 0d bd 0b c5 02 be fd ed d7 bd 86 e8 2d 3e
       -0.03443457 -0.12770478 -0.105434395 0.16983232
000070 08 a6 0a 3e 19 42 b4 bd bf d4 ee 3d d2 0f 20 3e
       0.13539898 -0.088016696 0.11661672 0.15631035
000080 e6 9c 49 3e 70 f7 7d bd 3b 88 2e 3d 4f 46 31 3e
       0.19688758 -0.062003553 0.04261039 0.17311977
000090 a6 dd 24 3d 99 48 4d 3e 9a 22 87 bd d1 7f 42 bd
       0.040250443 0.20047225 -0.065983966 -0.047485176
0000a0 c6 9d b2 bd 5d 30 0c ba 02 a2 f0 3c 51 fd 9d 3d
       -0.08721499 -0.0005347783 0.029374126 0.07714332
0000b0 94 95 89 3d 03 9c 71 3c b0 ba 06 3e c4 cc b7 bd
       0.06717983 0.014746669 0.13157153 -0.08974603
0000c0 0b 9d cb bd ac ae d1 bd 26 41 14 3e bd 93 0f be
       -0.09942063 -0.10238394 0.14477977 -0.14021201
0000d0 41 92 fc bd 23 f5 c6 bd fb cd 1d bd 8e a2 be bd
       -0.12332583 -0.09714725 -0.038526516 -0.093083486
0000e0 a5 34 91 3d c7 12 c1 bb 68 af d8 bc 6d 39 1e 3c
       0.07090119 -0.005892131 -0.026450828 0.009657246
0000f0 37 36 5d bc 27 41 fc bc 65 5a 26 3d d2 86 35 3e
       -0.013501695 -0.030792786 0.04061355 0.17727211
000100 dd 58 b5 3b 56 19 ab bd 22 70 0c 3e 9c 59 1f 3e
       0.005534275 -0.08354442 0.1371465 0.15561527
000110 18 f6 8a bd 76 0c a3 3d 86 98 b8 3d 4c eb a3 ba
       -0.0678522 0.07961361 0.090134665 -0.0012506037
000120 e0 05 d2 3d 57 8f e6 bd 24 62 23 be c2 f4 cd bc
       0.10255027 -0.11257809 -0.15955406 -0.025141124
000130 2b a7 ce 3d dc a3 34 bc d7 f7 d7 bd aa 05 67 bd
       0.100904785 -0.011025395 -0.105453186 -0.056401886
000140 42 ec 04 be 32 2c 80 bd 29 1d b5 bd b8 6a e4 bd
       -0.1298075 -0.062584296 -0.088434525 -0.111531675
000150 0b b7 5c 3c 4f 4a 02 3e ad a2 b0 bd cc 7f ad 3d
       0.013471375 0.12723659 -0.08624778 0.08471641
000160 ff 26 00 3e bf 72 1e be 9c 2a 34 3e e3 9b 36 be
       0.12514876 -0.1547346 0.17594379 -0.17832904
000170 d3 ce 40 be 71 54 f6 bd 05 f7 0d be a1 f2 ad 3d
       -0.18828897 -0.12027825 -0.13863762 0.084935434
000180 88 3b ee 3d d4 32 ed bc 4e df 93 bd 34 96 c1 3d
       0.116324484 -0.0289549 -0.07220326 0.09452477
000190 ec dd 29 be 28 51 3f 3e 48 98 99 3d 7e 02 bf 3c
       -0.16588563 0.18683302 0.074997485 0.023316618
0001a0 bd 75 ff bd cc c0 a5 3d 2b e2 36 be 0f e4 1b be
       -0.12473629 0.08093414 -0.17859714 -0.15223716
0001b0 50 2b cb 3d e1 6c f2 bd ed af 82 3d 5c 1c 49 bd
       0.099203706 -0.11837173 0.063812114 -0.04909931
0001c0 9b f7 fa 3d f9 a8 c9 bd 8f 8c 1e 3e b2 27 8c 3d
       0.12254258 -0.09846682 0.15483306 0.06843509
0001d0 85 95 4f 3d da b9 3d bd 31 fb 9a 3d 0d e5 28 be
       0.050679702 -0.04631982 0.07567442 -0.16493626
0001e0 4d 63 83 bc b6 12 3e bd d4 41 ee bd 5a aa cb 3d
       -0.016038561 -0.046404563 -0.116336495 0.09944601
0001f0 31 de 03 be 11 95 09 3e 54 93 be 3d 7c c7 d3 bc
       -0.12877728 0.1343577 0.09305444 -0.025851957
000200 90 2e c7 3d 98 76 6d 3d 2b a9 92 bd 57 96 0f be
       0.09725678 0.057974428 -0.071611725 -0.14022194
000210 e3 22 e6 bd 58 0d 09 be 58 f3 d4 bd 80 04 a0 bb
       -0.11237123 -0.13383996 -0.10397977 -0.004883349
000220 43 4b ef bd d4 3d 5e bc aa 49 92 bd 27 d4 15 3e
       -0.11684277 -0.013564546 -0.071429566 0.14631711
000230 f3 e1 90 3d 7b 0f 2f 3e 8b d1 74 3b 60 b0 f9 bd
       0.070743464 0.17095749 0.0037356343 -0.12191844
000240 58 28 d1 3d 87 38 2f be 3b 15 ae bc c2 be 3d bc
       0.10212773 -0.17111407 -0.021250358 -0.011581125
000250 0c 40 f2 3d d1 8f b5 3d 77 04 15 3d 62 f3 c7 bd
       0.11828622 0.088653214 0.03638121 -0.097632185
000260 79 cd f0 3c 24 3b b8 3d 71 90 05 3e 53 fd 11 3d
       0.029394852 0.08995655 0.13043381 0.03564198
000270 b6 4d d6 bd 17 49 88 bc 39 d9 88 bb 09 74 9e bd
       -0.10464041 -0.016636414 -0.0041762856 -0.07736976
000280 bd b9 d9 3d 95 0d 6e 3c 75 f6 2e 3e ec 33 24 be
       0.1063113 0.014529605 0.17086203 -0.16035432
000290 fc 36 a6 bd 6f 55 34 bb f9 51 07 3d b4 17 89 3d
       -0.08115956 -0.0027516743 0.03303716 0.06693974
0002a0 78 1b 62 bb cf 4f 9b bd 2d ce 10 3e 47 ab 48 bd
       -0.0034501236 -0.07583582 0.1414115 -0.048991468
0002b0 29 76 52 3b cc 3e 91 3d 9c 38 67 bd 17 76 43 3d
       0.0032113886 0.07092056 -0.05645047 0.04772004
0002c0 fc 2e 2b 3e 87 58 22 3e f4 83 3c 3e 41 ec 26 be
       0.16717142 0.15854083 0.18409711 -0.16301061
0002d0 4a a3 ed 3c 8f 8e 3d bd d7 9c 18 be 4b 0c ed 3d
       0.029008526 -0.046278533 -0.1490358 0.1157461
0002e0 18 84 4a 3d 99 ef 33 3e 5f 4f 21 be 47 02 25 3c
       0.04944238 0.17571868 -0.15752934 0.010071344
0002f0 96 2c 3d be dd e0 e7 bd c4 aa 2f be 80 7a ae bc
       -0.1847404 -0.11322186 -0.17154986 -0.021298647
000300 38 c6 44 3e 8f a9 39 3d ee 12 30 be 29 4e 31 3d
       0.1921624 0.04532772 -0.17194721 0.04328743
000310 d4 99 71 bd 50 1b c0 3d 28 fe b3 bd 32 33 cf 3d
       -0.058984593 0.093802094 -0.08788711 0.101171866
000320 52 62 40 3e a3 ba db 3d 80 6f 3a 3e e3 f2 2a 3e
       0.18787506 0.107289575 0.18206596 0.16694216
000330 50 52 9d ba 2c c7 42 3e 23 f9 f6 bd ff ba 2d 3e
       -0.001200268 0.1902129 -0.12059238 0.16965865
000340 84 a5 da bd 86 37 33 bc 12 98 01 3e 7b d4 98 3d
       -0.10676101 -0.010938531 0.12655666 0.074624024
000350 e6 40 1d 3d 72 c7 22 be 74 c0 36 3e f8 40 9c bd
       0.03839197 -0.15896395 0.17846853 -0.07629579
000360 96 bf ea 3d 6a c2 da bd 11 5a 10 be 8e 20 aa 3d
       0.11462323 -0.10681613 -0.14096858 0.083069906
000370 c9 cf 08 3e 41 54 71 bd 90 ba 4e 3c cf da 3d 3e
       0.13360514 -0.05891824 0.012617722 0.185405
000380 f8 5c e5 bc 0e 78 20 3d 17 34 06 bd 3e 5a 0d 3e
       -0.027998433 0.039176993 -0.03276452 0.13803956
000390 8a 35 ad 3d de f0 f0 bd 8c a4 f8 3d 82 e4 e6 3d
       0.084574774 -0.11764692 0.1214076 0.11274053
0003a0 0b db 1b 3e 35 03 46 bd 29 e4 dd 3d 0c 3e ac 3d
       0.15220277 -0.048342902 0.10834534 0.08410272
0003b0 a2 fc 13 3e ff ac 3e 3e 6b f2 96 bc d6 87 d8 3d
       0.1445184 0.1862068 -0.01842614 0.10572784
0003c0 95 91 04 3e ad 22 c5 3b e0 6f 33 3e 1e 1e 9a ba
       0.1294616 0.0060160966 0.17523146 -0.0011758243
0003d0 8c 27 f4 bd c0 68 e8 bd 61 98 9c 3c 4f 50 e7 bb
       -0.119216055 -0.113481045 0.019115629 -0.007059134
0003e0 a4 a0 df 3d 2b d2 36 be 30 aa 5c bc 33 86 2b 3e
       0.10919312 -0.1785361 -0.01346831 0.16750412
0003f0 92 55 c3 3d 69 d6 18 be f9 5f a6 3d 0c c4 6d bd
       0.095378056 -0.14925541 0.08123774 -0.058048293

linear1.bias f4 [128]
000000 91 08 53 3c 89 a4 01 ba 00 00 00 00 a9 9f e8 ba
       0.01288046 -0.0004945477 0.0 -0.0017747778
000010 c7 d8 5c 3b f9 3f ae 3b 59 4b 5c 3b 16 bf 1e 3a
       0.0033698545 0.0053176847 0.0033614247 0.00060556957
000020 51 25 4b ba ee 54 b3 3b 00 00 00 00 b0 5d 50 3c
       -0.0007749396 0.005472771 0.0 0.012717649
000030 79 bc 25 3c 96 49 64 3b 9f 73 30 3c f4 d8 9b 3c
       0.010115736 0.00348339 0.010769754 0.01902435
000040 00 00 00 00 33 a9 f6 ba 00 00 00 00 76 0d bb b8
       0.0 -0.0018818736 0.0 -8.919362e-05
000050 63 67 44 3b 00 00 00 00 00 00 00 00 76 2b dc ba
       0.002996885 0.0 0.0 -0.001679762
000060 b4 f2 45 bb 58 d8 86 b8 41 ea 63 3c 79 1e 37 b9
       -0.0030204477 -6.429915e-05 0.013910831 -0.00017463592
000070 9b bb 9b 3c ad c2 3f 3b 43 3b 8b 38 9e c1 60 3c
       0.019010356 0.0029260323 6.639075e-05 0.013718037
000080 7e e3 fe 3a d9 a5 99 3b 1e 56 21 bb 95 04 a4 3c
       0.001944646 0.00468896 -0.002461798 0.020021716
000090 95 8d 93 b6 00 00 00 00 00 00 00 00 d1 61 80 bc
       -4.3974237e-06 0.0 0.0 -0.015671642
0000a0 f0 2e 96 3c d4 17 8b 3c b6 2f 61 3c 37 47 9e bb
       0.018332928 0.016979136 0.013744285 -0.004830267
0000b0 32 3f 05 38 b2 26 87 ba 10 48 ac 3c 94 23 7f 3c
       3.1768526e-05 -0.0010311215 0.021030456 0.015572447
0000c0 cf 76 dd bb 41 15 a2 3c 83 0f 59 3c 4c 08 6d 3c
       -0.006758548 0.019785525 0.013248327 0.01446731
0000d0 0c 27 85 b8 fb ad 59 b8 46 26 3b bc 5d 94 eb bb
       -6.349207e-05 -5.1898864e-05 -0.011422699 -0.007189317
0000e0 fd 87 d4 3b 9e 7e 31 3c 00 00 00 00 8e 97 94 3b
       0.0064859376 0.010833411 0.0 0.0045346683
0000f0 b3 23 88 3c 00 00 00 00 90 62 96 3c b6 e4 86 3c
       0.016618585 0.0 0.018357545 0.01646648
000100 00 00 00 00 76 64 28 3c 00 00 00 00 00 00 00 00
       0.0 0.010277858 0.0 0.0
000110 29 59 90 3c 94 ca bb 3b 5d 92 02 bc aa 76 68 3a
       0.01762064 0.0057309363 -0.007969466 0.000886778
000120 df 70 7e 38 55 af fc ba 00 00 00 00 00 00 00 00
       6.066344e-05 -0.0019278327 0.0 0.0
000130 72 b1 4b 3c 06 dc 4c ba 21 8d 9c 3b 99 b2 e1 39
       0.012432443 -0.00078147685 0.004777566 0.0004304841
000140 95 94 a9 3b 9c e3 03 38 57 d0 41 3b a4 9a 56 3c
       0.005175183 3.144481e-05 0.0029573643 0.013098393
000150 3e ce f7 3b a7 a2 9d bb 00 00 00 00 b0 cb 92 3c
       0.007562428 -0.0048106494 0.0 0.017919391
000160 15 a6 22 bb d1 b2 01 b9 7b 89 db 3a 3a 28 6f 3b
       -0.002481823 -0.00012369013 0.0016749346 0.0036492483
000170 b2 b0 92 3c 00 00 00 00 76 cb 28 3b 97 35 60 3b
       0.01790652 0.0 0.0025756038 0.003421163
000180 00 00 00 00 0a 6a 82 35 74 07 48 3b d4 9c 83 3c
       0.0 9.716616e-07 0.003052202 0.016065992
000190 54 5d 04 bc 6d c4 17 ba 00 00 00 00 b5 c3 11 3c
       -0.008078892 -0.00057894626 0.0 0.008896758
0001a0 e8 e2 1c 3c 40 0a 91 bb c0 15 05 b8 5d f8 70 38
       0.009575583 -0.0044262707 -3.1729927e-05 5.7451765e-05
0001b0 26 0c 76 3c 32 6d 4b 38 e2 66 08 3a bd 02 01 39
       0.015017545 4.8500668e-05 0.0005203319 0.00012303419
0001c0 87 93 09 3b 00 00 00 00 57 d5 10 37 95 b1 3b 3a
       0.0020992474 0.0 8.632741e-06 0.00071599457
0001d0 cb 8e cc 3a 03 f5 e4 ba 0a 52 2c bc 00 00 00 00
       0.001560652 -0.0017468039 -0.0105176065 0.0
0001e0 00 00 00 00 00 00 00 00 37 69 df bb 05 4e 86 3b
       0.0 0.0 -0.0068179625 0.004098656
0001f0 65 ff f3 3b d2 83 64 bb 6f 16 35 bc f0 e9 a5 3c
       0.007446217 -0.003486861 -0.011052712 0.020253152

linear2.weight f4 [128, 128]
000000 8c dd 18 be c8 c7 11 be e5 87 a1 bd be f9 28 bd
       -0.14928263 -0.14236367 -0.07887248 -0.041253798
000010 b2 83 d7 3a 0e d8 02 3e 4b e9 f4 3b 27 31 d9 bd
       0.0016442447 0.12777731 0.0074740998 -0.10605078
000020 a5 4e 66 3d 26 f2 1b 3d 2b fd 28 3d 87 18 1a be
       0.056227345 0.038072728 0.041257065 -0.15048419
000030 ca 2f d0 bd 27 cf bf bd 9f e7 c4 bd c2 1c 23 bb
       -0.10165365 -0.09365683 -0.09614491 -0.0024888967
000040 80 e4 12 3e 50 d1 06 3a 59 d3 17 3e bb 58 05 3e
       0.14344978 0.00051428843 0.14826716 0.13022129
000050 8c 41 82 3d 5a af 05 bd a6 4c 0a be bf 74 ae 3d
       0.06360158 -0.03263793 -0.13505802 0.08518361
000060 4d ef 23 3d 7b 60 1c 3e 8c de 1a be ea 5e ed 3d
       0.040023137 0.1527118 -0.15123957 0.11590369
000070 5e cc d4 3d 3c ee b1 3d 2e fb 0f 3e 88 d3 86 bc
       0.103905424 0.08688018 0.14060661 -0.016458288
000080 6d 30 73 bd 46 f1 a9 bc bb 68 85 3d 1d 38 b5 bd
       -0.059372354 -0.020744931 0.065141164 -0.088485934
000090 4b 81 7e 3c bf 8d 5d 3d c9 45 84 bd e9 38 89 bd
       0.0155337555 0.054090258 -0.06458623 -0.06700308
0000a0 3b c3 0e bc 36 81 96 3c b5 6d 0c bd 3e 81 b6 3d
       -0.008713539 0.01837216 -0.034284312 0.0891137
0000b0 e0 99 3a bc 9b c6 d1 3d fd b2 cb bd e1 cd 1b 3e
       -0.011389226 0.10242959 -0.09946249 0.15215255
0000c0 f0 33 e2 3d 3c fc 9e bd 29 f0 ea 3d 5a 8d 2c bd
       0.110450625 -0.07762954 0.11471588 -0.04212699
0000d0 bc 73 25 bd e8 b1 e5 3d b3 62 f6 3d 90 c2 c2 bd
       -0.040393576 0.112155735 0.12030544 -0.09509766
0000e0 5b 00 9a 3d 4a fe 82 3d 0c cd a3 bd 3e 84 56 bd
       0.07519599 0.06396158 -0.07998094 -0.05237221
0000f0 b6 ad ee 3d 95 2c b4 3d 54 59 a5 3d 15 14 ba bd
       0.116542265 0.08797566 0.080736786 -0.090858616
000100 4c f1 cf 3d 9e b4 fe 3d 69 d7 a8 3d db 24 8c bd
       0.101534456 0.12436794 0.08244211 -0.06842967
000110 e7 65 91 3d bc 79 0d be 53 64 f7 bd ea 81 06 bd
       0.070995145 -0.13815969 -0.12079682 -0.03283874
000120 72 a8 0e be ad af 9a 3d d5 c8 ce 3d 5a 9f ca bc
       -0.13931444 0.07553039 0.100968994 -0.024734188
000130 53 24 0e be 76 8e ef bd 74 86 94 bd 86 bf 85 3d
       -0.13881044 -0.11697094 -0.072522074 0.06530671
000140 c9 7d 0a be 95 2c 9a 3d d5 f0 8c bc b9 e2 99 3c
       -0.13524546 0.075280346 -0.017204681 0.018784868
000150 24 3c 18 be 3b a0 c6 bc db 61 30 bd a2 50 c9 3d
       -0.14866692 -0.024246326 -0.043062072 0.098298326
000160 91 f2 1a be 35 2b 06 3e c5 62 6d bc f6 cf 61 3c
       -0.15131594 0.1310242 -0.0144888805 0.013782492
000170 de c2 bc bd 03 b1 f0 3d 9e 25 32 3d 08 c9 06 be
       -0.092168555 0.11752512 0.043492906 -0.13162625
000180 ba 83 28 3c 22 92 83 3c c1 07 4a bb d3 4b b5 3c
       0.010285312 0.016060892 -0.0030827376 0.022130882
000190 11 c3 15 be 24 88 16 bd 6a d7 fe bd e1 1d 8d 3c
       -0.14625193 -0.036750928 -0.12443431 0.017226161
0001a0 45 1f 95 3d e8 b8 d7 bd 35 85 55 3c 69 82 7d bd
       0.07281355 -0.10533315 0.013032247 -0.061891947
0001b0 f5 1e cb 3d e5 3a 98 bd bb 52 61 3b 0b 12 23 3c
       0.09918014 -0.07433108 0.0034381587 0.009953032
0001c0 3f 56 0d be ce ad 0b 3c 92 c4 aa 3d be e9 19 be
       -0.13802432 0.008525325 0.08338274 -0.15030572
0001d0 88 ba 9f bd d4 3f a7 bd 2b 7e a7 bc 97 07 9a bd
       -0.0779925 -0.08166471 -0.020445904 -0.07520979
0001e0 df 80 06 be ef a9 8e bc 3a 2a 1b bd a9 24 ce bd
       -0.13135098 -0.017415015 -0.037882067 -0.10065586
0001f0 44 a5 f9 bd 69 f6 a8 bd 90 04 a6 bc b8 3a 89 bd
       -0.12189725 -0.08250124 -0.020265847 -0.06700653
000200 7c 9a 0e 3d 36 13 db 3c 46 4a 9f bd 42 67 6f bd
       0.034815297 0.026742559 -0.077778384 -0.058448084
000210 5c 4a b0 bd ab 9b 9d bd 5e a0 11 bd 3f bf 13 3e
       -0.08607933 -0.07695707 -0.03555333 0.14428423
000220 7c 61 d8 bd ae 30 ea bc bf fc 2a bd ac 2a 0b bd
       -0.10565469 -0.028587665 -0.041744944 -0.033976242
000230 19 7a 0e 3e c4 f6 24 3d 76 77 dd 3d a8 7e 0d 3d
       0.13913764 0.040274397 0.10813801 0.034544617
000240 b3 40 d3 bd 8a 79 3c bd 29 f1 c8 bc 77 30 ee bb
       -0.10315075 -0.046014346 -0.024529057 -0.007268961
000250 6d 54 f6 3d 0a a7 15 3e d2 e3 0b be 3b bc 8a 3d
       0.12027822 0.14614502 -0.13661125 0.06774183
000260 11 ad ad 3d ad b9 e5 bd d2 fe e0 3d c6 e6 a3 3d
       0.084802754 -0.112170555 0.10986103 0.08003001
000270 29 04 ac bd b3 1a ab bd ce 8b 47 3d 80 4f ae bd
       -0.08399231 -0.08354702 0.048717313 -0.08511257
000280 97 5c 7f 3d 1e 4f 83 3d 13 c5 14 bd 46 e9 11 bc
       0.06234416 0.06411575 -0.036320757 -0.008905714
000290 36 fc 0d bc 0f 65 be 3d 1e b3 ee 3b 8e f5 83 bd
       -0.008666089 0.09296619 0.007284536 -0.0644332
0002a0 b8 5e 17 be 8e 96 06 be 91 38 00 be 2a 38 a4 bd
       -0.14782226 -0.1314337 -0.12521578 -0.08018525
0002b0 c8 b0 00 be 75 a8 5a bc 4f c7 33 3d 8b bb 82 3c
       -0.12567437 -0.013345827 0.043891247 0.015958568
0002c0 ad 33 c2 bc ce b3 d2 3b 93 1a f2 3d 2a 99 f2 bc
       -0.023706282 0.006430126 0.11821475 -0.02961405
0002d0 6f 79 98 3d df 0c 17 3a ed 9c 38 bc 73 ca 19 be
       0.074450366 0.0005762111 -0.011267883 -0.15018634
0002e0 a2 e5 0e 3e b0 fd fd bc f2 76 e1 3d 33 2f e6 3d
       0.13954785 -0.031004757 0.11009015 0.11239471
0002f0 82 d2 87 3d 73 f2 04 be eb 0e eb bc d3 5a 98 bd
       0.06631948 -0.12983112 -0.028693637 -0.07439198
000300 d4 da 5d bd f5 9d ba bc 57 dd 8b bd 0e 28 e2 3d
       -0.05416377 -0.022780398 -0.068293266 0.11042796
000310 8d d0 17 be f7 a3 bb 3b be 44 d3 3d d6 1a a3 3d
       -0.1482565 0.0057263332 0.10315846 0.07964103
000320 5c 8e 82 bd df 77 81 bd a1 14 d9 3d 4e b4 c6 bd
       -0.06374809 -0.06321692 0.10599638 -0.09702359
000330 b4 98 71 bc ed 5a ee bd 03 8e cb bd e5 d6 8d 3c
       -0.01474588 -0.116384365 -0.09939196 0.017314384
000340 1a 85 5a bd b6 0a 82 bd e5 a2 03 3d c2 49 d2 bd
       -0.05334959 -0.06349699 0.03213777 -0.102679744
000350 73 fe ce 3d 48 49 0f 3e e8 ea e9 bc 55 f8 15 be
       0.10107126 0.13992798 -0.028554395 -0.14645512
000360 9d d4 03 be 17 58 35 3d 7a 08 e0 bd 31 41 98 3b
       -0.12874074 0.044273462 -0.10939117 0.0046464433
000370 2a 1a 76 3d c8 8e 16 3d 5b 64 07 be 5b 2f fd 3d
       0.060083546 0.03675726 -0.13221876 0.12362548
000380 be f6 86 3c 79 5c 13 3e 2d a9 0c 3e 8b 73 27 bd
       0.016475078 0.14390744 0.1373641 -0.040881675
000390 1e 44 9c 3d 68 00 7f 3d 3d 9c 18 be 9c c4 6c 3d
       0.0763018 0.062256247 -0.1490335 0.05780469
0003a0 61 1d 95 bc 5a b8 16 be 2e 4f e0 3d 2a d9 c9 3d
       -0.018202486 -0.14718762 0.10952602 0.09855874
0003b0 33 cf 0d 3e bf 68 c7 bb 4e a5 d8 3d a6 cf a7 bc
       0.13848571 -0.0060854848 0.10578404 -0.020484757
0003c0 d0 db 11 3c 08 00 09 3e 06 79 61 3d 92 71 47 3c
       0.008902505 0.13378918 0.055047058 0.012173073
0003d0 06 6a 11 be 3c 8a 09 3d 89 ba 85 3d 28 2c 43 3c
       -0.14200601 0.033579096 0.065297194 0.011912383
0003e0 5a 44 8a 3a b7 fd c9 3d f1 c8 9f 3c 6c 5a 10 be
       0.0010548935 0.098628454 0.019504996 -0.14096993
0003f0 20 1e 85 bd 3f dd c2 bd b6 b0 fe 3d 44 5f 92 3d
       -0.064998865 -0.095148556 0.12436049 0.07147077

linear2.bias f4 [128]
000000 00 00 00 00 0f f7 6c ba 5e 9c 38 bb 00 00 00 00
       0.0 -0.00090395 -0.0028169374 0.0
000010 b0 2f de bb 7d 69 a2 39 c1 df 12 39 db 01 60 bc
       -0.006780587 0.00030977643 0.00014007 -0.013672317
000020 00 00 00 00 fa b6 91 bb 00 00 00 00 52 9e 43 3c
       0.0 -0.0044468613 0.0 0.011939602
000030 af 92 bb 3b 68 ee ac 3c 00 00 00 00 00 00 00 00
       0.005724273 0.021109775 0.0 0.0
000040 00 00 00 00 11 f3 b4 3c 00 00 00 00 56 77 a9 38
       0.0 0.02208856 0.0 8.080776e-05
000050 00 00 00 00 2d 58 0b 3c bc 4e c5 38 00 00 00 00
       0.0 0.008504909 9.4083574e-05 0.0
000060 c9 e9 ae 3a 00 00 00 00 74 14 30 bc 00 00 00 00
       0.001334482 0.0 -0.010747064 0.0
000070 03 3c c3 ba 00 00 00 00 bb e1 28 3c 5d 6d 7b b9
       -0.0014895204 0.0 0.010307725 -0.00023977966
000080 60 59 f0 b9 78 75 20 3c 00 00 00 00 00 00 00 00
       -0.00045842957 0.009793632 0.0 0.0
000090 00 00 00 00 da 73 23 3c 00 00 00 00 86 cf 38 bb
       0.0 0.009976352 0.0 -0.0028199865
0000a0 a8 f7 15 bc 59 9e 20 bb db 70 7b bb cd da 16 3a
       -0.009153284 -0.0024508445 -0.0038366828 0.000575465
0000b0 00 00 00 00 40 ba aa 3c 9a f3 c1 3b 00 00 00 00
       0.0 0.020840764 0.005918932 0.0
0000c0 7b a5 81 3b 24 46 44 3c 41 df 90 bb 7a c2 04 b9
       0.0039564944 0.011979613 -0.004421145 -0.00012660949
0000d0 ef 95 33 3c 63 ba c6 bb 0d 26 1e 3c b5 6e 5e bb
       0.01096104 -0.0060646995 0.009652627 -0.0033940498
0000e0 5d df 34 3a a0 36 f7 ba 00 00 00 00 9c 4a e8 3b
       0.0006899739 -0.0018860884 0.0 0.0070889723
0000f0 00 00 00 00 4c af b2 3c d1 29 04 b9 00 00 00 00
       0.0 0.021812104 -0.00012604079 0.0
000100 4a 35 6e 3c 00 00 00 00 00 00 00 00 23 35 99 3c
       0.014539072 0.0 0.0 0.018702095
000110 71 74 fc ba 00 00 00 00 17 67 84 3a 5c ef 39 3b
       -0.0019260776 0.0 0.0010101524 0.002837143
000120 03 5c a9 3b 00 00 00 00 94 fd 27 bc 13 6a 14 bb
       0.0051684394 0.0 -0.010253329 -0.0022646233
000130 e9 97 b6 bb 00 00 00 00 75 96 5d ba 40 a0 a5 3c
       -0.0055723083 0.0 -0.0008452901 0.020218015
000140 00 00 00 00 00 00 00 00 5f 13 ac ba d5 3c 5b b8
       0.0 0.0 -0.0013128332 -5.2270323e-05
000150 e7 f9 ba 3c 00 00 00 00 55 90 d4 bb 84 72 ca ba
       0.02282424 0.0 -0.0064869323 -0.0015445505
000160 2d 6c bd 3b 00 00 00 00 69 cf ca 3b 00 00 00 00
       0.005780718 0.0 0.006189276 0.0
000170 00 00 00 00 39 fa a9 3c 9d 03 f2 3b 00 00 00 00
       0.0 0.020749198 0.0073856846 0.0
000180 00 00 00 00 35 11 a1 3c 06 e0 b1 3c 42 0a a9 3c
       0.0 0.019661525 0.021713268 0.020634774
000190 35 4b ec 39 2c c3 4c 3c 85 55 9c 3c e5 34 05 b8
       0.0004506946 0.0124977045 0.019083748 -3.1758933e-05
0001a0 b4 7d ed bb 00 00 00 00 00 00 00 00 94 2b c9 3a
       -0.007247651 0.0 0.0 0.001534807
0001b0 d2 f9 95 39 29 0b 69 bc 33 b2 df 3a 69 96 94 bb
       0.00028605625 -0.014223852 0.0017066657 -0.004534532
0001c0 00 00 00 00 00 00 00 00 92 5e c6 bb 76 24 0e 3c
       0.0 0.0 -0.006053754 0.008675685
0001d0 d5 0d 12 ba 00 00 00 00 03 b3 a8 3c 00 00 00 00
       -0.0005571519 0.0 0.020593172 0.0
0001e0 d3 e4 a9 3c 57 f3 9a 3c f4 fd af bb ac a0 b1 bb
       0.020738995 0.018914862 -0.0053708497 -0.005420765
0001f0 b6 9a 94 3c 5c 0d b2 bb 00 00 00 00 3c 1e 70 bc
       0.018140178 -0.0054337215 0.0 -0.014655646

mean_linear.weight f4 [1, 128]
000000 e2 b1 9d 3d 28 33 97 3d 67 6b 1d be 86 a4 18 bd
       0.07699944 0.07382804 -0.15373002 -0.037266277
000010 6b e8 01 be 83 87 a6 bd e8 cd 44 3d 65 fc 19 be
       -0.12686317 -0.081313156 0.04804793 -0.15037687
000020 6d b5 57 be 48 b3 2c be 2d 7e 48 3e ed 4f a7 3d
       -0.21065302 -0.16865265 0.19579382 0.081695415
000030 f1 c7 41 bd c5 ae 03 3e 6a 74 90 3d 06 83 06 bd
       -0.04730982 0.12859638 0.07053454 -0.032839797
000040 70 ea 09 be 5a 78 33 3d 86 eb 4a 3d 5a 64 23 3e
       -0.13468337 0.043815948 0.04954102 0.1595625
000050 32 fc a7 bc c5 b8 01 3e 14 3f 72 bd 6b 8c 7f 3d
       -0.020505998 0.1266814 -0.059142187 0.062389772
000060 89 07 53 be 54 0f 4e be 19 5e 03 be ce 95 29 be
       -0.20608343 -0.20123035 -0.12828864 -0.16561052
000070 42 9c 1c be d1 b9 00 3e 8e 8c 3e 3e b4 8f f7 bd
       -0.15293983 0.12570883 0.18608305 -0.12087956
000080 34 cc 5e 3e b1 45 9a bc a1 83 9e bd 3f b3 46 be
       0.21757585 -0.01883206 -0.0773995 -0.19404314
000090 f9 ec e1 bb 32 00 2e bc 6f 73 22 3e 49 45 26 be
       -0.0068947044 -0.010620164 0.15864347 -0.16237368
0000a0 9b 60 11 bd ae 2d de 3c c5 2b e0 bd 25 de 0e be
       -0.03549252 0.027121391 -0.109458484 -0.13951929
0000b0 c2 36 bc bd 07 ba f1 3d 56 6e b1 bd 9b a4 d8 bd
       -0.09190132 0.1180306 -0.08663623 -0.10578271
0000c0 51 85 1a 3e a0 b7 2b 3e a0 c8 1d bd 01 58 41 3e
       0.15089919 0.16769266 -0.03852141 0.18881227
0000d0 72 98 e3 3d 5d 71 26 3d 56 4d 21 3e 89 dd 60 3e
       0.11113061 0.040635455 0.15752158 0.21959509
0000e0 7d c7 45 be e3 eb 22 3e f3 51 a0 bd 43 87 9f 3d
       -0.1931438 0.15910296 -0.078281306 0.07789471
0000f0 fe e9 59 be 6d d8 1a 3e 62 44 06 3e 0e f3 4c be
       -0.21280667 0.15121622 0.13112023 -0.20014593
000100 c7 bc 60 3e cc 75 ea bd 65 21 f4 3d 3c b7 11 3c
       0.21947013 -0.11448249 0.11920432 0.008893784
000110 e4 36 49 be a2 7f 1a 3e ee d3 31 3c 81 a1 5f 3e
       -0.19649845 0.1508775 0.010853751 0.21838953
000120 75 41 bf bd 34 70 15 3e dc aa d6 bc 7a dd c6 3d
       -0.09338657 0.14593583 -0.026204519 0.09710212
000130 66 4b 04 3e 5d 38 50 be e9 d4 20 be e6 d3 29 3e
       0.12919387 -0.20334001 -0.15706219 0.16584739
000140 7e 5d 50 be a7 13 eb bd 82 2a be 3d 68 0b 8f bd
       -0.20348164 -0.11478358 0.092854515 -0.069845974
000150 78 0c ba 3d 84 da 99 3d 9f 51 27 be a2 36 49 be
       0.090844095 0.07512382 -0.1633973 -0.19649747
000160 77 aa 29 3e 0e e3 49 be 88 05 d2 3d f2 05 e0 3c
       0.16568933 -0.1971552 0.10254961 0.027346585
000170 96 04 a4 3d d4 83 66 3c e1 b2 9c bc e5 aa 57 bd
       0.08008687 0.014069516 -0.019128265 -0.052653212
000180 10 a7 24 3e 9b d8 3c 3d fb ee d4 3d 20 4c 10 3e
       0.16079354 0.04610501 0.103971444 0.1409154
000190 03 31 5e bd 8d cc 35 3e 2b f3 34 3e 63 85 28 be
       -0.05424596 0.17753811 0.17670886 -0.16457133
0001a0 ff ce 27 be 89 2b 16 be 1c 2f 04 bc da 47 6e bd
       -0.16387556 -0.14665045 -0.008067872 -0.05817399
0001b0 f2 7c 8f 3d c9 23 75 bd bb ec 0f 3e 25 f0 f6 bd
       0.07006253 -0.05984858 0.1405515 -0.12057523
0001c0 f4 54 27 3e 28 4c 63 3d 68 ab 34 be 6b 44 49 3e
       0.16341001 0.05549255 -0.17643511 0.19655006
0001d0 d7 2c 96 bc f9 10 70 bd 2c 4e 53 3d 72 5c 11 bd
       -0.018331928 -0.058609936 0.051588222 -0.035488553
0001e0 4d d5 3a 3e 6a d0 32 3c 78 89 1c be 0c 9e 51 be
       0.1824543 0.010913948 -0.15286815 -0.20470446
0001f0 93 1b 81 3b db 22 a0 3d ee 46 33 be 82 5d 1b be
       0.0039400547 0.07819148 -0.17507526 -0.15172389

log_std_linear.weight f4 [1, 128]
000000 d1 f4 05 3e 3a 59 57 be c0 0b 38 3d 9d 81 63 bd
       0.13081671 -0.21030131 0.04493308 -0.05554353
000010 d6 78 f9 bc e1 47 a3 3d ee af 1e be a5 70 39 be
       -0.030453127 0.07972694 -0.154968 -0.18109377
000020 a4 78 e8 bc d7 e5 f9 bd 74 f4 4f 3e 82 0b 39 3e
       -0.028377838 -0.122020416 0.20308095 0.18070796
000030 ab 1c e6 3d 23 c3 e0 3d a0 ed 47 3e 60 a9 5e bd
       0.11235937 0.109747194 0.1952424 -0.054360747
000040 bd 48 bc 3d ac 32 f2 3d 1c 8e 4c be 14 b6 b0 3c
       0.09193561 0.11826071 -0.19976085 0.021571197
000050 f7 e2 b7 3d 2e c3 fc 3b 7c 09 c3 3d 5a 0d 00 3d
       0.08978837 0.007713697 0.095232934 0.031262733
000060 50 cd e0 3d af 74 3f 3e bb d9 20 be 05 7e ea 3c
       0.1097666 0.18696855 -0.15708058 0.028624544
000070 44 5b bc bd 1e 1f 90 3d 64 b2 a5 3d ba f8 fb bd
       -0.09197095 0.07037185 0.08090666 -0.123033
000080 3d da e8 bd d6 36 42 3e c8 bd 13 3d 43 6a 44 be
       -0.11369751 0.18966231 0.03606966 -0.1918116
000090 9e 3b 03 be 52 77 f2 3d cc 19 3c be a3 53 a6 3d
       -0.12815711 0.11839165 -0.18369216 0.08121421
0000a0 fc 8d 53 be 8f 97 2c be fd 5b 1b be 2f f3 a2 3d
       -0.20659631 -0.1685469 -0.1517181 0.0795654
0000b0 cf 70 17 3e b9 e9 b6 3d 27 bb 49 3e b3 15 16 be
       0.14789127 0.08931298 0.19700299 -0.14656715
0000c0 38 a3 4c 3e 56 7d 07 3d d4 e0 9a bd 73 b0 06 be
       0.19984138 0.033078514 -0.07562414 -0.13153248
0000d0 f9 4c b2 3c d7 f8 ae bd a9 ed 51 3c 19 ba 45 be
       0.021765219 -0.08543556 0.01281301 -0.19309272
0000e0 22 4b 81 3d 53 1e 4e be ea bb 3e 3e e9 cc 93 ba
       0.063131586 -0.20128755 0.18626371 -0.0011276278
0000f0 19 0e 53 3e ba 53 4a 3e e9 23 07 be 55 86 4d 3d
       0.20610847 0.19758502 -0.13197292 0.050176937
000100 5f 91 58 3e 21 26 4b 3e 32 c5 74 3d ed 8e 59 3e
       0.21149205 0.19838764 0.059758373 0.21245928
000110 db 78 9a bd 87 a4 0c be 05 e6 26 3e 8c 62 af bd
       -0.075425826 -0.13734637 0.16298683 -0.08563718
000120 00 00 3c 3e 47 4c 4b 3e 90 e2 52 be 91 c3 22 be
       0.18359375 0.19853316 -0.20594239 -0.15894915
000130 3a a4 38 be cc 32 5c 3d d1 3e 07 be 6e 4e e7 3d
       -0.18031397 0.05375938 -0.13207556 0.11294256
000140 cd 67 b8 3d 32 c4 03 be dd a3 2a be 4c 48 32 bc
       0.090041734 -0.12867811 -0.16664071 -0.010881495
000150 f1 70 04 3e 9a b1 01 bd 08 7c 07 3d 28 7d cf 3c
       0.12933709 -0.031663515 0.03307727 0.025328234
000160 01 16 cf bc 0f 01 5c bd 05 69 1b bc 62 b6 a8 bd
       -0.025279047 -0.053711947 -0.009485488 -0.08237912
000170 67 1f a8 bc 60 13 60 3d 02 bf a0 3d 88 e9 86 bd
       -0.020522786 0.054705977 0.07848932 -0.06587511
000180 7c 49 85 3d 9e 1d 5b 3e 14 4e f5 3d 54 17 d4 3d
       0.06508157 0.21398017 0.11977783 0.10356012
000190 69 b1 aa 3d 6c 36 20 3d 71 17 d6 3d 8b d2 0a bd
       0.083346196 0.0391144 0.1045369 -0.033892196
0001a0 dd 99 22 be 01 28 44 be 13 37 fe 3d 00 fb 48 3e
       -0.15879007 -0.19155885 0.12412848 0.19626999
0001b0 65 a6 d2 bd 76 84 4b bc 77 ca 86 bd fe 6a 42 be
       -0.102856435 -0.012421718 -0.06581586 -0.18986127
0001c0 6d 6b 18 bd 80 58 bb 3d 6d 20 25 3d 63 c8 7c 3b
       -0.037211824 0.091477394 0.040314127 0.0038571588
0001d0 a1 52 26 be de 23 2a 3d 5a 56 0d 3e c0 4a de bd
       -0.16242458 0.041538112 0.13802472 -0.10854101
0001e0 4b f9 4a 3e 16 85 0f 3e 85 f6 30 bb 0f e2 55 3d
       0.1982166 0.14015612 -0.0027002406 0.05221754
0001f0 00 dd 9f 3d 56 89 01 be cc 97 f9 bd a3 6a 4b be
       0.07805824 -0.12650046 -0.12187156 -0.19864897
