results/train/hyperaparam_DQN_FLAT_40m/epsilon_decay_type_exponential/best_model.pt (torch, 146255 bytes, 8 tensors)

layer1.weight f4 [128, 12]
000000 1d 5b a0 3c b1 08 de bd 78 15 68 bd e3 30 4d 3c
       0.019574696 -0.108415015 -0.0566611 0.0125238625
000010 bc 21 b4 bd 00 d2 80 3d f0 ff c0 3d 28 34 b1 bd
       -0.08795497 0.06290054 0.09423816 -0.08652526
000020 a9 a3 ab bd eb c3 df bd 03 75 95 3d d7 af b1 3d
       -0.08380825 -0.1092604 0.07297709 0.08676117
000030 5d 01 ee bd 0f fb da 3d ee a4 29 bc 14 11 c6 bc
       -0.11621354 0.10692417 -0.010354264 -0.024178065
000040 2d 39 b7 bd 18 40 f7 bb ee f1 66 3d a8 f6 7c bd
       -0.08946452 -0.0075454824 0.056383066 -0.061758667
000050 44 2c 80 bd 75 82 05 be 7b 5b 34 bc fc e2 d3 3d
       -0.06258443 -0.13038047 -0.011008139 0.10346028
000060 51 0c a2 be f1 bf 34 3e 9d af 19 3e 50 37 8f 3d
       -0.31650022 0.17651345 0.15008397 0.06992972
000070 fc dd 80 bd 59 de 1b 3e 63 c5 c4 be 63 1f 16 bd
       -0.0629234 0.15221538 -0.38431844 -0.036651026
000080 2c 95 d4 3b 42 97 58 3e 1f 11 53 bd 2b a4 55 3e
       0.0064875092 0.2115145 -0.05153 0.20863406
000090 64 7f b1 bd 71 06 7d 3d c6 27 c5 3d ab 75 49 bc
       -0.08666876 0.06177372 0.09626727 -0.012296121
0000a0 94 56 48 bd f8 61 0d be 99 a9 80 bd f7 cb f6 bd
       -0.048910692 -0.13806903 -0.06282348 -0.12050622
0000b0 ab 91 49 3d ab 11 10 be 42 77 d6 bd a7 96 ee bd
       0.049211185 -0.1406924 -0.104719654 -0.116498284
0000c0 90 79 1a 3f 02 2a 42 3e 21 0a b0 3d 57 81 72 3c
       0.6034174 0.18961337 0.08595682 0.014801345
0000d0 ec 73 56 3d de 2a cc 3d 01 4c 17 3f 3c 31 2d 3e
       0.052356645 0.09969114 0.5910035 0.16913313
0000e0 b4 48 0e be 91 89 23 3e 81 d4 3c 3e 8a 98 19 3d
       -0.13894922 0.15970446 0.18440439 0.03749899
0000f0 b5 81 b8 be 22 db 62 3d 4e 8d 2d 3e 31 6c e0 3d
       -0.3603646 0.055384763 0.16948435 0.10958136
000100 55 2d 30 3d 98 34 d4 3d a7 ec 41 be 6b 4a 0d 3d
       0.043011982 0.10361594 -0.18937932 0.0344948
000110 80 85 4b bd 35 8b 30 3e ab 95 69 3d 04 c2 47 bb
       -0.049687862 0.17240603 0.0570275 -0.0030480633
000120 9a 23 5e bd fe b4 92 bc 55 79 73 3c 49 44 8d bc
       -0.05423317 -0.01790857 0.014860471 -0.017244475
000130 50 30 db bd 14 b7 95 3d 7e 9c 5c bc 44 61 58 bd
       -0.10702574 0.0731031 -0.013465045 -0.052827135
000140 26 1e ec bd 80 31 c3 bd 44 82 31 bd 76 24 e2 bd
       -0.11529188 -0.09530926 -0.04333712 -0.110421106
000150 4a 0c 05 be 3f 38 94 3d 02 41 0a be 23 88 7f bd
       -0.12992969 0.072372906 -0.13501361 -0.06238569
000160 db 2a e5 bd 5f c1 e4 3d fa 54 00 be 59 15 d9 bd
       -0.11189815 0.11169695 -0.12532416 -0.10599775
000170 c1 da cf bd f5 57 82 bd 0a 92 cd 3d 3b 02 82 bd
       -0.10149146 -0.06364433 0.1003762 -0.06348082
000180 e0 8c 99 be b4 08 a0 3d 70 04 a2 3d 99 d2 5a 3e
       -0.29990292 0.0781416 0.07911003 0.21369399
000190 2d f2 c5 3d 88 5a ad 3d da 76 93 be a6 ce f4 3d
       0.09665332 0.08464533 -0.28801614 0.119534776
0001a0 79 7c 13 3e 02 69 ee 3d 33 7b 32 bd 35 c8 50 3e
       0.14402951 0.116411224 -0.043574523 0.20388873
0001b0 bf df 46 3f 9b 80 25 3e 93 4f 87 3e 62 4c 5d 3e
       0.7768516 0.1616234 0.26427898 0.21611169
0001c0 07 1b 97 3d 1d 5b 91 bb a5 ab 26 3f cb 4d c9 3d
       0.07378202 -0.0044359104 0.6510566 0.09829291
0001d0 d8 11 67 3d 66 c9 f3 3d cb 6d 94 3e d4 c7 1b 3d
       0.0564135 0.11903648 0.28990015 0.038032368
0001e0 81 d4 00 bd c6 77 71 bd 55 19 00 bd 5c 7c 14 be
       -0.03145266 -0.058952115 -0.03127416 -0.14500564
0001f0 f3 23 1d 3a e5 3c fe bd 26 9c c8 3d a7 16 4f bd
       0.00059944316 -0.124139585 0.09795408 -0.050558712
000200 3c 1d f6 3c 61 9f 1a bd 4e b3 92 bd bd 6c 05 3e
       0.030043237 -0.03774965 -0.07163106 0.13029762
000210 87 43 9f be 1c 03 42 3e 6f 52 cf 3e e5 59 0a 3e
       -0.31106207 0.18946499 0.4049258 0.13510855
000220 b5 d6 04 3e 3b a8 7a 3e 96 f6 5a bd 02 fb 43 3e
       0.12972529 0.24478237 -0.05345782 0.1913872
000230 e9 8e 91 3e 7c a7 82 3d 96 8a 24 bd 74 93 07 3e
       0.28429344 0.06379601 -0.04017123 0.13239843
000240 ab 10 2c 3e dd 85 02 3e bd 9d 07 3c b5 5f 12 3e
       0.16803233 0.12746377 0.008277354 0.14294322
000250 f3 19 eb bc a4 74 e7 bd 7c b7 2c 3e 78 a9 1e be
       -0.028698897 -0.11301544 0.16866869 -0.15494335
000260 02 f3 18 bd 82 c3 c3 bc 3b 58 66 3c cf 08 bf bd
       -0.037341125 -0.023896936 0.014059122 -0.09327852
000270 20 2d 12 3f ae 1e 21 3d 8e 14 d2 3c dc 60 a9 3e
       0.57100105 0.0393359 0.025644567 0.3308171
000280 cf 0c 20 bd c2 ce b9 3d 92 48 00 3f 8c 44 a5 bc
       -0.039074715 0.09072639 0.50110734 -0.020174287
000290 e9 6e 58 be c8 9d a4 3c 75 46 3a 3e 5f 47 6d 3b
       -0.21136059 0.020094767 0.1819094 0.003620587
0002a0 e6 17 67 3f 82 4e 08 3f c2 ec e7 3e b3 cd f6 3e
       0.9027084 0.53244793 0.4529782 0.4820381
0002b0 45 64 7a 3e d4 cb 5e 3d 61 0a 79 3f de f0 b3 3d
       0.24452312 0.054393604 0.9728146 0.08786176
0002c0 c8 0e 24 3e 89 26 28 3e d4 07 eb 3e 3d 45 88 3e
       0.16021264 0.1642095 0.4590441 0.26615325
0002d0 2c 30 43 3f 0e 5b 56 3e e5 0a 51 3e c9 90 9b 3e
       0.7624538 0.20933172 0.20414312 0.303839
0002e0 b6 1c 70 3d 2f 97 a8 3c 87 cd 24 3f 62 ef 53 3e
       0.05862113 0.020579902 0.6437611 0.20696786
0002f0 f9 29 04 3e 36 6a 47 3c a3 3f 86 3e c2 b7 a3 bd
       0.12906636 0.012171319 0.26220426 -0.079940334
000300 a9 ab 3e bd b4 0e 08 be 8e 4d 3f be 62 6a 26 3e
       -0.046550427 -0.13286859 -0.18681929 0.1625152
000310 b3 70 b9 3c db cf 2d 3c 3f 31 5f bf a0 10 17 3d
       0.022636747 0.010608639 -0.8718452 0.03688109
000320 5d a3 e9 3d 15 59 fc 3c 9c cd e4 bd c9 d3 6e bd
       0.11408112 0.030804196 -0.111720294 -0.058307443
000330 7c 94 3d 3f 32 3a 1f 3f 6e ec 26 3f 65 e5 0e 3f
       0.74054694 0.62198174 0.65204513 0.5581878
000340 66 60 80 3e 51 dc 67 3d 39 3d 62 3f e9 ae 8d 3e
       0.25073546 0.056606594 0.8837467 0.27672508
000350 e3 68 50 3e 2b fb f1 3d 70 fa fc 3e f7 b9 2d 3e
       0.20352511 0.118154846 0.4940982 0.16965471
000360 8d ee b6 3e 74 2e 3c bd 66 03 10 bd c6 5b 25 bd
       0.35728875 -0.04594274 -0.03515949 -0.040370725
000370 54 17 25 3d 47 9a 07 be 3d e5 a2 3e 1d b3 52 bd
       0.04030545 -0.13242446 0.3181552 -0.051440347
000380 ec 19 b8 be 50 dc 7a bd da 8f 4c 3e 5a bf 0b 3d
       -0.35957277 -0.061245263 0.1997675 0.034118034
000390 6d 97 8b bd c6 5b 1e 3d 07 00 33 bd 27 94 e1 bd
       -0.068159916 0.03866174 -0.043701198 -0.11014586
0003a0 cf cc c5 3d 90 cd 6d 3c 1e 76 87 bd 8b 58 f8 3c
       0.09658205 0.014514342 -0.06614326 0.030315658
0003b0 c8 73 33 3e 75 5e 09 3c 79 71 b5 bd e8 f7 d3 3d
       0.17524636 0.008384337 -0.08859534 0.10350019
0003c0 41 68 32 3f 6c 54 13 3e ed 6d 66 3e 11 7b a1 3e
       0.6969033 0.14387673 0.22502871 0.31539205
0003d0 c6 27 2d 3d 27 f6 08 3e 0d 86 0d 3f 3a bf 52 bc
       0.04227426 0.1337515 0.5528267 -0.012862975
0003e0 a6 63 a1 bd ab ba 5b 3d e2 e0 94 3e b8 70 6e 3d
       -0.078803346 0.053644817 0.29077822 0.058212966
0003f0 1b 99 44 3d d0 27 ad be 77 7b 96 be bd fd f6 bc
       0.047997575 -0.33819437 -0.2939107 -0.030150289

layer1.bias f4 [128]
000000 65 84 b4 bd 50 2c 12 be bc 99 ed 3c ed b3 ad bd
       -0.08814315 -0.14274716 0.02900397 -0.08481584
000010 96 e1 1a bd a0 a7 80 3e 06 bd 03 3e 00 1f c6 3d
       -0.03781279 0.25127888 0.12865075 0.096738815
000020 10 43 4b 3e cf d4 31 bc e3 c5 88 3d 63 8a 0c 3f
       0.19849801 -0.01085396 0.06678369 0.5489866
000030 2e db 3b be 07 b9 06 be 74 25 97 3e 33 05 97 bd
       -0.18345329 -0.1315652 0.29520762 -0.073740385
000040 b1 85 1e 3e 77 ab 56 3e 5f 0b 6f be 95 f2 b0 3d
       0.15480687 0.20963846 -0.23344181 0.08640019
000050 3a 91 02 be de 8d c3 bb 5c 10 99 3e 16 e0 af 3e
       -0.12750712 -0.0059678396 0.29895294 0.34350652
000060 e1 1e 38 bd 7f 63 0e 3e fa dd a8 3d 4a 39 ce bd
       -0.044951323 0.13905142 0.08245464 -0.10069521
000070 40 8f 6c 3e bf 2f 87 3e e4 51 fd bd 20 c3 58 3d
       0.2310152 0.26403615 -0.12369135 0.05292046
000080 f8 02 4c 3e 7c 37 34 3e 6d 83 ca 3e 12 f2 96 3e
       0.19923007 0.1759929 0.39553395 0.2948156
000090 59 ee 0c 3f ba 63 12 be 9d e9 1e 3b 4f 20 e8 bd
       0.5505119 -0.14295855 0.002424813 -0.113342874
0000a0 36 3b 0d 3d af a5 72 be 63 ee 08 3f d8 5e ba bb
       0.034480296 -0.23696016 0.5348875 -0.005687576
0000b0 4a 7b 6c 3e 0e 62 c9 3d d2 16 e3 3e ce a0 c9 3e
       0.23093906 0.098331556 0.44353348 0.39380497
0000c0 fd 86 3d 3e ab 80 99 bd 84 98 86 bd a5 c2 b2 3c
       0.18508525 -0.074952446 -0.06572059 0.02182133
0000d0 74 50 0c be 9d 25 ad 3e 5f 72 c6 bd 85 85 c8 bd
       -0.13702565 0.3381776 -0.09689783 -0.09791092
0000e0 82 ec d1 bd 12 2f 11 3f 48 79 a4 bd 26 de 40 bc
       -0.102501884 0.5671245 -0.08030945 -0.011771714
0000f0 08 c8 dd 3e 69 8e 18 be 75 fe d2 3e f7 40 fd bd
       0.43316674 -0.14898075 0.4120976 -0.12365907
000100 ac ed 6e bc dd 87 fe 3d c4 cc 0b 3e d8 c8 38 3d
       -0.014583033 0.124282576 0.1365233 0.045113415
000110 9f fa ed 3c cf 6d ab 3e bb 29 cd 3e 0b 74 b9 3e
       0.02905017 0.33482215 0.400709 0.36221346
000120 87 a1 c8 3e 97 cb 1e 3e 43 fd 73 be 5e 05 bd 3e
       0.39185736 0.15507351 -0.2382708 0.36918157
000130 2f 4a bc 3e 8d f8 9a 3b 51 41 00 3f a3 ab 0b be
       0.36775348 0.0047293366 0.50099665 -0.13639693
000140 f0 61 ae 3e f4 91 1c be 6e 83 04 3d 69 5d df 3e
       0.34059095 -0.15290052 0.032351904 0.43625954
000150 bd e7 f6 3e 58 2f a1 3e e0 f4 30 be 8f 6e e5 3e
       0.48223677 0.31481433 -0.17280912 0.44810912
000160 09 be 30 bd 5f d3 00 3f be da 22 3f 14 c8 fb 3b
       -0.04314998 0.50322527 0.63615024 0.0076837633
000170 54 75 4a 3d a2 02 03 3f 14 21 ca bd e6 27 bd 3e
       0.0494283 0.5117589 -0.098695904 0.36944503
000180 55 77 90 be 86 ca f5 3d 65 c7 c0 3e 48 99 02 3f
       -0.28216043 0.12001519 0.37652126 0.5101514
000190 56 50 c1 bd f0 c8 ea 3e 92 3d 4e bd 52 27 ef 3e
       -0.09439151 0.45856428 -0.050351687 0.46709687
0001a0 58 2a b7 3e 8b 89 99 3c 93 c8 46 be 2d 3c e6 bc
       0.35774493 0.018742343 -0.1941245 -0.028104866
0001b0 18 64 0e 3e 9c 30 ce 3e de 54 8a bc 8c 42 cc 3e
       0.1390537 0.4027146 -0.016886171 0.3989452
0001c0 b0 51 8b be f7 ca 46 bd 24 b4 ca bd c1 fd 0c 3e
       -0.2721076 -0.048533406 -0.0989764 0.13768674
0001d0 69 ea ca bd 25 d2 24 be 58 57 0c 3f 2b c7 39 bd
       -0.099079914 -0.16095789 0.54820776 -0.045355957
0001e0 7c 06 75 bd eb 5c cb 3e 71 ac 83 3e 56 2e fa 3e
       -0.059820637 0.39719328 0.257175 0.48863477
0001f0 5c 53 d1 bd 81 e3 e5 bd d2 0d bc 3e 97 b6 0b be
       -0.10220978 -0.112250336 0.36729294 -0.13643871

layer2.weight f4 [128, 128]
000000 e6 ad 5f bb 1f 1f 32 bd a7 7a 38 3f 1c da ae 3c
       -0.003413075 -0.04348671 0.7206215 0.021344237
000010 e9 7f 88 be e5 46 a7 3e fd 63 fe bc 55 4f 4a 3d
       -0.26660088 0.32671276 -0.031053538 0.049392063
000020 70 c1 84 3e 8a 52 9d be 7d ec 0c 3d fb 92 d0 3d
       0.2592883 -0.30727035 0.03440522 0.10184284
000030 12 f1 7e 3e ca cf 67 be d7 85 13 be 9c 56 92 be
       0.24896649 -0.22637859 -0.14406525 -0.28581703
000040 30 aa ec 3e cc f5 76 bd b4 df 3d 3d a2 f2 5f 3d
       0.46223593 -0.060293004 0.046355918 0.054674752
000050 8a be 3b be d9 bd c9 bc 5e 6f 7e 3e 9f 31 41 3e
       -0.18334404 -0.02462666 0.2484717 0.18866585
000060 f8 6e 03 3c a3 b2 1c 3d 61 8b a5 3b d2 52 11 bd
       0.0080220625 0.0382563 0.0050520157 -0.035479374
000070 b5 ce 91 bd c1 74 8b 3e 85 68 25 3d 51 30 4b 3c
       -0.07119504 0.27237514 0.04038288 0.012401656
000080 7e ff 88 3c 33 66 16 be 3d 13 45 3e 53 9e cf 3d
       0.01672339 -0.14687423 0.1924562 0.1013762
000090 c4 93 29 3e 00 ef 06 bd ae a3 55 bd 20 e2 d2 bc
       0.16560274 -0.032942772 -0.05215805 -0.02574259
0000a0 48 29 36 3e 8a f3 cf bc b0 c2 4f 3e b7 58 8e bd
       0.17789185 -0.025384683 0.20289111 -0.06950515
0000b0 7f bf bd ba 22 62 ce bc b4 c2 0d 3e b1 a5 0c 3e
       -0.0014476626 -0.025193278 0.13843805 0.13735081
0000c0 37 d0 04 bd 89 a2 99 bc 9c e5 91 3c 75 c1 bb bc
       -0.03242513 -0.01875426 0.017809682 -0.022919396
0000d0 15 41 c4 3b 7d 77 30 3e a2 05 d2 bc ac e9 01 3d
       0.0059892037 0.17233081 -0.025637452 0.031716987
0000e0 eb ce 13 3d 32 fb 89 3d d7 9a 9e be 8d 5f 0f be
       0.036086004 0.06737365 -0.30977508 -0.14001293
0000f0 b8 37 c0 3d b8 2d 06 be a0 18 35 bd 06 d2 57 bd
       0.093856275 -0.13103378 -0.044212937 -0.05269053
000100 d0 37 32 3d aa 07 01 be df 18 5b 3e 0f cc 3d be
       0.04351026 -0.1260058 0.21396206 -0.18534873
000110 8a 0e 61 3c 5d cb f7 3c 7d 03 f7 3d d0 67 6d bc
       0.013736377 0.030248338 0.12061212 -0.014490083
000120 62 14 c2 3c b4 9b 0e 3f 2e 64 18 be 2b 5b df 3d
       0.02369136 0.55706334 -0.14881966 0.10906061
000130 e9 d3 9a bd 87 70 09 bb 6d 8c 4d 3e 10 9a 00 bd
       -0.0755995 -0.0020971613 0.200731 -0.031396925
000140 69 38 83 bd 35 c0 c7 3d 22 5e a8 bc b6 8d 02 3e
       -0.06407244 0.097534575 -0.020552699 0.12749371
000150 de 2e 2c 3e 18 e2 d7 3d f2 b9 ab 3e c3 18 12 3e
       0.16814753 0.10541171 0.33540303 0.14267258
000160 a3 19 55 be 32 f2 d0 bc ae 77 bd bc 32 f3 f2 3e
       -0.20810561 -0.025506113 -0.023128357 0.47451168
000170 15 0d 05 bd de 5d 0a 3c 6a d9 1f bc f5 98 a2 3c
       -0.03248318 0.008445231 -0.009756425 0.019848326
000180 ce 17 47 3e d2 af bd bd d5 f5 df bc 0c 5b a2 3d
       0.19442675 -0.09262051 -0.027338902 0.07927522
000190 50 ef 0a bc 99 68 95 3d 7f 4e 0a 3d 23 75 52 3d
       -0.008479908 0.07295341 0.033766266 0.05138124
0001a0 81 17 80 bd 3f fe 35 3e c5 f4 65 be b5 21 59 bd
       -0.06254483 0.17772768 -0.22456653 -0.05301066
0001b0 70 b2 a4 bc 68 85 23 3e f8 e7 10 bd 15 bc 29 3e
       -0.020104617 0.15968859 -0.035377473 0.16575654
0001c0 59 47 19 be e9 c9 b4 bc 23 0f 14 3d 5d ca 34 3d
       -0.14968623 -0.022068935 0.036147248 0.0441383
0001d0 5a d0 c9 3a 49 f8 03 be 01 d5 17 3d 19 0d 34 be
       0.0015397177 -0.12887682 0.03706837 -0.17583121
0001e0 bb 24 33 3b 21 73 71 3d c0 63 29 3e af 34 e4 bc
       0.0027335125 0.058947686 0.16541958 -0.027857153
0001f0 c7 db 24 3c f2 9a 44 be 1e 10 da 3d 65 55 11 bc
       0.010062165 -0.19199732 0.10647605 -0.008870457
000200 66 05 59 bc ff 7f 8b 3c 65 3e 9d 3c 66 d1 87 3c
       -0.013245916 0.017028807 0.019194791 0.016579341
000210 75 c0 23 bd c6 be 0a bb 82 9f 02 3d 07 de 95 3c
       -0.039978463 -0.0021170839 0.0318904 0.018294347
000220 18 fa b6 3b f8 4d ae 3c a6 38 d7 3b d1 ee a6 bc
       0.0055840127 0.021277413 0.0065680323 -0.020377548
000230 c5 33 19 bd fb 73 21 bd b6 c5 25 bc d8 41 82 bc
       -0.037402887 -0.03941725 -0.010117939 -0.015900537
000240 fd 65 26 3d d5 3b db bc f7 ac 15 b9 63 96 10 3c
       0.040624607 -0.026761929 -0.00014274182 0.0088249175
000250 c8 9a ef 3c dd 1d b5 bc f0 0b ac 3c 2f 27 05 3d
       0.02924861 -0.022108966 0.021001786 0.03250807
000260 81 11 0e bc 12 7d e6 bc 7e 37 a7 3c c2 df c3 bc
       -0.008671165 -0.02813581 0.020412203 -0.023910407
000270 f4 2b 1a 3d ef 01 14 bd f0 14 84 3c 9a e0 44 3c
       0.037639573 -0.036134657 0.016123265 0.01201644
000280 3a 08 27 3d c1 2b 93 3b 0c ac 0d 3d f7 60 5f 3c
       0.04077933 0.0044913 0.034587905 0.013633958
000290 12 a6 d7 3c 3b 41 13 bd 8c 80 54 bb a5 e7 18 bd
       0.026324306 -0.03595088 -0.0032425253 -0.03733029
0002a0 4f 8b 02 3d 95 a0 9a 3b 1e 9a 19 bd a7 f5 fc ba
       0.031871136 0.00471885 -0.037500493 -0.0019299284
0002b0 3b 76 00 bc 7d 96 6d 3b c5 1f b2 3b 13 fc 38 bd
       -0.007840688 0.0036253028 0.005435916 -0.04516227
0002c0 cd a7 00 bd a7 0f 8d 3c ad 14 de 3c 22 62 b9 3c
       -0.031410027 0.017219378 0.027109468 0.022629801
0002d0 88 ea b2 3b e9 77 86 3c 5f 65 9d bc 11 51 1f bd
       0.005460087 0.0164146 -0.019213377 -0.03889567
0002e0 a7 0d ca 3b 86 61 b6 3c 0f bb 69 bc cb c8 18 3d
       0.0061661783 0.0222633 -0.01426579 0.037300866
0002f0 2d 7a 0c bd 00 cc 0a bd d4 3b c0 3c da 09 2b 3d
       -0.034296203 -0.033885956 0.023466028 0.041757442
000300 ab 6f 47 bc f3 60 87 bc 88 e0 4c 3c b4 3a 0a bd
       -0.01217262 -0.016525721 0.012504704 -0.03374739
000310 90 29 02 3d c7 62 0a 3d de 26 0f bc bd ac bf bc
       0.03177792 0.033785608 -0.008737294 -0.023397798
000320 f4 77 00 bd 60 1c bc bb 95 8c 79 3b 33 b4 92 bc
       -0.031364396 -0.0057406873 0.0038078178 -0.017908191
000330 4a 3b 14 3d 36 4a 4c 3c e4 04 2f bd d7 fe 5b bc
       0.036189355 0.012468865 -0.042729273 -0.013427458
000340 a5 43 b9 bc 7a ba 13 3c 8c 3d ee ba 05 ae 05 bd
       -0.022615263 0.009016627 -0.0018176301 -0.03263666
000350 81 d3 9c bc 59 36 f9 3c 73 8c 14 3d 83 07 59 bc
       -0.019143822 0.030421423 0.036266755 -0.01324642
000360 0e 95 c2 3c bf 81 e9 3c 9e 05 9c bc 08 e1 df bb
       0.023752715 0.02850425 -0.019045647 -0.0068322457
000370 e4 f7 e6 3c 55 d7 f9 bb fd 8f 14 3d 6f 46 c3 3c
       0.028194375 -0.0076245465 0.03627013 0.023837296
000380 32 33 ab 3c f8 48 32 bc b1 c6 b7 bb da 6f d3 3c
       0.020898435 -0.010881655 -0.0056084027 0.02581017
000390 39 c3 07 3d c3 b4 ed bc c1 9f 0a bd 1d ee 10 3b
       0.033145163 -0.029016858 -0.03384376 0.0022114583
0003a0 06 2d 0d bc 49 38 12 bd 54 72 c2 bc 36 6e 2d bd
       -0.008616691 -0.03569821 -0.023736157 -0.042341433
0003b0 ac a7 15 bd 58 ea e9 3c f7 7a ea 3c 0d 63 b2 3c
       -0.036536857 0.028554127 0.028623087 0.021775747
0003c0 dc 83 e3 3c 59 67 a2 bc 91 4c ac 3c db b9 d0 bc
       0.027772836 -0.01982467 0.021032603 -0.025479248
0003d0 21 e7 a1 3c d5 9a 28 bd 72 29 a1 3c df f4 c9 3c
       0.019763531 -0.041163284 0.019673083 0.024652896
0003e0 c3 cd 29 bc 08 70 0b bd 77 8b 8d 3c bf cc 73 3c
       -0.010363999 -0.03404239 0.017278416 0.014880358
0003f0 42 09 97 bb 74 36 d1 bc f7 38 37 3b 26 ad 83 b9
       -0.004609258 -0.02553866 0.0027957538 -0.00025115273

layer2.bias f4 [128]
000000 a2 27 ff 3c 3c fd 2f bd d3 45 55 bd 77 45 94 3e
       0.031146828 -0.042966112 -0.052068543 0.28959247
000010 b3 8b 0d 3d 4d 57 90 bc cc 60 3c bd c5 d1 09 bd
       0.034557056 -0.017619753 -0.04599075 -0.033647317
000020 64 06 9d 3e f3 00 66 3c 1b 77 84 3c a0 fe a4 bc
       0.30668938 0.014038312 0.016170075 -0.020140946
000030 aa 72 ef 3a ef e4 ea 3c c5 fd fa 3b d7 97 be bb
       0.0018268425 0.028673617 0.007659646 -0.0058164406
000040 4f 89 0c bd fa c8 a3 3e 6f fc c2 3d ea 3e 04 bb
       -0.034310635 0.3198927 0.09520804 -0.0020179101
000050 5b 5a 30 3d 7c e5 56 3e 7a 67 e9 3c 09 f4 80 bc
       0.04305492 0.20985979 0.028491724 -0.015741365
000060 38 a1 91 3c ce a0 c1 3d b6 41 01 bd e1 15 8a 3e
       0.01777707 0.09454499 -0.031556807 0.26969817
000070 26 8a 11 bd c2 f9 e3 bb 25 8f 1f bd e7 71 20 bd
       -0.03553214 -0.0069572637 -0.038954873 -0.039171126
000080 2a 57 71 bc c9 9e 84 3e eb 66 72 3d 7a 21 cd 3d
       -0.014730254 0.25902393 0.05918018 0.10016151
000090 77 d5 54 3e 68 00 f7 3c 42 1a 06 3e a3 fe 8d 3d
       0.20784555 0.03015156 0.13095954 0.06933334
0000a0 c6 8a c9 bc 2e c5 dc 3b 5c 48 d5 bc c0 64 49 bd
       -0.024602305 0.006737373 -0.02603548 -0.04916835
0000b0 cc 5b 68 3c ff 6e 1a 3e 75 6e 3d 3e 06 cf e8 bb
       0.014182042 0.15081404 0.18499167 -0.0071047572
0000c0 25 d6 82 bc 8f a9 37 bd e0 30 69 bc 68 98 78 bb
       -0.015971253 -0.044839438 -0.014232844 -0.0037932638
0000d0 e8 dd 22 bd 97 83 0f bd 31 e8 8f 3e d5 84 66 3e
       -0.039762408 -0.035037603 0.28106835 0.22511609
0000e0 df 5a c2 3d b9 92 ff 3b d3 b7 78 bb 19 e6 1b bd
       0.094899885 0.007799473 -0.0037951365 -0.038061235
0000f0 2b b7 06 bc 71 72 93 bc 71 7a b3 bc e8 56 69 bc
       -0.008222382 -0.017998906 -0.02190897 -0.0142419115
000100 a5 ff f2 ba 32 a7 cc 3c 28 3e ab bb 14 c0 23 bd
       -0.0018539323 0.024982069 -0.0052259155 -0.0399781
000110 b8 2a 95 3e a1 bc ef 3c ac d5 4d 3e 61 bb 33 3d
       0.29134154 0.02926475 0.2010104 0.04387987
000120 21 33 5c 3c 62 3d 70 3e e8 05 51 bc e0 14 0c ba
       0.013439924 0.23460916 -0.012757756 -0.0005343687
000130 9b ca 1c bd 7a 9c d5 3d 8c 80 09 bb 57 69 17 3c
       -0.038279157 0.10430236 -0.002098116 0.009241424
000140 bd e5 5b bc 09 d4 31 bc 0c e5 06 3c 26 5f a2 bc
       -0.013421473 -0.010853776 0.00823332 -0.019820761
000150 62 2a 1e bd 32 e9 67 3c 7a 2b ad 3b 08 a3 d8 bd
       -0.03861464 0.014154719 0.005284724 -0.10577971
000160 4a 96 91 3c 85 b8 13 bd 80 ce 31 3b 06 cc ac 3b
       0.017771859 -0.036064643 0.002713114 0.005273345
000170 80 61 2d 3e dc bf 84 3e b7 51 79 3e e6 6b f9 3c
       0.16931725 0.25927627 0.24347578 0.030446958
000180 84 cf 3f bd 45 bd 0a 3e 66 cb 00 bd f3 99 31 bc
       -0.04682876 0.13548763 -0.031443976 -0.010839927
000190 85 95 17 bd 4f d6 32 bc 50 c7 00 3d 06 29 00 3d
       -0.037007827 -0.010915353 0.03144008 0.031289123
0001a0 c1 b7 fb bc b4 26 23 3e cc 07 43 3e 8a 9e 09 bd
       -0.03072727 0.15932733 0.19045943 -0.03359846
0001b0 02 0a 0e bd d2 89 82 38 ac fc 8e 3e c2 bd b7 3b
       -0.034677513 6.224554e-05 0.27927148 0.0056073377
0001c0 5e cb cc bb 74 02 4a bc bf a5 b5 3c 4a 3f d7 3c
       -0.006249829 -0.012329686 0.02217376 0.026275296
0001d0 30 52 fb 3c b0 c9 a9 bc 3d 84 0c 3d cc 6e 9b 3c
       0.030678838 -0.020726055 0.0343058 0.01897373
0001e0 4c 88 1a bd 25 b1 25 bc 18 28 29 bd eb 8a e7 3d
       -0.03772764 -0.010113035 -0.041298002 0.113057934
0001f0 f1 9f eb 3b 5a df 8e 3e 01 11 11 3d 6f 2d 31 bd
       0.0071906974 0.2790478 0.035416607 -0.04325622

layer3.weight f4 [128, 128]
000000 dc f9 a9 3b e6 60 0b 3d 7c 29 8f bc 0a 6a 02 3d
       0.0051872563 0.034027956 -0.017475836 0.031839408
000010 c3 1e 65 bc bd ce 9c bc 7a bb e3 3c 0e 6f 04 bd
       -0.013984385 -0.01914155 0.027799357 -0.032332473
000020 3d e4 bd 3b 2f a4 b3 bc 93 52 ee bc 75 88 dc 3c
       0.0057950304 -0.021928875 -0.029092109 0.026920537
000030 58 29 2c bc d3 a8 b3 bb 8c 8b 06 bb 41 cf 1a bc
       -0.010507904 -0.005482772 -0.0020529954 -0.009448827
000040 c9 ee df bc 30 2d 3a bc 12 ee a4 bc 76 b0 fd 3c
       -0.027335541 -0.011363313 -0.020133052 0.030967932
000050 3c 5e df bc f8 68 0e bc 88 56 09 3d f0 8a 80 bb
       -0.027266614 -0.008692019 0.03352979 -0.0039228126
000060 a9 c1 ae bc 4e b6 01 bd 84 90 1b bb a0 50 07 bd
       -0.021332579 -0.031668 -0.002373726 -0.033035874
000070 ea 46 86 3c 17 24 db bc 5d 92 1d bd 21 7d bc bc
       0.016391236 -0.026750607 -0.03846966 -0.023008885
000080 2f 2e b2 bc d8 c8 a3 bb 45 81 ec 3c b9 f1 09 bd
       -0.021750538 -0.0049983077 0.028870234 -0.03367779
000090 e7 2f 05 3d fd 19 00 bd 05 9a f0 bc a3 9a 81 bb
       0.032516386 -0.031274784 -0.029370317 -0.0039552017
0000a0 8e 2b 82 3b 5b 00 98 bc 4a 1a e2 3c 13 d9 ff 3c
       0.0039724773 -0.018554857 0.027600426 0.031231439
0000b0 a5 88 2d bd fd 38 b7 3c 49 1a 28 bd ad 1e 28 bd
       -0.042366643 0.022366041 -0.041040692 -0.04104488
0000c0 5d 2b 0e 3d b9 4b 13 bd 76 6b 1d bd 37 a2 28 bc
       0.034709323 -0.035960887 -0.03843256 -0.010292581
0000d0 14 89 fe 3c c8 b0 23 bd 3c 64 33 bd ef a8 61 bd
       0.031071223 -0.039963514 -0.043796763 -0.05509275
0000e0 71 b5 ef bc e2 19 26 3c a0 c2 20 bd 76 14 bf bc
       -0.029261323 0.010138007 -0.03924811 -0.023325186
0000f0 5f 51 8b bc ba 14 6f 3c 84 8a 2a 3d f5 19 76 3c
       -0.017006574 0.014592344 0.041636005 0.015020837
000100 4d 2a 16 bd f7 91 39 3c ca e1 0e 3d 04 27 e5 bc
       -0.036661435 0.011326305 0.034883298 -0.027972706
000110 e0 db c0 bc 23 e4 b8 bc a3 c2 16 3d 8f 6b bd bc
       -0.023542345 -0.022569722 0.036806714 -0.023122577
000120 c2 8b 50 3c 82 8c cf bc 61 ef f3 bb 75 54 30 3d
       0.012728633 -0.025335554 -0.0074443077 0.043049295
000130 7b fa 21 3d f1 66 bb 3c c4 a0 a4 bc ac da 8b 3c
       0.039545517 0.022876235 -0.02009619 0.017072044
000140 dc ac db 3b c0 9c 88 bc 6d 38 ad 3a fd 71 91 3c
       0.006703956 -0.016676307 0.0013215669 0.01775455
000150 a3 21 18 bd 86 34 d0 3c 61 94 b9 bc db 8a ba bc
       -0.037141453 0.02541567 -0.02265376 -0.02277129
000160 b2 2b 2e bd 5a 6c a2 bb 81 58 28 bd 7f b3 07 bd
       -0.04252214 -0.004956764 -0.04110003 -0.033130165
000170 9f 9d 6f bc 0b b9 42 bd 11 29 98 3c 27 63 9d 3c
       -0.014624982 -0.047539752 0.01857427 0.019212319
000180 12 62 0c bd d2 55 ac bc 68 e4 4b bb 1e 3c 57 3c
       -0.034273215 -0.021037016 -0.0031111483 0.013136892
000190 89 e5 11 bd eb de 2c 3d d1 7d 10 3d bc b2 a1 bb
       -0.035619292 0.04220478 0.035276238 -0.004934637
0001a0 7a 7a e8 3b 0f 6a 2d 3c ff 33 c2 bc 19 6f af 3c
       0.0070946785 0.010584368 -0.023706434 0.02141528
0001b0 31 7d 65 3c 38 14 27 bd 2b c4 a3 3c 49 52 08 bd
       0.014006899 -0.040790766 0.019991001 -0.0332816
0001c0 7c 18 84 3c 0c f6 8e bc 74 61 00 3c 1c 4a d7 ba
       0.016124956 -0.017451309 0.007835735 -0.0016425285
0001d0 5f 47 bf bc ac 98 99 bc 50 13 fc 3b e5 6c de 3b
       -0.023349462 -0.018749557 0.007692732 0.0067878836
0001e0 74 a6 20 bc 05 fc fb bb b9 fe a0 3c 6c 50 2e bd
       -0.0098053105 -0.007689955 0.019652711 -0.042557165
0001f0 6e 92 90 bc 1b 23 11 bd 86 e1 ae 3c 24 db 88 bc
       -0.017647948 -0.03543387 0.021347772 -0.016706057
000200 a8 02 eb 3e bb 4e a0 3b 06 73 06 3f 82 d9 e6 bd
       0.45900464 0.004892198 0.5251926 -0.11271955
000210 72 52 0f 3f 05 a9 b0 bc ff 33 f3 3e 8a d6 ee 3e
       0.55985177 -0.02156497 0.47500607 0.46648055
000220 44 16 da bd 18 01 fa 3b 61 1e 28 bd ca d0 03 3f
       -0.10648778 0.007629525 -0.041044597 0.5149046
000230 ab b1 1e bd df f6 b0 bb 63 ed fe 3e c2 48 d9 bc
       -0.038743656 -0.005400523 0.49790487 -0.026523951
000240 7d 94 03 bb aa 7d 3e 3e 17 de be 3e 8d c0 0e 3d
       -0.002007752 0.18602625 0.37278816 0.0348516
000250 c3 b9 ab 3e bd ff 48 bd f5 8c 0a bd cc a0 e1 3e
       0.33540162 -0.049072016 -0.033825833 0.4406799
000260 fa 24 fd 3e 06 08 75 3d e2 df 94 3c 84 5a c1 3e
       0.49442273 0.059822105 0.018173162 0.3776437
000270 7a 87 fc 3e 09 4f fb 3e 82 26 01 3f e2 0c 22 bd
       0.4932211 0.49083737 0.50449383 -0.039563067
000280 10 e5 81 3b 40 e9 16 3d 5e 74 1a 40 f9 41 1c 40
       0.003964074 0.03684354 2.4133525 2.4415267
000290 2a a0 3f 3e 38 3e 33 3d 1d 92 25 be 73 8d 21 40
       0.18713441 0.04376051 -0.16169019 2.5242584
0002a0 6f 20 10 bd 75 1d 0c 3d 82 35 f7 3e c7 58 06 3f
       -0.03518718 0.03420778 0.4828301 0.52479213
0002b0 be 5f ff 3e 12 a1 52 3d 0c 2d af bd a3 a0 08 3b
       0.49877733 0.05142314 -0.08553514 0.00208477
0002c0 de ee 0b 3f 5e 54 0e 3f b9 5f 07 3f 69 c0 3a 3e
       0.5466136 0.55597484 0.52880436 0.18237461
0002d0 dc 21 00 3f 72 86 22 bc c0 6b cb bd e1 b7 cc 3e
       0.50051665 -0.00991975 -0.09932661 0.39984038
0002e0 db 8b b8 3e 42 a1 08 3f 8e d2 10 3c 29 1d 04 3f
       0.360442 0.5337106 0.008839263 0.51606995
0002f0 dc ee 26 bd ec 34 03 3d bc f7 1e bd a1 05 91 bc
       -0.040755138 0.032032892 -0.038810477 -0.01770288
000300 0e 20 06 3f 89 3c d1 3e c4 d3 04 3f 32 43 9c bc
       0.5239266 0.40866497 0.5188563 -0.01907501
000310 b2 a8 5f bd fa 1b 06 3f 45 01 32 3c 9b 13 95 3e
       -0.05460424 0.5238644 0.0108645605 0.2911652
000320 7f a1 e2 3e 96 86 da bd 64 3c 12 bd 59 3e 3f bc
       0.44263837 -0.106702015 -0.035702124 -0.01167258
000330 6c a6 1a bc f1 d9 07 bd c4 ac 07 bd be 99 d0 bb
       -0.009439092 -0.03316683 -0.033123747 -0.0063659837
000340 d1 74 e8 bc b6 7f f9 3e 75 ef 91 bb af 1d d5 3e
       -0.028376015 0.48730248 -0.0044535943 0.4162421
000350 ec 3d f5 3e 05 fb af 3e 38 4e 4f 3b e8 02 d4 3f
       0.47898805 0.343712 0.0031632315 1.6563387
000360 5c 87 06 3f 80 b0 95 3a a2 c2 e4 3e c7 2f b0 3c
       0.5255029 0.0011420399 0.44679743 0.021507157
000370 ba e0 ef 3d 02 42 18 bd 24 e8 c1 3d be 4f 08 3f
       0.11712785 -0.037172325 0.094681054 0.53246677
000380 f7 8d fd 3e 35 46 cd 3d a8 e2 1d 3d ab 81 f3 3e
       0.49522373 0.100231566 0.038546234 0.47559866
000390 66 9b 09 3f 01 89 ae bc 6a e6 23 3d 23 59 a9 3e
       0.53752744 -0.021305563 0.04001466 0.33075818
0003a0 f2 78 87 3c 69 74 ef 3d 21 81 ab bd 1f 61 ea bc
       0.016537163 0.11692125 -0.08374239 -0.028610764
0003b0 7a b4 21 bd 47 86 b6 bb b5 06 32 bd fd 8d 71 bc
       -0.039478756 -0.0055702063 -0.043463428 -0.014743325
0003c0 94 d7 8b bc 97 6b d4 bc 68 c9 06 3f bf 13 f7 bc
       -0.01707057 -0.02593021 0.5265107 -0.030160783
0003d0 d2 d5 16 3c 81 30 e4 bc e1 b4 08 3c af 46 11 3f
       0.009206252 -0.02785516 0.008343906 0.5674848
0003e0 5e 8a 22 bd 9e 1b 03 3f 94 f0 9e 3c d0 c6 1c 40
       -0.03968274 0.51214015 0.019401826 2.4496346
0003f0 41 fa 29 3d 17 52 68 bd 6a 82 f4 bb c6 5a 9b 3e
       0.041498426 -0.056718912 -0.0074618356 0.30342692

layer3.bias f4 [128]
000000 0e 81 11 3d cb 7d bd 3d 4c fc 5e 3e f8 87 b0 3d
       0.035523467 0.09252509 0.21775931 0.08619684
000010 8f c6 57 bc 70 f6 80 3e e8 a3 33 3c b9 3c 6b 3d
       -0.013169899 0.25188017 0.010964371 0.057430957
000020 6d 5f 3f 3d 8b 4e 80 bc 03 19 61 3c 28 1b 97 bd
       0.046721864 -0.015662452 0.013738873 -0.073782265
000030 3f 3d dd 3b 76 c6 8f bd 9e bd 15 bd d5 71 0c 3e
       0.006751686 -0.07020275 -0.036557786 0.13715298
000040 81 35 1b 3e c4 9a c8 bc 7c 4a 91 3e 43 4e 32 bb
       0.15157129 -0.02448786 0.2837714 -0.0027207292
000050 d5 bf 78 3b fe c5 a2 bd 9d e3 b9 bd bb 89 ca bd
       0.0037956138 -0.0794792 -0.09076617 -0.09889551
000060 1d b1 32 3e 1f c1 aa 3e 04 91 9e bc 09 75 8f 3c
       0.17450376 0.33350465 -0.019356258 0.017511861
000070 81 8c c9 3d a5 88 b0 3c 13 36 97 bb 36 ed fd bc
       0.09841252 0.021549532 -0.0046146004 -0.0309969
000080 35 7e 2a 3e 51 a6 63 3e 45 cc 3b 3b 27 3a 26 3e
       0.16649707 0.22231413 0.002865569 0.16233121
000090 4f 64 e5 3d d2 c9 63 3c 15 c7 2c 3e 12 7d 21 bd
       0.11200773 0.013903098 0.16872819 -0.039425917
0000a0 89 f7 b7 bc 19 49 62 3e a6 96 2e 3e 22 90 39 3e
       -0.022456901 0.22098197 0.17049655 0.18121389
0000b0 8d 9d be bc d3 d3 38 3c 90 5e df bc a0 b1 18 3e
       -0.023268485 0.011280972 -0.02726677 0.14911509
0000c0 d3 20 10 3e a7 80 62 bd e3 f8 1b 3e 15 7a ed 3d
       0.14075021 -0.055298474 0.15231661 0.11595551
0000d0 c9 29 e1 3d 14 1b 51 bc 75 b0 f1 3b 85 76 3b 3e
       0.10994298 -0.012762804 0.0073757716 0.1830693
0000e0 38 fc c4 3a f0 d8 0e 3e cb d9 3e bd a5 e3 88 bc
       0.001502878 0.13949943 -0.046594422 -0.016710112
0000f0 80 11 bc 3d 2d 5e a8 3e 20 8c cb 3d 79 f0 04 bd
       0.09183025 0.3288435 0.09938836 -0.032455895
000100 8f 58 77 bc d5 73 e0 3d a5 fd 16 3e a7 07 85 3e
       -0.015096798 0.10959593 0.14745195 0.259824
000110 a0 fa f4 3d 1e b4 1c 3e e7 7d 42 3e 9f 5b de 3c
       0.119618654 0.15303084 0.1899334 0.027143298
000120 d0 55 33 bd 27 4d a6 3d 5f a6 1c bd 1b 0f fe 3c
       -0.04378301 0.081201844 -0.0382446 0.031013062
000130 66 cf 1a bd 5f 88 15 bd 8e 09 a2 3c 89 b6 34 bd
       -0.037795447 -0.036507007 0.019779947 -0.04411939
000140 e8 32 4d 3c 43 e1 26 bc 2c a6 fa bc 4a a3 b3 3e
       0.012524344 -0.0101855425 -0.030596815 0.35085517
000150 04 10 b5 bb 73 d9 4d 3d 0a f4 25 3e 99 1d 1f 3e
       -0.005525591 0.050256204 0.16206375 0.15538634
000160 8a 9c ac 3e 12 ec 3a 3c bb 33 a8 3e 40 75 ce bb
       0.3371318 0.011408823 0.32851967 -0.0063005984
000170 5b 0f f8 3d d0 9e cf 3a 0d 87 8d bd d8 10 2c 3d
       0.12112304 0.0015840176 -0.069105245 0.04200825
000180 b8 48 2f bd 27 cc 81 3e d2 3e cc bd 01 aa 0c bb
       -0.04279396 0.25351068 -0.099729195 -0.0021463635
000190 a9 82 34 bc d0 78 70 3e 1a 75 12 bd a5 bd 1b bd
       -0.01101748 0.23483586 -0.035756208 -0.038022656
0001a0 f6 45 1b bd a0 7d ad 3c ba 9f a9 bd 5e df 86 3e
       -0.037908517 0.021178067 -0.082824185 0.2634229
0001b0 cf 5f 20 bd b4 fd 43 bd 23 08 46 bd da ab 4d 3e
       -0.03915387 -0.047849372 -0.048347604 0.20085087
0001c0 46 e1 38 bd 10 d2 8a bd d7 6f 5f bd ee ae 07 3a
       -0.045136712 -0.067783475 -0.05455002 0.0005175908
0001d0 b1 1f cb bc 19 09 f8 3d 57 80 24 3e 6d 47 23 3e
       -0.024795385 0.1211111 0.16064583 0.15945216
0001e0 fe ce 1a 3e 2e b3 37 bd a3 34 d4 3d bd f0 7c 3e
       0.15118024 -0.044848613 0.10361602 0.2470121
0001f0 74 e6 83 3e 27 3c f2 bc 78 c0 ca 3c 9f c3 39 3e
       0.2576176 -0.029569698 0.02474998 0.1814103

output_layer.weight f4 [9, 128]
000000 0d 00 b9 bc 86 09 d7 be 20 9c 1d 3e 51 94 55 bf
       -0.022583032 -0.41999453 0.15391588 -0.8342944
000010 e2 7e 49 be f8 84 d0 3d 12 43 c6 bc d0 1d 43 bf
       -0.19677308 0.10181612 -0.024201903 -0.76217365
000020 13 91 f5 bd be 37 c2 3c bc 87 d8 3b f1 ca 5e be
       -0.11990561 0.02370822 0.0066079777 -0.21757104
000030 19 2d 80 be 59 00 85 be 86 24 da bc 1f 05 a5 3e
       -0.25034407 -0.25976828 -0.026628744 0.3223047
000040 3e ea b9 3e 04 5e a8 3c 78 f7 87 be f3 57 7a 3d
       0.36311525 0.020552643 -0.2655599 0.06111903
000050 34 44 c5 bc ca 33 81 be 2b c4 82 3a 6b c0 ba 3c
       -0.024080373 -0.25234824 0.0009976676 0.02279683
000060 1e da 6f 3e 27 bd a1 be 19 a2 f9 bb f2 4a 9b bd
       0.23423049 -0.31589624 -0.0076182005 -0.07582654
000070 8d 63 be 3e ac 45 09 bd 72 a9 4d 3c 1c bb 2c bc
       0.37185326 -0.03351371 0.012552606 -0.010542657
000080 66 c1 ba 3e c1 ae 18 3c be 1f 20 be ce 6a 99 3e
       0.36475676 0.009319008 -0.15637109 0.29964298
000090 66 5b 7d be d1 cf a1 bc 12 79 42 3e 27 04 8d be
       -0.24741897 -0.019752415 0.18991497 -0.2754223
0000a0 91 79 25 3d 18 69 b3 3e f4 7f 68 3e 25 8a 3a 3e
       0.040399138 0.35041118 0.2270506 0.1821676
0000b0 6f ce 15 3e 60 91 1f bd 5b 80 e5 bc f6 6f bb 3e
       0.1462953 -0.038957 -0.028015306 0.36608857
0000c0 23 30 bb 3e 0c 3b 45 be 97 af 9c 3e 23 bf ed be
       0.36560163 -0.19260806 0.30602714 -0.46434888
0000d0 46 86 ab be 74 33 07 3d b9 74 e2 bc 50 f9 82 3e
       -0.3350088 0.033008054 -0.027643548 0.25580835
0000e0 21 00 4f be 47 ab 55 bf 22 c3 83 3e 3f 21 32 3c
       -0.20214893 -0.83464473 0.25734812 0.010872184
0000f0 f5 2b 8a be 72 05 d7 be df 3b 54 bf 6b 6d 85 be
       -0.26986662 -0.41996342 -0.82903856 -0.26060042
000100 d2 66 3b bc 4d a7 c7 3e 7e 43 a7 3e 9c 9c 86 be
       -0.0114380885 0.38994828 0.3266868 -0.26291358
000110 d5 60 e2 be 28 37 74 be f8 17 ed 3d 6d 88 48 ba
       -0.44214502 -0.23849165 0.11576837 -0.00076497236
000120 50 01 5e 3e dc 2e ca be f8 3e 97 be 2b 90 2a bf
       0.21680188 -0.39488876 -0.2954023 -0.6662623
000130 63 7d 0e bd 5e cb e6 bc a3 7f dc bd db 64 a2 3d
       -0.034787547 -0.028173145 -0.10766532 0.07929393
000140 f1 30 7d be c1 76 a5 bd 6d ee a4 bc 83 a2 a9 be
       -0.24725701 -0.08079291 -0.020133222 -0.331318
000150 45 69 b1 bc 47 64 5a bf c0 73 58 3e aa a0 e0 be
       -0.021656642 -0.8530926 0.21137905 -0.43872577
000160 0e 1d 90 be 63 c7 61 bc 7a 95 93 be e0 75 10 3d
       -0.28147167 -0.013780448 -0.2882498 0.035268664
000170 48 9f 73 be af a7 80 be 24 99 94 3e eb 0b 32 bb
       -0.2379123 -0.25127932 0.29023087 -0.0027167748
000180 b4 f4 e7 bb be 3a cc 3d 22 a1 8b 3d 25 8a 7b be
       -0.0070787314 0.09972142 0.06817843 -0.24564417
000190 85 f0 04 3c ee f6 b6 be 22 ce 19 3d 3b b2 5d bd
       0.008113985 -0.35735267 0.0375501 -0.054125052
0001a0 62 0e 2d bf 07 40 25 be c9 33 14 bf 8a c3 ca be
       -0.6760007 -0.16137706 -0.5789152 -0.3960231
0001b0 5f ae 72 3c d7 8b 9c be 17 55 1e 3a a8 3d 07 bd
       0.014812081 -0.3057544 0.0006039901 -0.033017784
0001c0 ce 78 4a be e1 74 85 bd a7 97 2f be ef 54 1d 3d
       -0.19772646 -0.065164335 -0.17147695 0.038411077
0001d0 aa 12 84 be fe 99 ad 3e 9d 8e ab 3e 23 8e 41 3e
       -0.2579549 0.3390655 0.33507243 0.18901877
0001e0 ce 2d 4e 3e d7 de 03 bd 9d 43 79 be af 4d 18 3d
       0.2013466 -0.03219494 -0.24342199 0.03718346
0001f0 6e 91 da 3c e5 4b 84 bc 75 3a 3d bf 9d 81 87 3e
       0.026680674 -0.01614947 -0.73917323 0.26466075
000200 7c 37 0d 3d 5e 2f b4 be 56 09 06 3e 5f 53 51 bf
       0.034476742 -0.35192388 0.13089499 -0.8176784
000210 07 5f 4a be 08 77 0a 3e 5e f7 cd bd c9 4c 54 bf
       -0.19762813 0.1352197 -0.10056947 -0.82929665
000220 15 6d 1f be bd f3 2c 3d ea 40 ee 3c 2e e6 4a be
       -0.15568955 0.042224634 0.029083688 -0.19814369
000230 4e 14 33 be 05 63 61 be df 2e db 3c e3 c7 9d 3e
       -0.17488214 -0.22010429 0.026755748 0.30816564
000240 39 eb a7 3e 4d 5d 6c 3c fd 33 a5 be ca bf 9b 3d
       0.32796648 0.0144265415 -0.32266226 0.0760494
000250 7e 9a bf bb d2 df 4d be 62 a2 fc 3b 34 17 4b 3d
       -0.0058472743 -0.20104912 0.007709787 0.049582675
000260 ca 74 75 3e ca 8a b8 be 3f f0 f6 3c b6 d9 ea bd
       0.23970333 -0.36043388 0.030143855 -0.11467306
000270 50 a0 af 3e 99 62 2e bc 70 4d 0d bd 78 5c f4 bc
       0.34301996 -0.010643625 -0.03449768 -0.029829249
000280 92 7d 96 3e 2d c6 e1 3d 92 a1 35 be 00 16 94 3e
       0.29392678 0.11024127 -0.17737415 0.28923035
000290 70 16 83 be 8b ef 12 bd 80 80 67 3e 30 f9 4d be
       -0.25603056 -0.035872977 0.22607613 -0.20114589
0002a0 f6 4b 8a 3c 24 fe 9b 3e 46 7d 6a 3e ca 4f 81 3e
       0.016881924 0.3046733 0.2289935 0.25256187
0002b0 0a 68 1d 3e 0b 44 e5 bc c4 1f d4 b9 83 63 af 3e
       0.15371719 -0.027986547 -0.00040459458 0.3425561
0002c0 2b 09 9e 3e ff 7e 0f be 6d 97 9e 3e 4f 80 d7 be
       0.3086637 -0.14013289 0.30974904 -0.4209008
0002d0 0f 35 c0 be 21 b6 1e 3d 24 fa cb 3c db 44 a0 3e
       -0.3754048 0.03874791 0.02489955 0.31302533
0002e0 22 a0 43 be c3 b6 5e bf bc 07 4e 3e 95 13 cd 3a
       -0.19104055 -0.8699762 0.20120138 0.0015646095
0002f0 6c 49 74 be d1 42 de be 0a 65 42 bf f8 13 25 be
       -0.23856133 -0.43410352 -0.75935423 -0.16120899
000300 b7 f8 8e bd d2 75 a9 3e df ce a9 3e 35 22 90 be
       -0.06981032 0.33097702 0.33165643 -0.28151098
000310 47 84 c2 be 49 c4 69 be 41 a8 51 3e 57 9a b6 bc
       -0.37991545 -0.22828783 0.2047434 -0.022290392
000320 98 ed 15 3e 28 49 9d be 7a 95 60 be 22 3e 30 bf
       0.14641416 -0.30719876 -0.21932021 -0.6884481
000330 8e d9 31 bd 8a f5 cb bc 42 fc 3e be 52 92 62 3b
       -0.043420367 -0.024897356 -0.18650916 0.0034572077
000340 71 7c 2d be 91 28 d6 bd 30 d1 cc 3c 37 3a 9e be
       -0.16942002 -0.10456956 0.025002092 -0.3090379
000350 69 49 54 bd 33 61 59 bf 53 91 80 3e 33 48 bc be
       -0.051827822 -0.8491394 0.25110874 -0.36773834
000360 d6 79 ab be f1 a3 b7 bc 18 b1 9f be 99 8e a6 bc
       -0.3349139 -0.02241704 -0.311898 -0.020331668
000370 b0 dd 78 be 8e 53 1d be 5c 08 8c 3e e1 9d ec 3c
       -0.24303317 -0.15363905 0.27350128 0.028883876
000380 1d f2 c4 3c 0c b4 11 3e 64 9a d0 bc 0b 02 58 be
       0.02404123 0.14228839 -0.025464244 -0.2109453
000390 ad 4a 3a 3d 16 d4 ac be 8b d5 24 3d a5 1f be bc
       0.045481373 -0.3375556 0.040242713 -0.023208449
0003a0 ec 51 36 bf c3 04 06 be 62 2c 1d bf e6 4d b6 be
       -0.7121875 -0.13087754 -0.6139585 -0.35606307
0003b0 ee fc d7 bc cc 68 5f be 4f 8d f1 bc 11 77 06 bc
       -0.026365723 -0.2181732 -0.029486327 -0.008207099
0003c0 5a 0a 5c be 0c 31 0e be 7b 00 5b be 6b 98 a2 3c
       -0.21488324 -0.13885897 -0.21386902 0.01984807
0003d0 73 17 44 be 46 ef 96 3e 5a b1 9a 3e 6e f1 73 3e
       -0.1914957 0.29479426 0.30213434 0.23822567
0003e0 ab 70 68 3e 0a 0a 2a bd 84 c8 a1 be ce 32 9c 3d
       0.2269923 -0.04151348 -0.31598294 0.07626878
0003f0 6e c9 76 3d 71 13 c8 3c 57 5a 3c bf 1d 20 84 3e
       0.060250692 0.024423333 -0.7357535 0.2580575

output_layer.bias f4 [9]
000000 4a 31 34 be 5f 7e 0f be dc 18 ec bd 26 39 b0 bd
       -0.17596927 -0.1401305 -0.11528179 -0.0860465
000010 7e fc a4 bd 3a 2f c3 bc 2c 92 8d bd 8f e9 70 bd
       -0.080559716 -0.02382623 -0.06912646 -0.05881649
000020 b0 ed e1 3d
       0.110316634
