results/train/SAC_distance_30m/best_model.pt (torch, 184143 bytes, 6 tensors)

linear1.weight f4 [192, 40]
0	0xbbe2d7db	-0.0069227046
1	0x3e81fd43	0.25388536
2	0x3e87292e	0.26398605
3	0xbf2e9b9c	-0.6820619
4	0x3c8f53e5	0.017496059
5	0x3e1c3658	0.15255105
6	0xbf134d09	-0.5753942
7	0x3e089b03	0.13340382
8	0xbd2b154c	-0.041768357
9	0x3e3f9afb	0.18711464
10	0xbe7986d7	-0.24367844
11	0xbbfc2fa9	-0.007696111
12	0x3de17490	0.11008561
13	0x3e2291e9	0.15875973
14	0xbd598b2e	-0.053111248
15	0x3e46ebef	0.19425939
16	0x3e3d7891	0.18503024
17	0xbc81d507	-0.01584865
18	0x3d88e761	0.06684757
19	0x3e82bd50	0.2553506
20	0xbd3d8171	-0.046266023
21	0xbe3cba93	-0.18430547
22	0x3db97a9c	0.09056589
23	0x3e77e2b6	0.24207577
24	0x3e82e540	0.2556553
25	0xbdf34cef	-0.11879908
26	0x3cf64d1a	0.030066062
27	0x3e4594df	0.19295071
28	0x3e86fd45	0.26365104
29	0x3db85945	0.09001402
30	0x3d5ccb43	0.053904783
31	0x3e0b41b8	0.13599288
32	0x3e6fd96d	0.23422785
33	0x3e0790e0	0.13238859
34	0xbe432609	-0.19057478
35	0x3e370555	0.17873128
36	0x3ddc630a	0.10761078
37	0x3e0e5ce3	0.13902621
38	0xbe1b6db8	-0.15178573
39	0x3e430dfb	0.19048302
40	0xbdcf2190	-0.101138234
41	0xbafaa154	-0.0019121566
42	0x3e493fd7	0.19653259
43	0xbf17f4f7	-0.5935816
44	0xbd49cbd1	-0.04926664
45	0x3cbda41a	0.023149539
46	0xbf218470	-0.6309271
47	0x3e2ff036	0.17181477
48	0x3e664270	0.22486281
49	0x3e12e714	0.14345962
50	0xbd24b070	-0.040207326
51	0x3d5a38fd	0.053277005
52	0xbca437f9	-0.020046221
53	0xbd81f713	-0.06345954
54	0xbe290e95	-0.16509469
55	0x3dccdeb5	0.100034155
56	0x39e538a0	0.00043720473
57	0xbd3b2ed0	-0.04569894
58	0x3d4aaeae	0.049482994
59	0xbd253572	-0.040334173
60	0x3e22eccd	0.15910645
61	0xbdf0f99e	-0.11766361
62	0x3dc15920	0.09440827
63	0x3db26d9e	0.08712314
64	0xbd84afaf	-0.064788215
65	0x3c33edd4	0.010981996
66	0x3e2877e3	0.16451983
67	0x3e0b558b	0.13606851
68	0x3c4b564c	0.0124107115
69	0x3d6b5ae8	0.05745974
70	0x3bc325c7	0.005955431
71	0x3e69ecfb	0.22844307
72	0x3e315fd1	0.17321707
73	0x3e549c91	0.2076285
74	0xbe013afc	-0.12620157
75	0x3d79dc2b	0.061000984
76	0x3e072002	0.13195804
77	0x3e242a23	0.16031699
78	0xbbf236ea	-0.0073918
79	0xbdb149bc	-0.08656642
80	0x3c6a0919	0.014284396
81	0xbdf0a1cc	-0.1174961
82	0x3d80b272	0.06284036
83	0xbd38a599	-0.0450798
84	0xbd84d48b	-0.06485852
85	0xbe1de0b4	-0.15417749
86	0xbe0fe9dd	-0.14054056
87	0x3df87df5	0.121333994
88	0xbe2e7a8a	-0.17038932
89	0xbd909e0c	-0.07061395
90	0xbcbee230	-0.023301214
91	0xbe2772e5	-0.16352423
92	0xbde25c99	-0.11052818
93	0x3d870826	0.06593351
94	0x3e174936	0.14774022
95	0xbe07e724	-0.13271767
96	0x3c0b0276	0.008484473
97	0x3e12c865	0.14334257
98	0x3cc530f4	0.024071194
99	0x3da98d14	0.08278862
100	0xbdf38090	-0.11889756
101	0xbe23ba16	-0.15988955
102	0x3dd7b696	0.105328724
103	0xbd0acdf2	-0.03388781
104	0x3b04f4f7	0.0020287612
105	0x3d64836f	0.055789407
106	0xbdf9cfd2	-0.12197842
107	0x3d5fc50e	0.054631285
108	0x3d1c53e3	0.038165938
109	0x3d6762e8	0.05649081
110	0xbe3026f9	-0.17202367
111	0xbd639031	-0.055557434
112	0x3d5a306d	0.05326884
113	0x3dcc70c7	0.09982448
114	0xbe08afa3	-0.1334825
115	0x3d16c6b7	0.036810603
116	0xbd365164	-0.044511214
117	0xbe1e74ee	-0.15474293
118	0x3e195fde	0.14977977
119	0xbdc0ead9	-0.09419794
120	0xbdc6ddb8	-0.09710258
121	0xbcc8c4f5	-0.024507979
122	0xbe095446	-0.13411054
123	0xbdcf0d5f	-0.10109972
124	0xbe1f94f1	-0.1558416
125	0x3c5390a2	0.012912901
126	0x3cb2270e	0.021747138
127	0x3da950aa	0.082673386
128	0xbe2c2b08	-0.1681329
129	0xbd60304d	-0.054733563
130	0x3dab10f5	0.08352844
131	0xbe1caaf6	-0.15299591
132	0x3cdaae04	0.026694305
133	0xbe2619a6	-0.16220722
134	0xbdeb3453	-0.114845894
135	0xbdd23742	-0.10264446
136	0x3e17238f	0.14759658
137	0xbd47023e	-0.048586123
138	0xbdf7979a	-0.120894626
139	0xbdc03f9c	-0.093871325
140	0xbbdddef8	-0.0067709647
141	0x3de472a4	0.111546785
142	0x3d8ed5cc	0.06974372
143	0xbd10d94d	-0.035363484
144	0xbd03d48f	-0.032185134
145	0xbcff6841	-0.031177642
146	0xbe19c201	-0.15015413
147	0x3e0dbcfd	0.13841625
148	0xbd3cc58d	-0.046086837
149	0x3dab61ca	0.08368261
150	0x3d23e26e	0.040010862
151	0x3e1547aa	0.14578119
152	0x3dc96f16	0.09835641
153	0xbddd9e9a	-0.108212665
154	0xbd57b82f	-0.052665886
155	0xbce90777	-0.028445942
156	0x3cc3ca4b	0.023900172
157	0xbe0e6130	-0.13904262
158	0xbd0ffa1e	-0.03515064
159	0x3c187613	0.009305495
160	0xbdb85a5f	-0.09001612
161	0xbe2b6e41	-0.16741277
162	0x3dca80c4	0.09887841
163	0xbc6f1082	-0.014591338
164	0xbc1f6b2e	-0.0097301435
165	0xbd84a0c3	-0.06475975
166	0xbd0402d1	-0.03222925
167	0xbdf609f8	-0.1201362
168	0x3cce2275	0.025162915
169	0x3e059e9b	0.13048784
170	0x3cd38415	0.025819818
171	0x3d41c359	0.04730544
172	0x3dcc6df8	0.099819124
173	0xbdb7a602	-0.0896721
174	0x3cb41e7b	0.02198719
175	0xbe0765b4	-0.1322239
176	0x3d94994f	0.07255804
177	0x3cb36492	0.021898542
178	0xbe216154	-0.15759784
179	0x3de89109	0.11355788
180	0x3db48ddf	0.08816122
181	0xbe22e083	-0.15905957
182	0xbcb8ab93	-0.02254275
183	0xbe09c734	-0.13454896
184	0x3b79b65a	0.0038103075
185	0xbe1bdc26	-0.15220699
186	0xbdb027df	-0.08601355
187	0xbcabe145	-0.02098144
188	0xbe2c34ba	-0.16816989
189	0xbe271bc8	-0.16319191
190	0xbe140052	-0.14453247
191	0x3d4e494b	0.050362866
192	0x3e0c55b2	0.13704565
193	0x3dd16b01	0.102254875
194	0xbdb576a1	-0.08860517
195	0xbdd19a99	-0.10234565
196	0x3e06b500	0.13154984
197	0xbd14818a	-0.03625635
198	0x3dd3395f	0.10313677
199	0x3dbe95d3	0.093059205
200	0xbc24cc1c	-0.010058429
201	0x3b89b3c9	0.0042023403
202	0x3e08a18e	0.13342878
203	0x3d382b8a	0.044963397
204	0x3d6ceb58	0.05784163
205	0xbde4d69c	-0.11173746
206	0x3db46111	0.088075764
207	0x3b225fbe	0.0024776305
208	0xbe03bff5	-0.12866195
209	0x3de5f6c5	0.11228708
210	0xbe025fe7	-0.12731896
211	0x3d1f71fe	0.03892707
212	0xbd4bad09	-0.049725566
213	0xbd94c9fa	-0.072650865
214	0xbe208d8b	-0.15678994
215	0x3e0ad493	0.13557653
216	0xbe21f56c	-0.15816277
217	0x3e1f0dae	0.15532562
218	0x3d89817a	0.06714149
219	0x3e1ea3c6	0.15492162
220	0xbd636953	-0.055520367
221	0xbd3335a7	-0.04375234
222	0xbdccd6e4	-0.10001925
223	0xbdd5292d	-0.10408244
224	0x3c51f97c	0.012815829
225	0xbdb25f80	-0.087096214
226	0xbe13feb1	-0.14452626
227	0xbbb34f69	-0.005472113
228	0xbdbdccf4	-0.09267607
229	0xbb6c476a	-0.0036053308
230	0x3e19f65f	0.1503539
231	0xbd95622f	-0.07294118
232	0xbd76e12e	-0.06027334
233	0xbd0e0d5b	-0.034680706
234	0x3d67cb28	0.05659023
235	0xbe1b761f	-0.15181778
236	0xbb740b30	-0.0037238114
237	0xbd9b9e7f	-0.0759859
238	0x3cd51015	0.026008645
239	0x3d5438f0	0.051812112
240	0xbd789d5a	-0.060696937
241	0xbe06986e	-0.13144085
242	0x3e16e1d3	0.14734583
243	0x3de977d8	0.113998115
244	0xbdca1d72	-0.098688975
245	0xbd78b99d	-0.06072389
246	0xbe1b9089	-0.15191855
247	0xbd86f5e5	-0.065898694
248	0x3dc2e0ae	0.095155105
249	0x3daab502	0.08335306
250	0x3dc56e95	0.096402325
251	0xbde3faeb	-0.11131843
252	0xbcdfabdc	-0.027303629
253	0xbd8947e9	-0.06703169
254	0xbe0004a2	-0.12501767
255	0x3db6aa88	0.08919245

linear1.bias f4 [192]
0	0x3ddc9514	0.10770622
1	0x3daba214	0.08380523
2	0xbc389fce	-0.011268569
3	0xbc1c190a	-0.009527454
4	0xbc9dfef2	-0.019286606
5	0xbb9c6eee	-0.004773966
6	0xbc5152db	-0.012776102
7	0x3dd0f86c	0.10203633
8	0x00000000	0.0
9	0x00000000	0.0
10	0xbd41611e	-0.04721176
11	0x00000000	0.0
12	0xbc3029a6	-0.010752117
13	0xbb123958	-0.0022312012
14	0x3ccfea62	0.025380317
15	0xbda17b21	-0.07884813
16	0xbda1b0c8	-0.078950465
17	0xbbafc846	-0.0053644506
18	0xbd1aaa61	-0.037760142
19	0x00000000	0.0
20	0xbd89606e	-0.06707846
21	0x3dc2411c	0.09485075
22	0x3dcd2b30	0.10018003
23	0x00000000	0.0
24	0x3d8aeb29	0.067831345
25	0xbc7896cb	-0.015172671
26	0xbd00db3d	-0.031459082
27	0xbc468696	-0.012117049
28	0xbd295ffc	-0.041351303
29	0xbda2b8f7	-0.079454355
30	0xbc3ac281	-0.011398912
31	0xbdb3cd02	-0.087793365
32	0x00000000	0.0
33	0xbcbda299	-0.023148822
34	0x3d201299	0.039080236
35	0x00000000	0.0
36	0xbd8b216c	-0.06793484
37	0xbbbe2dd1	-0.0058038016
38	0xbdbffea8	-0.09374744
39	0xbc853a07	-0.016263021
40	0xbc89c8f1	-0.01681945
41	0x3dcfa699	0.10139198
42	0xbca0ae85	-0.019614467
43	0x3d56ef66	0.052474402
44	0xbdc1d818	-0.09465045
45	0xbc841414	-0.016122855
46	0xbc9b3aa1	-0.018948855
47	0xbd986248	-0.07440621
48	0xbd89a355	-0.06720606
49	0xbdaeeabf	-0.08540868
50	0xbcd001a5	-0.02539141
51	0xbd71b5fc	-0.059011444
52	0xbd035491	-0.03206307
53	0x3da83aae	0.08214317
54	0xbd95e65a	-0.07319327
55	0xbc79219f	-0.01520577
56	0xbce7748d	-0.028253818
57	0x00000000	0.0
58	0xbc97b0a5	-0.018516848
59	0xbc1ea213	-0.009682196
60	0xbd9da53c	-0.076975316
61	0xbc87c54f	-0.016573576
62	0xbccb2f9b	-0.024802973
63	0x00000000	0.0
64	0xbd85495f	-0.06508135
65	0xbbaaeac2	-0.0052159736
66	0x3c860783	0.016361004
67	0xbda3fa04	-0.08006671
68	0xbc73c3a1	-0.014878185
69	0xbbcedf92	-0.0063132728
70	0xbc801831	-0.015636535
71	0xbda79c83	-0.08184149
72	0xbc915a64	-0.017743297
73	0xbd237927	-0.03991046
74	0xbc84e8f7	-0.016224368
75	0xbcf64974	-0.030064322
76	0x00000000	0.0
77	0x00000000	0.0
78	0xbc624090	-0.013809338
79	0xbc157370	-0.009121761
80	0xbbbab98e	-0.0056983894
81	0x00000000	0.0
82	0xbc53ed70	-0.0129350275
83	0xbd8bef1f	-0.06832718
84	0xbd72c7be	-0.05927252
85	0xbc48e6f1	-0.012262092
86	0x3ded6e73	0.11593332
87	0xbd60f50a	-0.054921187
88	0xbd810371	-0.062994845
89	0x00000000	0.0
90	0xbb8876e3	-0.004164563
91	0x00000000	0.0
92	0xbc2e6e4b	-0.010646413
93	0xbd8bd8f0	-0.06828487
94	0xbca3f593	-0.02001456
95	0xbc6ff591	-0.01464595
96	0xbd867ad7	-0.065663986
97	0xbdd09c9d	-0.101861216
98	0xbb961f49	-0.004581366
99	0xbbe9a5a0	-0.0071303397
100	0xbdacdd86	-0.0844069
101	0x00000000	0.0
102	0xbc3d0fef	-0.011539443
103	0x00000000	0.0
104	0xbd57c634	-0.052679256
105	0xbc0a57e0	-0.008443803
106	0xbdb6844b	-0.08911952
107	0xbd7a6390	-0.061130106
108	0xbccc9839	-0.02497493
109	0xbd982c2d	-0.07430301
110	0xbb6cb270	-0.00361171
111	0xbc95b4bb	-0.018274656
112	0xbdd1af00	-0.10238457
113	0xbd152fc8	-0.03642252
114	0x3da9b417	0.082863025
115	0xbd99210a	-0.07477005
116	0xbd944d24	-0.07241276
117	0x00000000	0.0
118	0xbd8797f1	-0.066207774
119	0xbda2f010	-0.079559445
120	0xbdbb1993	-0.09135737
121	0x3c065ffa	0.0082015935
122	0xbc87793e	-0.016537305
123	0xbc9722c2	-0.018449191
124	0x00000000	0.0
125	0xbc1a5893	-0.009420532
126	0x3dcbd630	0.099529624
127	0xbc16c078	-0.009201162
128	0xbc4bf005	-0.012447362
129	0xbd98d2f3	-0.0746211
130	0xbc046c9d	-0.008082536
131	0xbd8ee893	-0.06977954
132	0xbc956606	-0.018237125
133	0xbcbdaddd	-0.023154194
134	0x00000000	0.0
135	0x00000000	0.0
136	0x00000000	0.0
137	0xbdb48149	-0.08813722
138	0x3d87919c	0.0661957
139	0xbdb3ec26	-0.08785276
140	0xbda553c8	-0.08072621
141	0xbc262219	-0.010139965
142	0x3cde4319	0.027131604
143	0x3da3201e	0.0796511
144	0xbc6a549e	-0.014302401
145	0xbcd45787	-0.025920643
146	0xbd8a9c14	-0.06768051
147	0xbc838931	-0.016056629
148	0x3dc67952	0.09691109
149	0xbc7619ac	-0.015020769
150	0x3dd66ee3	0.10470369
151	0x3dbc7496	0.092019245
152	0xbd9e80b7	-0.07739394
153	0xbbe1c36e	-0.006889752
154	0xbda2a192	-0.07940973
155	0x3d9d2bd3	0.076743744
156	0xbd74d493	-0.05977304
157	0x3c995c3d	0.01872074
158	0xbd9a4cb9	-0.07534165
159	0xbcb7f10a	-0.022453804
160	0x3da73b87	0.08165651
161	0xbd7175c4	-0.0589502
162	0xbd450988	-0.048104793
163	0xbcbbf933	-0.022945976
164	0xbc05ef27	-0.008174694
165	0xbd902f32	-0.07040252
166	0x3dabdcdc	0.08391735
167	0xbda62853	-0.0811316
168	0xbd21491a	-0.039376356
169	0xbbff86e8	-0.0077980645
170	0x3dbd9035	0.09256021
171	0xbd9fd529	-0.07804329
172	0xbc60d4e1	-0.013722629
173	0xbcb0cace	-0.02158108
174	0x3db0e5cd	0.08637581
175	0xbd2ffb22	-0.04296411
176	0x3cd098b5	0.025463441
177	0x00000000	0.0
178	0x00000000	0.0
179	0x00000000	0.0
180	0xbc58ca58	-0.013231836
181	0xbc962e2a	-0.01833256
182	0xbd87253f	-0.06598901
183	0xbd8452a2	-0.064610735
184	0xbdba8b8c	-0.09108648
185	0xbda8e6f7	-0.08247178
186	0x3d06be9a	0.032896616
187	0xbbde1658	-0.006777566
188	0x3dcbf58c	0.09958944
189	0x3dbe608d	0.09295759
190	0xbc6c8acf	-0.014437391
191	0x3dd155ec	0.102214664

linear2.weight f4 [192, 192]
0	0xbca4b179	-0.020104157
1	0xbd86b669	-0.06577761
2	0xbdb175ad	-0.08665023
3	0x3db6da1c	0.0892832
4	0x3d8f2da8	0.0699113
5	0x3dcd171c	0.100141734
6	0x3dfdcb87	0.123923354
7	0xbd2e4e84	-0.042555347
8	0x3db0749e	0.08615993
9	0xbde9fa72	-0.11424722
10	0xbdf5ec20	-0.12007928
11	0x3d3c9ac0	0.04604602
12	0x3d11ea94	0.0356241
13	0xbd5d0750	-0.053962052
14	0x3d243e27	0.040098336
15	0xbb0e7084	-0.0021734545
16	0xbd126f01	-0.035750393
17	0x3cd4d718	0.025981471
18	0xbd89a41a	-0.06720753
19	0x3c670a50	0.01410158
20	0xbd817f3b	-0.063230954
21	0xbdc0cdc0	-0.09414244
22	0xbe07f4d4	-0.13276988
23	0x3dbf5c80	0.09343815
24	0x3a283fe3	0.0006418211
25	0x3d737c01	0.05944443
26	0xbde1af7a	-0.110197976
27	0x3cafc8e8	0.021458104
28	0xbd85b010	-0.06527722
29	0xbe06666d	-0.1312501
30	0x3cd2f97e	0.025753733
31	0x3db9541e	0.09049247
32	0xbd041004	-0.032241836
33	0xbda884cf	-0.08228456
34	0xbde42896	-0.11140554
35	0x3d9a20da	0.07525797
36	0xbd835a2c	-0.06413683
37	0x3d7b1bc6	0.061305784
38	0xbc476a4f	-0.012171342
39	0xbd09a264	-0.033602133
40	0xbbfcb9b6	-0.007712568
41	0xbcb8bc81	-0.022550823
42	0x3dc78b87	0.097434096
43	0x3dae8f6d	0.0852345
44	0xbc1b23d7	-0.009468994
45	0xbd4b13e2	-0.04957951
46	0x3d9e0230	0.07715261
47	0xbd1b69cb	-0.03794269
48	0x3d81cbe4	0.06337717
49	0x3ddd9366	0.1081913
50	0x3da5eef2	0.08102216
51	0xbbd4a20c	-0.006489044
52	0x3d51eb7f	0.051249977
53	0xbd30153e	-0.042989008
54	0xbd082480	-0.033237934
55	0xbd86c0c9	-0.065797396
56	0x3da49728	0.08036643
57	0x3d707254	0.05870278
58	0xbdb4eb80	-0.088339806
59	0x3c8bb0e0	0.017052114
60	0xbdb45249	-0.08804757
61	0x3dfb008e	0.12255965
62	0x3ca00789	0.019534843
63	0x3cfe0210	0.031006843
64	0x3d0889cd	0.033334542
65	0xbdd6a3a2	-0.10480429
66	0x3d2ace12	0.04170043
67	0xbdd73d38	-0.105097234
68	0x3de63c2b	0.11241945
69	0x3d8581b0	0.065188766
70	0xbd7d2087	-0.0617986
71	0xbd8166e5	-0.06318454
72	0x3de04372	0.10950364
73	0x3d8027be	0.0625758
74	0xbce61ed1	-0.028090866
75	0xbc2111fb	-0.009830947
76	0x3d35b960	0.04436624
77	0x3c19b920	0.009382516
78	0x3d56ddef	0.052457746
79	0xbd03218c	-0.032014415
80	0x3d4bd098	0.049759477
81	0xbd5253f0	-0.05134958
82	0x3aac1d00	0.0013131201
83	0xbc75ccd1	-0.015002445
84	0xbda099e5	-0.07841853
85	0x3e026e17	0.12737308
86	0xbb5df528	-0.0033868048
87	0x3c2e3a09	0.010633954
88	0x3ce778da	0.028255869
89	0x3c312ff0	0.010814652
90	0x3ce6b2c0	0.028161407
91	0x3d8175cc	0.06321296
92	0x3d2924ba	0.04129479
93	0x3d8d4e1d	0.068996646
94	0x3dab3e68	0.083615124
95	0xbd6b49ef	-0.057443555
96	0xbd9deeb8	-0.077115476
97	0xbe09dcf7	-0.13463198
98	0xbcd24770	-0.02566883
99	0xbddfac59	-0.109215446
100	0x3dad8e85	0.08474449
101	0x3d263658	0.04057917
102	0xbd741cbf	-0.059597727
103	0x3dcf1922	0.101122156
104	0x3d3b2ce8	0.045697123
105	0xbc293850	-0.010328367
106	0xbdeeb6a7	-0.11655932
107	0x3d833a20	0.06407571
108	0x3d8163cb	0.06317862
109	0xbd73db11	-0.05953509
110	0x3cfb7e78	0.030699953
111	0x3d86da88	0.0658465
112	0xbdb10304	-0.08643153
113	0x3d42f312	0.04759509
114	0x3d291344	0.04127814
115	0xbd8e3262	-0.069432035
116	0xbbb67bd9	-0.005568963
117	0x3dc190ae	0.094514236
118	0xbd959995	-0.07304684
119	0xbe11b404	-0.14228827
120	0xbdb93c80	-0.090447426
121	0x3d59ab1c	0.0531417
122	0x3d71d76d	0.059043337
123	0x3dab4756	0.083632156
124	0xbd6056f0	-0.05477041
125	0x3dc3b571	0.095560916
126	0xbdabdea9	-0.083920784
127	0x3d4ba2b0	0.049715698
128	0xbdf76b2d	-0.12080989
129	0xbd8caff0	-0.06869495
130	0x3d3c1fd9	0.04592881
131	0xbe042520	-0.12904787
132	0xbda6c2d6	-0.08142631
133	0xbda45e90	-0.08025849
134	0xbd02e118	-0.031952947
135	0x3def263e	0.11677216
136	0x3df34a86	0.118794486
137	0xbe07385e	-0.13205096
138	0xbd0dadc0	-0.03458953
139	0xbcf43520	-0.029810488
140	0xbdf94900	-0.12172127
141	0x3d8099bc	0.062793225
142	0x3d34468a	0.044012584
143	0xbe0cb593	-0.1374114
144	0xbe0cba07	-0.13742839
145	0x3d2a0e53	0.041517567
146	0x3de27ec0	0.11059332
147	0x3ddeb8a0	0.10875058
148	0x3d9cb453	0.076515816
149	0x3d20bc33	0.03924198
150	0x3cf747e6	0.030185651
151	0x3ccb0f94	0.024787702
152	0xbe01bdf1	-0.12670113
153	0xbd4733c4	-0.048633352
154	0x3caf6b2f	0.021413414
155	0x3d075bbd	0.033046473
156	0xbe033584	-0.12813383
157	0x3d74e6f1	0.059790555
158	0x3d896a25	0.067096986
159	0xbd7b0027	-0.061279442
160	0x3dad6f8d	0.08468542
161	0x3d04ed9a	0.032453157
162	0xbc801c7d	-0.015638584
163	0xbde873b8	-0.113501966
164	0xbd69bc80	-0.057064533
165	0x3dac97a1	0.084273584
166	0xbcf3d2f2	-0.029763673
167	0x3ddc80e6	0.10766773
168	0x3c146dbf	0.009059369
169	0xbd928920	-0.07155061
170	0x3d9705f5	0.07374183
171	0x3d1be16a	0.03805677
172	0x3d398433	0.04529209
173	0xbd332885	-0.043739814
174	0xbd3063db	-0.04306398
175	0x3d0596c1	0.032614473
176	0x3d995ff6	0.07489006
177	0xbd3d21f8	-0.046174973
178	0xbca5dc90	-0.020246774
179	0x3de0021c	0.10937902
180	0x3d6a787c	0.05724381
181	0x3bb5c6d5	0.0055473843
182	0xbd8ecd20	-0.06972718
183	0x3c2d8783	0.010591391
184	0xbde015ae	-0.10941635
185	0x3da9b7e7	0.0828703
186	0xbda95eab	-0.082700096
187	0x3df57782	0.11985685
188	0x3d13cdbe	0.036084883
189	0xbd578dbb	-0.0526254
190	0x3dbfc3a4	0.09363487
191	0xbd8938bd	-0.06700275
192	0xbda45a1b	-0.08024999
193	0xbd4e1d01	-0.05032063
194	0x3dea4c4f	0.11440336
195	0xbd864013	-0.0655519
196	0xbd90fc0b	-0.070793234
197	0x3d0c7a88	0.034296542
198	0xbd4b6381	-0.04965544
199	0xbe80fea3	-0.25194272
200	0xbc8f02c8	-0.01745738
201	0x3d5a6b54	0.053325012
202	0x3dbd0bbb	0.09230753
203	0x3d9795c4	0.074016124
204	0x396f3154	0.00022811192
205	0x3db6cf99	0.08926315
206	0x3df4266e	0.119213924
207	0x3e8de1c2	0.27711302
208	0x3ead4703	0.3384324
209	0xbdc50003	-0.09619143
210	0xbd6bd67c	-0.057577595
211	0xbde7778e	-0.113021
212	0x3eaa1db9	0.33225802
213	0xbd81bf28	-0.06335288
214	0xbe365ff3	-0.17810039
215	0xbdf21c2e	-0.11821781
216	0xbe7ef3f9	-0.24897756
217	0xbd10baff	-0.035334583
218	0x3cd26457	0.025682611
219	0x3dc57e13	0.096431874
220	0xbce5db3d	-0.028058643
221	0x3e6acd24	0.22929817
222	0x3dbd864d	0.092541315
223	0x3e054b2a	0.13016954
224	0xbd41dcc0	-0.047329664
225	0x3d45cf9c	0.048293695
226	0x3db9d28e	0.09073363
227	0x3dcff0a0	0.101533175
228	0x3e0eb91a	0.13937798
229	0x3d5d348d	0.054005194
230	0x3e691717	0.22762714
231	0xbdb4ebea	-0.088340595
232	0xbc3d6d8b	-0.011561762
233	0xbe9e10cd	-0.30872193
234	0x3c0c1ed9	0.0085522765
235	0x3d75d12c	0.060013935
236	0x3db68b76	0.08913319
237	0xbdf7045c	-0.12061378
238	0x3da7b0a2	0.08187987
239	0x3e2380fb	0.15967171
240	0x3e2bed4c	0.1678974
241	0x3ec39ba2	0.38204676
242	0xbd50461e	-0.05084812
243	0x3e17e569	0.14833607
244	0x3cd6bac9	0.026212113
245	0xbda9c381	-0.082892425
246	0x3e9f4b53	0.31112155
247	0x3d67cfd4	0.056594685
248	0x3dbc39ba	0.09190698
249	0x3db17a18	0.08665866
250	0x3d5272e5	0.051379103
251	0xbded6b63	-0.11592748
252	0x3e016fc4	0.12640291
253	0x3d372688	0.04471448
254	0x3e07bf12	0.13256481
255	0xbdba93a0	-0.091101885

linear2.bias f4 [192]
0	0xbd0c402c	-0.034240887
1	0xbcc3e204	-0.023911484
2	0xba804d35	-0.0009788634
3	0xbcaed28c	-0.021340631
4	0xbc2613f3	-0.010136592
5	0x3b8c449d	0.0042806403
6	0xbcce23a7	-0.025163485
7	0xbd885e75	-0.06658641
8	0x3e16198e	0.14658186
9	0xbc31dd92	-0.010856049
10	0xbc7a27a4	-0.01526824
11	0xbc9a25d5	-0.018816868
12	0xbc208085	-0.009796266
13	0xbcf4e582	-0.029894594
14	0xbc0dce73	-0.008655178
15	0xbd236801	-0.039894108
16	0xbb8d726b	-0.004316618
17	0xbd483576	-0.04887911
18	0xbcf87d30	-0.030333132
19	0xbccc5cc9	-0.024946587
20	0xbc19cb2b	-0.009386818
21	0xbd54c12d	-0.05194204
22	0xbc1b08bb	-0.009462531
23	0xbb8a7bce	-0.0042261845
24	0xbcb56549	-0.022143023
25	0xbc788015	-0.015167256
26	0xbcf0f4a0	-0.029413521
27	0x3c2b81c1	0.010467947
28	0xbd4def8d	-0.05027728
29	0x3e1675c8	0.14693367
30	0xbd51ec08	-0.051250488
31	0x3e18a6f8	0.14907444
32	0xbc8decb2	-0.01732478
33	0xbc3a2ac9	-0.01136274
34	0x00000000	0.0
35	0xbc334b68	-0.010943271
36	0xbbed050d	-0.007233268
37	0xbcb93cde	-0.022612032
38	0xbd8fb811	-0.0701753
39	0x00000000	0.0
40	0x3b47eff3	0.003050801
41	0xbc7de3f0	-0.015496239
42	0xbbc94550	-0.006142296
43	0xbcca317f	-0.024681805
44	0xbad0ff80	-0.0015945286
45	0xbd8a06e6	-0.06739597
46	0xbbd6f0e5	-0.0065594786
47	0xbca3eaee	-0.020009484
48	0xbc1c1ead	-0.009528798
49	0xbc1485b3	-0.0090650795
50	0xbd14e7a0	-0.036353707
51	0xbc2f9fc0	-0.01071924
52	0xbc5d5e1a	-0.013511205
53	0xbc9d3bd8	-0.019193575
54	0xbc617bd2	-0.013762431
55	0x3e24045e	0.16017291
56	0xbc1a8149	-0.009430238
57	0x3da53fc6	0.080688044
58	0x00000000	0.0
59	0xbc83cb56	-0.016088169
60	0xbd296494	-0.041355684
61	0xbcd76c92	-0.026296888
62	0x00000000	0.0
63	0xbafa6177	-0.0019102533
64	0xbc9dc0d9	-0.019256996
65	0xbba43d28	-0.005012173
66	0xbc993577	-0.018702252
67	0xbce1163f	-0.027476428
68	0xbd9d3af5	-0.07677261
69	0xbbad9ea7	-0.005298454
70	0xbce6fee0	-0.028197706
71	0x3d49b516	0.049244963
72	0xbc1bc02f	-0.009506269
73	0xbcf98a9c	-0.030461602
74	0xbca52c9b	-0.020162871
75	0xbae192dd	-0.0017209906
76	0xbca1eca2	-0.019766156
77	0xbcd54be6	-0.026037168
78	0xbccfe9fd	-0.025380129
79	0xbc635e68	-0.013877489
80	0xbc101a9d	-0.008795408
81	0xbc7b5c62	-0.01534185
82	0x00000000	0.0
83	0xbd4e9958	-0.05043921
84	0xbb9b68bc	-0.00474271
85	0xbd70ef8d	-0.058822203
86	0x3e25ec8e	0.1620352
87	0xbc4cbd89	-0.012496361
88	0x3e22d01b	0.15899698
89	0xbc88d0a9	-0.01670106
90	0xbcb16904	-0.02165652
91	0xbc40ae38	-0.011760287
92	0x3e240494	0.16017371
93	0x3e24eb73	0.16105442
94	0xbc1c1dea	-0.009528616
95	0xbca292b7	-0.01984535
96	0x3e1a34b0	0.15059161
97	0xbc8486ef	-0.016177623
98	0xbcee5bec	-0.029096566
99	0xbcba1a2c	-0.022717558
100	0x3de37569	0.111063786
101	0x3e241857	0.1602491
102	0xbd16adac	-0.03678672
103	0xbd955322	-0.07291247
104	0xbd968e71	-0.07351387
105	0xbc344e3d	-0.011004982
106	0x3e224408	0.15846264
107	0xbcac4ea2	-0.021033589
108	0xbd08a0da	-0.033356525
109	0xbd5f72ba	-0.05455277
110	0xbbee3390	-0.0072693303
111	0x3e2e2669	0.1700684
112	0x3be083ad	0.0068516345
113	0x00000000	0.0
114	0xbc2114a8	-0.009831585
115	0xbc574d4f	-0.01314099
116	0xbc6cee92	-0.0144611765
117	0xbc5faefe	-0.013652561
118	0xbd98d9d8	-0.074634254
119	0xbdfcd2d9	-0.123449035
120	0xbd0e3615	-0.034719545
121	0xbbde5b74	-0.0067858044
122	0xbc21df45	-0.009879892
123	0x3e14acf4	0.14519101
124	0x3e2f34e4	0.1711002
125	0x3e0f76c0	0.14010143
126	0x3bb7552c	0.00559487
127	0xbc9955f3	-0.018717742
128	0xbc1be599	-0.00951519
129	0x3e01ddeb	0.12682311
130	0x3d962b21	0.07332445
131	0xbd8a7af9	-0.067617364
132	0xbc143b4c	-0.009047341
133	0xbc1c1e21	-0.009528668
134	0x3def5236	0.11685602
135	0xbd89b74b	-0.067244135
136	0xbcedb1b1	-0.029015394
137	0x3ce6efd5	0.028190533
138	0xbcb0c9ba	-0.021580566
139	0xbcb44c27	-0.022008969
140	0xbc72896d	-0.014803273
141	0xbc75f1f3	-0.0150112985
142	0xbd828891	-0.06373704
143	0xbd8992aa	-0.06717427
144	0xbd559d28	-0.05215183
145	0xbb223c47	-0.0024755166
146	0xbd81eadd	-0.06343625
147	0x00000000	0.0
148	0x00000000	0.0
149	0xbcdbe284	-0.02684141
150	0xbc2f2600	-0.010690212
151	0xbc3df153	-0.011593181
152	0xbca2bfa9	-0.019866781
153	0xbc98b2c7	-0.018639935
154	0xbce2fe81	-0.027709248
155	0x3e21aebe	0.15789315
156	0xbc97b688	-0.018519655
157	0xbcf3eb99	-0.029775428
158	0xbcb0885b	-0.021549394
159	0x3e2e5d02	0.17027667
160	0xbce131a0	-0.027489483
161	0xbc245085	-0.010028963
162	0xbda3feb9	-0.08007569
163	0xbc4e5f7e	-0.012596009
164	0x3e0d89fc	0.13822168
165	0xbca80c0e	-0.02051356
166	0xbc3fef25	-0.011714731
167	0xbd983e93	-0.0743381
168	0xbad82248	-0.0016489709
169	0x3cebc8dd	0.028782303
170	0xbd029ca8	-0.03188768
171	0x3c3459aa	0.011007706
172	0xbd331f4e	-0.043731026
173	0xbc76dcf7	-0.015067331
174	0xbbb10dfe	-0.0054032793
175	0xbcc8aeca	-0.024497408
176	0xbd8a6e10	-0.06759274
177	0xbc9ca1d0	-0.019120127
178	0xbd56226e	-0.05227893
179	0xbca0cba1	-0.019628348
180	0xbc3fd20b	-0.011707793
181	0xbcdbaa7d	-0.026814694
182	0xbc7cd124	-0.015430722
183	0xbc9e707e	-0.01934075
184	0xbd47bd1c	-0.048764333
185	0xbbe40e0f	-0.0069596837
186	0x3e1322cc	0.14368743
187	0x3e26ac20	0.16276598
188	0xbbb019c5	-0.0053741657
189	0xbc304b2a	-0.010760108
190	0xbc90a6b7	-0.01765762
191	0xbc9eb78e	-0.019374635

mean_linear.weight f4 [1, 192]
0	0x3dafa96f	0.08577239
1	0x3eb23903	0.3480912
2	0xbdbb95d9	-0.091594405
3	0x3d23053a	0.039799906
4	0xbe1dd783	-0.15414242
5	0x3e4e9988	0.20175755
6	0x3d65abe3	0.056072127
7	0x3e6aed30	0.22942042
8	0xbe8ddb4d	-0.27706376
9	0x3c0d52b5	0.008625676
10	0xb98f5685	-0.00027339548
11	0x3b8af86d	0.0042410404
12	0xbce5a61b	-0.028033307
13	0x3d860190	0.06543267
14	0xbd82af8f	-0.063811414
15	0x3eb95b52	0.36202484
16	0xbe10b1a6	-0.14130268
17	0x3e817f18	0.25292277
18	0x3df80500	0.12110329
19	0xbe8d6a59	-0.276202
20	0xbe14e300	-0.14539719
21	0x3ea5b653	0.32365665
22	0x3ca55830	0.020183653
23	0x3df7a61c	0.1209223
24	0xbe0a3bc1	-0.13499357
25	0x3dfc73eb	0.12326797
26	0x3db7963e	0.08964203
27	0x3daa28f8	0.083085954
28	0x3e92a635	0.2864243
29	0xbef49bd5	-0.4777514
30	0x3ea10cb6	0.3145501
31	0xbece9191	-0.40345433
32	0x3d5df73e	0.054190867
33	0xbe288ab2	-0.16459158
34	0xbde33b89	-0.1109534
35	0xbdd0032b	-0.10156854
36	0xbde2cafe	-0.11073874
37	0xbd1f6d68	-0.038922697
38	0x3e6de5e8	0.23232234
39	0xbe2b1875	-0.16708548
40	0x3dd31860	0.103073835
41	0x3db446f7	0.08802598
42	0xbe034162	-0.1281791
43	0x3c1540b5	0.009109666
44	0xbe7cbdf4	-0.24681836
45	0x3e8a4c64	0.27011406
46	0xbe010f6c	-0.12603539
47	0xbde5a7c3	-0.11213639
48	0xbd90300e	-0.07040416
49	0xbe004c7e	-0.1252918
50	0xbe0646aa	-0.13112894
51	0xbdbafc74	-0.09130183
52	0xbcda5f63	-0.026656812
53	0xbdaf9752	-0.08573784
54	0x3d569561	0.052388553
55	0xbeeb3808	-0.45941186
56	0x3da9c50a	0.08289535
57	0xbe8ad897	-0.2711837
58	0xbde17f0d	-0.11010561
59	0x3b977770	0.0046223924
60	0x3bd4cff7	0.006494518
61	0xbda345f4	-0.07972327
62	0xbd8c0824	-0.0683749
63	0x3ec8f036	0.39245766
64	0xbda1e724	-0.07905415
65	0xbccf02ff	-0.025269983
66	0x3b05e4a0	0.002043046
67	0xbe5313b9	-0.20612992
68	0x3e76773d	0.24068923
69	0x3e150250	0.14551663
70	0x3dbec196	0.09314267
71	0xbe8c42ba	-0.27394658
72	0xbd9053f2	-0.07047261
73	0x3db8decb	0.090268694
74	0xbdaee4fe	-0.085397705
75	0x3d4235fe	0.047414772
76	0xbe7a124b	-0.2442104
77	0xbeac4283	-0.33644494
78	0x3e147530	0.14497828
79	0xbeb6a7e1	-0.35674956
80	0x3dc0cb88	0.094138205
81	0x3e148ce5	0.14506872
82	0xbdce19ee	-0.100635394
83	0x3e984e48	0.29747224
84	0xbb3a349a	-0.00284127
85	0x3eb02d31	0.34409478
86	0xbef12172	-0.4709583
87	0xbe574745	-0.21023281
88	0xbea807c3	-0.32818422
89	0x3d627119	0.05528364
90	0x3e0b32f2	0.13593653
91	0xbd896b2a	-0.06709893
92	0xbef2772d	-0.4735655
93	0xbed1e485	-0.4099466
94	0xbd13127d	-0.035906304
95	0xbd4d0a6a	-0.05005876
96	0xbeba75e1	-0.3641806
97	0x3ec2c0e6	0.38037795
98	0xbe75ba2d	-0.23996802
99	0xbc669283	-0.014073017
100	0xbe974b1a	-0.29549485
101	0xbe537710	-0.20650887
102	0x3e8f9a49	0.28047398
103	0x3e9de6da	0.30840188
104	0x3e956d10	0.2918477
105	0xbd8073f6	-0.06272118
106	0xbea9bcbb	-0.33151802
107	0xbd89e48e	-0.067330465
108	0x3ecc6969	0.39924172
109	0x3e958c55	0.29208627
110	0xbc547eeb	-0.012969713
111	0xbed6e88b	-0.4197429
112	0x3ef41695	0.4767348
113	0xbd3e2ea8	-0.046431214
114	0xbd8667ac	-0.065627426
115	0x3e1c2a5a	0.15250531
116	0x3d8fcd3c	0.07021567
117	0xbdf47878	-0.1193704
118	0x3e887511	0.26651815
119	0x3b960e2e	0.004579327
120	0x3ebcfe26	0.3691265
121	0x3d1e3704	0.038626686
122	0xbb35cfff	-0.0027742384
123	0xbece86c3	-0.4033719
124	0xbeda8f79	-0.42687586
125	0xbebfd948	-0.3747046
126	0x3e0da34e	0.13831827
127	0x3da1abb3	0.07894077
128	0xbe2b815f	-0.1674857
129	0xbe2c482c	-0.16824406
130	0xbdb514fa	-0.088418916
131	0x3e848d0b	0.25888857
132	0xbcd565cc	-0.026049517
133	0xbdd5279f	-0.10407948
134	0xbeaa3745	-0.33245292
135	0x3e5b34d8	0.21406877
136	0x3ea3925b	0.31947598
137	0xbe8204c6	-0.25394267
138	0xbe1eff79	-0.15527143
139	0xbd7a0ec9	-0.061049256
140	0x3db67ead	0.0891088
141	0xbbeca7b4	-0.00722214
142	0x3eb0fdae	0.34568542
143	0x3e8d5664	0.27604973
144	0x3e9af393	0.30263957
145	0xbdca6dce	-0.09884225
146	0x3e6bc847	0.23025618
147	0xbe1e311e	-0.15448424
148	0xbe2e7c87	-0.17039691
149	0xbd587714	-0.052847937
150	0xbc04b607	-0.008100039
151	0x3dd7c49c	0.10535547
152	0xbcf3d731	-0.029765697
153	0x3d8a14d7	0.06742256
154	0xbe042e04	-0.12908179
155	0xbec8addc	-0.39195144
156	0xbd8d6f32	-0.069059744
157	0x3d9faf91	0.077971585
158	0x3d426d98	0.047467798
159	0xbec0a818	-0.37628245
160	0xbd48456b	-0.048894327
161	0x3d985562	0.074381605
162	0x3e11bdfc	0.1423263
163	0xbdfce4ea	-0.123483494
164	0xbeb2e447	-0.34939787
165	0x3eab3703	0.33440408
166	0xbdbed034	-0.09317055
167	0x3e982750	0.29717493
168	0xbe378b93	-0.17924337
169	0xbe9a4996	-0.30134267
170	0x3d8a1e56	0.06744067
171	0xbdf1de6d	-0.118100025
172	0x3e5bf944	0.21481806
173	0x3be74553	0.0070578246
174	0xbe054411	-0.13014247
175	0x3dee4650	0.11634505
176	0x3eb4c323	0.35305128
177	0xbe0faee8	-0.14031565
178	0x3ea89fd2	0.32934433
179	0x3e0c07cb	0.13674848
180	0xbdf69ff7	-0.120422296
181	0xbe117786	-0.14205751
182	0x3d8bf499	0.06833763
183	0xbbb83e30	-0.0056226477
184	0x3e88c023	0.2670909
185	0xbd08f8e1	-0.033440474
186	0xbe97e6fe	-0.2966842
187	0xbeb70be7	-0.35751268
188	0xbdfbf054	-0.12301698
189	0xbda241e1	-0.07922722
190	0x3c1abe33	0.009444761
191	0x3e1b2701	0.15151598

log_std_linear.weight f4 [1, 192]
0	0x3d4b1521	0.049580697
1	0xbd16410d	-0.03668313
2	0x3e1f4f10	0.15557504
3	0xbde8181b	-0.11332723
4	0xbda1d605	-0.07902149
5	0x3cf3b26b	0.029748162
6	0xbdb98cee	-0.09060083
7	0x3e54e12a	0.20789018
8	0x3e825b2f	0.25460193
9	0xbd6c7bca	-0.057735242
10	0xbd9f13db	-0.07767459
11	0xbdcfd9cc	-0.10148963
12	0xbcf23669	-0.02956696
13	0xbb9fac5b	-0.0048728413
14	0xbcd809f6	-0.026371937
15	0x3e3821c2	0.17981628
16	0xbd41b357	-0.047290172
17	0x3e25311b	0.16132013
18	0x3e1a5779	0.1507243
19	0xbdf48cf6	-0.11940949
20	0x3e314996	0.17313227
21	0x3da93765	0.08262519
22	0xbe0f2fec	-0.13983124
23	0xbe27cbc9	-0.16386332
24	0xbd722365	-0.059115786
25	0xbe2304b1	-0.15919758
26	0xbe0b49e5	-0.13602407
27	0x3c18545e	0.009297458
28	0x3d1de086	0.0385442
29	0xbdb0bf28	-0.0863021
30	0x3d945458	0.0724265
31	0x3da74a5a	0.08168478
32	0xbcd9166b	-0.026499948
33	0xbda1c959	-0.07899732
34	0xbdb1a0fc	-0.086732835
35	0x3cc6fdb4	0.024290897
36	0x3d939f3f	0.07208108
37	0x3d8645fb	0.065563165
38	0x3e2f9379	0.171461
39	0x3db58980	0.08864117
40	0xbe07fca1	-0.13279964
41	0x3e1f4d3f	0.15556811
42	0x3d331986	0.043725513
43	0xbd05f489	-0.03270391
44	0xbd8ab6f2	-0.06773175
45	0xbd89c288	-0.06726557
46	0xbca5b004	-0.020225532
47	0xbd99812a	-0.07495339
48	0xbe15191e	-0.14560363
49	0xbdbcafc3	-0.092132114
50	0x3da71993	0.08159175
51	0xbe071feb	-0.1319577
52	0x3dfcf04b	0.1235052
53	0x3d38ccee	0.04511731
54	0xba4b0b13	-0.00077454856
55	0xbda375e9	-0.07981474
56	0x3daa2c05	0.08309177
57	0x3db080a4	0.08618286
58	0xbd126d03	-0.035748493
59	0xbb98098c	-0.00463981
60	0xbd87c536	-0.06629412
61	0xbe272334	-0.16322023
62	0x3dad3f0d	0.084592916
63	0xbcd8dfd7	-0.026473923
64	0x3e3a2526	0.18178234
65	0x3da6ce7e	0.08144854
66	0xbd2538bc	-0.04033731
67	0x3e3f9e81	0.18712808
68	0x3d5023ad	0.050815273
69	0xbd85d427	-0.065346055
70	0xbd9ad9cb	-0.07561072
71	0x3dbdb754	0.09263483
72	0x3d3b17a6	0.04567685
73	0xbd9588ef	-0.07301509
74	0xbd164b41	-0.03669286
75	0x3d6ce99a	0.057839967
76	0x3bfef680	0.00778085
77	0x3e04c1c4	0.1296454
78	0xbdb330ad	-0.087495185
79	0x3d453445	0.04814555
80	0x3d09cfea	0.033645548
81	0xbe291891	-0.16513278
82	0xbd3e8b9f	-0.04651987
83	0x3d9c93ea	0.076454
84	0xbddfe892	-0.10933031
85	0xbb31c0f7	-0.0027123073
86	0x3e64a9be	0.22330377
87	0x3e4caa5b	0.1998686
88	0x3dc1346b	0.09433826
89	0xbd4b51c5	-0.04963853
90	0xbe02d771	-0.12777497
91	0x3e36d458	0.1785444
92	0xbcb5282b	-0.02211388
93	0xbdf55a30	-0.119800925
94	0xbc88b726	-0.016688894
95	0x3deca0a2	0.11554076
96	0x3e24fa19	0.1611103
97	0x3e0d94b0	0.13826251
98	0xbd787a9f	-0.060663816
99	0xbe24e680	-0.16103554
100	0x3c6c8715	0.014436503
101	0x3e0efdab	0.13963954
102	0x3ce0b089	0.027427929
103	0x3e5caf85	0.2155133
104	0x3cae3ad7	0.021268291
105	0x3e1aa0ed	0.15100451
106	0x3dd05439	0.10172314
107	0xbe22c30e	-0.1589472
108	0x3e260b6e	0.16215298
109	0x3e0dd94f	0.13852428
110	0x3d61a5b6	0.055089675
111	0x3cd93007	0.026512159
112	0xbc3fe53e	-0.01171237
113	0xbe030b17	-0.12797199
114	0x3d1f2d47	0.03886154
115	0xbde20a0f	-0.11037075
116	0x3d9c628b	0.07635983
117	0xbd99c13c	-0.0750756
118	0x3e452dd5	0.19255765
119	0xbb5366b3	-0.0032257258
120	0x3dd73809	0.10508735
121	0xbca4751c	-0.020075373
122	0xbc6d9d9f	-0.014502912
123	0x3d000049	0.031250272
124	0x3ceef57a	0.029169787
125	0x3e5720a0	0.21008539
126	0x3c9cbd17	0.019133134
127	0x3bc82f39	0.006109145
128	0x3d347081	0.044052605
129	0x3d45dda3	0.048307072
130	0xbcea31dc	-0.028588228
131	0x3dbf4c71	0.09340752
132	0xbdd85faa	-0.105651215
133	0xbd95ae86	-0.07308678
134	0x3e03398c	0.12814921
135	0xbcaf810c	-0.021423839
136	0x3d8e6d3f	0.06954431
137	0x3e2c464d	0.16823693
138	0x3db0ef01	0.086393364
139	0xbe296091	-0.16540743
140	0x3e1b495f	0.15164708
141	0xbd8b38a4	-0.06797913
142	0x3e636840	0.22207737
143	0x3e010ff6	0.12603745
144	0x3e56f82a	0.20993105
145	0x3c0b062a	0.008485356
146	0x3e60c81e	0.21951339
147	0xbdf7eede	-0.12106107
148	0xbc8d2a6d	-0.017232144
149	0x3de9dd5a	0.114191726
150	0x3d252633	0.040319633
151	0xbd8c7544	-0.06858304
152	0xbc95bc4f	-0.01827827
153	0x3d3f6b64	0.046733275
154	0x3dbd950c	0.09256944
155	0xbd88f93d	-0.066881634
156	0xbe0b3d59	-0.13597621
157	0x3db8d9d9	0.09025926
158	0x3e39fe2d	0.18163367
159	0x3bcf48cf	0.006325818
160	0xbceecebe	-0.029151317
161	0xbe2dc159	-0.16968288
162	0xbdde5045	-0.10855154
163	0xbe060d4f	-0.13091014
164	0x3de5b904	0.112169296
165	0x3e0639ad	0.13107939
166	0xbdbb1b46	-0.09136061
167	0xbc7c50dd	-0.015400139
168	0x3c938e51	0.018012198
169	0x3d645f7b	0.05575512
170	0x3e15b9d3	0.14621668
171	0xbe1f55c2	-0.15560058
172	0x3e294ef5	0.16534026
173	0xbde53807	-0.11192327
174	0x3e169e63	0.14708857
175	0xbd516ad9	-0.05112729
176	0x3dad840f	0.08472454
177	0xbc91dcb8	-0.017805442
178	0x3e40a996	0.18814692
179	0xbd08a145	-0.033356924
180	0x3ddb8f2d	0.10720668
181	0xbdb29e23	-0.087215684
182	0xbde75eab	-0.11297353
183	0x3cf76916	0.030201476
184	0x3d839a9a	0.06425972
185	0x3e284983	0.16434292
186	0x3dbc33ba	0.091895536
187	0x3e708846	0.23489484
188	0x3e1d8049	0.15380968
189	0xbdabaa7d	-0.083821274
190	0xbe1dd178	-0.15411937
191	0xbcccb347	-0.02498783
