results/train/SAC_slope_40m/name_SAC/best_model.pt (torch, 184143 bytes, 6 tensors)

linear1.weight f4 [192, 40]
00000000: 776f ffbd d2c2 053d f145 23be 0c4e 1d3f
00000010: eafe 23bd e962 073d 3b28 023f 8644 5bbc
00000020: 1126 3cbe f28f 4ebe 177e 733d 3929 593d
00000030: 2792 3bbe ad8b cdbd 2cd8 073e 8ee8 5dbe
00000040: 6fe8 94bd 6a9c 9e3c a386 afbd 1aa9 dfbd
00000050: a05a 3abe 6b46 0b3e 3972 a2bd 3e67 6abe
00000060: 96cb 883d 45d9 7ebd 1adc 4cbd 1e13 8e3d
00000070: da50 02be eb6c 143c da28 ebbc 5014 a6ba
00000080: 56b4 8d3d 612a 6cbc 57b3 613b 2b8c df3a
00000090: ba59 53be 4c44 13be a18c 153d f776 ca3c
000000a0: c15b 07be 78a0 463d 16a5 0fbe 0013 c73d
000000b0: a971 1bbe 0784 183d 93cb 5b3d f609 75bd
000000c0: 4961 073d 404f edbd 0925 973d 3b2f 0bbe
000000d0: 92f2 03be 5748 91bd 52ec 00be c26e adbd
000000e0: 00e2 e3bd 42fd ad3d 3b6e c5bd dc9e 7abb
000000f0: 8c04 e63d c5b6 db3d 16fe 14be 23d7 013e
00000100: cbc0 14be 00ed 1ebd 858f de3d 6f1a a039
00000110: 8347 a33d 0dcc 4abd 719a 9ebc 4932 f7bc
00000120: 01c0 8a3d 9df6 23bd 320e 14be a35f 7dbd
00000130: 6d6f a439 c27e c93d 0dcd 02bc 9369 9dbd
00000140: 3e0d 1d3d e3b1 db37 876d c93d c426 d9bd
00000150: 28dd a6bd 4c6b 10be ab70 553d a3c4 8a3d
00000160: 11f0 03be d442 13be 951d 0bbe 573d edbb
00000170: 251e 0c3d 8f7c 5fbd 2150 28bd 5888 d43d
00000180: 8ca1 283d f681 b53c ba6f 023e 589a 193d
00000190: 72f0 30be 5fd4 c43d 94ba e2bd f408 043e
000001a0: b1a4 ac3d ecca d5bd cfb7 1a3d 2c2e b3bc
000001b0: 2e80 fabd 08e5 10be c667 0b3d 4120 24be
000001c0: 2a86 9a3d b52b b6bc 665e 2e3b ad84 013e
000001d0: ee2f ca3c 5990 cd3d 0f51 02be 5e4d e0bd
000001e0: 0a16 82bd c2cc d1bd 18d9 8b3d fd0c ddbd
000001f0: 6dda 29be 601e 7bbd b495 ecbb b3d0 c43d
00000200: 7972 ccbc 27db c13c f003 51bc 640b 803d
00000210: 15a9 1bbe a43a d2bc 54f4 693d 85ab d43d
00000220: b833 a63d 9482 f2bd d7ba 19be c583 493c
00000230: 6c2e c0bd 9370 e43d 74f2 3d3d 737b 8a3d
00000240: 8187 46bd 391d de3d e829 52bd 7686 173e
00000250: 42c9 303d 40a8 253d 851b 03be 80d1 09bc
00000260: c09a ffbc 4647 10be 4a7f 9fbd 7204 63bb
00000270: 7f0b 06be fe7f c9bc b333 bdbd 82cf ff3d
00000280: 3786 183d 37f1 e0bd 3408 9abc 4844 a0bd
00000290: 0800 aebd e310 7cbb 4ec8 1dbe 5f63 3c3d
000002a0: 142c c93d 4658 01be 79fd 89bd 2fa2 5d3d
000002b0: f5ae cc3d 10a8 0abe f862 593d 5eab 37bd
000002c0: bcfc 933b 87e5 4bbd a2be 053e a6c7 10bd
000002d0: 74e4 243d 035d d23d 51de 87bd 2081 2bbe
000002e0: 64ae 26bd e2fb 933d d18f d6bd 69fb 88bd
000002f0: ed65 bcbd bf64 923d c45f 17bc c915 8d3d
00000300: bafc e4bd 3b6c 18be 8f5f 1fbd f0a1 0c3e
00000310: 6b26 833d be1c 1abe 427f a83d 91f1 953c
00000320: 1ebb 1ebe 0081 b23c ae3d 803d 584a b23d
00000330: 442d 95bd 1327 cfbd 7993 ca3d 1c66 443b
00000340: e191 d83d 540e cdbc 85a1 b93d c1de c53d
00000350: 3a0d 10be f4fb c6bd bf64 ccbd df80 cd3d
00000360: c99c 02be 39f7 013e b501 d33d e8e0 e2bd
00000370: 70f8 06be a636 08be 5675 c23d 131a e43d
00000380: 6b34 20be ac96 34bd aecd b6bd f009 b23d
00000390: b4c1 bbbd c266 243e bab0 bebd f79c ee3d
000003a0: 80ad f3bd 5c34 abbd 37e0 1ebd f01d 333d
000003b0: b6c4 77bd 620c 5bbd 0dde 283d 729c 73bd
000003c0: f935 fb3d 318f 33be a211 c13d 8b98 953d
000003d0: 3c8f 643d fa1e db3d 0448 06be 42fa 653d
000003e0: 3cc3 163d 2778 2ebe a607 43bd fe46 0d3e
000003f0: 5910 dc3d 355c ecbd e68b fbbd e3df ecbc
-0.12472432 0.0326565 -0.1594465 0.61447215 -0.040038027 0.033053312 0.50842637 -0.0133830365
-0.18373896 -0.20172098 0.05944642 0.05301783 -0.18317471 -0.10036407 0.13266057 -0.21670744
-0.07270896 0.019361693 -0.08570602 -0.109209254 -0.18198633 0.13601081 -0.079319425 -0.22890946
0.06679456 -0.062218923 -0.050014593 0.0693724 -0.12726155 0.009059171 -0.028706003 -0.0012670849
0.06919162 -0.014414401 0.003443917 0.0017055323 -0.20639697 -0.14381522 0.036511067 0.02471493
-0.13218595 0.04849288 -0.14027819 0.09720421 -0.15180077 0.037235286 0.05366094 -0.059823953
0.033051763 -0.11587381 0.07380111 -0.13592236 -0.12885502 -0.07093876 -0.12590149 -0.08468391
-0.111270905 0.08495571 -0.096401654 -0.003824166 0.11231336 0.1072822 -0.14550051 0.12679724
-0.1452667 -0.03880024 0.10867218 0.00030537273 0.07972624 -0.049511004 -0.019360753 -0.030175345
0.06774903 -0.04003011 -0.1445854 -0.061858784 0.00031363536 0.0983863 -0.007983458 -0.07686152
0.038342707 2.618967e-05 0.09835344 -0.10603097 -0.08147651 -0.1410343 0.0521094 0.06775787
-0.12884547 -0.14380962 -0.13585503 -0.0072399783 0.034208436 -0.054562148 -0.041092042 0.10377568
0.041169688 0.022156697 0.12737933 0.03750071 -0.17279223 0.09610819 -0.11070743 0.1289404
0.0842985 -0.10439095 0.03777295 -0.021872602 -0.122314796 -0.14149868 0.034034513 -0.16027929
0.07545121 -0.022237638 0.0026606559 0.12648268 0.024681058 0.10037298 -0.12726234 -0.109522566
-0.0635186 -0.102441326 0.06828517 -0.10793493 -0.16587229 -0.061308265 -0.0072199944 0.09610119
-0.024956929 0.02366407 -0.012757286 0.062521726 -0.15201218 -0.025662728 0.057117775 0.10384277
0.08115333 -0.11841312 -0.1501268 0.012299483 -0.09383854 0.11154284 0.0463738 0.06761827
-0.04846907 0.108454175 -0.051309496 0.14797387 0.043160684 0.04044366 -0.12803467 -0.008411765
-0.03120172 -0.14089689 -0.0778795 -0.00346401 -0.13090323 -0.024597164 -0.092383765 0.12490751
0.037237372 -0.10983508 -0.01880274 -0.078255236 -0.084961 -0.0038462214 -0.15408441 0.045993205
0.0982286 -0.1263133 -0.06737799 0.05410975 0.09994308 -0.13540673 0.0530729 -0.044841163
0.0045162123 -0.04977944 0.13061002 -0.03534665 0.040256932 0.10271647 -0.066342 -0.16748476
-0.040693656 0.07225777 -0.104766496 -0.06688578 -0.09199128 0.07148122 -0.009239141 0.06888921
-0.11181016 -0.14885037 -0.03890949 0.13733649 0.06403812 -0.15050027 0.082273975 0.018303664
-0.15501067 0.021790028 0.062617645 0.08705586 -0.07284024 -0.10114875 0.098914094 0.0029968088
0.10574699 -0.025031246 0.090640105 0.096616276 -0.14067546 -0.09716025 -0.09980153 0.10034346
-0.12755121 0.12691964 0.1030306 -0.11078054 -0.13180709 -0.13302097 0.09495036 0.11137786
-0.15644996 -0.044089004 -0.08925949 0.08693302 -0.09167805 0.16054824 -0.09311052 0.116510324
-0.11898327 -0.08359596 -0.038788047 0.043729722 -0.060490333 -0.053478606 0.04122739 -0.05947537
0.12266154 -0.17535092 0.09427191 0.07304486 0.05580066 0.10699268 -0.1311341 0.056146868
0.036807284 -0.17038022 -0.047614716 0.13796613 0.107453056 -0.115410246 -0.12282543 -0.028915351

linear1.bias f4 [192]
00000000: ff38 b3bd 0000 0000 76ff eabc 29d1 80bc
00000010: a05c 2dbc 0000 0000 cac7 90bc 24c7 683d
00000020: 0000 0000 3cc7 99bd f0d2 d4b9 6410 9e3d
00000030: 4f84 73bd 7430 65bc 337b 6cbd 47a2 f23d
00000040: 0000 0000 0000 0000 9144 713d 7571 09bc
00000050: 7fc8 813b d42b 1bbc a7c3 b83c a929 b4bc
00000060: 0000 0000 0000 0000 0000 0000 745d 71bd
00000070: a021 863d 73d4 5abd 0486 7b3d 0000 0000
00000080: 2c15 85bd 2238 8cbd a74d 4dbd a1ee abbc
00000090: 7ab8 69bc d0dd 18bd e73a 47bd 1f20 c23d
000000a0: 2dee 4d3d e8c7 36bd e7cb 743b 0000 0000
000000b0: 79e1 d5b8 057c c1bc 1ff9 d5bb 9a24 5cbd
000000c0: 62bd 84bd 81c0 a1bb 6381 93bd a7ab cbbc
000000d0: 01da fbbc 7b95 993c a294 8a3d 9b91 92bd
000000e0: ee0a 6cbb d6d6 11bd 818d 45bc 0000 0000
000000f0: 4169 a8bc 0000 0000 0000 0000 0000 0000
00000100: 4e96 aebd 89e7 87bd 6b99 88bd 0000 0000
00000110: e4b9 ab3d 1953 8c3d df2b 7c3d ded1 b83c
00000120: 62ac c0bc 95d9 7e3c aa35 9d3c 0000 0000
00000130: d20f 1abd 7bb2 8ebb 7093 143d d2c9 8dbd
00000140: 0000 0000 ee0e 023c 8d09 713c 02f2 9abd
00000150: 9b46 17bd d128 acbb 0000 0000 b105 ccbd
00000160: 9106 febc 5dbb b3bd b270 b9bd dfc5 5d3c
00000170: a503 6dbd 6291 fcbc 0000 0000 9c7f 2e3c
00000180: 5a55 11bc 65f9 49bc da3b 8fbd 0713 e2bc
00000190: 7c90 8a3c 0000 0000 c1f5 80bd 5fd5 1e3b
000001a0: 01fd b4bc 82ac b7bd c921 abbc 0000 0000
000001b0: 2ca8 45ba 0000 0000 197a 86bd 0653 723d
000001c0: aaba b73d 00d1 92bd 0000 0000 0452 edbb
000001d0: 2192 8dbd 10e9 3dbd 0000 0000 3f87 88bd
000001e0: 5b45 913c df4f a2bd 0000 0000 8b43 99bd
000001f0: c72c 35bd 548c a6bb aea0 27bc 6023 b5bc
00000200: 7a1d 2cbc 1a24 48bc 4a67 0cbc 34c7 d3bc
00000210: 05c9 88bc 73dc 61bd 0000 0000 0000 0000
00000220: 9085 99bd 8594 c2bc 1513 90bc 22c9 adbd
00000230: a42b 02bc 0000 0000 c200 90bc 353c 6fbd
00000240: 8274 e73b e37e aebd 8136 b9bd 0000 0000
00000250: 0000 0000 4aab 3abd d063 d1bb 2581 6dbd
00000260: 9d7f 4fbc ef3f b33d a727 6abc cbd0 953c
00000270: ee39 5cbd fdc3 a8bc 0000 0000 820f 553c
00000280: 0000 0000 b610 00bc 6453 9fbc 0000 0000
00000290: d970 53bc edae 933d ab21 8bbd 5da6 99bc
000002a0: 0000 0000 25ca 76bd 0610 8fbb a1e1 dfbc
000002b0: ca02 e9bc 35de bdbc 0000 0000 f8ac 93bd
000002c0: ab76 413d 0bbf 11bc 0000 0000 bf51 be3a
000002d0: e19f c2bc 56c3 cc3d 887e 6bbb a48c 1dbc
000002e0: 1042 e23b 0000 0000 0000 0000 0000 0000
000002f0: fc5a 693d c2dc a0bd c6a3 893d 0000 0000
-0.087511055 0.0 -0.028686266 -0.015724735 -0.010581166 0.0 -0.017673392 0.05683054
0.0 -0.07508704 -0.00040592952 0.0771797 -0.05945235 -0.013988603 -0.05773468 0.11847358
0.0 0.0 0.05890328 -0.008388867 0.0039606686 -0.009470899 0.022554232 -0.021992521
0.0 0.0 0.0 -0.058927014 0.06549382 -0.053425264 0.061407104 0.0
-0.06498179 -0.06846644 -0.050122883 -0.02098781 -0.014265174 -0.037320912 -0.048640158 0.09478783
0.05027597 -0.04462424 0.003735298 0.0 -0.00010198629 -0.023618707 -0.0065299417 -0.053745843
-0.064814344 -0.0049362783 -0.07202413 -0.024862124 -0.0307436 0.018748036 0.06766631 -0.07156678
-0.0036017257 -0.035605274 -0.012057663 0.0 -0.020558001 0.0 0.0 0.0
-0.08524762 -0.06635959 -0.06669887 0.0 0.08385065 0.06851787 0.061565276 0.02256101
-0.023519699 0.015554805 0.019190628 0.0 -0.037612744 -0.0043547726 0.03627342 -0.0692326
0.0 0.00793813 0.01471175 -0.075656906 -0.03693257 -0.005253889 0.0 -0.09962023
-0.03100899 -0.08775971 -0.09054698 0.013535946 -0.057864804 -0.030831043 0.0 0.010650542
-0.008870447 -0.012327527 -0.06993838 -0.027596964 0.016914599 0.0 -0.06296874 0.0024236066
-0.022093298 -0.0896845 -0.020890133 0.0 -0.0007540013 0.0 -0.06566257 0.05916121
0.0897115 -0.0716877 0.0 -0.007242443 -0.069126375 -0.046364844 0.0 -0.06666421
0.017733267 -0.079253905 0.0 -0.07483586 -0.044232156 -0.0050826464 -0.01023118 -0.022111595
-0.010505075 -0.0122156385 -0.008569548 -0.025851823 -0.016697416 -0.055141877 0.0 0.0
-0.07496178 -0.02375246 -0.017587224 -0.08485629 -0.007944975 0.0 -0.017578486 -0.058407027
0.0070634494 -0.085202955 -0.09043599 0.0 0.0 -0.04557351 -0.0063900724 -0.05798449
-0.012664703 0.08752429 -0.01429168 0.018288037 -0.053766184 -0.020601267 0.0 0.013004186
0.0 -0.007816484 -0.019448943 0.0 -0.012905323 0.07211099 -0.06793531 -0.018756086
0.0 -0.060251374 -0.004365924 -0.027329268 -0.028443713 -0.023177246 0.0 -0.072107255
0.04723231 -0.008895646 0.0 0.0014520212 -0.023757877 0.09998195 -0.0035933573 -0.009616051
0.006904848 0.0 0.0 0.0 0.056971535 -0.07854606 0.067206904 0.0

linear2.weight f4 [192, 192]
00000000: 77f0 c3bd fac1 90bd aa95 d13d d896 a5bd
00000010: 0097 8b3a 2a78 8dbd cadb f63d 804f 55bd
00000020: cede cb3d 48a1 a63c 90a0 c4bd 87f2 14be
00000030: db93 05bd 0a29 a5bd 3644 c8bd 8560 e8bc
00000040: d4e5 e6bd d0a9 b13c 95c2 75bc 0a57 f53d
00000050: 30e3 f5bd 2ecc d23d 0075 993d 4ee4 c3bc
00000060: b4bd 223d 2034 eebd 64cc 0dbd a27c b93d
00000070: bfd9 413d 59e3 b1bd 6a5b 0fbd 185f b93d
00000080: 6046 03be 1d89 b6bc d9f0 973d 3aba 9abd
00000090: ce42 8bbd b8b8 d1bd 7549 bc3d 39e9 893d
000000a0: d28b af3c 7473 e03d 2002 523d 8c61 243d
000000b0: 8054 63bb 505f fe3c 02a3 d93d 3af2 10be
000000c0: 0d19 333d 3086 a4bd 4404 9c3c 9c31 28bd
000000d0: c60f 983d 58af 993c 6e74 9fb9 ee88 f9bd
000000e0: 3af2 cebd 609d afbc 3b65 40bd e09b f63c
000000f0: 004a e83d a0c8 a9bd 600f 073d 9403 0cbd
00000100: 2a62 03be 9839 883c 1f8b dfbd dcc4 a0bd
00000110: de7f f73c 7727 8dbb 7f86 8bbd 785d 6dbd
00000120: a6fe adbd ec02 a3bd 0861 fbbd 0633 e63d
00000130: 0c86 c33d d812 8e3c 191e f5bd 9b9f e0bd
00000140: 04f1 0f3d 681c c1bd 308f 68bd e822 d4bd
00000150: 5899 8dbc 10c3 61bc 4010 46bd 6608 e93c
00000160: fa14 f43d af24 943c 279a 00be 6f44 b83d
00000170: dee5 8c3c 84fc b1bd 30d3 08bc 08c4 50bd
00000180: 1407 a9bd 9cb9 63bd 2097 91bd f869 ebbc
00000190: b3f0 cb3d 9cfe 48bd ad67 0fbe f015 bcbd
000001a0: 0218 e0bd a88d 393c b1d9 e7bd 0837 d43d
000001b0: f4c5 cfbd 80cf b03c cbb2 97bd c304 1ebd
000001c0: 57e6 7cbd 9b70 05bd 1012 d9bc 70db b43d
000001d0: 0bdc 14bd 3c56 593d 9411 633d 7705 cdbd
000001e0: b547 383d 2504 3b3d 0051 38bc 4919 78bd
000001f0: e99a c5bd 20c7 403d a8db 30bd c47b 17bd
00000200: 78cc c83d 00a2 deba 1ce2 b1bd 2070 d53b
00000210: 3619 953d 8bf5 803d 92a5 aa3d 5e2f ea3d
00000220: 84ce 7bbc 682b debc 42a3 8d3d cdf3 bf3d
00000230: b0c5 0a3d 0cfc 9abd 4098 833c 182f 643d
00000240: be29 7bbd 975a 20bd 432c 50bd ecdf f1bd
00000250: c471 9a3d aa5d 873d ead7 c93d 46e6 d2bd
00000260: 9832 6e3d 9a9d a2bd 98fd fe3d 3743 ca3d
00000270: 7ee1 e4bd c02c 673b c0d7 8abc 2aff cabd
00000280: 8012 9f3a 7848 bebd 0c5a 163d d257 9fbd
00000290: 6045 1cbd 3e7f f83c 92ba 023c 4ee3 97bd
000002a0: 04f6 133d 8d9f 6c3d d0ed d5bd 3cf8 0abd
000002b0: 2b34 603c 6f7e adbd d4ae 02bd 0efd fdbd
000002c0: e40f efbd 4ec0 cc3d 78de 26bd d6ee 793b
000002d0: 965c 9ebd 9e35 833d a61b c53d 2428 f3bd
000002e0: 5474 a33d 582a 983d 801b bd3a 5000 bf3d
000002f0: 12b6 acbd 00b6 fcbd 4ddc dfbd d8e7 7c3d
00000300: 5ae3 823d 00bc ed3d e2bd a23c e1a1 143e
00000310: 3e51 e9bc 0c62 733d 9997 aebd af27 43be
00000320: 4002 b93b b8c9 713e 7d94 8cbd af77 28be
00000330: d8c4 573e f671 efbd 2431 8cbd 0d31 9e3d
00000340: 8010 ee3d ac87 613d 794e eebe 4469 eb3d
00000350: f974 c0bc 886f 943d 1de2 a0bd 6cfc 023d
00000360: d0ae 07bd f8fd d13d a0d3 b83c 7d86 853d
00000370: e25b 67be 6821 e03d b119 1dbe b0ff f93c
00000380: c8ea 033e 6856 8e3e 331a 173e 43c2 ba3d
00000390: b7bc c9bd dae9 9a3d 9de9 acbb c825 3dbe
000003a0: a36e d43a 2ce3 28bd 305a ccbd 7844 68bd
000003b0: 1a1e df3d 017e 02be 5d0d dc3d e164 243e
000003c0: 3627 313e 7805 c4bd 4e45 1d3e 51c5 8abd
000003d0: 2849 d9bd 71ec 3cbe b9f3 68be 9b50 dd3e
000003e0: 21db a73d 87a0 953d 360a abbd 7819 21bd
000003f0: d976 cb3d 6874 e63c 007e 993b 50b7 b4bd
-0.095673494 -0.07068248 0.10233624 -0.08085412 0.001064986 -0.06907685 0.1205364 -0.05207777
0.09954606 0.020340577 -0.09600937 -0.14545642 -0.03261171 -0.08064468 -0.09778635 -0.028366337
-0.11274305 0.021687418 -0.015000005 0.11979492 -0.12006223 0.102928504 0.07493019 -0.023912575
0.039731696 -0.11631036 -0.03461875 0.09056975 0.0473268 -0.08685941 -0.03499929 0.09051341
-0.12819815 -0.022282178 0.07418985 -0.07555051 -0.06799851 -0.102403104 0.09193698 0.06733937
0.021428976 0.10959521 0.051271558 0.04013209 -0.0034687817 0.031051308 0.106267944 -0.14154902
0.043725062 -0.08033407 0.019045003 -0.041062936 0.074248835 0.018760368 -0.0003041359 -0.121843204
-0.10104795 -0.021437347 -0.04697154 0.030103624 0.113422394 -0.08290219 0.032973647 -0.0341831
-0.12830415 0.016629025 -0.10915207 -0.07850048 0.030212339 -0.004307683 -0.068127625 -0.057950467
-0.08495836 -0.07959542 -0.122743666 0.11240201 0.09547052 0.01734297 -0.11968631 -0.10967942
0.03514196 -0.09429246 -0.05677718 -0.1035822 -0.017285034 -0.013779417 -0.04835534 0.028446387
0.119180635 0.018083898 -0.12558804 0.08997428 0.017199453 -0.08690742 -0.008351132 -0.0509682
-0.08253303 -0.055596933 -0.07108903 -0.028737053 0.09958019 -0.04907094 -0.14004393 -0.09183872
-0.10942079 0.011325277 -0.11320818 0.10362059 -0.101451784 0.021583319 -0.07407149 -0.03857876
-0.061743107 -0.032578092 -0.02649787 0.08830917 -0.03634266 0.053060755 0.055436686 -0.10010808
0.04499026 0.04565825 -0.011249781 -0.06057099 -0.096486874 0.0470649 -0.04317823 -0.036983266
0.09804624 -0.0016985536 -0.08685705 0.0065136105 0.07280199 0.062968336 0.08332361 0.11434816
-0.015369061 -0.027120307 0.069159046 0.09372673 0.033879936 -0.075676054 0.01606381 0.055708975
-0.061319105 -0.039148893 -0.05082346 -0.11810288 0.0754123 0.06609662 0.098556355 -0.102978274
0.05815372 -0.07940216 0.12450713 0.098761015 -0.11175822 0.0035274476 -0.01694858 -0.0991195
0.0012136251 -0.09291166 0.03670697 -0.07780422 -0.0381521 0.030334111 0.007979052 -0.07416402
0.03612329 0.057769347 -0.1044575 -0.03392814 0.013684313 -0.08471381 -0.03190501 -0.12401782
-0.11672953 0.09997617 -0.040739506 0.0038136742 -0.07732503 0.06406711 0.09624414 -0.118728906
0.07981172 0.074299514 0.0014427751 0.093262315 -0.08433165 -0.12339401 -0.10930691 0.06174454
0.0639102 0.11608124 0.019865934 0.14514877 -0.028481122 0.059419677 -0.08525009 -0.19058107
0.00564602 0.23612106 -0.068642594 -0.16451906 0.21071184 -0.11691658 -0.0684531 0.077241994
0.11624241 0.055061027 -0.46544245 0.11494687 -0.023493277 0.072478354 -0.07855628 0.03197901
-0.0331257 0.10253519 0.022561848 0.06519792 -0.22593644 0.10943872 -0.15341832 0.03051743
0.1288253 0.27800298 0.14756088 0.09119084 -0.098504476 0.07564135 -0.0052768723 -0.18471444
0.0016207289 -0.041232273 -0.099781394 -0.056705922 0.10894413 -0.12743379 0.10744736 0.16054107
0.17300114 -0.095713556 0.15358469 -0.06775916 -0.106096566 -0.1844957 -0.22749223 0.4322556
0.081960924 0.07306009 -0.08351557 -0.03933093 0.09934778 0.028131679 0.00468421 -0.088240266

linear2.bias f4 [192]
00000000: 2bc3 c5bc abf9 053b dcdd fbbb cf69 de3c
00000010: 2613 6dbd af5a 05bd b003 5abc fe0a 063e
00000020: 5e3c 67bc aa2b f6bc dabb 083e 63ab 4b3d
00000030: 1cfd bebc 7860 5fbd 192a 53bc d2f2 dfbc
00000040: d3ad ecbc 28f9 9cbc 0ac5 7b39 afc6 05bd
00000050: f57d 023e c6db b5bb 180d 973a 7b9b 5b3d
00000060: bd93 0dbe 3db9 123e 1715 bfbc de6a d63d
00000070: 2437 49bc b7bd 19bb 4ba4 a0bc 9bc3 053d
00000080: fb81 1e3d 736f aa3c 9274 fb3d e410 f73d
00000090: cdba 34bc a51c 8abc 5418 113e 34f1 d5bb
000000a0: 516b 28bd 0000 0000 d91d 103b 31e1 253d
000000b0: f3db fcbd 9228 0c3e 89e5 2cbc 7eac 24bd
000000c0: e7ea 1cbc 03a1 fa3d 162d 6bbb 840c ae3c
000000d0: 6d27 f9bc 86ac 053d 3888 a9bc 62f9 0f3e
000000e0: b336 0d3e 9a67 24bd eda0 9cbc 9724 21bd
000000f0: 61b4 14bd 029b cebc afa7 0e3d a523 053e
00000100: baf3 53bd 7d35 b2bc 560a 7a3b bb3c febc
00000110: 4418 0f3e 29b1 0b3e 6c56 093e a81b b9bc
00000120: c098 04bd cdb0 273d 238c a8bc 26ec 59bd
00000130: 7ae5 bf3d b9dc 96bc 1398 0f3e 0387 a83b
00000140: 154e e0bc 0067 0f3e 5f09 a939 9698 83bc
00000150: 70b5 943d ec7d 033e 67e5 ccbd 43b7 e8bc
00000160: a50d 263d c822 b5bc 19a2 123c 5fbc 273e
00000170: 08e1 e03c 846c 783d 3a3c 01bd b916 dfbc
00000180: a50f 73bc 6114 56bd b4cb 083e a2a9 dd3d
00000190: 0f0e dd3c 47a8 8bbc 766f 023e 4f2e 23be
000001a0: 2a1d a7bc 92e7 e93d fe9e 943c 0f3b b6bc
000001b0: 8ea1 233e 3c18 01bd f531 c53c 0948 5b3c
000001c0: b879 eebd 7030 853b 0000 0000 8585 1a3e
000001d0: 0000 0000 d121 f9bc 7de3 013e 9462 b4bc
000001e0: 72cb fa3d 848a b03c d535 d6bd 0b6c b0bc
000001f0: a439 02bd fcfe 0f3d 43e5 80bc b1f6 943c
00000200: 3ea6 0a3e a10d 063e 456c fd3d fe09 b23b
00000210: 5775 1b3d 8451 a2bb 3ac5 093e b87c ddbc
00000220: 9f38 bbbc be00 66bc 8716 133e 1374 163c
00000230: ec4f 29bd 315c 15bb 12ce 60bb 2457 28be
00000240: 7b7d fe3d 05a2 fd3d 2cdc 9bbc 01b2 183e
00000250: 0a88 bfbc b3e8 db3c 5ee6 783c e8ec fbbc
00000260: 0f6e 27be d3bd 11bd 1e27 053e f396 aa3d
00000270: 3460 0b3e 70f6 333c 6b6a ea3c 6ed9 113c
00000280: 3a8a b2bc eb61 3e3d 0e22 093e d9c2 92bc
00000290: ec69 103e c6f0 a23c fad3 c0bc 422e 7d3c
000002a0: 35d2 f43d 370b e6bc b758 88bc 39aa 2cbe
000002b0: c810 e13b 0f8d 1e3e d904 1c3d e1e9 e4bc
000002c0: b894 cc3c d46d 56bd 3d17 333a 4065 a7bb
000002d0: 117b f03d ef3e 34be 6beb 143e 5445 8fbd
000002e0: 662b c7bc 53a8 87bd f51e d4bb 2479 933d
000002f0: 73ab 083e 1197 f33d 017e 0dbe 01c0 f0bb
-0.024140915 0.0020443003 -0.00768636 0.027150063 -0.05787959 -0.032557186 -0.013306543 0.1309013
-0.014113514 -0.030050118 0.1335291 0.049723994 -0.023314051 -0.05453536 -0.012888455 -0.027337465
-0.02889148 -0.019161776 0.00024010628 -0.032660183 0.12743361 -0.0055498807 0.0011524288 0.053615075
-0.13825889 0.14328475 -0.023325486 0.10469602 -0.012281213 -0.0023459026 -0.019609591 0.032657247
0.038698178 0.020805096 0.122780934 0.120637685 -0.011030865 -0.016859362 0.14169437 -0.006528998
-0.04111797 0.0 0.0021990447 0.040497962 -0.123466395 0.13687351 -0.010552772 -0.040203564
-0.009577489 0.12237742 -0.0035885028 0.021246202 -0.030414307 0.032635234 -0.020694837 0.14059976
0.13790397 -0.040137865 -0.019119704 -0.039341535 -0.036304835 -0.025220398 0.034827884 0.13001879
-0.051746108 -0.02175402 0.0038153133 -0.031034818 0.139741 0.136418 0.13411874 -0.022596195
-0.032372236 0.040940095 -0.020574635 -0.053203724 0.09369941 -0.018415796 0.14022855 0.005143048
-0.027380982 0.14004135 0.00032241174 -0.01606397 0.07261169 0.12841004 -0.100046925 -0.028407698
0.040540356 -0.022111312 0.00894978 0.16380452 0.027451053 0.060650364 -0.031551577 -0.027232515
-0.014835273 -0.05226553 0.13358957 0.108233705 0.026984243 -0.017048014 0.12737831 -0.15935634
-0.020399649 0.11421122 0.01814222 -0.022244958 0.15979597 -0.031517252 0.024071673 0.013383874
-0.1164431 0.004064612 0.0 0.15089996 0.0 -0.030411633 0.12684436 -0.022019662
0.12245835 0.021550424 -0.104594864 -0.021535894 -0.03179325 0.03515528 -0.01573432 0.018184038
0.13539979 0.13091137 0.123741664 0.00543332 0.0379537 -0.004953565 0.13454142 -0.02703701
-0.022854147 -0.014038263 0.14364062 0.009182948 -0.041335985 -0.0022790546 -0.0034302515 -0.16439492
0.12426277 0.123844184 -0.019025885 0.14911653 -0.023380298 0.026844358 0.015191643 -0.030752614
-0.16350578 -0.03558142 0.13003203 0.083295725 0.13610917 0.010984048 0.028615197 0.008901937
-0.021794427 0.0464801 0.13391897 -0.017915176 0.14102906 0.0198902 -0.023538578 0.015452923
0.11954156 -0.02808152 -0.016643865 -0.1686181 0.0068684556 0.15483497 0.03809056 -0.027943553
0.024973258 -0.052350834 0.0006831771 -0.0051085055 0.11742223 -0.17602132 0.1454293 -0.06995645
-0.024312686 -0.06623902 -0.006473417 0.0720084 0.13346653 0.11894048 -0.13817598 -0.0073471074

mean_linear.weight f4 [1, 192]
00000000: 7c1e e13d 79fd 3c3e d8b1 bb3e 9dea 7d3e
00000010: 8bf8 27be d6c0 08be 3e2d fd3d 2c3c cbbe
00000020: a661 c43e c303 0cbb 81b8 82be 6993 9e3e
00000030: 1fc6 893d a5fc 9f3b 029a fc3c 416a 33bd
00000040: 0ae7 7ebb ea2e fa3a a253 a93e 2aa4 12be
00000050: 097f 85be 3423 bc3e aeac 0c3e 61be b93e
00000060: e14a 683e 363c cabe 7710 f1bd 34e1 a1be
00000070: 3b03 053c a089 a13e abd9 933b 87c0 863d
00000080: d6da cc3e 7d8a 7a3e 8a9b 98be 8fff 94be
00000090: 5ed7 123c 3951 c33d 1d51 7cbe 8430 19be
000000a0: 31b6 de3c b796 cc3d b032 a33e 2f49 ad3e
000000b0: bab3 3dbe 087a 40be af2e df3d fe86 c93d
000000c0: bd38 f53c 6f11 d6be 33a7 bebc 2734 9f3e
000000d0: 639c 5e3d a9a1 d43e fa08 ee3d 70a6 60be
000000e0: ccec 3dbe 9c13 88bb 4485 f8bd 64c6 c43d
000000f0: 5b0d 083a 8e74 eebb 0063 bf3d 09fd 94be
00000100: bb53 153c 9c97 30bd ca59 c63e 0dd8 053e
00000110: 7d25 a0be e2cd a8be 1844 bbbe e0fd d73d
00000120: 946d cf3c b450 803e 43da 71bc e4f4 313c
00000130: ad8c 4fbe 50fc f7bc fdb2 a0be 56e5 7a3e
00000140: 5668 b93b 0747 80be f758 5a3e 2874 02be
00000150: 71fb 94be 03be 87be 9604 cc3c 56f4 043c
00000160: e9fd 993e 7c97 d83d eae2 a63e ec96 afbe
00000170: d0da ad3e f9c4 8f3e 3444 b338 e658 c8bb
00000180: 7b6e 0d3e 5b0e 3abb 4e3b 69be 3a22 5cbe
00000190: 18c9 8f3e eb46 d43d 722a 83be 8abb 523e
000001a0: 8fb0 aa3c 647a b5be 51b5 4c3e e188 f03a
000001b0: 7195 63be d1bd acbd b11e b43e e613 9b3e
000001c0: 47a7 4b3e 78b3 9c3e e77f bc3d 839e 9bbe
000001d0: 776d 963b 6f43 d8bd e057 bbbe dbf5 5dbd
000001e0: 0e70 9cbe 53be 723e 7eca adbd 9a74 00be
000001f0: 4a9c 6fbd 657f 9b3e adf3 1dbb d7c9 9a3e
00000200: 56ff b5be 7431 b4be a985 80be 5d0c 6b3e
00000210: 4f7b 9a3e 22df b43e 27b0 ccbe 98c6 edbc
00000220: 4c3b 13bd e2d4 c83d b542 96be dce5 153e
00000230: 5bbb a0bd 5358 7e3e 0163 473e c444 463e
00000240: 070b 73be 40ff 8fbe 38c7 44bd 92ec 89be
00000250: 76c4 cf3d 7c4e d63e 45a5 8d3e 8333 6d3c
00000260: 1671 533e c704 283d 89e4 a9be 3275 2dbe
00000270: 35de 79be 118f b8bd 9381 c43e b396 963e
00000280: 5128 65bb 30e2 d83e 4668 a5be f650 05be
00000290: a8d6 b5be 1bde 683e a2eb 933c d640 893e
000002a0: 999a 8cbe 03a0 70bd 3604 00be 491c 3c3e
000002b0: 9327 9b3e 5dab 94be 30b1 75be c267 cdbb
000002c0: 64ec c53e 8713 f23b 0db2 8abd d084 a3bd
000002d0: b1a0 8bbe ee34 5e3e 911d babe 4579 143d
000002e0: cb9b 293d f2b2 03bb e641 b6bd 5e98 23be
000002f0: 1962 55be 40ef 67be ab36 9fbc 163f bd3c
0.109921426 0.18456067 0.36659122 0.24796529 -0.16403405 -0.13354811 0.12362145 -0.39694345
0.3835575 -0.0021364547 -0.2553139 0.3097184 0.06727242 0.0048824125 0.030835155 -0.043802503
-0.0038895034 0.0019087468 0.3307162 -0.14320436 -0.26073483 0.36745608 0.13737747 0.3627806
0.22684814 -0.39499062 -0.117707185 -0.3161713 0.008118446 0.31550312 0.004512032 0.065796904
0.4001071 0.24466892 -0.29806167 -0.29101226 0.00896248 0.09536976 -0.24640317 -0.14959913
0.027186485 0.09989684 0.3187461 0.33844897 -0.18525591 -0.18796551 0.10897576 0.09840201
0.029934281 -0.41810176 -0.023273086 0.31094477 0.05434836 0.41529587 0.11622806 -0.21938491
-0.18547362 -0.0041527282 -0.121347934 0.096081525 0.00051899784 -0.007277078 0.093450546 -0.290993
0.009114201 -0.043113336 0.3874038 0.13070698 -0.312786 -0.32969576 -0.3657539 0.1054647
0.025320806 0.25061572 -0.01476151 0.010861609 -0.20268507 -0.03027168 -0.31386557 0.24501547
0.0056581898 -0.2505419 0.21323 -0.12739623 -0.29098085 -0.26512155 0.02490453 0.008114895
0.3007653 0.10575768 0.32594997 -0.34294832 0.33956003 0.28079966 8.548089e-05 -0.006114113
0.13811676 -0.0028389904 -0.22776529 -0.21497431 0.2808311 0.10365089 -0.2561832 0.20579353
0.020836143 -0.3544494 0.19991042 0.001835134 -0.22224976 -0.08434642 0.35179666 0.3028862
0.1988803 0.30605674 0.09204083 -0.30394372 0.004590686 -0.10559737 -0.3659048 -0.054189544
-0.3055424 0.23705415 -0.08485888 -0.1254448 -0.05849866 0.30370632 -0.002410154 0.30232117
-0.35546368 -0.3519398 -0.25101975 0.22953935 0.30172202 0.35326487 -0.39978144 -0.029025361
-0.03594522 0.09806229 -0.29347768 0.14638466 -0.07848235 0.2483838 0.1947136 0.1936217
-0.23734675 -0.28124428 -0.048041552 -0.269383 0.10144894 0.41856754 0.27665153 0.014477613
0.20648608 0.04102018 -0.3318217 -0.16939238 -0.24401172 -0.09011663 0.38380107 0.2941185
-0.0034966657 0.42360067 -0.32306117 -0.13019165 -0.35515332 0.22740977 0.018056694 0.26807278
-0.274617 -0.05874635 -0.12501606 0.18370165 0.3030363 -0.2903699 -0.23993373 -0.0062684724
0.38656914 0.0073875817 -0.06772242 -0.07984316 -0.27271035 0.21699879 -0.36350682 0.036248464
0.04140834 -0.0020095673 -0.08899288 -0.15976092 -0.20838203 -0.2264986 -0.019435247 0.02310137

log_std_linear.weight f4 [1, 192]
00000000: 0ced cdbd 0603 f63d ce95 de3d cad6 863e
00000010: c194 cb3c 21d3 27bd 1cb3 2cbe 3da3 4c3e
00000020: a66c 7e3c cb02 d8bc 40ec 8e3d fddc 743c
00000030: 818d e3bd 26d7 08bd 00db 23be d09b bc3d
00000040: 6714 293b 6ac8 febc 2a66 f83d 35ae cdbd
00000050: 3829 3d3e 9120 3d3e 5929 8ebd f3bd 643e
00000060: 96b4 99bd 827f 033e 6746 ee3c 4dec 41bc
00000070: 72e9 eebd ecf1 5abc d837 d1bd 2a76 ffbb
00000080: 6022 3fbd 4292 553e 1c9a 593d 801f 293e
00000090: 49f0 8fbd 8436 ddbd f107 d83c acfd bebd
000000a0: 0c0c 993c 5e7b babb 94bc 403e 0d7f 593e
000000b0: 358a 873e c49c 2a3d 8537 313e 42cb 8cbd
000000c0: 4341 07be 127a 9d3e 8e79 13be d252 fe3c
000000d0: 91fd a1bd 3d33 193e fc59 9fbd 80ec 083e
000000e0: 8d51 843e b281 f1bd 1d63 583d e243 cdbd
000000f0: 9486 92bd a2c0 b43d 9744 15bd f769 c93c
00000100: d0ac 9f3c 49ad c6bd b99c 1e3e 362f 12be
00000110: a7f1 d63d e7b9 533d 4f3a 683d 9e9c de3c
00000120: 2d35 1b3e 2f7a 833e 0d89 2d3d d062 0cbe
00000130: b853 363e f6e0 f5bd b9c3 483d d2f8 2b3e
00000140: d176 08be e0cc 743e aae6 193d 02c6 d13d
00000150: e323 8a3e 8873 7abd f164 ddbc 3972 6cbd
00000160: ae9a 86bd 9121 23be 593b ce3c 89dd cc3d
00000170: e11e f03d 867e a9bd 14da 31bd 1859 16be
00000180: c9ab 583d 2b7c 933d d9ed 4abd 1a2d 8f3d
00000190: 9802 093d 8cb2 18be 7939 873e e447 7e3e
000001a0: 030f c4bd 7bd8 8abd bfb6 1e3e 01ac 4a3d
000001b0: 4492 f53c a22a 6bbd 5fa9 663d 4e9b 583e
000001c0: 9c00 f03d 944d 3f3d 19e2 a5bd b03f 27bd
000001d0: e2d9 dcbd 342c 01be 2206 8cbd d0d1 3fbc
000001e0: 0f80 8c3e c36e 543e 2820 673e 5a61 26be
000001f0: 2bc2 6abd 16cf 883e 597e 133e f0f0 903d
00000200: e5f5 52bd 90aa 7cbd e6d1 943e 0b6f 25bc
00000210: 3814 25bd 536b 183e 636b c53d 7d4d 06be
00000220: e1c0 56bd 899f 813d c5f5 943e 7a99 3e3c
00000230: 7ac3 bebd a79a a83d e7ad 623e 27a6 a2bd
00000240: 5db5 e739 f468 0d3e 82ff 1e3e 1e59 713d
00000250: 2f4f 3dbc d820 803e 2651 753e 9e5e 213e
00000260: 7c41 d43d 5752 babd 6f73 393d 3852 9d3d
00000270: 4595 4f3e ec4c 5a3c aba3 183e 4386 663d
00000280: 97c0 e3bd 3f78 623e c91e a43d d1c2 bd3d
00000290: 5cf2 5b3e 93db 3d3e e1ae 08be 297f 483e
000002a0: 1c7c cdbd d041 02bd bd03 753d 2766 473d
000002b0: 3569 3f3e 0dda e03c 968b ea3d b42d 4d3e
000002c0: 59e3 f03d 156e a33d 90f3 c33c b05e 21be
000002d0: baa6 dd3d ae1a c13c 847f 8f3e 2f0f d8bd
000002e0: bf33 b53d 2273 6a3d 7617 fbbc fab5 1dbd
000002f0: a88a 453e fcb7 073e 4d12 aa3d aa9a f3bc
-0.10054979 0.120122954 0.10868417 0.26335746 0.024851205 -0.040972833 -0.168652 0.19984145
0.0155288335 -0.02636852 0.06978655 0.014945266 -0.11110974 -0.033408307 -0.1600151 0.092094064
0.0025799514 -0.031101424 0.12128861 -0.10042993 0.18472755 0.18469454 -0.0694148 0.22338085
-0.07505147 0.12841609 0.029086305 -0.011836124 -0.1166562 -0.013363343 -0.102157295 -0.0077960687
-0.046663642 0.20856574 0.053125486 0.16515923 -0.07028253 -0.10801414 0.026370974 -0.09325728
0.018682502 -0.005690976 0.18821937 0.21239872 0.2647263 0.04165341 0.17306335 -0.06874706
-0.13208489 0.30757195 -0.14401838 0.031045351 -0.07909692 0.14960952 -0.07780835 0.13371468
0.25843468 -0.117923155 0.052828897 -0.10022713 -0.07154575 0.08825804 -0.036442365 0.02458666
0.019491583 -0.0970102 0.15489472 -0.14275822 0.1049531 0.051690962 0.056696232 0.02717429
0.15157004 0.25679156 0.04236703 -0.13709569 0.17805374 -0.120057985 0.04901478 0.16794136
-0.13326575 0.23906279 0.037573494 0.10242845 0.26980504 -0.061145335 -0.027025672 -0.05772612
-0.065724716 -0.15930773 0.025174784 0.10003192 0.1172464 -0.082760856 -0.043420866 -0.14682424
0.052898202 0.072014175 -0.049543235 0.06991024 0.03344974 -0.1491186 0.26411036 0.24832112
-0.09573176 -0.067795716 0.154994 0.049480442 0.029976971 -0.057413705 0.05631387 0.21152994
0.11718866 0.046704844 -0.08099765 -0.04083222 -0.10783745 -0.12614518 -0.06837107 -0.011707738
0.2744145 0.20745377 0.2257086 -0.16248074 -0.05731408 0.26720494 0.14403667 0.07077205
-0.051504035 -0.0616861 0.2906639 -0.0100972755 -0.040302485 0.14884691 0.09639623 -0.13115497
-0.052430037 0.06329257 0.29093757 0.011633271 -0.09314628 0.082326226 0.22136651 -0.07941847
0.0004419488 0.13809568 0.15527156 0.05892288 -0.011554523 0.25025058 0.23956737 0.1575875
0.10364053 -0.09097736 0.0452761 0.076816976 0.20271786 0.013324004 0.14906184 0.056280386
-0.11120718 0.22116183 0.08013684 0.09265674 0.21479172 0.18540792 -0.13347961 0.19579758
-0.100334376 -0.031801045 0.05981802 0.048681404 0.18692477 0.027447725 0.11452405 0.20036966
0.11762113 0.07979981 0.02391985 -0.15758777 0.10822816 0.023572292 0.28026974 -0.10549771
0.088477604 0.057238705 -0.030650835 -0.038503624 0.19291174 0.13253778 0.08304272 -0.029736836
