results/train/DQN_robot_weight_5kg_force25/best_model.pt (torch, 160590 bytes, 8 tensors)

layer1.weight f4 [128, 40]
000000 d4 2c ab bd 50 91 9e 3d bd bc c0 bd f5 54 23 3d
       -0.0835816 0.0774256 -0.09410999 0.039875943
000010 cf 8c f4 bd 92 76 03 bd 13 05 c0 bd 96 01 d1 bd
       -0.119409196 -0.0320955 -0.09375968 -0.102053806
000020 62 e3 d7 bd 5d f3 bc 3d 8e fe 2b 3d 5f 31 f4 bc
       -0.10541417 0.09226105 0.04199081 -0.029808698
000030 5d ea 71 3c 60 80 15 bc 58 ee a0 bd 46 c3 90 3d
       0.014765349 -0.009124845 -0.078579605 0.070684955
000040 28 b1 a6 bd 4c 99 f5 3c 7a 39 de 3d dd c2 6b bd
       -0.081392586 0.029980324 0.108508065 -0.057558883
000050 bf 96 eb 3d 1b 1c 62 3c c2 10 ab bd e9 65 ba bd
       0.11503362 0.013800646 -0.08352806 -0.09101469
000060 9c ec 31 bd 6f d7 5c bc c0 38 d4 bd 17 b4 e8 bd
       -0.04343854 -0.013479098 -0.10362387 -0.113624744
000070 ea 36 00 bd 73 a4 2b bd 41 59 94 3b 8c 08 06 3d
       -0.03130237 -0.041904878 0.0045272415 0.032722995
000080 ee 8f cb 3d ce f4 92 3d f4 da ab bd 51 7e cf 3d
       0.09939562 0.07175599 -0.08391371 0.10131515
000090 af ac 65 3b 21 24 07 3d a1 2c 6f bd 9c d6 e8 3d
       0.0035045554 0.03299344 -0.05839217 0.113690585
0000a0 2f 87 3e be 02 b6 b8 3b 20 89 4b 3c 2a 8f 9b be
       -0.18606256 0.0056369314 0.01242283 -0.30382663
0000b0 54 fe 43 bd 46 dd 94 bd c1 50 99 be f6 5d 10 3d
       -0.047849968 -0.07268767 -0.29944423 0.035245858
0000c0 21 53 98 3d f9 88 d1 3d 9b 22 79 3d 20 e5 22 3e
       0.074377306 0.102312036 0.060824018 0.15907717
0000d0 ba 59 aa 3d 43 0e b3 bc 1f 07 93 3d 95 c1 7a bd
       0.08317895 -0.021857386 0.071790926 -0.06121977
0000e0 a3 bb 8c bc 63 4c 4a 3d af ae 20 bd 1b de 6c 3c
       -0.017179316 0.049389254 -0.03922909 0.014457251
0000f0 30 7d bc 3d 94 62 bd bd 99 4e bd bb 4c c1 1b 3e
       0.09203565 -0.09247318 -0.005777192 0.15210456
000100 47 e8 e3 3d d7 7d 22 be 26 93 83 bb 89 6f b3 3d
       0.11128288 -0.15868317 -0.004015344 0.08761508
000110 ee 9f e5 3d c2 0c 22 3e c6 e4 91 3d 3e ab 8a bd
       0.11212145 0.15825179 0.07123713 -0.06770943
000120 b2 4f ec 3d 2a 89 d3 3d dd 3b cb 3b 12 09 58 bd
       0.11538638 0.10328896 0.0062022046 -0.052743025
000130 be 8b 9e 3d 23 5a 5e 3d 26 21 f8 3c c8 7b d8 3d
       0.077414975 0.05428518 0.030289244 0.105704844
000140 a0 bc bc 3e 06 58 62 bd 0a 45 36 3c 0b 74 40 be
       0.3686266 -0.055259727 0.011124859 -0.18794267
000150 95 98 35 3d 28 58 94 bd 0f 2a 65 3d 49 d2 03 3e
       0.044334967 -0.07243377 0.055948313 0.12873186
000160 fe 8b 73 3e a8 b9 a1 3d fc 81 4b 3d af 5f 10 bd
       0.23783872 0.07896739 0.04968451 -0.0352475
000170 a4 e9 86 3d 56 5a 77 3d 3b 45 08 3e 13 b6 8b bd
       0.06587532 0.060388885 0.1330766 -0.06821837
000180 f3 5f 1e bd 61 a1 c8 3d b7 70 79 3b 35 76 c5 3d
       -0.038665723 0.097964056 0.0038061568 0.09641687
000190 4f a8 9b bd de b3 00 3e 08 90 0a 3e 6a 27 d9 3c
       -0.07600462 0.12568614 0.13531506 0.026508052
0001a0 23 8b 92 bd 75 31 78 bd 15 b8 d8 3c f2 73 d3 3b
       -0.071554445 -0.06059404 0.026454965 0.0064530307
0001b0 12 bb b2 bd 2c 05 9d bb f5 ba c6 3d dd b8 81 3d
       -0.08727087 -0.0047918763 0.09703628 0.06334088
0001c0 f1 e2 bd bd 70 a1 10 3e b4 08 89 3d 93 72 63 3c
       -0.09271801 0.14124084 0.06691113 0.013882297
0001d0 04 23 cd bd 2e f8 92 3d 87 60 8a bb 44 4b 93 3d
       -0.10016444 0.07176243 -0.0042229327 0.0719209
0001e0 ee 7a ab 3e 79 13 9a bd 50 20 b5 3d 22 4d 62 bc
       0.33492225 -0.07523245 0.08844054 -0.013812335
0001f0 9d fc 7b 3c 99 9d 4d 3a 23 7a 5b 3d 18 5d 72 3c
       0.015380052 0.0007843613 0.053583276 0.014792703
000200 2e 86 c0 3d a7 c5 a4 bd 2a f4 ad bd c1 8b 34 3d
       0.09400593 -0.08045512 -0.08493836 0.044078592
000210 31 38 ce 3d 3e a9 f6 3d d5 84 52 3d 98 ab fe bc
       0.100693114 0.12043999 0.05139621 -0.031087682
000220 06 46 d6 bd dc ba fc 38 f2 cf d7 3d d4 64 e4 3d
       -0.10462575 0.00012051102 0.10537709 0.11152044
000230 a3 37 ef 3b 88 6c 46 3d 06 98 d5 3d ea 33 94 3d
       0.0073003336 0.048443347 0.10429387 0.07236464
000240 db da b1 b9 ac e0 ad bc 31 2a ad bc 26 ec e7 3c
       -0.0003392313 -0.021225296 -0.021138282 0.028310847
000250 10 8f e3 3d 66 17 d9 3d 0e 54 c9 bd 86 5c df bd
       0.111112714 0.10600166 -0.09830485 -0.10906319
000260 74 d1 e3 bd fa 11 b9 3d 5b f4 5d 3d 10 51 8f bb
       -0.111239344 0.09036632 0.054188114 -0.004373677
000270 99 e6 a1 bd 18 78 ee 3d c7 29 3e bd 5e 5c f8 3d
       -0.07905311 0.11644 -0.04642656 0.12126993
000280 d2 20 ba 3e e3 3a 0f bd da f6 9c bc d4 b8 c2 3d
       0.36353165 -0.034968268 -0.019160677 0.095079094
000290 1d 13 ee 3d 22 13 2e bd 7f ee 7e bb 2c da 64 3d
       0.11624739 -0.042498715 -0.003889948 0.055872127
0002a0 4d da 4e 3e 5b 6e 98 3d 7a b6 e2 3d f9 20 22 3c
       0.20200463 0.07442924 0.11069961 0.009895557
0002b0 82 90 f4 bb 25 03 8b bd ab cf 84 3c bb 1c d9 bd
       -0.0074635157 -0.06787709 0.016212305 -0.10601183
0002c0 cd 84 f1 bb 41 d8 18 3d f1 8d 8a bb db fd 8e 3d
       -0.0073705674 0.03731561 -0.0042283465 0.06982013
0002d0 da 62 85 bd e4 8f 98 3d b7 17 88 bd 92 71 b2 3d
       -0.06512995 0.0744932 -0.06645148 0.08713068
0002e0 b0 e1 61 3d 26 18 92 3d f6 8f f5 3d 7d a7 cd bc
       0.055146873 0.07133512 0.11990349 -0.025104279
0002f0 08 5f 84 bd 56 63 d3 3d a0 16 86 bd d4 b3 ef 3d
       -0.06463438 0.10321681 -0.06547284 0.11704221
000300 8a 85 aa bd 52 a1 41 3d 11 a8 b1 bc ee 4f 45 bd
       -0.08326252 0.047272988 -0.021686586 -0.04817193
000310 73 62 9d 3d 9a 1e d5 3d 86 d6 6b bc e7 4c d4 3d
       0.07684793 0.104062274 -0.014394408 0.103662305
000320 3d 50 a4 be e8 80 a5 bc c2 5e bc 3d 89 3e ab be
       -0.32092467 -0.020203069 0.09197761 -0.33446148
000330 f6 1a 9f 3b 76 b2 96 3d c6 8a 72 be e5 bc 2d 3e
       0.004855509 0.073582575 -0.2368575 0.16966589
000340 91 c5 05 3e e8 d9 05 3c d7 c7 cf bd 73 1c bc bc
       0.13063647 0.008169629 -0.10145538 -0.022962784
000350 70 89 de 3d db 96 4d 3d 8e 87 ac 3d 48 c5 53 3d
       0.10866058 0.050192695 0.084242925 0.051701814
000360 23 08 3d bd 11 e1 c6 3c 41 a0 38 bd 00 67 d2 3c
       -0.046150338 0.024277242 -0.045074705 0.02568388
000370 1d 93 ba 3d ed 07 65 bd 5e 78 e0 bc fd e0 2c 3e
       0.09110091 -0.05591576 -0.027401146 0.16882701
000380 7b bd d1 3d 4c 7d bd ba 15 e0 82 bb cc 70 8b 3c
       0.10241219 -0.0014456897 -0.003993998 0.01702156
000390 5f 52 fd 3d 77 a2 0e 3e 3c 40 34 3d b2 13 ae 3d
       0.12369227 0.13929163 0.04400657 0.0849985
0003a0 2e 46 34 3e cb 4d 44 bd d6 c8 96 bb 79 6f 21 3e
       0.17604896 -0.04792575 -0.004601578 0.1576518
0003b0 a8 a0 15 bc 1a 9c dc bc 8b d4 ed bd 3a e5 4c bd
       -0.009132542 -0.026929904 -0.11612805 -0.050023295
0003c0 c7 81 64 be d4 ad 00 3d 89 d1 eb bc ef 25 c7 be
       -0.22315131 0.031415775 -0.028786438 -0.3889613
0003d0 38 07 3b bd 75 a8 95 3d d8 ca 23 be b8 dc a3 3d
       -0.04566118 0.07307521 -0.15995347 0.08001083
0003e0 a6 84 4f 3e e7 c6 21 3e c4 4c b6 bd ac d5 18 3e
       0.20265445 0.15798531 -0.08901361 0.1492526
0003f0 7f e2 35 bd 6b b9 bd 3d 92 c2 99 3d d1 2f 4b 3d
       -0.044405457 0.09263881 0.075078145 0.04960615

layer1.bias f4 [128]
000000 29 1b 8b 3c 04 c8 80 bb 40 44 72 3b 09 11 6d 3d
       0.016980724 -0.0039300937 0.003696695 0.057877574
000010 52 ce b3 3d 57 a7 b5 3d 8b f0 da 3d 2e ce 5d bd
       0.08779587 0.08869808 0.10690411 -0.054151706
000020 79 1f 4b 3d 52 55 08 be c9 65 d0 bd 75 52 8d 3c
       0.04959056 -0.13313797 -0.10175664 0.017251233
000030 8d 1a 9f 3d 97 c8 54 bd cd 61 44 bd 1c c1 10 3d
       0.07768736 -0.05194911 -0.047944833 0.035340413
000040 13 15 98 bd 0b 13 09 bd 55 57 04 bd 51 b5 f4 3d
       -0.074258946 -0.033465426 -0.03230985 0.11948646
000050 06 17 8b 3d 95 d9 14 3d d2 e7 d4 3c b0 22 7a bd
       0.06791501 0.036340315 0.025989447 -0.061068237
000060 aa 01 91 bd de dc 89 bd 86 08 e4 3d ce 33 16 3d
       -0.070803955 -0.0673158 0.11134438 0.0366705
000070 3a 65 96 3d 19 f3 b2 bd 6d 41 80 bc fa 40 fa bd
       0.07343526 -0.087377734 -0.015656197 -0.122194245
000080 d0 f7 c2 3d 36 e7 c9 3d b3 61 18 bd ec f6 a5 3d
       0.09519923 0.09858553 -0.03720255 0.08103737
000090 ac 2f ae 3b 95 8e a3 bc 11 3d f3 bc 53 70 e3 bd
       0.0053157415 -0.01996545 -0.029692205 -0.111054085
0000a0 1f a4 c8 3d 7c 6f 94 3d ab fd 09 bd aa 32 4f 3c
       0.097969286 0.072478265 -0.033689182 0.012646357
0000b0 9c 09 c0 3c 08 67 02 3d 7c 40 6c bd 07 f6 3c 3d
       0.023442082 0.03183654 -0.057678685 0.046133067
0000c0 2d 4f 2a 3d 72 f5 74 3d 02 f6 46 3d 78 f3 83 3d
       0.041579414 0.059804387 0.048574455 0.06442922
0000d0 07 20 84 3d a2 7b 28 bd 8d 72 bb 3d a4 55 ce bd
       0.06451421 -0.04113353 0.09152708 -0.100749284
0000e0 45 ec 6d 3d 00 4a 08 bd f7 f1 5d 3d 5d 7b dd bd
       0.058086652 -0.033273697 0.054185834 -0.10814545
0000f0 78 a4 81 bc ce 6f 37 bd f0 92 47 3d b1 43 12 3c
       -0.015825495 -0.04478436 0.048724115 0.008927272
000100 5b a6 39 bd 86 85 ad bc b4 ea ea bd 5d 2e ee bd
       -0.045324665 -0.021181833 -0.11470547 -0.11629937
000110 f4 5f 6d 3c 72 b4 f0 bc bf bf f0 bc 21 d4 c5 bd
       0.014488209 -0.029382918 -0.029388307 -0.09659601
000120 c4 5c 90 3d 76 30 27 bd 42 13 98 bb 14 4c 03 3d
       0.07048944 -0.0408177 -0.0046409676 0.032054976
000130 66 90 83 bd 13 e4 85 3d 93 4c a1 bd e5 ed ee bd
       -0.06424026 0.06537642 -0.078759335 -0.116664685
000140 a4 a7 b8 3d a0 1c ce 3d 6f 42 0d bd 0c 79 09 be
       0.0901635 0.100640535 -0.034487184 -0.13425082
000150 2a b3 8e bd 6e 77 d1 bd 5c 76 a0 3d b7 f9 2f 3d
       -0.069677666 -0.102278575 0.07835075 0.042962756
000160 35 f8 01 3e 28 70 9f bd 66 ce b3 3b d4 57 63 ba
       0.1269234 -0.07785064 0.005487251 -0.000867245
000170 3a 73 06 3e 4a 31 df 3d 85 69 dc 3c a8 66 8e 3d
       0.13129893 0.10898073 0.026905784 0.06953174
000180 ef 5c 00 3e 62 5f 02 3d 8f 3a 3e 3c b7 54 cc bd
       0.12535451 0.031829245 0.011610641 -0.099770956
000190 d7 90 6a bc 3d 7e 9e 3d 47 fa 58 bd 28 cb 8f 3d
       -0.014316759 0.07738922 -0.052973058 0.07021171
0001a0 e9 23 b7 bd 47 09 f0 3b e6 00 44 3d 9d 93 85 3d
       -0.08942396 0.0073253247 0.04785242 0.065222956
0001b0 d7 b3 e1 bd e6 50 a5 3d c2 a7 d7 3d 8d 07 e7 bd
       -0.1102063 0.08072071 0.10530044 -0.11280737
0001c0 39 2b eb 3d ad 7d ed bc f8 79 c4 3d a8 a5 49 bc
       0.114828534 -0.028990591 0.09593576 -0.012307562
0001d0 58 a3 a3 3d 84 f9 8c 3d cc a4 69 3d b7 e2 d3 3a
       0.0799014 0.06883529 0.05704193 0.0016165589
0001e0 37 f4 c9 bd c5 3f cd 3d 2f 06 08 3d e6 b9 3f bb
       -0.098610334 0.10021929 0.033209022 -0.0029255091
0001f0 31 08 bc 3d ef 45 b6 3d da eb 5d bd 14 51 53 3c
       0.0918125 0.089000575 -0.054180004 0.0128977485

layer2.weight f4 [128, 128]
000000 e9 dd 33 3d 78 7d 88 bc 5b 6b 4a 3c 37 cb 98 3c
       0.043912802 -0.01666139 0.012354697 0.018651588
000010 2c cc 63 3c af c4 50 bd de d5 9b bc a1 9d 27 bd
       0.013903659 -0.050968822 -0.019022878 -0.04092181
000020 36 31 39 3d fa 3b 29 bd 8c fa 6d bd 11 44 73 3d
       0.045212947 -0.041316964 -0.05810027 0.059391085
000030 ba 1f 4e bd 68 26 0b 3d cb 42 bd bc b8 59 b0 bc
       -0.050323226 0.033972174 -0.023103138 -0.021527156
000040 29 57 c0 3c 0d 64 d8 bc ac c9 6c bd 53 0e 2a bd
       0.023479061 -0.026414895 -0.057809517 -0.041517567
000050 46 7d 02 3d 11 8f 44 3d 92 5f 37 bd 68 d6 2c bd
       0.03185775 0.047988 -0.044768877 -0.04219666
000060 e5 85 39 bd b3 39 ee 3c 45 80 30 3d de 5d bf 3c
       -0.045293707 0.029080248 0.043091077 0.023360189
000070 94 c8 3f bc 20 25 c1 3c d7 80 39 bc 9b 5b 80 bd
       -0.011705536 0.023577273 -0.011322222 -0.06267472
000080 d6 ba d8 bb 21 53 de 3c b4 1d a4 bc b5 a4 f2 bc
       -0.0066140695 0.027139248 -0.020033695 -0.029619554
000090 7d bc 6f bd 61 12 06 3d f9 05 5e 3d 70 77 66 3d
       -0.058529366 0.03273237 0.054204915 0.05626625
0000a0 16 51 48 3d 9f c2 79 bd c6 6c 27 3d e6 12 56 bd
       0.048905455 -0.06097662 0.04087522 -0.052264117
0000b0 03 8a 03 3d 03 c0 02 bc 93 76 df bb 17 24 f4 3c
       0.03211404 -0.0079803495 -0.006819555 0.029802365
0000c0 a4 f0 07 3d 09 ab 80 bd 8a f9 37 bd 8d ad af bc
       0.033188477 -0.06282622 -0.044915713 -0.02144506
0000d0 95 07 74 3c 26 34 27 bd d8 62 59 3c 45 23 74 bd
       0.014894386 -0.040821217 0.013268195 -0.05960395
0000e0 5a b2 a1 3c c4 a0 d4 ba 68 4d 2f 3d f2 f5 33 bb
       0.019738365 -0.0016222228 0.04279843 -0.0027459827
0000f0 b7 ad e7 3c 95 e8 88 bc 1e 34 82 bd ae 1e 54 bb
       0.028281076 -0.016712466 -0.06357597 -0.003236692
000100 df a7 6f 3d f5 ad 9d 3c 14 99 41 3d 89 fc 21 3c
       0.058509704 0.019247988 0.047265127 0.009886869
000110 a0 fb d5 3c 9f fa 28 bd 9d ee 74 3d 38 11 77 bd
       0.02612096 -0.041254636 0.05979787 -0.060319155
000120 0e 39 55 3d 7d eb 83 bd ca dd 16 3d 98 4d 2c 3d
       0.052056365 -0.064414 0.03683261 0.042066187
000130 b3 4c 6a 3b ef 79 7f bd 05 a3 82 bd 6a 3e c4 3c
       0.0035751283 -0.062372144 -0.0637875 0.023955543
000140 1d 4f eb 3c 00 1b 14 bd d8 b8 5f bd 33 da 66 bd
       0.028724248 -0.03615856 -0.05461964 -0.056360435
000150 5b 5c 8d bc 2f 41 11 bd 64 2c 4c bd b9 81 01 3d
       -0.017255953 -0.035462555 -0.04984702 0.031617854
000160 d5 0e 85 3c da 3e 94 bc 0a 31 10 3b f7 e5 5a 3d
       0.016242424 -0.018096376 0.0022001886 0.053441968
000170 82 ee 83 bd bd 9e 66 3d 33 63 c6 bc 06 40 f9 3c
       -0.06441976 0.05630373 -0.024217224 0.030426037
000180 7d ac 48 bd 9a 0f bc bc 26 71 19 bd a2 df 09 bd
       -0.048992623 -0.022956658 -0.037461422 -0.03366054
000190 63 88 2f 3d 00 7b 60 bd f7 4b 81 3c 93 e1 db 3b
       0.042854678 -0.054804802 0.015783293 0.00671024
0001a0 9e aa 46 3d 28 b7 75 bd fd 34 6f 3d 2e 5a 62 bc
       0.048502557 -0.059989125 0.058400143 -0.013815446
0001b0 9f 90 5a 3d 50 d7 2f 3c 97 8b 14 bb 12 12 d6 bb
       0.053360578 0.010732487 -0.002266621 -0.006532916
0001c0 74 c4 50 bd 1a f2 c2 bb d1 7b 9f 3b c9 5a 35 bd
       -0.050968602 -0.005949271 0.004867055 -0.044276033
0001d0 4d c9 73 bc ca 30 29 bd 63 48 3a 3d b6 0d 4b bc
       -0.014879537 -0.041306295 0.04547919 -0.012393406
0001e0 58 4a 0e bd 76 2f 69 3d 9d 95 76 3c f0 34 43 3c
       -0.03473887 0.056930028 0.015050319 0.011914477
0001f0 1b 2c 05 bd 36 35 2f bc 3c 8a e5 bb ff f1 ff bc
       -0.032512765 -0.010693839 -0.007005004 -0.031243322
000200 bd c4 32 bb 81 0d 87 bc d1 cd a7 3c ad 37 f2 3c
       -0.002727791 -0.016485931 0.020483883 0.029567564
000210 b9 a1 95 3c b9 28 49 3d fd fe 2d bd 20 bd 2e bd
       0.018265592 0.0491111 -0.042479504 -0.042660832
000220 7a 45 9c 3c 10 e2 5d bc b3 dc 78 3d d7 ec 92 3b
       0.019076098 -0.013542667 0.06075735 0.0044838
000230 fc 07 91 bc e8 cb 28 3c 13 a8 d2 3c 04 65 30 bd
       -0.017704003 0.010302521 0.02571491 -0.043065086
000240 e3 68 3b bd 6f 3f 01 bd 49 63 06 3c 1f 0c 86 bd
       -0.045754325 -0.031554636 0.008202382 -0.06545281
000250 06 d7 9a bc 1a 5a 70 3b d1 12 89 bd 4c 83 c7 bc
       -0.01890136 0.0036674798 -0.06693042 -0.0243546
000260 52 a4 83 3c ae 0c 4e bc d7 7a 23 bb 2c c1 07 3c
       0.016069565 -0.012576265 -0.0024945044 0.008285802
000270 fe 56 29 3d eb f6 1d 3d e5 18 b4 bc d5 9b 79 bc
       0.041342728 0.038565557 -0.021984527 -0.015234907
000280 76 88 4d bd af a1 8f bc bb a4 84 bd 38 71 54 3d
       -0.050178967 -0.017533151 -0.06476732 0.051865786
000290 e8 99 55 3d b1 a1 72 3d ca 06 5f 3d 45 cf 76 3d
       0.05214873 0.059236232 0.054449834 0.06025626
0002a0 51 08 1a bd 20 93 09 3d 99 47 e8 3a de 2c 58 bc
       -0.037605587 0.033587575 0.0017721533 -0.013194291
0002b0 e8 a7 ea ba 68 76 ea 3b 1f 60 45 bc 96 51 5b 3c
       -0.0017902823 0.0071552284 -0.012046843 0.013386151
0002c0 fb a1 20 3d a4 de 28 bd da 7c 83 bd b7 11 e0 3c
       0.039216977 -0.04122795 -0.06420298 0.027352197
0002d0 eb f6 11 3d c4 b8 52 bd a0 04 d7 3c 06 b7 23 bc
       0.03563587 -0.051445737 0.026247323 -0.009992367
0002e0 ac 8b f5 3c 11 40 6a 3c 03 96 ca bc 40 f4 02 bd
       0.029973827 0.014297501 -0.024729734 -0.031971216
0002f0 78 3e 72 bd 71 10 e0 bb 31 fe 89 3a d3 d9 f5 3c
       -0.059141606 -0.0068378975 0.0010528025 0.030011093
000300 95 67 77 3c ff e0 2f bc 45 15 20 3d ad ed 2c bc
       0.0151003795 -0.010734796 0.039082784 -0.010554713
000310 68 1a 32 3d 69 81 31 bd 0f 1b 0f 3d d1 49 a7 3c
       0.043482214 -0.043336306 0.034937914 0.02042094
000320 51 06 80 3d af e8 69 3d bf 21 9c bc f8 ed cc 3c
       0.06251205 0.05710667 -0.01905906 0.025015816
000330 18 36 ad 3c 55 e0 3b bd fa fa 25 3d 60 5f 42 bc
       0.021143958 -0.045868237 0.040522553 -0.0118635595
000340 1f 5f 75 3d fa 27 fb bc a2 cf 09 bd dd d1 6b 3d
       0.059905168 -0.03065871 -0.03364528 0.057573188
000350 84 5a 21 3d 52 52 2a bd 4c 37 e3 bc 81 41 97 3a
       0.039392963 -0.041582413 -0.027736329 0.0011539907
000360 71 8b dc bc 51 cd 9e bc f0 ce 34 bd ce ca c0 b8
       -0.02692196 -0.019385012 -0.044142663 -9.193049e-05
000370 81 65 3e 3d 6a 07 74 bd 23 c3 d9 bc bf 89 7d bd
       0.04648352 -0.059577383 -0.026582306 -0.061898943
000380 31 66 32 bd d0 fa 0b 3d b8 4a 17 3d 65 64 8b 3c
       -0.04355449 0.03417474 0.03693649 0.017015645
000390 94 c7 bd 3c f2 73 32 bd dd 9d 65 bd 58 e6 0b 3d
       0.023166455 -0.043567605 -0.056058753 0.03415522
0003a0 8c 91 6b bd d8 78 cc 3c 54 5e 4c 3d 2c d7 be b9
       -0.05751185 0.024959967 0.049894646 -0.0003639994
0003b0 45 60 14 bd f2 04 9d 3c 27 5b ae bc 66 2d 3a 3d
       -0.036224622 0.019167397 -0.0212837 0.04545345
0003c0 6c 15 62 bd 95 fe 7e 3d 78 5c 27 bd 05 f6 5a bd
       -0.05519621 0.062254507 -0.04085967 -0.05345728
0003d0 c1 68 19 3d 22 31 85 bc a3 ef 25 bd 29 0c 3d bc
       0.037453417 -0.01625878 -0.04051174 -0.011538544
0003e0 bc 02 85 3d aa d7 69 3c 4b 1b 8e bb e2 02 1e bd
       0.06494662 0.01427261 -0.0043367497 -0.038576968
0003f0 a2 06 68 bc b4 2a 3c 3d ef 31 72 bd 4a 4e 41 3d
       -0.014161738 0.045939162 -0.05912965 0.047193803

layer2.bias f4 [128]
000000 b1 02 5d bc f8 73 79 bd 1f 6f 16 3d 0a 3a 57 3d
       -0.013489411 -0.060901612 0.036727067 0.052545585
000010 13 de bc bc fa 9b 3c bc 6b 40 da 3d d8 47 76 3d
       -0.023055112 -0.011511797 0.10656818 0.06012711
000020 f2 01 1a 3e ce 51 cd 3d 86 d0 60 bd 4a c6 1a bd
       0.15039805 0.10025369 -0.054886363 -0.03778676
000030 c6 f3 0f 3d 59 63 d9 3d 93 ee e6 3c 75 db 35 3b
       0.03514459 0.10614652 0.028189933 0.0027749215
000040 4f 34 6f ba ff 16 ad bc b9 05 88 3d d2 be 8b 3d
       -0.0009124921 -0.02112913 0.066417165 0.068235055
000050 f7 ee 63 bb 05 68 a9 3c 19 7c da bc 27 cd 1d 3d
       -0.0034779885 0.020679483 -0.026670502 0.038525727
000060 a4 f5 b1 3d 59 87 c9 3c 1a 4b b4 3d cf 62 03 bd
       0.0868943 0.024600672 0.08803387 -0.032076653
000070 b1 06 85 3d 96 ff 53 bd 95 11 78 bd 8c b1 c1 bc
       0.06495417 -0.051757418 -0.060563643 -0.023644231
000080 9e 49 a7 3d d3 89 ce 3c 11 b2 03 3c e1 ae af 3c
       0.08168338 0.025212204 0.00803806 0.021445693
000090 73 4b 89 bd 9b 6e a5 3d 84 94 35 3b 05 6d 76 3d
       -0.06703844 0.08077737 0.002770693 0.060162563
0000a0 71 0c 20 bd cc 76 c9 3d 91 fd 84 3d 15 61 82 bc
       -0.039074365 0.09837112 0.064936765 -0.015915433
0000b0 50 6a 26 bd 3b f6 51 3d 67 ec 97 3d 51 27 0b bd
       -0.04062873 0.051260214 0.07418137 -0.033973042
0000c0 6c 10 2f 3d f7 31 a8 bc a5 7f 98 3d 55 da 8d 3c
       0.04274027 -0.020531638 0.07446221 0.017316023
0000d0 88 f9 28 3c d1 3b b9 3d 82 3b da ba 6e bb 33 bd
       0.010313399 0.09044612 -0.0016649815 -0.04387992
0000e0 94 0f 68 ba b1 2f c7 3c b5 57 aa bc 31 7c ec 3c
       -0.0008852419 0.024314733 -0.020793775 0.028867813
0000f0 b2 93 59 3d 20 43 28 3d c3 d6 f7 bc 7f 7d 35 3d
       0.05311937 0.04107964 -0.030253774 0.044309136
000100 3e 0f e9 3d 0d fd cb ba f8 b6 a6 3d 88 fe b6 3c
       0.1137986 -0.0015563086 0.08140367 0.022338167
000110 05 ed 91 3d d2 40 3c bd 2a 3d 37 bd 2a 23 78 3c
       0.07125286 -0.045960255 -0.044736065 0.0151451025
000120 a6 fe 0c bd 91 d1 4b 3c 1e de 60 bd 3e 7a 51 bd
       -0.03442254 0.012440101 -0.054899327 -0.05114197
000130 b8 19 93 3d d5 96 cd bc 5c db 11 3d 9c 45 55 3d
       0.0718264 -0.025096336 0.035609588 0.052068338
000140 e1 6d ba 3d 66 4c 74 3d 40 d3 46 3d a9 6b 47 3d
       0.09102989 0.05964317 0.048541307 0.048686657
000150 58 72 77 bc 48 a8 74 3d 8f 6a b4 3d a0 34 51 3d
       -0.015102945 0.059730798 0.08809387 0.051075578
000160 69 80 53 bd 5c 41 e0 bc a7 e2 fd ba 99 67 08 3d
       -0.051636133 -0.027374916 -0.0019369916 0.033301923
000170 29 6f 85 bd ba 75 d4 3d c4 f1 99 3d 8c 1e d2 bc
       -0.06515343 0.10374017 0.07516816 -0.025649332
000180 e2 d2 cd 3c 06 9f 7e bc 65 fe 62 3d 03 0e b3 3c
       0.02512497 -0.015540844 0.05541839 0.021857267
000190 93 0d da 3c 97 c2 f1 3c aa ff 32 3d 7c a6 53 3c
       0.0266178 0.029511733 0.04370085 0.012918111
0001a0 c5 8c 63 3d 7b 04 bc 3d 7d 90 13 3d da f5 11 bd
       0.05555417 0.09180542 0.036026467 -0.035634853
0001b0 40 bc 2d 3c c2 02 b8 39 17 b8 ab 3d 62 1a 5f 3d
       0.010603964 0.0003509727 0.08384722 0.05446852
0001c0 6c c7 4f 3c d1 24 2d 3d 64 e6 2e bd ee 3b f7 3a
       0.012681823 0.04227144 -0.042700186 0.0018862465
0001d0 a4 36 0a 3d 39 a9 db 3c 43 1f 76 3d 29 9c c8 3d
       0.033743516 0.02681409 0.060088407 0.0979541
0001e0 2f ed 26 3c 11 94 68 3d d7 70 8f bc 0b 82 16 3d
       0.010188385 0.056781832 -0.01750986 0.036745112
0001f0 cc 82 85 3c 1e 54 ae bc 7b 85 8e bb 22 50 c2 b8
       0.01629772 -0.021280345 -0.004349408 -9.265567e-05

layer3.weight f4 [128, 128]
000000 90 2d 1b bd 14 16 85 bd 6f fc 14 3d 7d be 20 be
       -0.03788525 -0.06498352 0.036373552 -0.15697666
000010 15 29 d3 ba ce 13 20 3e 21 39 11 3e a3 f9 9f be
       -0.0016110266 0.15632555 0.14181949 -0.31245145
000020 73 b3 8b bb 0b 27 04 3e 31 50 ef 3c af 14 86 bc
       -0.0042633354 0.12905519 0.029213043 -0.016367285
000030 19 46 1e 3d b1 1c 24 3e b8 46 eb 3d 6a e5 1d bd
       0.03864107 0.1602657 0.11488098 -0.038548864
000040 2c a6 da be d4 ba fe 3d eb 77 54 3e b8 68 53 3e
       -0.42704904 0.124379784 0.2074887 0.20645416
000050 03 28 b7 bc 91 47 89 3c aa d3 5b 3c 9e 3d 60 be
       -0.022357946 0.016757758 0.013417164 -0.21898505
000060 39 93 ef 3d ec ea 48 3e 07 b8 4f 3e d6 e2 79 bc
       0.11698002 0.19620866 0.20285045 -0.015251836
000070 20 82 35 be 3e 19 01 bc 5b fe 46 bd c3 9d 1a 3d
       -0.1772542 -0.007879553 -0.048582416 0.03774811
000080 c3 ca f0 be 27 8d b6 be 74 08 7b bd fe e0 04 bd
       -0.47029695 -0.35654566 -0.06128736 -0.03244113
000090 b3 20 0a 3c 30 5d d0 3d e0 1c 3c bc d0 d7 2c 3d
       0.008430648 0.10174024 -0.011481494 0.042198002
0000a0 b6 0a 12 3e 6b 34 11 3e 24 ae fe 3d af 28 28 3e
       0.14261898 0.14180152 0.124355584 0.1642177
0000b0 8e 2f 20 3e f3 c1 90 bc b5 b7 2c 3e bf 11 8b bd
       0.1564314 -0.017670607 0.16866954 -0.06790494
0000c0 ce 1f 9e be ea 89 21 3e 5d 5b b5 3d 5c 62 dc 3d
       -0.3088364 0.15775266 0.08855317 0.10760948
0000d0 de 92 e5 3d a2 ee 6c be f1 2e 74 3d bd e6 a9 ba
       0.11209653 -0.23137906 0.05961508 -0.0012962442
0000e0 17 37 e5 3d 6d 64 b0 be 30 3b 20 be 87 c0 19 3e
       0.11192148 -0.3445162 -0.15647578 0.1501485
0000f0 80 96 f8 3d 21 bc e3 3d f0 38 7b 3d 29 81 a0 be
       0.121380806 0.11119867 0.061333597 -0.3134854
000100 1f 47 30 3d ae 69 1d bd 67 90 3d 3e c8 92 4d bd
       0.043036576 -0.038430862 0.18512116 -0.05018881
000110 19 9c 56 3e b8 96 1e 3d d7 b7 f0 bb 50 e9 29 3e
       0.20957984 0.038717955 -0.007346134 0.16592908
000120 4a 6c 20 bd 08 34 10 3e 3c 13 64 bd a6 24 4b 3d
       -0.039165772 0.14082348 -0.055682406 0.049595498
000130 fa f9 b2 3d ac 9d 1a 3e 14 15 d6 3d 16 16 7e 3d
       0.087390855 0.1509921 0.10453239 0.06203278
000140 1f a4 e5 bd b6 9d 1b 3e 10 41 04 3e 56 c6 e0 3b
       -0.11212944 0.1519688 0.12915444 0.006859581
000150 eb 95 42 3e 6d 6d ec bc 7d 15 8d be 2f 63 1e be
       0.19002502 -0.028860772 -0.27555457 -0.15467523
000160 8d 71 c0 3c 9b 51 c7 3d df 25 1e bd 1d 4e a3 be
       0.023491645 0.09732362 -0.038610335 -0.31895533
000170 b3 ad 6a bb 71 1d c2 3d 43 54 e8 3d 31 e4 34 3d
       -0.00358091 0.09478272 0.11344197 0.044162933
000180 b7 e5 ea 3d 7e c7 62 3d 43 06 82 bc 44 d5 c9 3c
       0.11469596 0.05536603 -0.015872126 0.024637826
000190 58 17 9b 3d f8 1a 03 bf 9f b6 0c 3e ad b1 91 bc
       0.07572812 -0.51213026 0.1374154 -0.017784918
0001a0 80 5a a1 3d 42 d6 06 bf 41 b1 63 3d 85 58 30 3d
       0.0787859 -0.5267068 0.055588964 0.04305317
0001b0 60 f9 28 3b 11 70 30 3e ce e6 8b 3d 93 2c 3e bb
       0.0025783405 0.1723025 0.06831132 -0.0029018268
0001c0 ed 50 ce bc 7a a3 b9 bc 98 20 30 3e c1 33 a6 be
       -0.025185073 -0.02266096 0.17199934 -0.3246136
0001d0 78 49 13 be 79 e7 c8 3d b2 20 4c 3e df e9 98 3d
       -0.14383495 0.09809775 0.19934347 0.07466482
0001e0 5b 8a 4d 3e a9 40 81 3d 4a f4 79 be b5 a5 0f bd
       0.2007231 0.06311161 -0.24409595 -0.03507014
0001f0 02 81 45 3e 5d b9 8e 3c 03 3a 3b 3e aa 2b 6c 3d
       0.19287494 0.017422372 0.18283848 0.05765883
000200 48 7a 79 bd 5f 41 ff 3b 4f dc 3e bd 40 cd f4 be
       -0.060907632 0.0077897753 -0.04659682 -0.47812843
000210 8c f3 51 3d fc 92 75 3d 5f f8 91 3c 05 60 b7 3d
       0.051257655 0.05995463 0.017818628 0.08953861
000220 3f f1 b0 3b e1 8e dd 3d f8 75 80 3d fd f8 00 3d
       0.0053998525 0.108182676 0.06272501 0.031487454
000230 d9 c7 bc 3d 06 47 c5 3d 4c e9 57 3d 3e 54 d6 bc
       0.092178054 0.09632687 0.052712724 -0.026163217
000240 0e 5f ca bd 19 b3 4e 3d 1e c9 9f 3d 00 00 59 3d
       -0.098814115 0.05046377 0.07802032 0.052978516
000250 54 13 a2 3c d4 3f b9 3c 68 4d cf bc 94 cb 1f bd
       0.019784607 0.022613443 -0.025305465 -0.039012507
000260 ed 96 cf 3c d2 9c 9c 3c 94 84 ba bb 84 08 99 bc
       0.025340522 0.019117747 -0.005692074 -0.018680818
000270 57 f9 96 3d b9 a9 0f 3d 15 bc b9 3b 50 e3 0e 3e
       0.073717766 0.03507397 0.005668173 0.139539
000280 37 cb 21 bd 41 04 a2 3c ee 44 db 3b 73 1b 89 bd
       -0.03950044 0.019777419 0.0066915667 -0.06694689
000290 cc 45 29 3d e4 1a f5 bb dd 6f bf 3c 57 71 a1 3c
       0.04132633 -0.0074800123 0.02336877 0.019707365
0002a0 04 3f 81 3d e4 c8 02 bd d7 d8 34 bd dd 9f 8b 3d
       0.063108474 -0.031929865 -0.044152107 0.06817601
0002b0 09 74 98 3d c5 8e 67 3d bc 43 15 3e c9 9c bb be
       0.07444007 0.05653264 0.1457662 -0.36643055
0002c0 85 ed 0e 3e 4d 8d 5a 3d aa 15 3e bb 59 9a 0b 3d
       0.13957794 0.05335741 -0.0029004612 0.034082744
0002d0 c9 69 10 3d 2c e0 84 bd af 25 76 bd 60 c6 49 bd
       0.035257135 -0.0648807 -0.06009453 -0.04926145
0002e0 dd 18 e5 3d 82 0f 4d 3d 17 f5 dc be 7d 79 cb ba
       0.11186383 0.050063618 -0.4315574 -0.0015523877
0002f0 5b ee 8c ba 74 f6 e1 3c b1 9c 9a bc 5a ea 4a bd
       -0.0010752188 0.027583338 -0.018873544 -0.0495399
000300 23 58 fd 3d f8 6b 69 3c 48 66 84 3d 4a ef 89 bc
       0.12370326 0.014246933 0.06464821 -0.016837735
000310 1f 43 ee 3c da 8a b4 bc ce 80 4f 3d 1a fa 85 bc
       0.02908474 -0.022038866 0.050659947 -0.01635461
000320 d1 96 80 3d 6f ff cc 3d b2 ae 8c 3c 34 9e d7 3c
       0.06278766 0.100096576 0.017173145 0.026320554
000330 1b 00 43 bc 39 d0 ca bb b6 7d 37 bd 2a af 55 3d
       -0.011901881 -0.006189373 -0.04479762 0.052169003
000340 30 9f de be 3e d9 55 3d fa 27 81 3d 24 7f 5a 3d
       -0.43480825 0.05220913 0.06306453 0.053343907
000350 2b 6a 0e 3c 31 15 62 3c 5a b1 19 3e 1a 02 d1 be
       0.008692305 0.013798998 0.1500906 -0.40821916
000360 16 73 5f bd 67 9f 65 3d 64 f9 87 bc 97 7a 3b be
       -0.054553114 0.05606022 -0.01659841 -0.18308483
000370 79 93 06 3d a2 48 78 3d 8f b0 97 3d 5d 43 38 3d
       0.032855485 0.060616143 0.07406723 0.044986118
000380 f0 f9 74 be 84 c8 4d 3d a5 28 1b ba 2b e4 4b bd
       -0.23923469 0.050240055 -0.0005918837 -0.049778145
000390 5c 6d ab 3d 6c 3b 41 be 2e 1f 8d 3d ff 09 0c 3d
       0.08370468 -0.18870324 0.06890713 0.03418922
0003a0 3a 34 f5 3d fb 69 97 be 45 1b 3d 3c f3 52 0c bd
       0.11972852 -0.29573044 0.011542146 -0.034258794
0003b0 df af 3d 3d 66 c0 0c 3c e1 64 82 3d 83 58 46 3c
       0.046310302 0.008590793 0.063668974 0.012106064
0003c0 1c 9d d5 3b 00 44 9d 3c 18 fe 07 3c d0 f9 9d bc
       0.006518973 0.019197464 0.008300327 -0.019284159
0003d0 bc 66 dc be 83 20 8b 3c 4c 25 cc 3d af 4a f2 3c
       -0.4304713 0.016983276 0.09968051 0.029576628
0003e0 96 29 c1 3c 57 69 f7 bc cc 51 e3 be af 04 5e 3d
       0.0235794 -0.030201597 -0.44398344 0.054203685
0003f0 32 c2 0b 3c 75 7d 39 bd d8 ae 08 bd 9b 83 d0 bc
       0.0085301865 -0.04528566 -0.03336987 -0.02545338

layer3.bias f4 [128]
000000 c0 66 00 3c 63 c3 cd 3c cf 1f 9c 3d 60 e6 63 3d
       0.0078369975 0.025117582 0.076232545 0.055639625
000010 3f 45 58 bd 6a d6 46 3d b5 47 9b 3d 5d 9b 9b 3d
       -0.052800413 0.048544325 0.075820364 0.075979926
000020 69 d0 54 bc 34 05 10 3e 11 fb c9 3c c3 8d 38 3d
       -0.012989142 0.14064485 0.02465585 0.04505707
000030 70 c7 59 bd fd 62 f0 3c bd 68 65 3d d2 e3 2c bd
       -0.053168714 0.029344076 0.05600809 -0.042209454
000040 f8 26 0f 3d 7d 18 09 bd cc 26 9b 3c b5 5e 0f 3e
       0.034949273 -0.03347062 0.018939398 0.14000972
000050 00 52 57 bd e2 b6 df 3b df 84 e0 ba ed 54 30 bd
       -0.052568436 0.0068272213 -0.0017129442 -0.04304974
000060 6b 27 ca bc cd b8 18 3d ec 9b a6 3d f7 e0 ec 3c
       -0.024677 0.037285615 0.081352085 0.028915865
000070 ea 5f 7c 3c 19 ed 36 3d c3 02 37 bd ae ac 4d 3d
       0.015403727 0.044659708 -0.04468037 0.05021351
000080 21 79 ba bc b2 f0 dd 3a cb f3 02 3e b2 90 28 bd
       -0.022762837 0.0016932695 0.12788312 -0.041153617
000090 38 cf 0e bd 87 e6 26 3e a3 8a 83 3d ff 18 ab 3b
       -0.034865588 0.16298877 0.06422927 0.0052214856
0000a0 98 b8 31 3d a8 12 70 3d c7 9a cd 3d 0c 52 52 bd
       0.043388933 0.058611542 0.10039287 -0.051347777
0000b0 a3 20 86 3c 5d bc 87 3d 45 17 e1 bc 9c 83 57 3d
       0.016372984 0.06627724 -0.027476916 0.052615747
0000c0 79 27 dc 3d ee df d2 bc 31 2c 93 bc 24 a1 0a 3b
       0.10749716 -0.025741544 -0.017965408 0.0021153176
0000d0 6d bc 5c bd 3b 53 c1 3c b4 71 22 bc 4b 31 83 bd
       -0.053890634 0.023599258 -0.009914804 -0.06405886
0000e0 4e 02 dc 3d cf 10 a0 bc 4d 55 9d 3d 10 ab 01 bd
       0.10742627 -0.019539265 0.076822855 -0.03165728
0000f0 d2 1c 53 3d a3 2d 42 3d 2f 16 a7 3d 60 ec 8e bd
       0.051541157 0.047406804 0.08158528 -0.06978679
000100 82 56 c3 bb 1e a4 0e 3d 60 87 7c 3d ea a3 33 3d
       -0.0059612403 0.034824483 0.06165254 0.043857493
000110 da 92 28 3d 6d 42 9b 3d 08 cc 3f bd f2 69 8f bc
       0.041155674 0.07581029 -0.04682544 -0.017506573
000120 b1 6d ba bc 18 33 76 bd 02 aa 99 3d 0a 1c 28 bd
       -0.022757383 -0.06010732 0.075031295 -0.041042365
000130 29 36 0a 3d 47 a1 32 3c 78 a5 f0 3c 82 e1 50 3b
       0.033743057 0.010902709 0.029375777 0.0031872694
000140 42 80 39 3d 79 8e 3c 3d 18 47 8b bc c4 b6 42 bc
       0.04528833 0.04603431 -0.017001674 -0.011884395
000150 f0 c3 58 bc 66 90 1d bc 67 0a 08 3e f1 fc 63 3d
       -0.013230309 -0.009616947 0.13285218 0.055661146
000160 43 3c ac 3d 8c bd cd 3b 86 3a d2 3c ec 21 c2 ba
       0.084099315 0.0062786993 0.025662672 -0.0014811135
000170 79 33 89 3c c0 f9 18 3d 8c 0f ad bc 03 eb 95 3d
       0.016748177 0.037347555 -0.021125577 0.073202156
000180 4f b2 38 3c 62 84 2d 3c eb 0a 19 3e 99 8a af 3c
       0.011272981 0.010590645 0.14945571 0.021428393
000190 47 c5 c4 3d c9 7a e0 3c b1 6f 37 bd f0 b4 1f 3d
       0.0960794 0.027402299 -0.04478425 0.038990915
0001a0 8e c2 e2 3b 07 32 80 3c 35 25 b4 3d 66 36 bb 3c
       0.0069201654 0.015648855 0.08796159 0.022853088
0001b0 91 e7 03 3c 1f b8 b9 3d 6c 3d 70 bd 6d 08 b2 ba
       0.008050815 0.090683214 -0.058652326 -0.0013582833
0001c0 39 7d 8f bc e1 55 84 3d 58 8d 7a bd 09 45 93 3d
       -0.017515766 0.064616926 -0.061169952 0.07190902
0001d0 41 71 bf b9 bc 9b 67 3d b8 c6 b0 bc 99 83 a6 bc
       -0.0003651474 0.056545004 -0.021579131 -0.020326423
0001e0 df c3 d9 3d a1 63 06 bd 42 81 bf 3c 15 0f 93 bd
       0.106330626 -0.032809857 0.023377065 -0.07180611
0001f0 5e cc 6f bd 32 3e 63 3d 48 08 f2 3c 94 c3 4d 3d
       -0.05854451 0.055479236 0.029544964 0.050235346

output_layer.weight f4 [9, 128]
000000 19 a1 65 3d 3d 2e 44 3e 24 04 0b 3e 1e c8 82 3d
       0.056061838 0.19158264 0.13575798 0.063858256
000010 0f 2b 49 3d 27 7b 16 3c a6 d5 2c 3e 68 6b 3b 3e
       0.04911333 0.009184635 0.16878375 0.18302691
000020 79 b2 af 3d db 28 98 be 4a 5e 1d 3e 79 dc 88 bc
       0.08578963 -0.2971867 0.15368 -0.016706692
000030 cf 07 41 bd 0b b7 2c be b4 2d 11 3e 7f 15 e7 3c
       -0.047126587 -0.168667 0.1417759 0.028208492
000040 96 d5 a2 3d 80 11 62 bd 0f 30 41 bb 2c d8 db bd
       0.079508945 -0.05519247 -0.0029478108 -0.10734591
000050 3f 04 46 3b 98 8c 9c 3d 65 17 55 3e 98 9b ed 3a
       0.0030214933 0.07644004 0.20809706 0.0018128036
000060 4b ef 7e bd 59 5c 02 3e 7d 8f 00 3e ac 71 d2 bc
       -0.062239926 0.1273054 0.12554736 -0.025688969
000070 76 60 b6 3c 7d 1d e8 ba ea a0 d9 bc 4d 23 de 3d
       0.022262793 -0.0017708984 -0.026565988 0.10846577
000080 de eb 79 bc c6 87 dc bd 2c 6a 74 be 1e a0 82 bc
       -0.015253989 -0.10768084 -0.23868626 -0.01594549
000090 aa 4f 79 bd 1f 75 7e be 8e 4f 97 3c e5 26 26 bd
       -0.06086699 -0.24849366 0.018470552 -0.040564436
0000a0 6a df f1 bb 4a d5 f5 3d 80 be 8e be 17 d3 ec bc
       -0.0073813694 0.12003572 -0.27879715 -0.02890925
0000b0 23 e5 8d 3d c4 97 23 3e d6 f9 58 bd cb 23 bf 3c
       0.0692847 0.15975863 -0.052972637 0.023332497
0000c0 72 5a 7e be f4 dd 23 bd e4 56 44 ba c6 89 e7 bc
       -0.2483919 -0.040006593 -0.00074897544 -0.028263938
0000d0 f3 ab 6f bd d4 87 42 be d9 4e 25 3b 4f 71 ef 3b
       -0.058513593 -0.18997127 0.0025223999 0.0073072086
0000e0 d2 08 60 be d7 2b 4b 3d dc 4a aa 3c 0c e0 5d 3d
       -0.21878365 0.049602356 0.020787649 0.054168746
0000f0 f0 29 c4 3d 4c f3 08 3e dd 46 b4 3d 97 5f e3 bc
       0.095783114 0.1337406 0.088025786 -0.027755542
000100 53 bc 0c 3d cc 60 f3 3d d9 fd 4e 3d 74 7f f1 3d
       0.034359287 0.11883697 0.050535057 0.11791888
000110 a4 93 b7 3a ab fb 82 3d 8f c8 59 bd 82 32 4c 3d
       0.0014005792 0.06395658 -0.053169783 0.049852856
000120 44 de 7e 3d 09 22 84 3c 87 d2 21 3e 49 9e b9 3c
       0.062223688 0.01612951 0.15802966 0.022658484
000130 de e6 d1 3d b7 06 07 3d f1 8d 37 3d 69 9d 0d 3d
       0.102491125 0.03296539 0.0448131 0.034573946
000140 0c 75 f8 bc e6 bc 3b bc 2d 22 52 3d d1 ed 42 3d
       -0.03032925 -0.011458611 0.051302124 0.04759008
000150 d9 84 04 3d 70 74 47 3d 9a 6f 90 be 76 d4 79 3d
       0.032353256 0.048695028 -0.28210145 0.060993634
000160 1c c0 a2 3c 56 03 7c bd 46 aa a0 3d 2a e7 7a 3d
       0.019866996 -0.06152662 0.07844977 0.06125561
000170 10 f2 2e 3e 7e fd 3e 3d b7 63 a1 3d 16 b6 bb 3d
       0.17084527 0.046628468 0.07880347 0.091655895
000180 20 f9 d3 3c d6 46 7c bd a8 a6 41 be e1 1e f4 3b
       0.025875628 -0.061590992 -0.1891123 0.00744997
000190 0c 0d 0d 3e 75 27 31 3d ac d4 85 3d b4 79 de bb
       0.13774508 0.04325052 0.065347046 -0.0067894105
0001a0 9f aa dd 3d 26 e6 d2 3d f3 00 ee 3d 21 c6 f1 bc
       0.10823559 0.102978036 0.11621275 -0.02951342
0001b0 96 b7 08 3e f4 9f 29 3e 84 dd 2e bd 1e d6 e8 3b
       0.13351282 0.16564924 -0.042691723 0.007105603
0001c0 21 a4 52 bc cd 20 94 bd 3b 00 0d 3d 3d fd f9 3d
       -0.012856514 -0.07232819 0.034424048 0.122065045
0001d0 06 3f ac 3d 48 33 46 bc 8f 0a 4a 3d dd 51 4a bc
       0.08410458 -0.012097187 0.049326476 -0.012348619
0001e0 3a 9b 04 3e ad 23 61 bd dc 5e 1a 3e 21 71 63 bd
       0.12949839 -0.054965664 0.15075248 -0.05552781
0001f0 9f 85 40 3e 2c 84 4b be f8 a1 65 3e f8 25 28 3e
       0.18800972 -0.19874638 0.22425067 0.16420734
000200 35 57 28 3d d8 a8 53 3e 56 a9 b7 3d e9 49 7c 3d
       0.041098792 0.20669878 0.08967845 0.061593924
000210 73 70 19 bd 21 c7 b3 bc c7 99 e1 3d 6b e5 cc 3d
       -0.037460756 -0.021945538 0.11015659 0.100046955
000220 c6 1f ad 3d 7d 66 5a be 5f 1c 1a 3e 0f ba 81 bd
       0.08453326 -0.21328159 0.15049885 -0.06334316
000230 b5 ed 28 bc dd bc 17 be f8 58 13 3e 57 d9 31 bd
       -0.01031058 -0.1481814 0.14389408 -0.043420162
000240 b0 b5 f8 3d 8c 3d 70 bd b1 4a 86 3d 41 e5 03 be
       0.12144029 -0.058652446 0.06557215 -0.12880422
000250 ed cc b6 bc d2 36 1c 3e 64 57 0b 3e 57 28 11 bb
       -0.022314513 0.15255287 0.13607556 -0.0022149289
000260 e0 15 e4 bb 3a f0 f7 3d d0 de 42 3d c5 02 4a bc
       -0.0069606155 0.121063665 0.04757577 -0.012329762
000270 b2 63 4a bd 11 34 a4 3c dd 66 17 3d 9e ef e0 3d
       -0.049411483 0.020044358 0.036963332 0.10983203
000280 87 e2 43 3d 6f 43 69 bd ad a2 78 be 2c c2 7f bd
       0.047823455 -0.056949075 -0.24280806 -0.062441036
000290 d4 c7 33 3d 26 f2 a0 be 33 9c bd 3d af 50 25 3d
       0.043891743 -0.31434745 0.09258308 0.04036015
0002a0 36 3c c5 3c f1 ac 8b 3d 99 83 8d be 10 d5 4d 3c
       0.024076562 0.06820095 -0.27639464 0.012563005
0002b0 69 4e 51 3d f7 af 28 3e 4a 1d 0f bd c8 35 28 bd
       0.05110017 0.16473375 -0.03494004 -0.041066915
0002c0 7c ac 6f be 75 ea 5d bd 9d fe 94 3c 8d fa b6 bd
       -0.23405641 -0.054178674 0.018187815 -0.089345075
0002d0 5d 49 7b bd 23 d0 16 be 14 dc a2 bd ea 41 f5 3b
       -0.06134926 -0.14727835 -0.07952133 0.007484664
0002e0 35 b7 69 be 6d b0 6e bd a3 e5 ca 3d a5 9b ac bc
       -0.22823794 -0.05827372 0.09907081 -0.02107031
0002f0 de 92 d1 3c 1e 59 2d 3e 3c 10 91 3d 65 2a 89 3c
       0.025582727 0.16928527 0.070831746 0.016743848
000300 d3 5f e7 3d bf 6d bf 3d e3 ab af 3d ae 1e 9b 3d
       0.11297574 0.09347104 0.08577707 0.07574211
000310 ba 7d 9d bb 22 49 11 3e 4e c2 53 3a b4 b5 30 3d
       -0.0048062475 0.14188054 0.0008077965 0.043142036
000320 a9 ab 6e 3d 73 43 e7 bc ff 03 1c 3e 7c 58 63 3d
       0.058269177 -0.028230404 0.152359 0.055504307
000330 b4 9e b7 3d d2 4c 44 3d 66 2f b3 3b ac e3 6a bd
       0.08965817 0.047924824 0.005468297 -0.05734603
000340 b4 f2 b2 3b f6 cb a8 bb 72 50 43 3d 45 a3 8d 3c
       0.0054610614 -0.005151267 0.04768414 0.017289767
000350 a2 75 e2 ba e8 cc 7f 3d 16 b0 77 be 4a 32 c8 bb
       -0.0017277489 0.062451273 -0.24188265 -0.0061095105
000360 79 d4 cb 3d bb 82 05 bd a3 5e 9b 3d d8 e1 0a 3e
       0.09952635 -0.032595377 0.0758641 0.13562715
000370 ce 07 a4 3d c3 ce 81 3d 53 82 01 3e 2d 9f 19 3e
       0.08009301 0.06338265 0.12647371 0.15002127
000380 57 db c5 3d 11 fa 78 3d e2 fd 14 be e4 f6 0c 3d
       0.096609764 0.060785357 -0.14549974 0.03441514
000390 a5 7e 28 3e 81 01 ad bc 6f 96 4b bd 86 3e 5e bc
       0.16454561 -0.021118881 -0.04970401 -0.013564711
0003a0 d8 a4 d4 3d 6e bf e2 3c 4a 4c bf 3d ca 4d 5a 3d
       0.10383004 0.027679171 0.09340723 0.05329684
0003b0 fb 3d c4 3d 90 9e 9d 3d 01 a1 df 3c ee 29 c3 bc
       0.09582134 0.07696259 0.027298452 -0.023823705
0003c0 fc 9b 04 bd fa a2 27 3c 7d 23 c8 3c 0a e9 1f 3d
       -0.03237532 0.010231728 0.024430985 0.039040603
0003d0 f4 85 a3 3d 25 cf 27 3d d8 eb 6f bd 34 fb 30 3b
       0.07984534 0.040969033 -0.058574528 0.0027005197
0003e0 81 18 e7 3d f6 b9 61 3d 1b 3f 15 3e a5 a1 3c 3d
       0.112839706 0.055108987 0.14574854 0.046052594
0003f0 62 5a 0e 3e a1 c3 5f be 62 3a 34 3e c5 12 c6 3d
       0.13901666 -0.2185197 0.17600396 0.09671549

output_layer.bias f4 [9]
000000 c1 4d a8 bb 9b 9c b5 3c ba 9c ce bc d5 06 93 3d
       -0.005136222 0.022169402 -0.025221217 0.071790375
000010 86 ba ed bc 39 eb 8e 3c 8a 76 2f 3d 14 9c a0 3d
       -0.029019605 0.017446147 0.042837657 0.078422695
000020 28 12 9c 3c
       0.019051626
