results/train/models_time_400steps/name_DQNMA/best_model.pt (torch, 193103 bytes, 8 tensors)

layer1.weight f4 [128, 40]
000000 c5 10 db bb 1c 98 3a 3d 8b 7d 7e 3d fe 35 24 3d
       -0.0066853487 0.04555522 0.062131446 0.040090553
000010 c7 9c 5f bd d6 9e 14 3e b9 55 39 3c d4 67 a4 3d
       -0.054592874 0.14513716 0.011311942 0.08027616
000020 c9 30 50 be 5a b9 a0 3d 89 7e cd bd c0 f8 56 bd
       -0.2033111 0.07847853 -0.100339 -0.05248332
000030 79 34 38 3e 34 01 08 3e c0 97 8c 3d 23 b7 f4 bd
       0.17988767 0.13281709 0.068648815 -0.11948993
000040 a6 e9 0a 3e 8a 2a 10 3e 74 34 a4 3d db e6 0e 3d
       0.13565692 0.14078727 0.08017817 0.03488813
000050 c4 f7 bc 3d 21 20 ee bd f1 65 80 3d 45 2a 43 bc
       0.09226945 -0.11627222 0.06269444 -0.011911933
000060 3e e9 47 3c 52 17 18 be 88 d9 34 3e 40 f8 1d 3d
       0.012201605 -0.14852646 0.17661107 0.038566828
000070 ab 70 29 bc 2a b5 2e 3d 1b 7b a7 3b 1c 14 07 be
       -0.010341804 0.04265324 0.005111111 -0.13191265
000080 f8 02 33 bd 64 f5 88 3d 95 c4 e9 3d 33 bf 7d bd
       -0.043704003 0.066874295 0.11414448 -0.06194992
000090 c3 58 a8 bd 23 f0 b8 3d 83 1b 03 bd f9 a2 17 3e
       -0.08220055 0.090301774 -0.03200866 0.14808263
0000a0 81 c9 04 3e b7 e9 fc b9 67 f5 00 be 4c 22 4d 3d
       0.12967493 -0.00048239317 -0.12593614 0.050081536
0000b0 a5 0a 0d 3d d2 d0 18 bd 4a 0a 0d be 4f 8c be 3c
       0.03443398 -0.03730852 -0.13773456 0.023260264
0000c0 d2 99 10 bd 55 cc ca 3d 09 be 6d 3b 1b 55 d8 3c
       -0.035302944 0.099022545 0.00362766 0.026407769
0000d0 ab 50 6e 3e c3 30 ed bd 85 86 b7 3d c1 04 03 be
       0.2327296 -0.11581566 0.089612044 -0.12794782
0000e0 64 ea 3a bb 54 02 bf bd 00 07 87 3d c4 4f 0d 3e
       -0.0028521055 -0.09326616 0.06593132 0.1379996
0000f0 b9 c5 68 3c 3d 45 17 3e 3a af 63 3c dc 32 21 3d
       0.014207297 0.14772506 0.013896758 0.039355144
000100 d9 d4 64 bd db 8e 5e 3d 69 ad 24 3e d4 0d ba 3d
       -0.05586705 0.054335456 0.16081776 0.09084669
000110 54 0c de bc dd 92 00 3d b4 40 65 3c 14 a5 39 3d
       -0.027105488 0.03139006 0.013992477 0.045323446
000120 f2 21 48 bd 5e 6f a4 bd 29 86 a6 bc 5f 93 ee 3d
       -0.048860498 -0.08029054 -0.020327644 0.116492026
000130 41 56 50 bd 09 19 c3 bd 9a 57 96 3d 39 ea 39 bd
       -0.050863508 -0.095262595 0.073409274 -0.045389388
000140 19 7c 43 3c 5c 3d 83 3d 7d 99 e4 bd e8 7e 03 be
       0.011931443 0.06408188 -0.11162088 -0.1284138
000150 26 aa 3d 3d d0 47 30 3e 7d f5 c3 3d e3 25 64 3e
       0.046304844 0.17214894 0.095683075 0.22280078
000160 1d 4b 91 3e 3b 44 c0 3d aa 08 54 3d a0 7f e8 3d
       0.2837762 0.09388014 0.051766075 0.113524675
000170 a8 7f 04 3e 17 c3 fd 3c 1c 44 d6 bd 7c 87 a5 3b
       0.12939322 0.030976815 -0.104622096 0.0050515514
000180 03 38 0d be 52 24 89 3c 80 4f a7 bc a9 1c b3 bc
       -0.13790898 0.016740952 -0.02042365 -0.021864252
000190 06 e5 6e 3d ac 6e 10 bc a0 f6 d9 3d 58 60 9e 3d
       0.058323883 -0.008815449 0.10642743 0.0773322
0001a0 bd 23 4f 3b f4 9e 27 be 60 72 ff 3c de a1 29 bc
       0.0031606995 -0.1636923 0.031182468 -0.010353534
0001b0 6b 54 3b 3d 40 74 29 bd 44 e8 16 3e 7e e8 e3 3c
       0.045734804 -0.04137063 0.1473704 0.027820822
0001c0 2c d0 b0 bd f6 f5 c3 bd e6 ba 5a bd 3d bc 05 3e
       -0.08633456 -0.09568398 -0.053400896 0.13060088
0001d0 97 6e ec bd 92 89 3e 3c ca 9b 15 3d 6a e4 9c ba
       -0.11544531 0.011629479 0.036525525 -0.0011969928
0001e0 9d c0 8c bd 6d 2f 76 3d 34 b2 11 be 42 bc 35 bd
       -0.068726756 0.060103822 -0.14228135 -0.04436899
0001f0 4d 96 f5 bb 70 bb 1d bc b6 59 8c bd cb 82 9d bd
       -0.007494724 -0.009627208 -0.068530485 -0.076909624
000200 eb 83 d7 bd 60 d5 63 3d 67 f8 8e 3d 3e 63 8f 3d
       -0.10523208 0.055623412 0.06980973 0.07001351
000210 b8 91 85 3d ce de 87 bd 8b 1f f0 bc 5e 83 0e bd
       0.06521934 -0.066342935 -0.029311916 -0.03479325
000220 57 4f f9 bd 18 e1 88 bd 91 e4 8a 3d a0 73 17 3c
       -0.12173336 -0.06683558 0.06781877 0.009243876
000230 32 7d 08 3b ae a1 8b 3d 9e 78 ed bd f7 70 c8 3c
       0.0020826575 0.06817947 -0.115952715 0.024467928
000240 94 c5 61 bd 54 d0 16 be 8b ed ca bd f3 55 c0 bd
       -0.055120066 -0.14727908 -0.09908589 -0.093913935
000250 5d 43 88 3d f2 b0 bd 3d 9e 9b eb 3d b2 94 3f bd
       0.066534735 0.09262265 0.11504291 -0.046772666
000260 e9 ee e0 3d 42 bd 0c 3e e6 b4 3a bd 93 22 14 be
       0.109830685 0.13744071 -0.045582674 -0.14466314
000270 02 f2 d9 bc ab 45 87 bd fb 16 38 bd a2 82 a1 3b
       -0.026604656 -0.06605085 -0.04494379 0.0049289027
000280 91 a9 33 bd b6 23 91 bd b6 14 14 be 0a 46 11 be
       -0.043862883 -0.070868894 -0.14461026 -0.14186874
000290 bf 19 16 3e 83 fe a6 3d 5b 66 08 be 83 bc 9a 3c
       0.14658259 0.08154013 -0.13320296 0.018888718
0002a0 51 46 e0 3d 3b 5a ed 3d 2a e8 b8 bd a6 13 04 be
       0.10950912 0.11589476 -0.09028657 -0.1289812
0002b0 3d 7a 09 3e 5e 45 92 3c d9 8f 55 bd 25 43 bb bd
       0.13425536 0.017855342 -0.052139137 -0.09143666
0002c0 10 d3 07 3a f3 61 0d be 17 4b c4 bc 31 c4 5b 3d
       0.0005181292 -0.13806896 -0.023961587 0.0536539
0002d0 3c 1c 0e 3e df 88 86 3d 06 13 db 3b ab b4 fb bd
       0.13877958 0.06569075 0.0066856174 -0.12290319
0002e0 5c ea f7 bd b9 a7 0d be d5 74 b1 3d f8 dd 45 bd
       -0.121052474 -0.13833512 0.08664862 -0.04830739
0002f0 6a 43 01 3e 5a 41 7b 3d c5 05 00 3e 22 b7 e4 bc
       0.12623373 0.06134162 0.12502201 -0.027919356
000300 80 0d 10 3e fe 81 8c bc 26 90 64 3c 57 f3 5d bd
       0.1406765 -0.017151829 0.013950383 -0.054187145
000310 93 d5 b2 3d c3 ed c5 bd 00 82 2d bd 76 a2 4a bd
       0.08732142 -0.0966449 -0.042360306 -0.04947134
000320 f7 8d 78 bd 29 df 9c 3d e5 d0 e9 3d 49 a9 0f 3e
       -0.060682263 0.07659752 0.114167966 0.14029421
000330 ca 82 13 be 5f 69 13 3e 65 2b 05 3d 3e 45 b4 bc
       -0.14405361 0.14395665 0.032512087 -0.022005673
000340 2d 52 6d bd 64 df cd 3d 8e 2a 4c 3d ff d1 d4 3d
       -0.057939697 0.10052374 0.04984527 0.10391616
000350 9e 15 04 bd 7c e9 02 3d 7f 0a d5 3b a2 9e b2 3d
       -0.03224718 0.03196095 0.0065014954 0.08721663
000360 aa 36 1f bd 3f 13 d7 bc 61 52 6a 3d d9 a0 9e bc
       -0.03887049 -0.026254294 0.05720747 -0.019363808
000370 68 c9 17 be 1f 50 94 bc 21 2c b0 bd 63 a4 98 bd
       -0.14822924 -0.018104611 -0.08602167 -0.07453229
000380 d8 1e 0b be 9b 05 75 bd a2 53 df 3d 81 2a 10 3e
       -0.13585985 -0.0598198 0.109046236 0.14078714
000390 c8 6d a8 3d d5 3f 17 be 44 ec 00 be c1 18 5c 3d
       0.08224064 -0.14770444 -0.12590128 0.053734545
0003a0 76 17 c7 bd 08 86 de bb 02 7b 47 bd 91 41 0f be
       -0.09721272 -0.00679088 -0.048701294 -0.13989855
0003b0 d8 6a d0 bd 96 75 13 be da dd 07 be ee a1 ef 3c
       -0.10176629 -0.14400324 -0.13268223 0.029252019
0003c0 cb 74 f1 bc 66 a7 13 bd 8b cf 19 3d 1c 12 3f be
       -0.029474637 -0.036048315 0.037551444 -0.18659252
0003d0 1b 31 68 bd 9d ee 4b 3d 2b 6b 18 3e b8 42 2e 3c
       -0.056687456 0.049788106 0.14884631 0.010636024
0003e0 40 7e 9b 3d 76 31 d8 bd ad 97 4f 3c a4 2b 09 be
       0.0759244 -0.10556309 0.01267044 -0.13395554
0003f0 41 51 5d 3e 8b 56 b2 3c 81 97 8a bd a9 30 2d bd
       0.21613027 0.021769783 -0.06767178 -0.042282734

layer1.bias f4 [128]
000000 ea 65 fa 3d bf 23 ce 3d f9 d8 0b 3e c3 6a 19 be
       0.1222647 0.10065412 0.13656987 -0.14982133
000010 97 c6 a4 3d 61 19 87 bc 16 c4 83 39 f1 44 d6 3c
       0.080456905 -0.016491594 0.00025132362 0.02615592
000020 5a 66 11 3d d0 22 b2 3c 4e 64 b7 3d 44 f5 0c be
       0.035498 0.021745116 0.089546785 -0.13765436
000030 5a 53 65 bd fd 73 93 bd 7f e0 82 bd cd 26 ba 3d
       -0.055987693 -0.071998574 -0.063904755 0.09089432
000040 d9 15 4b bd ac 18 b7 bd 8e ee c8 bd d6 7f 82 3d
       -0.049581382 -0.08940253 -0.09811126 0.06372039
000050 83 dd 9b 3c 80 99 f8 bd a0 6a 99 bd d1 d8 a3 3d
       0.019026523 -0.12138653 -0.0749104 0.08000339
000060 9c 1a 73 3d 88 6e 72 bd 97 bc ea 3d 21 45 57 bd
       0.05935155 -0.059187442 0.11461752 -0.05255616
000070 d1 c3 1f bd 1b 8a c9 3d fd 7d 24 bc 2d 5e fc 3b
       -0.039005104 0.09840795 -0.010039804 0.0077016563
000080 38 56 19 bd e5 c8 db bd 37 68 c8 3d 93 a0 bf 3d
       -0.03743574 -0.10731677 0.097855024 0.09356799
000090 02 ee 95 bd 45 b9 e5 3d c2 d9 92 bc 95 89 98 bd
       -0.07320787 0.11216978 -0.0179261 -0.07448117
0000a0 59 fc 17 bd 28 9d 84 bd a3 95 14 be 4b ce 7d bd
       -0.03710589 -0.06475288 -0.14510207 -0.061964314
0000b0 b4 c9 77 bd 3f 9a cf bd 4d e2 ea 3d a4 fb b9 bd
       -0.060495093 -0.10136842 0.11468945 -0.090812
0000c0 aa 5b 55 bd 79 b8 11 3e 52 c7 a8 bc 70 ff 1e 3e
       -0.05208937 0.14230527 -0.020602856 0.15527129
0000d0 2a 7a 53 bd 41 09 13 be ae 3d c5 bc 43 f6 f8 3d
       -0.051630177 -0.14358999 -0.024077263 0.12156346
0000e0 48 5d 3d 3d d4 94 cb bd 71 2f a7 bc 2a 3e d2 bd
       0.046231538 -0.09940496 -0.020408364 -0.10265763
0000f0 c4 8d 50 bd 95 d7 84 bd 6b 66 10 be 1d d6 97 3d
       -0.05091645 -0.064864315 -0.1410157 0.07413886
000100 fa bf 8e bd c5 a7 3e 3b a6 7d 12 be e8 c6 00 be
       -0.069702104 0.0029091698 -0.14305744 -0.12575877
000110 10 ae ab bd 97 58 b3 3d 13 08 68 bd 10 8f a7 3d
       -0.08382809 0.087571315 -0.056648325 0.08181584
000120 93 75 1b bd a3 f5 b9 bd 2d f9 c6 bc ab 05 f2 bd
       -0.037953924 -0.090800546 -0.024288738 -0.11817487
000130 31 c1 7b 3d f4 b5 00 3e 4c b7 a3 bd d6 e9 be 3d
       0.06146354 0.1256941 -0.079939455 0.093219444
000140 93 78 18 3e 43 ea f3 bd ac 31 32 3d de b3 fc 3c
       0.14889745 -0.11909916 0.043504402 0.030847486
000150 8f 96 0f 3d 83 d0 12 3e 48 c4 c8 bd fa d1 c6 3b
       0.035055693 0.14337353 -0.09803063 0.0060675116
000160 73 b5 03 be 4b b0 43 bc 33 d9 fd 3c f6 5a dc bc
       -0.12862186 -0.011943887 0.030987358 -0.026898842
000170 31 07 b0 3d 67 f6 f9 3d 54 3c e6 3d f3 3a 02 bd
       0.08595122 0.12205201 0.112419754 -0.0317945
000180 5b 99 ac 3c ef 99 9f bd 01 02 b5 bd 27 e4 f4 3d
       0.02106922 -0.077930324 -0.08838273 0.11957579
000190 10 2e 2f bd d1 7c 13 be 94 ce f2 bc 45 84 a3 3d
       -0.042768538 -0.14403082 -0.02963952 0.07984213
0001a0 d1 fe 13 3e 54 76 41 bd 1a 85 47 bd 12 0e d3 bc
       0.14452673 -0.047231987 -0.04871092 -0.025763545
0001b0 41 5c 89 3d e3 e7 18 3e 3a 0a b9 3c 1d 86 8b bd
       0.06707049 0.14932208 0.022587884 -0.068126895
0001c0 93 f0 65 bd 68 2e d0 3d 23 50 22 3e 8d 2d 28 bd
       -0.056137633 0.10165101 0.15850882 -0.041059066
0001d0 69 f8 d8 3d 75 92 e9 bc 56 1c df bd 49 56 15 bd
       0.105942555 -0.028512219 -0.108940765 -0.03645924
0001e0 68 12 05 be 15 3f 18 be fc 7e d4 bd 37 85 74 3d
       -0.12995303 -0.14867814 -0.10375783 0.059697356
0001f0 d5 d5 5a bd 1e 26 9a bd b7 9e f1 bc 4f e3 c2 bd
       -0.053426582 -0.075268015 -0.029494626 -0.09516012

layer2.weight f4 [128, 128]
000000 92 8c a0 3d 43 6f 86 bc ea 52 c8 bd d2 0b 26 bd
       0.07839312 -0.016410476 -0.097814396 -0.040538616
000010 a3 89 bc 3c 54 b2 6f bd e2 92 5e 3c 8b a3 8b bd
       0.023014849 -0.058519676 0.013584824 -0.06818303
000020 b7 23 b6 3d ef 05 7f bd 97 94 a5 bd ca c9 3f bd
       0.08893531 -0.062261518 -0.08084982 -0.0468233
000030 65 d8 41 3d 61 23 ce 3c ac fa 3a 3d 69 08 9a 3d
       0.04732551 0.025163354 0.045649216 0.07521135
000040 e1 56 2e 3e b1 d3 46 3c fa 56 c2 3d e8 16 91 3d
       0.17025329 0.012135432 0.09489246 0.07084447
000050 bd 14 75 bd 22 5f 15 bd 1c f5 04 3c 7c 51 99 3c
       -0.05983423 -0.03646768 0.008115079 0.018715613
000060 36 e9 93 3d 40 2a 98 3d db e6 72 bc 9a 75 e5 3c
       0.07222216 0.074299335 -0.014825548 0.028010178
000070 fe 60 81 bc c4 dc ea bc e9 f4 37 3d aa c8 ee 3b
       -0.01579332 -0.028669722 0.0449113 0.0072871046
000080 62 73 95 3c c4 0a 96 bd e1 3e 2e bb 74 16 d7 3d
       0.018243495 -0.07326272 -0.0026587772 0.105023295
000090 24 dc 1c 3d 8a 21 07 be d5 11 76 bd 69 35 1b bd
       0.03829588 -0.13196388 -0.0600756 -0.037892733
0000a0 71 b3 1c 3d 8e de 35 3d e5 8e a0 bd bc 0f 64 bd
       0.038257066 0.044401698 -0.07839755 -0.055679068
0000b0 bc 77 4d bd 06 d4 c2 3d cb 5d fd bb 66 c4 b6 3d
       -0.050163016 0.095130965 -0.0077321283 0.08924179
0000c0 fb 83 25 3d af 12 32 3b 59 02 7d 3c 78 93 2e 3c
       0.04040907 0.002717178 0.015442454 0.0106552765
0000d0 33 b8 55 3d b3 d3 c3 3d 69 7c 28 bd d3 97 53 3d
       0.05217762 0.09561863 -0.04113427 0.051658463
0000e0 73 b4 b3 bc 3c f4 9a 3d 2d 3b 69 3d 02 bf 82 3d
       -0.02193663 0.07566115 0.0569412 0.06384088
0000f0 95 d0 70 bc 21 a5 88 3d 91 3c 94 3b aa a7 87 3d
       -0.014698167 0.06672121 0.0045238216 0.06623776
000100 5c fc e5 bc f4 2f 76 3c 7a 4e 75 3c 4f b2 8d 3d
       -0.028074436 0.015026081 0.014972324 0.06918775
000110 ce 62 f4 bc b8 29 94 bd b2 1b de 3d 56 4d be 3d
       -0.02983227 -0.0723452 0.10845126 0.092920944
000120 e6 81 8e 3d e2 7f 57 bd 25 b1 ae bc f5 3d 15 3d
       0.0695837 -0.052612193 -0.021324703 0.03643604
000130 b3 7e e7 bd 94 67 92 bc 77 7b b9 3c 98 c7 b9 bc
       -0.11303463 -0.017871656 0.02264188 -0.022678182
000140 4a db 0a 3c ca 8a 2a bb 53 6e 7e 3d 4e 94 4a bd
       0.008475134 -0.0026022666 0.062116932 -0.04945784
000150 87 21 4b 3d 05 a0 9b bd 37 0f 6d 3d 9f 45 e5 3d
       0.04959252 -0.07598881 0.057875838 0.1119492
000160 c6 28 9f 3d a5 83 6c 3d 5b 70 c0 3c e2 54 1d be
       0.07771449 0.057742734 0.023491075 -0.15364411
000170 25 67 95 bd ed 36 db 3c 6e b7 c1 3c 6c 8c 49 bd
       -0.07295064 0.02675959 0.023647036 -0.049206182
000180 10 8f 80 bc 95 b2 29 bc 9d ae 57 3d cd 22 9a 3d
       -0.015693218 -0.010357519 0.05265676 0.07526169
000190 54 e9 fb bc 47 48 8c 3d d6 08 85 bd cd ee 11 3d
       -0.030750908 0.06849723 -0.06495826 0.03562813
0001a0 72 06 57 bc cb f4 04 be b6 69 22 3d f2 ae 98 bc
       -0.013124095 -0.12984006 0.039651595 -0.018638108
0001b0 6a a1 b7 3d 86 e7 2b bd 07 db 30 bd 18 c7 67 3d
       0.08966334 -0.041968845 -0.04317763 0.056586355
0001c0 f1 83 06 3d 0c 65 22 3d e9 47 42 3d 20 ee 84 3a
       0.032840673 0.039647147 0.04743186 0.0010141768
0001d0 f5 28 e4 bc 54 ae cf bd 89 71 fe bc e5 9b 0a bc
       -0.027851561 -0.10140672 -0.031059997 -0.00846002
0001e0 d3 55 41 3d 3b 64 ab 3d f8 72 75 bd 59 f7 30 bd
       0.04720099 0.08368727 -0.059924096 -0.04320464
0001f0 cf 6c 18 bc 0a f6 36 be 3c 28 d2 3d 5d 1c 19 3c
       -0.009303286 -0.17867294 0.1026158 0.009345141
000200 c5 0a 89 bd 2d 04 41 3d 57 aa 98 bd 22 4c 8e 3c
       -0.06691507 0.047123123 -0.07454365 0.017370287
000210 12 cf 5a 3d a4 d7 ff bb 70 e7 9e 3b 1b e3 87 bc
       0.053420134 -0.007807689 0.004849367 -0.016587785
000220 5f 52 7c bd b7 06 7d 3d 7d 1b 91 3a 9d ea d4 3c
       -0.061601993 0.061773982 0.0011070814 0.025990779
000230 dd 00 b6 3b 85 55 ea 3d 42 68 75 bd 63 72 a2 3c
       0.005554302 0.11442093 -0.05991388 0.019829934
000240 9a 35 67 3d 34 6d f5 bc e0 26 84 3c b3 ea b5 3c
       0.056447603 -0.029959299 0.016131818 0.02220664
000250 44 a4 85 3d 1e 2b 7f 3d d5 59 a8 3d 6c 27 0d 3d
       0.06525472 0.06229698 0.08220259 0.034461424
000260 e4 17 d5 3d 82 f2 e7 3c 5e 18 16 3c c7 8e 1a bc
       0.104049474 0.028313879 0.009161083 -0.009433455
000270 aa d9 87 3d 37 8f b1 3c ce 47 e2 bc 30 a7 a2 bb
       0.06633313 0.021674735 -0.02762213 -0.004963778
000280 e0 97 c3 bc af be ac bb c9 8c 8a 3d 70 a3 76 3c
       -0.02387613 -0.0052717547 0.06765134 0.015053615
000290 7d 1d 6a 3d 28 f4 f1 bd 5d 23 75 3c bd 60 0b be
       0.05715703 -0.11814147 0.014962045 -0.13611121
0002a0 2f 8e 44 3c ee 2f a7 bc 22 05 ac 3d bf be 2c 3c
       0.01199679 -0.020408597 0.083994165 0.010543524
0002b0 40 07 9a 3c 53 ab 6f 3d 76 de 42 bc d6 eb 68 3a
       0.018802285 0.058512997 -0.011893859 0.000888524
0002c0 f9 ab 3c 3c a4 db ef 3d f3 54 e9 bb e7 f4 37 3d
       0.011515611 0.11711815 -0.0071207224 0.04491129
0002d0 a8 22 82 bd 7a f9 3d bd 47 a3 15 bb f2 21 49 ba
       -0.063542664 -0.046380498 -0.0022832917 -0.00076726
0002e0 9d 41 de 3c 5f f7 83 bc 12 ac 44 bd 18 d6 12 3d
       0.027130896 -0.016109167 -0.04801566 0.035848707
0002f0 bb 97 a8 bd 3f 7e 1f 3d dd cd d0 3c 7b 05 86 3c
       -0.08232065 0.038938757 0.025488788 0.016360035
000300 1e 00 42 bc 07 a8 85 bc ca d4 8d 3b dc 3e 7e bc
       -0.011840848 -0.016315473 0.004328345 -0.0155179165
000310 ef 97 07 3e eb 4c 84 bc d3 ba c7 3d f8 f0 93 3d
       0.13241552 -0.016149959 0.09752431 0.072236955
000320 45 44 94 3b 3e 2f ba 3c 5a fa 59 3d 59 b5 9b 3d
       0.00452474 0.022727605 0.05321727 0.07602949
000330 b9 8a 81 bd 65 8a 89 bd 5c 28 ca bd 11 d3 b7 bc
       -0.06325287 -0.0671585 -0.09870979 -0.022439511
000340 81 a5 ef 3d 75 1c f0 3c 45 1d af 3c a1 79 8e 3c
       0.11701489 0.029310444 0.021376261 0.017391982
000350 ca 21 95 bd 23 79 1e bd 1e 19 44 3b 50 e9 a6 3d
       -0.072818354 -0.038689744 0.0029922198 0.081499696
000360 d9 f4 ea 3c a4 89 b8 bb 8e 3d 89 bc c5 c8 03 be
       0.028681206 -0.0056316424 -0.016752984 -0.12869556
000370 a2 8c 59 3d 41 6f 3c bc 7a ce c7 3d 8b bb 51 3d
       0.053112634 -0.011501134 0.09756179 0.051204246
000380 01 42 7c bd ea 29 87 3d e0 06 2b bc 65 5a 9d 3c
       -0.061586384 0.06599791 -0.010438651 0.019208143
000390 ad d7 4a 3d 78 e6 97 bd 2e e9 a8 bd a1 69 97 bd
       0.04952209 -0.07417005 -0.082476005 -0.07393194
0003a0 2a 1e 4a bd 91 f4 c7 bc 65 4d 76 3d d9 53 bd bc
       -0.049345173 -0.02440861 0.060132403 -0.02311127
0003b0 64 90 38 bc 2a c2 7a bc f0 7e 6b 3a f4 30 dc b8
       -0.011264894 -0.015305081 0.0008983454 -0.00010499536
0003c0 bd 5e fe 3d aa 7a f4 bc b7 5a d8 3d cb 1a 97 bd
       0.12420414 -0.029843647 0.105641775 -0.07378157
0003d0 d6 52 71 3b 42 4e 4a 3d 21 eb 72 3d d1 2f 64 3d
       0.0036823056 0.04939104 0.059306268 0.055709664
0003e0 7b 76 91 bd e1 e9 48 3d d8 5d 94 3c 2b 39 60 bb
       -0.071026765 0.04905117 0.018111154 -0.0034213762
0003f0 1b a8 8a 3d 75 e0 33 be a5 c9 ed 3c f8 ff 1c 3d
       0.06770345 -0.17566092 0.029026816 0.03833005

layer2.bias f4 [128]
000000 19 82 33 3d 09 b8 25 3d 95 2b 5e 3d e3 b5 31 3d
       0.043825243 0.040458713 0.05424078 0.04338635
000010 87 ec 59 3d 89 f1 fe 3c ed 0a 3a bd 60 b0 9d 3d
       0.053204086 0.031121032 -0.045420576 0.076996565
000020 36 a7 70 3d a9 60 ba 3d ba 6c 97 bd ff 21 39 bd
       0.058753215 0.09100468 -0.07393785 -0.045198437
000030 22 4e 9d bd a2 92 67 3d 9a 51 78 bd 41 20 89 bd
       -0.07680918 0.056536324 -0.060624696 -0.06695605
000040 5f ab 59 bd 29 81 62 3a 49 bb ea 3c 8f ae 65 3d
       -0.053141948 0.0008640462 0.028653758 0.056074675
000050 02 73 11 3d 59 8c cd 3d fe 80 8f bd 6e 02 a8 3d
       0.03551007 0.10036535 -0.07007025 0.082035884
000060 8f ce 22 bd 0c 0b 8e bd 79 5a bf 3b 6d 8b 0f bd
       -0.03974777 -0.06935701 0.0058396426 -0.035045076
000070 9c 16 42 bd ee d9 96 bd de c4 b3 3c 3b a5 3b 3d
       -0.047384843 -0.073657855 0.02194446 0.045811873
000080 eb b4 8e bd 3d 48 ac 3d 6d be 6b 3d bc 43 ab 3d
       -0.06968101 0.08412216 0.05755465 0.08362529
000090 c4 b7 b0 bd a4 f4 8f bd 65 9b d3 3c 61 30 96 bd
       -0.086288005 -0.07029083 0.025830934 -0.07333446
0000a0 0c 40 6a bd 46 9c c5 3c 3d c5 01 3d c3 ea 45 bd
       -0.057189986 0.024122369 0.03168224 -0.04831959
0000b0 b8 25 90 bd 6e a6 a4 3c f8 5e be 3c 97 f6 8b bd
       -0.07038444 0.020098891 0.023238644 -0.06834143
0000c0 10 0b 52 3d 9d 6d 16 3d fa b4 9a 3d 70 81 c0 bc
       0.05128008 0.03672563 0.0755405 -0.02349922
0000d0 e8 91 1e 3d 7c 0e 7c 3c 23 96 f3 3c 39 e8 68 bd
       0.038713366 0.015384313 0.029734677 -0.05686209
0000e0 53 3f 82 3d 2c 52 50 3d bc 97 d7 3c ce ad 03 bd
       0.063597344 0.050859615 0.02631747 -0.032148175
0000f0 49 d9 63 3d 11 17 8f bd 40 c9 98 3d 59 5c 5b 3c
       0.05562714 -0.069868214 0.074602604 0.013388717
000100 aa 46 c2 3d 63 f7 59 bd 63 5e b2 3c 05 d5 4b 3d
       0.09486134 -0.053214442 0.021773523 0.049763698
000110 ef 27 6b bd 6a 16 72 bb 50 f1 a4 3d 89 0d 6d 3d
       -0.05741113 -0.003693963 0.08053839 0.057874236
000120 88 69 f5 3c 1d 33 be bc 5e ff 3d bc 22 f5 3f bd
       0.029957548 -0.023217732 -0.011596529 -0.046864636
000130 fe 1e 81 3d e0 54 f2 3c 23 12 b2 3c 45 62 f6 bc
       0.063047394 0.029581487 0.021737164 -0.030076155
000140 a8 bf 50 bd 23 12 a5 3d e9 0f 09 bd 2a 6a 8e 3d
       -0.050964028 0.080601 -0.03346244 0.06953843
000150 a8 0b 96 bb e5 9f 52 3d ca 22 49 bd 9e b1 a1 3d
       -0.0045790263 0.05142202 -0.049105443 0.07895206
000160 08 69 61 3d 02 50 91 3c a0 09 9f bc a5 db 2d 3d
       0.055031806 0.017738346 -0.01941377 0.042445797
000170 ea fe 87 3c 40 c8 97 bd e4 4b b1 3d 79 5d 27 3d
       0.016601045 -0.074112415 0.08657053 0.040860627
000180 2e 80 3b bd f8 79 8d bc a5 a1 cb ba 3e cb 12 3d
       -0.04577654 -0.017270073 -0.0015535845 0.035838358
000190 79 3a 17 bd 1f 93 b1 bc 99 73 1a 3d a7 69 f5 ba
       -0.036921 -0.021676598 0.0377079 -0.0018723503
0001a0 07 6e 54 3d e8 97 a3 3d f1 36 8d bd a9 76 9f 3c
       0.051862743 0.07987958 -0.06895245 0.019465761
0001b0 77 cc 89 3d 90 c7 91 3c 3a 51 ce 3d d1 da 0a bd
       0.06728452 0.017795354 0.100740865 -0.033900086
0001c0 4d fa 82 3c 7e 03 9c 3c fb b3 58 3c 86 c1 60 bc
       0.015988493 0.019044634 0.013226504 -0.013718015
0001d0 0f 1d e2 3c 8c fb d4 3c 12 15 9c bd c2 ef 34 3d
       0.027601747 0.025998853 -0.07621206 0.044173963
0001e0 94 0c 89 3d 08 da 18 bd 3a 2b 05 3c b4 bd fc bc
       0.06691852 -0.037317306 0.008127982 -0.030852176
0001f0 39 62 d7 bb 8e 42 a5 3d bc 64 a8 3d 94 74 92 3d
       -0.0065729883 0.08069335 0.082223386 0.07151142

layer3.weight f4 [128, 128]
000000 38 8c e0 3d 70 c8 bb 3d 0a 23 3e 3b 09 73 0f 3d
       0.109642446 0.0916909 0.0029012584 0.035021815
000010 c1 4e 84 bd ce dd d2 bc 3f 3a 64 bd 94 28 ee bc
       -0.064603336 -0.02574053 -0.05571961 -0.029072084
000020 76 80 82 3d 04 e1 ad 3d ae 50 32 bd e3 25 05 bd
       0.06372158 0.08490184 -0.043533973 -0.032506835
000030 0a 25 a7 bd 84 c4 c6 3c aa fe a9 bd 82 73 f1 3c
       -0.081613615 0.024263628 -0.083005264 0.029474024
000040 32 f5 3e bd 85 b5 67 bd 18 da ce bc 42 c8 a2 3d
       -0.046620555 -0.056569595 -0.02525048 0.079483524
000050 e3 c6 4a bb 08 20 15 3d b2 a5 a7 bc 1a 92 4b 3c
       -0.00309413 0.0364075 -0.020464752 0.01242497
000060 38 91 68 bd 8c 8a 86 bd ca b0 dd bd 37 af d3 3c
       -0.056779116 -0.065693945 -0.108247355 0.025840385
000070 82 0a c3 3d 76 34 8a 3d 6f b7 bd bc 7a c0 01 3e
       0.095234886 0.067482874 -0.023158757 0.1267108
000080 12 67 de 3c 28 24 59 bd b0 ac 60 ba 5a 07 80 3d
       0.027148757 -0.053012997 -0.00085706543 0.06251402
000090 89 ba 0e bd da 1c 87 3d 62 73 5d 3d a2 10 4e bd
       -0.034845863 0.065973 0.054065116 -0.05030883
0000a0 a6 1e 2d 3d 60 76 9c 3d c4 b0 66 3d b8 18 36 bc
       0.042265557 0.07639766 0.05632092 -0.011114292
0000b0 6f cd 80 bc 41 f2 09 bd bc ba f9 3b 84 27 7d 3c
       -0.015722958 -0.033678297 0.0076211374 0.015451316
0000c0 c9 64 cf 3d a7 6f 02 3c 3e 04 3c bc 8b 0d 2f bd
       0.10126645 0.00796119 -0.011475621 -0.042737525
0000d0 c8 cf 4a 3c 78 9d 7c 3d 53 98 19 bd 08 94 85 3d
       0.0123786405 0.06167361 -0.037498783 0.06522375
0000e0 36 b6 8e bd 3a 7c 07 bd 2f 85 96 b9 2f cb 94 3d
       -0.06968348 -0.033077456 -0.0002870946 0.07265317
0000f0 6a 5b 9c bd db 03 25 bd 29 a7 62 bc 35 2c 6b 3c
       -0.07634623 -0.04028688 -0.013833799 0.0143538015
000100 e3 91 e5 3d 6c 12 9f bc d9 2f 8a bd 1e 88 6f bd
       0.11209466 -0.019417964 -0.067474075 -0.05847942
000110 8a a5 90 3d 4a 7b 85 3d 04 ed da bb ec 80 35 bd
       0.07062824 0.06517656 -0.0066810865 -0.044312403
000120 50 1a c8 3d 6d 40 1c 3d 66 de 8b bb e4 1a 8e bd
       0.09770644 0.03814738 -0.0042684553 -0.06938723
000130 d3 9c e7 bc 7c 4e ad 3d 76 db 25 bb 9b 89 4e b9
       -0.028273022 0.08462235 -0.002530781 -0.00019696953
000140 82 9f ec bc 38 d1 e8 bc 99 c2 3c bd d4 33 5f bd
       -0.028884653 -0.028420076 -0.04608402 -0.054492787
000150 44 0e bf 3c c1 36 43 3d 69 f0 54 bc a3 c9 4f 3d
       0.023322232 0.04765964 -0.012996771 0.050729405
000160 28 1d a7 3d 68 34 10 bc 73 1d 8d 3d 0f 42 2c 3d
       0.08159858 -0.008801557 0.068903826 0.042055186
000170 8f ed e2 bc ca 18 cd bc 7e 74 99 3d 4a b9 2c 3d
       -0.027701167 -0.025036234 0.07492922 0.042168893
000180 79 d7 9c 3b 85 b9 6c 3d f3 21 b8 3d 8a 54 6c bd
       0.0047864285 0.057794113 0.0899085 -0.05769781
000190 c9 b2 78 bd 49 86 bf 3d a1 7a ba 3d cd 9e 51 bd
       -0.060717378 0.09351785 0.09105421 -0.051176835
0001a0 16 ab 33 bd c4 3d 61 bd 3b 22 71 3d c9 18 ca 3d
       -0.043864332 -0.054990545 0.058870535 0.09868009
0001b0 96 2f 1d bd 04 8a 54 bc 74 50 2b 3d 2f 74 8f 3d
       -0.03837546 -0.012972359 0.041824773 0.07004582
0001c0 32 d7 b6 3d af be 3a 3d 13 4c b6 3d 9c d7 90 bd
       0.08927764 0.045592006 0.08901229 -0.07072374
0001d0 da 65 da bc f0 d9 7d 3c d4 d3 34 3d 1a e5 1c 3c
       -0.026659895 0.015493855 0.044147328 0.009576106
0001e0 55 25 31 bc 29 bc 23 bd 29 d5 4d 3d d5 57 f6 bb
       -0.010812123 -0.039974365 0.050252113 -0.0075177946
0001f0 76 9c 32 bb 35 67 a8 3b 09 21 07 3c ef 1c 88 3d
       -0.0027253903 0.0051392564 0.008247622 0.06646144
000200 1f 30 a3 bd 31 d8 79 bd 1a 83 a1 3d 02 5d 1a 3d
       -0.07968163 -0.06099719 0.07886334 0.037686355
000210 ce 71 03 3e 88 e0 04 3d 51 1a c6 3c b0 3f 01 bd
       0.12836382 0.032440692 0.02418247 -0.031554878
000220 e1 c8 a5 bc 2f a6 f9 bc 11 96 de bc 63 91 a9 bd
       -0.020237388 -0.03047475 -0.027171167 -0.082796834
000230 6e 48 f3 3d d7 4b 83 3d 20 ad a5 3d 33 26 73 3d
       0.11879049 0.0641095 0.080896616 0.0593626
000240 65 bf ab bc 8d 8d 15 3d e1 ea d9 3d 38 af f9 3d
       -0.020965287 0.036511946 0.10640503 0.121916234
000250 86 24 02 bd 42 0c 59 bd 73 f8 9f 3d 70 ab 71 bd
       -0.031773113 -0.052990206 0.0781106 -0.059001386
000260 03 40 22 3d 66 ed 3f 3d 42 65 cb 3d 1c 70 8c bd
       0.039611828 0.04685726 0.09931423 -0.06857321
000270 ec 2f c7 bb 5a 03 15 be 45 17 82 3b d9 f9 13 bd
       -0.006078711 -0.1455206 0.003970059 -0.036126945
000280 45 cc 37 bd b7 0d bb 3d 8e d4 bc bc c1 a4 9f 3d
       -0.04487254 0.09133475 -0.023050573 0.07795096
000290 5e 10 b4 3b a0 5b b2 3b 7c 93 f1 bc d7 a4 7d ba
       0.005495115 0.0054430515 -0.029489271 -0.0009675747
0002a0 48 dd ea 3c 41 04 68 3d ed fa 5e bb b0 20 94 3d
       0.028669968 0.05664468 -0.0034024075 0.07232797
0002b0 2e 4a d8 3d 68 48 51 bc 43 b1 25 bd dc b9 ab bd
       0.10561024 -0.012773611 -0.040452253 -0.08385059
0002c0 75 9f 75 bd 35 f8 90 3d 84 14 0d 3e f7 b0 b2 3d
       -0.059966523 0.07078592 0.13777357 0.087251596
0002d0 f4 e8 cd 3d 5d 69 48 bd 87 ce 95 3d 63 da f2 3d
       0.10054198 -0.048928607 0.073147826 0.1185806
0002e0 78 c2 7c bb 23 5e 63 bd 9d 1d 69 3d 21 e2 00 bd
       -0.003856806 -0.055509698 0.056913007 -0.031465653
0002f0 5d 74 fd 3c f8 3d 8e 3d c0 a3 af 3d a5 32 85 3d
       0.030939275 0.06945413 0.08576155 0.065038
000300 aa ab 36 3d b8 3d ac b9 f6 97 28 3e d1 62 49 3d
       0.044597305 -0.0003285238 0.16464218 0.049166504
000310 e2 31 1a 3d 66 c8 f4 bd fe a0 f4 3d 31 89 ab 3d
       0.03764523 -0.119522855 0.11944769 0.083757766
000320 80 92 04 bd b6 6e f3 3c 12 95 bf 3d 44 ee a5 3d
       -0.032366276 0.029715877 0.09354605 0.08102086
000330 ba 4f 35 3d 28 fd b4 3b bc 64 fc 3d ea 11 a3 3b
       0.044265486 0.0055233426 0.12323901 0.0049765008
000340 71 0e 41 bd 73 9e 6d 3d 81 75 9a 3d 2c 88 4a bd
       -0.047132913 0.058012437 0.07541943 -0.04944627
000350 c3 21 ac 3d 6b af aa 3d a2 15 34 3e ab 44 30 bd
       0.08404877 0.083342396 0.17586377 -0.043034237
000360 a0 af 7b 3c cc 36 b8 3d 40 29 93 bc 09 04 86 3c
       0.0153616965 0.08994827 -0.017964005 0.016359346
000370 11 90 fd bc f8 00 75 3c 0c 63 ac 3d 31 e1 a0 3d
       -0.030952485 0.014953844 0.08417329 0.07855452
000380 6e dd b9 bc 8f 60 9b 3b f0 07 b2 3c b7 63 a4 ba
       -0.022688594 0.0047417353 0.0217323 -0.0012541924
000390 aa 5c a4 3c e3 a6 f5 bd ad 03 88 3c 27 c5 48 bd
       0.020063717 -0.11994722 0.016603315 -0.049016144
0003a0 f2 13 40 bd ef e7 47 3d c3 66 fd 3d f6 8b 42 bd
       -0.04689402 0.048805173 0.12373116 -0.04749676
0003b0 ea 87 87 bd 56 90 fd bc 57 44 aa 3d c7 8c 14 3d
       -0.066177204 -0.030952614 0.08313816 0.03626707
0003c0 59 96 b7 3d 98 30 54 3d 75 74 30 3d 74 41 68 3d
       0.089642234 0.051804155 0.043079812 0.056703046
0003d0 39 3b 00 3d d5 87 5b 3c d6 d6 54 3c 4b 35 22 3d
       0.03130648 0.013399084 0.012990674 0.039601605
0003e0 f5 4f 82 bc c3 3e 63 3d a8 2b 9f bd c8 9a 7e bd
       -0.015907267 0.055479776 -0.07771999 -0.06215933
0003f0 7f 6b bc 3b 5e 4c 80 3d df 5c 87 3d cc 5f 17 bd
       0.005750119 0.06264566 0.06609511 -0.036956593

layer3.bias f4 [128]
000000 59 ce 92 3c b2 c1 f8 bc b5 83 3c 3d e2 8d 89 b8
       0.01792066 -0.030365799 0.046024043 -6.559097e-05
000010 bb 97 94 3d 47 c6 27 bd 2b 0f 52 bc a0 a8 bb bc
       0.07255503 -0.040960576 -0.012820999 -0.022907555
000020 18 f8 5e bc 5d 4e ec ba e6 a3 c4 bc 31 49 89 3c
       -0.013608955 -0.0018028725 -0.024003934 0.016758533
000030 a8 43 a4 3d 2e d3 f9 3b 37 45 84 3d 9e 0b 70 bd
       0.08020717 0.0076240515 0.06458514 -0.05860483
000040 bf 63 0b bd 40 67 e7 3c 7a 1e 96 bd 96 9f 9a bc
       -0.034030672 0.028247476 -0.07330032 -0.018874925
000050 28 3e f7 3d 6c 8a bf bc 5b df 1f 3d e5 f2 18 3d
       0.12072402 -0.023381434 0.039031368 0.037341017
000060 94 3b 4e bd db f5 b4 3d f3 24 b3 3d f5 bf a7 bd
       -0.050349787 0.08835956 0.08747282 -0.0819091
000070 dd 87 b8 bc ba 9e ac bd fc 62 0e bd d5 02 2e bd
       -0.022525722 -0.08428712 -0.034762368 -0.04248317
000080 fb 21 f1 bc 7a d5 ca 3c 6d ca b8 3d 4b 9d a7 bd
       -0.029435148 0.024759997 0.09022985 -0.08184298
000090 de d8 2b 3d 7a 28 4e bd 07 f4 63 3c 92 02 80 3d
       0.041954868 -0.05033157 0.013913161 0.0625049
0000a0 77 e6 1e 3d 06 05 99 bd 73 79 6a 3d bd e3 a9 3d
       0.038794007 -0.07471661 0.05724473 0.08295391
0000b0 df 9d 75 3d f1 33 d0 bb e2 6a a8 3b bb 2c 8f 3d
       0.05996501 -0.006353848 0.0051396945 0.069909535
0000c0 c6 be c1 bc 71 ce 70 3a 3c 19 f9 3c 07 45 84 bd
       -0.023650538 0.00091860356 0.03040754 -0.064584784
0000d0 0a b3 90 bd 2d 15 26 3d 01 51 64 bd f5 90 08 3d
       -0.07065399 0.04054754 -0.055741314 0.033341367
0000e0 e4 92 6a bd fd 09 a5 3c ac 79 99 bc 48 b7 0c bd
       -0.057268992 0.020146364 -0.018734775 -0.034354478
0000f0 13 0d bd 3c 7c 6f f0 3c 75 ad 0d bb 8e 0b e9 3c
       0.023077523 0.029350035 -0.002161828 0.028447893
000100 05 50 5d bd 04 99 49 3d 6c 3c 1f bd 2b 83 8b 3b
       -0.05403139 0.049218193 -0.038875982 0.00425758
000110 45 2f 69 3d 39 3f c4 3d c0 84 a1 bd 23 a2 99 bd
       0.056929845 0.09582371 -0.07886648 -0.07501628
000120 0a 37 c4 3d 95 e5 3e bd 03 65 fd 3b 88 cf 61 3c
       0.0958081 -0.046605665 0.007732989 0.013782389
000130 51 a3 ba 3d 7a 7b 3e 3d fd 57 9d bd e7 e4 60 bd
       0.091131814 0.046504475 -0.07682798 -0.0549058
000140 76 8c 91 3d 84 a6 67 3d f8 a9 77 3d 99 80 c4 3b
       0.07106869 0.056555286 0.06046483 0.0059967753
000150 46 29 68 3d 23 42 e2 3b e6 75 63 3d b2 9d ba bc
       0.056679986 0.006904857 0.05553236 -0.022780273
000160 34 e3 94 bd 8d 22 61 bd cb ad 7e bd b8 2b 37 bd
       -0.07269898 -0.05496459 -0.06217746 -0.044719428
000170 58 11 73 3d 2a 2b 6d 3c 88 8c 94 bc 8e 79 82 bd
       0.059342712 0.014475623 -0.018133417 -0.06370841
000180 38 ad 49 bd 57 0e 20 bd c2 93 6a 3d a1 39 8d bd
       -0.04923746 -0.039076176 0.05726982 -0.068957575
000190 ee ab 93 bd f9 a6 91 bd a7 74 4b bd fa 76 7d bd
       -0.07210527 -0.07111926 -0.049671795 -0.061881043
0001a0 f7 45 a5 3d 29 e7 88 3d 1a b1 e0 bc 4b 77 9a 3d
       0.08069985 0.06684715 -0.027428199 0.075422846
0001b0 2c d3 27 bd 32 c1 fb bc 4b 0a 19 3d 0c e7 33 3c
       -0.040972874 -0.030731771 0.03736333 0.010980379
0001c0 a6 fa 47 bd 0f fa 86 3c 76 f0 16 3d 26 4d 49 bc
       -0.04882302 0.01647666 0.036850415 -0.01228646
0001d0 36 ba 3e bd 6d 43 81 bd b6 6b 6f bd 88 1f 5d 3c
       -0.046564303 -0.063116886 -0.05845233 0.013496287
0001e0 2a 80 bb bc 3e ea ce 3d 75 26 67 bd 78 b9 4b 3d
       -0.022888262 0.10103272 -0.05643316 0.049737424
0001f0 20 88 e7 3c 52 8a 3d 3c db 61 41 bb 08 27 b1 3b
       0.028263152 0.011568623 -0.002950779 0.005406264

output_layer.weight f4 [72, 128]
000000 75 05 41 bd 1a b0 8a 3d 3d 98 dd 3c e0 8e c7 bc
       -0.047124345 0.0677187 0.027050132 -0.02436012
000010 0a 80 07 bd c3 1b a6 bc df 08 82 3c a5 35 1f 3c
       -0.033081092 -0.02027691 0.01587337 0.00971738
000020 b1 a3 d8 3c 6f 71 fb bb 86 71 7a 3c 7a e5 75 3d
       0.026445242 -0.0076734344 0.015285855 0.0600333
000030 55 ac e7 3c a4 37 bc 3d 6a ec 02 bd 9b 54 1a 3c
       0.028280417 0.091903 -0.031963743 0.009419586
000040 75 8d cf bc 29 ab 20 bc 35 ee a5 bd ad 20 9f 3c
       -0.025336007 -0.009806433 -0.08102075 0.01942476
000050 e4 12 7c bd 12 ac 3e 3b 26 42 6e 3d cf b8 bd 3d
       -0.061541453 0.002909426 0.058168553 0.09263765
000060 e5 27 92 bb 89 79 ec bd 9d dd 9f 3c 45 66 6b bd
       -0.004460322 -0.115466185 0.019514853 -0.05747058
000070 9f 1a 83 bd 17 be 22 3d 3f 33 f8 bb db b6 61 bc
       -0.06401562 0.039732065 -0.0075744684 -0.013776506
000080 b2 22 b4 bb 95 13 c9 bc 8c 3d 22 b9 37 c5 6e bc
       -0.0054973 -0.02454547 -0.00015472452 -0.014573387
000090 5b 87 b6 bd b5 86 4d bd 12 b7 95 3a 05 a3 25 3d
       -0.08912536 -0.050177295 0.0011422357 0.04043867
0000a0 e4 e0 5e bc 44 b8 8e bc 9f 05 34 bc 5f 6e 01 be
       -0.013603423 -0.01742185 -0.010987668 -0.1263976
0000b0 4a e3 fb bb d4 c0 ce 3c 2b 37 b3 bd ff d6 04 3d
       -0.007687007 0.025238432 -0.08750757 0.0324316
0000c0 8f 3a 8d 3c d9 80 b6 3c 56 34 d0 3d cc ef 75 3d
       0.017239837 0.022278236 0.10166232 0.06004314
0000d0 d8 43 bb 3d d3 81 70 3d d2 7b 54 3d c5 10 b2 3d
       0.091437995 0.05871756 0.051875897 0.08694605
0000e0 5d fe a6 ba 5f da ab 3c 6f f2 9e bd e9 4c 0a 3c
       -0.0012740601 0.02097815 -0.07761084 0.008441188
0000f0 3a 3e 6e bd f3 7b cb 3c ca ca 87 3d 97 a6 ad 3c
       -0.058164813 0.024839377 0.06630476 0.0211976
000100 33 6d 61 bd a5 f3 79 bd f6 92 c9 3d 3a 61 00 3d
       -0.05503578 -0.061023373 0.09842484 0.031342722
000110 24 46 ed bc e3 2d 63 3d d9 c7 03 bd 10 81 83 bd
       -0.02896411 0.055463683 -0.03217301 -0.06421101
000120 05 e2 65 bd 5e 87 8a 3d 8a 91 8f 3d 55 30 25 3d
       -0.056123752 0.067641005 0.07010181 0.040329296
000130 b3 0b c1 3c 68 9b be 3d ab a6 40 bd e3 42 93 bd
       0.023565149 0.09306985 -0.047033947 -0.07190492
000140 c0 11 4f 3d d8 ac 41 3d 7d a2 8c 3d e9 5d bf bc
       0.050554037 0.047283977 0.0686693 -0.02336021
000150 cc fe 96 bd 4b a4 83 bd ef 11 27 bc c1 01 3e bd
       -0.073728174 -0.06427821 -0.010197147 -0.04638839
000160 93 92 a8 3d e8 f4 07 3d 05 c1 1c 3c 29 e0 40 bc
       0.08231082 0.033192545 0.009567504 -0.011772194
000170 21 48 b6 bd 84 53 80 bd 28 b5 b0 3d ed fa 20 bd
       -0.08900476 -0.06265929 0.08628303 -0.0393018
000180 61 3d 75 3d 49 8c 12 3d 76 84 0a bd b2 59 42 3b
       0.05987299 0.035778318 -0.03381773 0.0029655513
000190 89 78 ab 3d 89 a0 98 bd bd f8 07 bd db 5a 54 3c
       0.083726 -0.07452495 -0.0331962 0.012961115
0001a0 32 bc 80 bc 2b e0 b5 bd 41 94 6c 3d 1f c3 6d bd
       -0.015714739 -0.08880647 0.057758573 -0.05804741
0001b0 34 87 78 bc e8 e8 f6 bc 8d a9 b2 b9 e4 e2 5c 3c
       -0.015168954 -0.030140355 -0.0003407713 0.013481829
0001c0 1f 30 9f bd 36 2f 55 3d d9 97 56 bd 34 d2 a5 3b
       -0.0777285 0.052046977 -0.052390907 0.0050604586
0001d0 60 24 87 3d 4a 89 71 bb 7e 62 1b 3d 39 a0 cc 3d
       0.06598735 -0.0036855512 0.037935726 0.099914975
0001e0 86 d0 54 3d 69 0b b2 3d 28 0e 96 bd 48 4e 98 bd
       0.051956676 0.086935826 -0.07326919 -0.07436806
0001f0 06 98 55 3d 02 e9 75 3c 2d c5 2a bd c0 6a 4d 3d
       0.052146934 0.015009167 -0.041691948 0.050150633
000200 24 d9 4e 3d d2 a6 87 3c 96 a8 f0 bb 2f cb 22 bd
       0.05050005 0.016559038 -0.0073443158 -0.039744552
000210 a3 1f b6 3d 94 18 e5 bc e6 85 00 bd ef a5 ab bd
       0.08892753 -0.027965821 -0.031377696 -0.08381259
000220 d2 de 09 bd a6 1d 93 3c 58 fb e8 3d f4 63 90 3c
       -0.033659764 0.017958473 0.11376065 0.017625786
000230 4e a0 d5 bc fd e4 e1 3c ea 87 e9 3c 35 b9 69 bd
       -0.026077416 0.02757501 0.028507192 -0.057061393
000240 e0 be 52 bd 81 45 09 bd d4 7f 09 3d 27 05 15 bd
       -0.051451564 -0.03351355 0.033569172 -0.036381867
000250 7a 7e 7f bd 27 c2 c8 3d 0c 72 ad 3d 91 ab b9 3d
       -0.062376477 0.098026566 0.08469018 0.09065927
000260 22 40 05 bd bb 92 92 ba 0b c2 b3 3c d1 4a 99 3d
       -0.032531865 -0.0011182645 0.021943113 0.07484973
000270 7e 98 85 bb 76 9d 26 ba 35 45 6c bd b7 c9 c3 bc
       -0.0040770164 -0.0006355861 -0.05768319 -0.023899896
000280 a4 5d 95 bc 12 7f 89 3d bb 4e c5 3d e7 36 1f bb
       -0.018233128 0.0671369 0.09634157 -0.00242942
000290 f8 63 8f bd 6b f6 8a 3d fd f5 87 3d 66 24 37 3d
       -0.070014894 0.06785282 0.066387154 0.044712447
0002a0 40 5e 2c 3c 1b 26 58 bc cf d5 0c 3d e5 d4 8c 3c
       0.010520518 -0.013192679 0.03438359 0.01719136
0002b0 91 d9 19 3d 78 f5 7e bd d4 3a a8 3b 9f ea ef 3c
       0.037561003 -0.062245816 0.005133966 0.02928668
0002c0 36 8a 9d bd 39 ed 83 3a ca 10 ac 3d ab 70 29 3d
       -0.07692377 0.0010065205 0.0840164 0.041367214
0002d0 98 c5 ac bc ae ec 2e 3d 69 a8 f7 3c 05 18 1d bc
       -0.021090314 0.042706184 0.030231671 -0.009588246
0002e0 95 6e f9 3c db 14 84 3d 89 19 d4 bd 1e d2 b6 3d
       0.030448237 0.0644929 -0.10356433 0.089267954
0002f0 b1 ac 15 bb 93 93 80 bc 55 d6 df bc 6b 51 a3 3d
       -0.0022838528 -0.015695369 -0.027323881 0.079745136
000300 41 6a 52 bc 65 d7 2b bd 63 96 ce 3d 8d d5 a6 3d
       -0.012842716 -0.041953463 0.10087278 0.081462
000310 8e cd 82 bd 19 e8 26 3d a8 10 a3 bd ca f5 8a 3b
       -0.06386863 0.04074869 -0.07962161 0.004240726
000320 2b 9a fb bd 92 30 2a bd 77 e3 e0 3c c8 b7 16 3d
       -0.122852646 -0.041550227 0.027452214 0.03679636
000330 0c c5 dd 3d 4f c4 11 3d 4d a5 95 bd 9e b6 ee 3c
       0.10828599 0.035587605 -0.07306919 0.029139813
000340 60 21 8a 3d 05 36 aa 3c 49 09 c1 bc 29 82 aa 3d
       0.06744647 0.020777712 -0.023563998 0.08325607
000350 ee 30 25 3c 13 1b 99 bd 54 03 fe 3c d5 6a 06 bd
       0.0100824665 -0.07475867 0.031007446 -0.032816727
000360 80 3f bb 3d 9a bb 8a 3a b8 98 a2 bd d5 31 96 3d
       0.09142971 0.0010584474 -0.07939285 0.073337235
000370 d3 7e 84 bd 85 41 5a bd 93 b7 49 3d 56 f6 5f 3d
       -0.06469502 -0.05328514 0.049247336 0.054678284
000380 74 47 57 bc 5c 00 b5 3d 0b 9c 92 bd e8 5f 2a bb
       -0.013139594 0.08837959 -0.07158669 -0.0025997106
000390 7f 35 60 ba 66 7d af bd 70 bc 8e 3d ea 0d f7 3d
       -0.00085528934 -0.0856884 0.06969535 0.12063201
0003a0 db 5a 2a bd 5a 19 d5 bb f3 06 19 3d c4 45 d0 bd
       -0.041590553 -0.0065032663 0.037360143 -0.10169557
0003b0 be 1c 6d 3d 42 44 90 3c 2b e6 94 bb ea 3f 69 bc
       0.05788874 0.017610673 -0.0045440397 -0.01423643
0003c0 75 4e 37 bd dc 36 98 bd 3d 75 7d bc 9e f2 a2 3c
       -0.044752557 -0.074323386 -0.015469846 0.01989108
0003d0 21 0f 25 bd 9e 22 9b bd 0f 33 83 3c 9f f9 cd bb
       -0.04029763 -0.07574962 0.016015558 -0.0062858607
0003e0 d5 4d 9f bd 5e 4c 03 3d a9 82 b1 3c e1 f4 8d bd
       -0.07778517 0.03205525 0.021668749 -0.069314726
0003f0 79 d2 c4 bc a9 8a 85 bc fa d9 97 3c 7b c7 98 3d
       -0.024026142 -0.01630147 0.018536557 0.07459923

output_layer.bias f4 [72]
000000 16 ce 80 bd e9 a4 9d bd 2c c0 87 bc 79 4b 9e 3d
       -0.06289308 -0.0769747 -0.016571127 0.07729239
000010 78 77 b1 bb 1c 4d 7b bb db a4 93 3d 3c 04 5c bc
       -0.005415853 -0.0038345521 0.07209178 -0.013428744
000020 d9 78 58 3d 6d 8e 83 3d 9e b4 6b bd 8f 18 9b bc
       0.052849624 0.0642365 -0.057545297 -0.018932609
000030 44 6e bb bc 14 23 05 bd a8 60 a1 3c f5 61 7b 3d
       -0.022879727 -0.032504156 0.01969941 0.061372716
000040 98 d5 22 3d 7d bf 02 bd df d0 4a bc 8c 0f 4d 3d
       0.03975448 -0.0319209 -0.0123789 0.050063655
000050 5d 5a b3 bc 55 b2 0d 3d 4a c8 72 bd 73 36 93 3d
       -0.021893675 0.0345939 -0.05927304 0.0718812
000060 09 b7 1e 3c cd 76 36 bd f4 32 ff bc d3 ec 53 3d
       0.009687194 -0.04454689 -0.031152226 0.051739525
000070 75 94 c1 3a 91 50 12 3c 93 5b 63 bd d8 b2 ff bc
       0.0014768975 0.008930341 -0.055507254 -0.031213209
000080 12 7e 97 bb 83 fb 05 bd 4e 1c 4c 3d 4e 12 d2 bd
       -0.004623183 -0.032710563 0.04983168 -0.102573976
000090 96 e4 8e 3d 55 45 c2 bd 52 7c a4 bd 31 77 1b 3a
       0.06977193 -0.0948588 -0.08031525 0.00059305417
0000a0 f1 c6 1d 3d 80 3c 77 3c c7 09 ab 3d 85 f5 e0 3c
       0.038519803 0.015090108 0.08351474 0.027460823
0000b0 83 af 05 3d 6a 57 f7 3b a2 3e 20 3d c5 43 b5 3b
       0.032638084 0.0075482624 0.03912223 0.0055317604
0000c0 d6 4e 96 bd 98 53 92 bc 01 0f bc bc f1 fb 87 3d
       -0.073392555 -0.017862126 -0.022956373 0.06639851
0000d0 e3 b2 12 3d 35 3e 9c 3d 33 92 51 3d 4e cb 49 3d
       0.03581513 0.076290525 0.051164817 0.049266152
0000e0 ba 8e d6 3c b1 91 40 bd d4 4d 7b bd ab 73 8c 3b
       0.026191104 -0.047013942 -0.06135352 0.0042862496
0000f0 83 fe 07 bd e4 59 fb 3c aa 0f a5 bd 1c 2c 09 3c
       -0.033201706 0.030682512 -0.08059628 0.008372333
000100 1b 5e c3 3b 1c 2e 94 3d dc fe 6f 3c 4f 72 8c bd
       0.005962146 0.07235357 0.014648166 -0.0685774
000110 08 6d 7b 3c 60 ba e9 3c e2 60 87 bc ab af 25 bd
       0.015345819 0.028531253 -0.01652569 -0.040450733
