results/train/SAC_robot_weight_5kg/best_model.pt (torch, 90959 bytes, 6 tensors)

linear1.weight f4 [128, 40]
000000 69 e2 26 be 53 25 3e be 79 38 de bc fc 11 95 3d
       -0.16297306 -0.18568926 -0.027126538 0.07278821
000010 57 70 e3 3c 2a 38 5b 3c 56 64 c1 3d 5f 39 66 3d
       0.027763529 0.01338009 0.09442966 0.056207057
000020 e7 10 62 bd 98 7e da 3d db 2b 41 3e dd dc dd bc
       -0.0551919 0.10668677 0.18864386 -0.027082855
000030 f2 30 d4 3d 64 f4 db bd 58 5d 99 bc 8a ed d3 3c
       0.10360898 -0.10739973 -0.018721268 0.025870103
000040 bf 33 ca 3b 4f b6 e1 3c b7 1d 01 3e 9b 9f c2 bc
       0.0061707194 0.027552752 0.12608992 -0.023757746
000050 e1 05 9f bd 3a 9c b1 bc 60 9e 1e bd fd c1 16 3e
       -0.07764793 -0.02168094 -0.038725257 0.14722438
000060 f9 9e e9 bc f8 15 ad 3d 72 4a 0d 3b da 1c 89 3c
       -0.028518187 0.08451456 0.0021559265 0.01673739
000070 a2 f3 c3 3c a2 be 16 be df 08 54 bd 3e aa fb 3d
       0.023919884 -0.14721158 -0.051766273 0.122883305
000080 34 fd 2c be fe 58 36 be 45 10 32 be bd fb f0 bc
       -0.16893464 -0.17807385 -0.17389019 -0.029416913
000090 6b 91 a4 3d f3 82 a5 3c 05 b1 57 3c 5d 65 12 be
       0.08035549 0.020204043 0.013164763 -0.1429648
0000a0 4d 84 c3 bd 4c f5 b4 bd 3e 0a 68 bd db 7f 96 bd
       -0.09546719 -0.08835849 -0.056650393 -0.07348605
0000b0 d0 00 26 3c 8a 65 2e be 62 b3 eb bc 13 64 00 3d
       0.01013203 -0.17030922 -0.02877206 0.03134544
0000c0 9f d1 fd bd 94 69 22 3d b0 53 26 be 0f 3c c5 bd
       -0.12393498 0.03965147 -0.16242862 -0.09630596
0000d0 38 20 a5 bd 43 d0 3e be 3c 06 36 be 3e 3b 8d bd
       -0.08062786 -0.18634133 -0.17775816 -0.06896065
0000e0 ed 75 bf 3d a5 70 a6 bc 1f 6d 1e 3e dc 11 0d be
       0.093486644 -0.020317385 0.15471314 -0.13776344
0000f0 24 59 3e bd fa d9 1e be 3c aa 14 be 13 2e 42 bd
       -0.04647173 -0.15512839 -0.14518064 -0.04740722
000100 c8 59 df 3d 94 45 bb bc 3c 4b 86 bd 23 ea 33 3e
       0.10905796 -0.022860326 -0.065573186 0.17569785
000110 70 18 de ba 63 8e 60 3d c8 41 f8 bc da 28 07 3e
       -0.0016944539 0.05482329 -0.030304804 0.13199177
000120 54 89 99 bd 07 df 37 3e 63 40 f7 bb 4a 49 cf bd
       -0.074968964 0.17956172 -0.0075455173 -0.10121401
000130 df e0 39 be 73 76 2b be e8 c5 06 be cb 36 e7 bd
       -0.18152188 -0.16744404 -0.13161433 -0.11289748
000140 88 24 a8 3d e4 e7 35 bd 57 0f 87 bd 3d 27 52 bf
       0.08210093 -0.0444106 -0.06594723 -0.8209112
000150 17 69 eb 3d 6f b8 c6 3d 0c 6f 39 bf ad 5b 35 3e
       0.11494654 0.09703147 -0.7243507 0.17710753
000160 c6 e0 65 3e bd f0 da 3c 2f f0 9c be 6d a9 34 3e
       0.22449026 0.026726121 -0.30651996 0.17642756
000170 4a cf 83 3d ad 76 f8 3d 87 23 6c bc ee 00 1f 3e
       0.064360216 0.121320106 -0.014412767 0.15527698
000180 e8 1a 38 3e ea 87 d6 3c f6 3b 83 3e a9 da 85 3e
       0.17979014 0.026187856 0.25631684 0.26143387
000190 02 b3 20 3e e3 e3 85 bc 9e 8f 81 3e c5 6f 65 3e
       0.15693286 -0.016344016 0.25304884 0.22405918
0001a0 c4 77 68 3e 05 c1 55 be 70 74 af bd a0 33 11 3d
       0.22701937 -0.20874412 -0.085671306 0.035449624
0001b0 01 58 86 3e e4 2c fe 3d 3d dc b5 3d 7a 6a 72 3d
       0.26239017 0.12410906 0.08879898 0.059183575
0001c0 13 91 98 3d 88 52 c2 3d 1d 38 6a be ba 58 b1 bd
       0.07449546 0.09488398 -0.22872968 -0.086595014
0001d0 7f f6 22 3e 24 2f 03 3e 32 0d 82 be 72 1c 85 3d
       0.15914343 0.12810951 -0.25400692 0.06499566
0001e0 a4 43 1c be e4 38 3b be 7e a7 48 bc 7e e9 7e 3f
       -0.15260178 -0.18283421 -0.0122469645 0.9957503
0001f0 2d 47 51 be 15 82 1f 3e 3d 4f 0d 3f 6e 86 b9 3d
       -0.20437308 0.15576966 0.55199033 0.090588436
000200 3e 8f 80 bd d4 ab 56 be 81 02 ec 3d 7a b9 57 be
       -0.06277321 -0.20963985 0.11523915 -0.21066847
000210 d0 9e 32 be 61 13 06 be ee f1 4e bd 78 79 19 be
       -0.17443395 -0.1309333 -0.05052369 -0.14987743
000220 19 b8 3b be c9 8d f9 bd 3d e3 6c be c5 f9 e8 3d
       -0.18331946 -0.121852465 -0.2313356 0.11375765
000230 13 7d 63 3c 8b 3a aa 3e 9f 4d 6a bd bf f6 e4 3c
       0.0138848005 0.3324779 -0.05720293 0.027949689
000240 9a 2f 9c 3d 14 60 04 3d ea a9 2f be 90 12 43 be
       0.07626267 0.03231819 -0.17154661 -0.1905005
000250 64 08 b0 bc c3 b1 06 be a2 f5 aa 3c a3 08 12 be
       -0.021488376 -0.13153748 0.02086908 -0.14261107
000260 9f 13 26 be ab 1f b2 bd dd 1c 89 3e 18 6c 0d 3e
       -0.16218422 -0.086974464 0.26779833 0.13810766
000270 8e a1 b2 3d a8 87 45 be b1 13 1f 3e 90 f4 b9 3d
       0.0872222 -0.1929003 0.15534855 0.0907985
000280 6e 7f 06 bc ab e1 49 3e e9 bb e9 3d 5c 95 4e bf
       -0.008209093 0.19714992 0.11412794 -0.80696654
000290 6d bd 4e bd 8e 10 26 be d9 5a 42 bf 75 7d c0 bc
       -0.05047362 -0.16217253 -0.7591987 -0.023497323
0002a0 d9 cd 9b 3e 67 78 05 3e d7 e7 5c be 1a eb b5 bd
       0.30430487 0.13034211 -0.21572815 -0.08882733
0002b0 73 77 55 3c 39 e6 84 3e 17 ed fe bc 07 54 95 3d
       0.013028967 0.25956896 -0.031118913 0.072914176
0002c0 ab 2e 8c bc 62 7b 88 3e 5d 0a 73 3d 09 93 a2 bc
       -0.017112097 0.26656634 0.059336055 -0.019845502
0002d0 e5 21 cd 3d f6 c5 9e 3c ac 7f 85 bd 7b 2d 3d bd
       0.100162305 0.019381505 -0.06518492 -0.04618595
0002e0 38 5b bc 3b 90 9f 06 bc 81 19 fd 3d 35 87 f0 bc
       0.005748179 -0.008216754 0.1235838 -0.029361347
0002f0 d0 ca 0d 3e 0e cf 65 3e 3d 30 81 3e 2e 6b 29 3e
       0.13846898 0.22442266 0.25232115 0.16544792
000300 5c 1b 78 3e 3a 11 46 3e 31 71 0f be f0 64 ad bd
       0.24229187 0.19342509 -0.14008023 -0.08466518
000310 28 7b 87 3e 0c 16 66 3e 04 86 44 3d 1f 0f 75 3e
       0.26461148 0.22469348 0.04797937 0.2393155
000320 94 b9 b7 bd 21 09 9e bc a1 48 4a 3d 4e c7 24 3e
       -0.08970943 -0.019291462 0.04938567 0.16091654
000330 d4 bf b3 3d 48 d8 29 be 05 c9 cf 3d a8 84 fc bd
       0.08776823 -0.16586411 0.10145763 -0.1232999
000340 f8 65 40 3c c7 02 ef bd 51 cd db bd 7f 65 75 bd
       0.011743061 -0.116704516 -0.1073252 -0.059911247
000350 57 d3 13 bd b9 50 29 3e fd 32 d0 bd 16 ec ba bd
       -0.03609022 0.165347 -0.10165975 -0.09127061
000360 32 5b d2 bc a3 5c eb bb 7a 24 f9 bd 35 7b 0c be
       -0.025678251 -0.007182674 -0.121651605 -0.13718875
000370 93 f4 22 3e f9 e0 5c 3d 7a d5 8d bd 99 3d db 3c
       0.1591361 0.05392549 -0.06925483 0.02676277
000380 32 f4 3c 3e dc e5 c1 bd 92 0c e1 bd 13 2b 14 be
       0.18452528 -0.0946767 -0.10988726 -0.14469557
000390 97 b9 b7 bd bb 85 21 3e 17 c6 ee 3d fa 36 0e 3d
       -0.08970945 0.1577367 0.116588764 0.0347204
0003a0 d6 a9 2b 3c f7 05 38 be 2c 72 2e be 05 ff e8 3d
       0.010477504 -0.17971025 -0.1703574 0.11376766
0003b0 1d 6f 7b 3d 44 f4 82 bc f8 1b a3 3d b4 3b 30 bd
       0.061385263 -0.015985616 0.07964319 -0.043025687
0003c0 c2 58 ba bd b6 88 28 be 15 94 c3 bc 53 90 85 3f
       -0.090989605 -0.16458401 -0.023874322 1.0434669
0003d0 12 4e b4 bd a6 b9 4b 3d a9 08 0e 3f 97 d2 3d bd
       -0.08803953 0.049737595 0.55481964 -0.046343412
0003e0 e0 22 27 3d ea 22 ba bc 01 44 85 3e d2 43 f0 bd
       0.040804744 -0.022721726 0.26028445 -0.11731686
0003f0 8f 05 b6 3d b3 ec 73 3c 68 9e 1a 3d 5d 04 c6 ba
       0.08887779 0.014887976 0.037748724 -0.0015107502

linear1.bias f4 [128]
000000 00 00 00 00 00 00 00 00 32 ea 9a 3d 63 58 6b bd
       0.0 0.0 0.075642005 -0.05745734
000010 1a d0 ab 3d 00 00 00 00 37 22 84 bd 33 cb 9d bd
       0.083893016 0.0 -0.064518385 -0.07704773
000020 00 00 00 00 6a a3 6f bc 3b 0d c7 3d 74 d9 9c 3d
       0.0 -0.014626363 0.097193204 0.076586634
000030 a5 60 a8 3c c5 6f ef bc 31 cb 1b bc ba 0e 87 bc
       0.020553896 -0.0292281 -0.009508894 -0.016486514
000040 98 a5 af 3c 0d ad a4 3d 40 83 fa bd 00 00 00 00
       0.021441266 0.08040819 -0.12232065 0.0
000050 28 1b 1c bc 6f ae bc 3d ef ba ad 3d aa 6f be 3d
       -0.009527959 0.09212958 0.084829204 0.09298642
000060 67 6a 12 3c 00 00 00 00 60 6c b3 bc 34 76 fb bb
       0.008936501 0.0 -0.021902263 -0.007674003
000070 0f 75 99 bd d7 d4 6b bd 00 00 00 00 6b f5 8c bd
       -0.0749303 -0.057576027 0.0 -0.06882747
000080 d9 cd fd bc 00 00 00 00 6f cb a8 bc 13 f8 8d bd
       -0.030981945 0.0 -0.020604817 -0.06932082
000090 4c 4f a1 3d ef 82 55 bc 89 aa 9e bd 38 03 0d bd
       0.07876453 -0.013031705 -0.07747371 -0.034426898
0000a0 f7 42 db bc d0 90 99 bc 80 53 d9 3b ec d4 69 bc
       -0.02676533 -0.01874581 0.0066322684 -0.014271956
0000b0 91 90 bd 3d 45 e6 c1 bb 2e 6b 9d bd 1a 33 21 bd
       0.092560895 -0.005917343 -0.076864585 -0.039355375
0000c0 c9 13 83 3d 0f c9 3e bc ea 01 b2 bd 00 00 00 00
       0.06400258 -0.011644616 -0.08691771 0.0
0000d0 0b 21 92 bc 79 3a b1 3c 1c 49 5e bc a5 14 45 bd
       -0.017838022 0.021634327 -0.013567235 -0.04811539
0000e0 4e 01 a7 bd 0a 81 ba bb 51 e9 a7 bc 00 00 00 00
       -0.08154546 -0.005691652 -0.020496996 0.0
0000f0 27 76 19 bc 00 00 00 00 00 00 00 00 40 4c 0b bd
       -0.009366549 0.0 0.0 -0.034008265
000100 00 00 00 00 00 00 00 00 22 03 84 3b 00 00 00 00
       0.0 0.0 0.004028694 0.0
000110 68 78 37 bc c4 43 8d bd 56 0a db 3d f2 11 db bd
       -0.011198141 -0.06897691 0.10695331 -0.10696782
000120 f5 d1 be bd 13 2a 6c 3d 69 b2 b3 3d b9 28 08 bc
       -0.0931739 0.057657313 0.087742634 -0.00831049
000130 00 00 00 00 4c 34 5a bc 00 00 00 00 68 0e 4f bc
       0.0 -0.013318133 0.0 -0.012637712
000140 e4 14 b7 bd 9a 24 c4 3d e2 eb b8 3d 4f f6 ce 3d
       -0.089395314 0.09577294 0.09029366 0.101055734
000150 e6 21 b8 3d 4e 69 7b bc 05 d7 3a bc db 13 b2 bd
       0.089908406 -0.015344931 -0.011403804 -0.086951934
000160 b3 23 eb 3d ce 6b b4 3d 3a d5 8b bd 89 92 c2 bd
       0.114814185 0.088096246 -0.06827779 -0.095006056
000170 3a b1 74 bc eb 4d 0b be 6a d4 a5 3d 76 1d 96 bd
       -0.014934832 -0.13603942 0.080971554 -0.07329838
000180 54 eb c3 3d d8 f6 88 3c 72 ae 19 bd a0 98 90 bc
       0.0956637 0.016719267 -0.03751988 -0.017650902
000190 fb e6 67 3d 8a e1 0b bd 00 00 00 00 00 00 00 00
       0.056616765 -0.034150638 0.0 0.0
0001a0 ed e7 d0 bc 4d 12 72 bc 00 00 00 00 02 ab 9d bd
       -0.025501216 -0.014774871 0.0 -0.07698633
0001b0 00 00 00 00 fe be ee 3d d0 5b 98 bc d5 51 a5 bc
       0.0 0.116575226 -0.018598467 -0.020180622
0001c0 ff 88 67 bd 00 00 00 00 00 00 00 00 a4 84 09 bd
       -0.056527134 0.0 0.0 -0.03357376
0001d0 76 0d ac bc 97 7e 56 bc 00 00 00 00 26 f4 03 bc
       -0.021002512 -0.013091705 0.0 -0.008053815
0001e0 d6 d0 54 bc 64 61 42 bd 0f a4 d6 3d c6 fb 9a bc
       -0.0129892435 -0.04745616 0.104805104 -0.018918883
0001f0 00 00 00 00 6b 37 b1 3d 00 00 00 00 00 00 00 00
       0.0 0.08653148 0.0 0.0

linear2.weight f4 [128, 128]
000000 63 97 b9 3d 97 26 de bd b8 26 73 be 5f be 8f 3e
       0.09062078 -0.10847204 -0.23745239 0.2807493
000010 63 bb d1 be 6e 73 55 bd 80 33 8e 3e 55 e5 82 3e
       -0.40963277 -0.052112035 0.27773666 0.2556559
000020 58 42 ec bb fb 96 0b be 04 b9 fd be 7b cb f4 be
       -0.007210057 -0.13631813 -0.49555218 -0.47811493
000030 04 86 a1 bd 5e 45 3c 3e 13 5b a8 3c 73 61 b4 bc
       -0.078868896 0.18385836 0.02055124 -0.022019124
000040 38 17 d7 3d db 97 56 be d2 2e 90 3e b6 42 12 3d
       0.105024755 -0.20956366 0.2816072 0.03570815
000050 0f 04 8c bd 6f 58 13 be 74 52 ca be 11 56 7c be
       -0.068367116 -0.14389203 -0.39516032 -0.24642207
000060 2f 8d 33 bc 41 46 9f bd 08 e4 e3 3d c7 48 12 3e
       -0.010958954 -0.07777072 0.11127478 0.14285575
000070 96 f9 70 3e a6 9c 63 3e 3e df 86 3d 02 40 c5 3e
       0.2353271 0.22227725 0.06585549 0.38525397
000080 85 35 8c 3b fb 5b de 3d d8 0e c1 bc 62 da 9c 3e
       0.004278841 0.10857388 -0.023566648 0.30635363
000090 f8 60 45 be 06 99 1f 3e 56 d1 a1 3e 8c be a4 bc
       -0.19275272 0.15585718 0.31605023 -0.020110391
0000a0 d4 fd 98 3c 11 bb 92 bc 8f 1e 40 3d 76 8b 0a bd
       0.018675722 -0.017911466 0.046904143 -0.033824407
0000b0 6f bd 0c be cf f4 a2 bd 8e 44 ed 3e 28 c2 06 be
       -0.13744138 -0.0795685 0.46341366 -0.13160002
0000c0 66 14 c8 bd 09 2c e1 3d ad c7 8a 3e 4e 43 11 be
       -0.09769516 0.10994727 0.27105466 -0.14185831
0000d0 76 55 8c 3c 9f 2b c5 3d 8c fd 06 3e 88 dc 90 3e
       0.017130595 0.09627461 0.13182658 0.28293252
0000e0 b4 36 eb 3d 2f 9f 0e bd 63 10 64 3d d2 8c 9f 3c
       0.11485043 -0.034819778 0.05567969 0.019476328
0000f0 3b 85 10 3e 22 1b d5 3d ff e9 0d be 0e e8 7b 3e
       0.14113323 0.10405566 -0.13858794 0.2460024
000100 66 8f d2 3c 07 bf d4 3d 6a 9b 95 3d 81 0c 90 3d
       0.025703143 0.10387998 0.073050335 0.07033635
000110 12 db 21 be 89 b3 14 3f 07 46 2e be 2f 1c da 3d
       -0.15806225 0.5808645 -0.17018901 0.10649907
000120 a7 89 b0 3d 01 ce 70 3d f1 fd 48 be 8c 19 1c bd
       0.08620005 0.05879021 -0.19628121 -0.0381103
000130 9d c5 c1 bd 14 ea 20 3d db c7 83 3d e0 07 07 3e
       -0.0946152 0.039285734 0.06434604 0.13186598
000140 ba cc bb 3e fb f7 84 be a7 22 8e be 24 cb c5 bd
       0.3667963 -0.25970444 -0.27760813 -0.096578866
000150 5b e3 c5 be ae ea e6 3d 27 2f 9b 3d de 66 37 3e
       -0.3865002 0.1127523 0.07577353 0.17910334
000160 bf e3 6f be 61 75 f5 bd 5b 48 0c 3e df 22 6a 3e
       -0.23426722 -0.11985279 0.13699476 0.22864865
000170 5c 28 7b bc cc a7 cd 3e 14 7d 1c be 8a 27 c1 3e
       -0.015329447 0.4016708 -0.15282089 0.37725478
000180 3f c8 eb bd 12 93 b0 be e2 12 cb bd 24 0e 86 3d
       -0.11512803 -0.34487206 -0.09915711 0.06545666
000190 83 8a 0b be 34 57 08 be 3a bc 0c 3e db b6 05 bc
       -0.13627057 -0.13314515 0.13743678 -0.008161272
0001a0 80 51 ce bd 3d aa 1b bd e6 67 9f bd 56 dd c4 ba
       -0.10074139 -0.03800415 -0.07783489 -0.0015019577
0001b0 23 a3 3a bb f6 f1 0c 3d 47 81 bf 3d 4e 10 c2 3d
       -0.0028478585 0.03441044 0.093508296 0.09475766
0001c0 49 d4 b4 3e a5 88 da bd a8 16 2b bd 23 0d 84 bd
       0.3531821 -0.10670594 -0.041769654 -0.06447818
0001d0 1c 6f 0d 3e 4f 7d eb 3d 9c 7e 7c 3d e5 56 8f 3d
       0.13811916 0.1149851 0.06164418 0.06998996
0001e0 41 c0 2a 3e 3d 8a b4 3c 65 4e c2 be 6a 12 ad bc
       0.16674902 0.022038573 -0.37950435 -0.021126945
0001f0 e4 60 1b 3e cf 1b 14 be b4 6c 0b 3d 32 7b 4d bd
       0.1517368 -0.14463733 0.034039214 -0.050166316
000200 9a 49 96 bc ac ad 0c be 79 f0 09 3f ad 00 94 be
       -0.018345643 -0.13738126 0.5388256 -0.28906766
000210 5b df 10 3f 43 f6 f5 bd 01 1d 91 be 6f f4 3b be
       0.56590813 -0.12009861 -0.2834244 -0.18354963
000220 90 61 c9 3d c3 57 c6 3d 8c e2 e0 3e c0 f8 10 3f
       0.09833062 0.09684708 0.43922842 0.5662956
000230 be 19 db bd 45 d1 fc 3d 3a 48 8d 3d 97 f7 63 bd
       -0.10698269 0.123446025 0.06898542 -0.055656042
000240 7f 7e 57 3d 5f 46 dc 3e ac 37 41 3d 7e 46 1a 3e
       0.05261087 0.4302244 0.047172233 0.15065953
000250 28 67 15 3e fc 0f a0 3e ba 53 93 3e 6a e0 26 3e
       0.14590132 0.31262195 0.28774816 0.16296545
000260 e3 50 1f bd 3e da dc bd df 42 ce bb eb 53 2d 3d
       -0.0388955 -0.10783814 -0.0062945927 0.04231636
000270 7c e3 8f bd 61 6e 58 be c8 14 29 3d 00 a9 cc be
       -0.07025811 -0.21135856 0.041279584 -0.39972687
000280 4e 22 10 be 93 15 a0 3c ae ae ea bd d5 18 31 be
       -0.14075586 0.019541537 -0.11459099 -0.17294629
000290 24 d4 98 3e 28 e6 ce bd a9 f1 be 3c 88 20 18 be
       0.2984935 -0.101024926 0.023308592 -0.1485616
0002a0 9f 92 b9 3d e6 45 e1 3c 28 ed f2 3d ca 91 14 3e
       0.09061169 0.02749915 0.1186164 0.14508739
0002b0 4a 20 e6 3d f0 63 cf bd 4b 74 6f be 00 0e b7 bc
       0.112366274 -0.101264834 -0.23384206 -0.022345543
0002c0 82 7a de 3c b3 40 35 bd f5 00 fd 3d 83 cf 66 bb
       0.027158026 -0.044251155 0.12353698 -0.0035218901
0002d0 c6 8b 8e bd 63 d0 b1 3d 62 19 9f 3d fc 76 d1 3c
       -0.069602534 0.08682325 0.07768513 0.025569431
0002e0 3a 66 f1 3c c4 56 42 bc fc 77 8d 3c de c3 05 3a
       0.02946769 -0.011861507 0.017269127 0.0005102734
0002f0 c1 ed ab 3d f4 6e d6 3d f0 af 23 3d 03 d2 2e be
       0.08394957 0.104703814 0.03996271 -0.170723
000300 e4 9f e6 3d 55 73 b6 bb 74 e1 4f 3e 3c 08 24 bd
       0.112609655 -0.005567948 0.20300847 -0.040046915
000310 b5 9d 07 3e 5e f2 cf be 3e f2 ef 3e 80 c4 17 3d
       0.13243754 -0.406146 0.46864504 0.03705263
000320 c5 74 eb bc fe 9a 92 3e 07 2c a9 3e 67 1b 6c 3d
       -0.028742203 0.28633875 0.33041403 0.05764332
000330 a1 da 2e bd dc d4 e0 bd e7 a3 88 3c 1a 29 cd 3d
       -0.04268897 -0.109781 0.016679717 0.10017605
000340 b5 27 1a be c6 c0 cd 3e 8b 3a 67 3e 95 3a 60 3e
       -0.1505421 0.40186137 0.22580926 0.21897347
000350 c6 b2 9d 3e 1e a8 c1 bd 83 e5 ed 3d 76 49 86 be
       0.30800456 -0.09455894 0.116160415 -0.2622792
000360 1d c6 e8 3e 1a cd a7 3e 62 f9 01 3b 56 c6 98 bd
       0.45463648 0.32773668 0.0019832482 -0.074597046
000370 d4 a0 a1 bd c2 32 a3 be 3f 9f c7 3e 4b f0 ea be
       -0.07892004 -0.31874663 0.38988683 -0.45886454
000380 63 1c 59 3e 50 0d c0 3e dc aa 07 3e fc e6 08 3e
       0.21202235 0.37510157 0.13248771 0.13369364
000390 fb de a5 3e 76 a3 06 3e 79 4a 15 bb 29 25 68 3d
       0.32396683 0.13148293 -0.0022779985 0.056676064
0003a0 c9 ac bf 3d b7 43 3b bd d2 45 dd bd 3a 67 51 3d
       0.09359128 -0.045718875 -0.10804333 0.051123835
0003b0 ea 99 21 bd eb 68 8b 3e ce 02 01 3e 87 d9 e9 3d
       -0.039453425 0.27228484 0.12598726 0.11418443
0003c0 81 34 c4 be ac ef 12 be ae ce 9d 3d 33 98 90 bd
       -0.38321307 -0.1434924 0.07705437 -0.0706028
0003d0 aa 4e 45 3d 4e 4a be 3d 3a 40 fa 3d 9c 69 be bd
       0.048170723 0.09291516 0.122192815 -0.09297487
0003e0 4c 71 c0 bc 0d d0 0d be c8 6b b3 3e 33 25 e6 3d
       -0.023491524 -0.13848896 0.35043168 0.11237564
0003f0 e5 4c 4a 3d 9c 53 a7 3e 5b ad ec 3d fb 15 2c bd
       0.04938974 0.32680976 0.115565024 -0.04201315

linear2.bias f4 [128]
000000 39 70 01 bc 9b 79 24 3e bd ec f8 bc 45 7e 35 3e
       -0.007900291 0.16062014 -0.030386323 0.17723949
000010 2b d3 e9 bc f6 f2 c3 bd 71 f2 a7 bc f6 60 26 3e
       -0.028543076 -0.095678255 -0.020501347 0.16247925
000020 47 3e c8 bd ce ba 9e bc ed 87 57 bd 1f 45 34 bc
       -0.097775035 -0.019376185 -0.052619863 -0.011002808
000030 fd f1 23 3e 9e 8a 1e bc e3 e3 71 bc c5 5c 82 bc
       0.1601028 -0.009676604 -0.014763805 -0.015913377
000040 7d 9d d8 bc 3b 85 f1 ba 69 4b e6 bc 06 d3 34 3e
       -0.026442284 -0.0018426547 -0.02811213 0.17658624
000050 e3 62 06 bd e6 9a 93 b7 68 18 ce bb 6d dc 12 3e
       -0.03280915 -1.7595896e-05 -0.0062895305 0.14341898
000060 00 00 00 00 50 65 94 bc 05 7d aa bc c3 8f 2e bd
       0.0 -0.018114716 -0.020811567 -0.04261757
000070 58 e3 a0 3b 16 27 ca bc e6 77 23 bb 18 32 49 3c
       0.004909914 -0.02467684 -0.0024943291 0.01228001
000080 0e 0e 35 bd 5a 47 e5 bb 1c 40 10 bd 07 73 b7 3c
       -0.044202857 -0.006997031 -0.03521739 0.022393716
000090 b2 74 d8 bc 24 93 92 bc 89 4f 12 3e 0c 04 01 3e
       -0.026422832 -0.017892428 0.14288153 0.125992
0000a0 62 78 f1 bc 50 0d ea bc 2b 7b a1 bc 19 65 04 bd
       -0.029476348 -0.028570801 -0.019712051 -0.032322977
0000b0 52 48 27 bd 15 20 d3 bc ef cc c0 bc 67 42 0f 3e
       -0.040840454 -0.025772134 -0.02353522 0.13990174
0000c0 5e ef 3a bd 92 ff 9b bc da 5b 0c bd 09 ec ec bd
       -0.045638435 -0.019042764 -0.034267284 -0.11568458
0000d0 58 b0 1f bc a0 49 f5 bd 82 a0 22 3e 02 ce eb bc
       -0.0097466335 -0.119769335 0.15881541 -0.028784756
0000e0 99 3c b0 3c 21 f3 58 bd 36 01 3e bd a0 93 bf bc
       0.02151327 -0.05296624 -0.046387874 -0.023385823
0000f0 89 da 2c bc 5d eb ed bc e2 1c 3b be 6c 8d 52 3a
       -0.01055015 -0.029042894 -0.18272737 0.0008031938
000100 13 b6 d8 bd 55 e8 f4 bd 44 28 14 bc 44 58 66 bc
       -0.10581603 -0.11958376 -0.009042803 -0.01405913
000110 fc 90 06 bd ac 6b bf 3d a7 df 1b bc bb 33 f6 bc
       -0.03285311 0.09346709 -0.009513772 -0.030053964
000120 df 45 2c 3e c1 8e 93 bd 7e c6 65 bd c1 85 96 bc
       0.16823529 -0.072049625 -0.0560975 -0.018374326
000130 b1 7c e8 bc 53 1f 27 3d 5d df d8 bb c8 6a ad 3c
       -0.02837977 0.040801357 -0.006618424 0.021169081
000140 04 a5 c7 ba ea 56 0c be 32 b1 27 3e 5a b9 ff bc
       -0.0015231674 -0.1370503 0.16376188 -0.031216312
000150 2f ce e0 bc 72 e6 0b 3e 85 ba 94 bb 86 82 2d 3c
       -0.027442066 0.13662127 -0.0045388364 0.010590201
000160 26 8a b3 bc cc 81 33 3e 4c e9 0c be 61 c6 5c bc
       -0.02191646 0.17529982 -0.1376087 -0.013475032
000170 bd 59 81 bd 00 00 00 00 98 e1 31 bd 43 33 c4 bc
       -0.06315944 0.0 -0.043428034 -0.023950225
000180 b6 97 6a 3d a2 5a 9a bc 90 07 3a bc 36 ed ce bc
       0.05727359 -0.018842045 -0.011354342 -0.025259595
000190 a5 1e 1e bd da 80 bc 3b 3f 43 e0 bd 18 a7 81 bd
       -0.038603444 0.005752665 -0.10950326 -0.06330699
0001a0 00 00 00 00 00 15 8b bc b4 db 1f 3e 79 e5 e9 bc
       0.0 -0.016977787 0.15611154 -0.028551804
0001b0 3e e0 80 3d 66 2d 2d 3e 65 ba e1 bc 44 5c c9 bd
       0.06292771 0.1691185 -0.0275547 -0.098320514
0001c0 5b 40 8f 3b 26 8b 06 3e a4 38 f9 bc a3 03 9c bc
       0.0043716854 0.13139018 -0.030422516 -0.019044703
0001d0 7b f2 f2 bc 0c aa d3 3d ec b3 2e 3e 0d 2c ee 3d
       -0.02965664 0.10335168 0.17060822 0.11629496
0001e0 39 1d 51 bc 0a 95 54 bb 25 29 1c bc c4 d1 8e bc
       -0.012763315 -0.0032437467 -0.009531294 -0.017434008
0001f0 44 b4 1a 3e 61 31 c6 bc df bd eb 3b dc 81 8b bb
       0.15107828 -0.024193468 0.0071942653 -0.004257424

mean_linear.weight f4 [1, 128]
000000 c3 aa a0 3e cd c0 f2 be 53 52 ca 3e 89 84 10 bf
       0.3138028 -0.4741272 0.39515933 -0.5645223
000010 9d 13 30 3d 6d ab 08 be d9 41 72 bd 50 6b b5 be
       0.042987455 -0.13346644 -0.05914483 -0.35433435
000020 01 03 48 be b3 e3 ed bd cb eb 8b bc 68 b5 de 3e
       -0.19532396 -0.11615696 -0.017080208 0.43497777
000030 f2 b7 bb be 2f 3a b5 3e 9d 62 01 3e c3 9f e7 3d
       -0.36663777 0.35395953 0.12635274 0.11309769
000040 13 5a 24 be ba 01 0b 3f 89 c4 b0 3d 32 b0 be be
       -0.16049986 0.5429951 0.08631236 -0.372438
000050 0e 20 91 3c 4e ec bc 3e a1 30 d9 3e b1 36 ff be
       0.01771548 0.36899036 0.42419913 -0.49846414
000060 0f db 20 be 20 1c 09 be 88 c8 5e bd 21 5e 9b bd
       -0.15708564 -0.13389635 -0.05439046 -0.07586313
000070 30 a3 f9 3c 71 88 9c 3e d0 15 96 3e c1 9c c8 3e
       0.030473322 0.30572847 0.29313517 0.39182094
000080 9c d4 58 3d f0 0f ac bd 23 e6 2b bd 25 16 c1 3e
       0.052937135 -0.08401477 -0.041967522 0.37712207
000090 cc bd a5 3e 65 1f 1c be 99 e2 d0 be 1e 93 ca be
       0.32371366 -0.15246351 -0.4079788 -0.39565367
0000a0 c6 1c 29 3e 50 91 e5 bd 13 71 d2 3e 2c e4 c1 bd
       0.16514882 -0.11209357 0.41101894 -0.094673485
0000b0 40 d1 d8 3e d2 2e ca 3e 4a 7e 1b 3e 30 5d 6b be
       0.42347145 0.39488846 0.15184894 -0.22984767
0000c0 f9 55 08 3d f4 b5 f9 bb cc 41 a8 3d 15 3f 1e be
       0.033285115 -0.0076205675 0.08215675 -0.15453751
0000d0 90 dd 91 3e 86 35 47 be 93 49 e2 be 75 34 27 3c
       0.2848935 -0.19454011 -0.44196758 0.010205378
0000e0 8e 45 c4 3e 50 0b 9c bd 5c 8f ba 3e 36 41 00 be
       0.38334316 -0.07619345 0.364375 -0.12524876
0000f0 b6 8f d0 3e fc aa 1e 3e d7 7e 83 3e 9f fd 47 bb
       0.40734643 0.15494913 0.2568271 -0.003051616
000100 ad e5 46 be 70 2e 01 be 44 c4 03 3f 63 20 9e 3e
       -0.19423552 -0.12615371 0.5147135 0.30884084
000110 ca 9c 99 bd a1 19 fb bd 43 f4 1a 3e b7 cf b2 3b
       -0.07500608 -0.12260748 0.15132241 0.0054568904
000120 97 f3 0b bf 59 9d 89 3e 41 3c 29 3e 2f 7b 6f 3b
       -0.54668564 0.2687786 0.16526891 0.003654193
000130 c1 cc eb ba a5 5a 0f 3d 6c 0f de 3e 0d ca af 3e
       -0.0017990099 0.034998555 0.4337114 0.3433384
000140 b8 b4 cb 3e b2 4c a4 bd c6 18 af be 9b 36 94 3e
       0.39786315 -0.08022441 -0.34198588 0.2894791
000150 53 78 0c 3d 25 d3 de be fc 98 a5 3e 14 0d 60 3e
       0.034294438 -0.43520465 0.3234328 0.21879989
000160 4b a8 e7 bd 21 a6 cd be c0 32 31 be 1a 6e bc 3d
       -0.11311396 -0.4016581 -0.17304516 0.09200688
000170 ff 2f 08 bd 1c b1 88 3d a2 4c 16 be a5 06 40 bd
       -0.033248898 0.06674406 -0.1467767 -0.046881337
000180 06 2c 39 bd 20 93 6d bd bb 57 11 3e 8d fe ac 3d
       -0.045208 -0.058001637 0.14193623 0.08446989
000190 cc d1 68 3c e1 ce 87 3e 8f 66 06 be d1 0c 66 be
       0.014210176 0.26525024 -0.1312506 -0.22465827
0001a0 0a ff a7 bd 6b 6c ca 3e 4b b3 da be 0e 0f 18 3e
       -0.08202942 0.3953584 -0.42714915 0.14849493
0001b0 90 76 ba bd c9 3b d0 be cb d0 41 3d 8b 85 6e bd
       -0.09104645 -0.40670612 0.04731826 -0.058232825
0001c0 ed 7c b7 3e 17 3d a9 be dd 03 23 be b8 96 16 3e
       0.35837498 -0.3305442 -0.15919442 0.14705932
0001d0 a8 61 fe bd d3 ef f4 bd 46 07 ad be 30 57 03 bf
       -0.1242097 -0.11959805 -0.33794612 -0.5130491
0001e0 56 61 e4 bd 38 94 50 be b6 c4 e7 bc f1 90 43 3e
       -0.11151378 -0.20369041 -0.028292041 0.1909826
0001f0 8b e2 96 be 57 a1 0d be 44 05 bb 3e 0c 56 a3 3e
       -0.29469714 -0.13831078 0.36527455 0.31901586

log_std_linear.weight f4 [1, 128]
000000 00 c5 f3 3d c8 d3 1b 3d 8c 0f 7e 3d 2e a9 37 3e
       0.11902809 0.038043767 0.062026545 0.1793563
000010 b7 02 93 3d 3b c1 a9 3d b6 d5 36 be 46 59 09 bc
       0.07178252 0.08288809 -0.17854962 -0.008383101
000020 a3 63 a4 bd c0 98 07 3e db 9b 1b be 80 21 b8 bd
       -0.08026817 0.13241863 -0.15196173 -0.089907646
000030 1b f8 47 3d 2e 1d 2a 3e 9e a6 af bd e3 42 8f bd
       0.048820596 0.16612694 -0.085767016 -0.069951795
000040 74 83 fa 3d 72 4c 81 3e 72 52 ab 3c 19 f5 9a 3e
       0.12232104 0.25253636 0.020913336 0.3026512
000050 b2 57 04 be 37 13 e9 3d 55 17 ce 3d 05 88 80 3b
       -0.12924078 0.11380618 0.10063044 0.003922465
000060 5a ee 10 3e ec 0a 15 3e bd e0 0f 3d 5c c1 f9 bb
       0.14153424 0.14554948 0.035126437 -0.007621927
000070 5c 7b ee 3d 15 86 60 3e 13 f6 5d 3e c3 b2 d3 bd
       0.11644623 0.21926148 0.21675901 -0.103368305
000080 da 22 1b be 60 43 9b bb 1a 4b c3 bd 48 98 0c 3d
       -0.15150014 -0.0047382563 -0.09535809 0.034324914
000090 12 ad c9 3d f2 0e be bd 22 30 78 3e 85 cd 31 3e
       0.09847464 -0.09280194 0.24237111 0.17363556
0000a0 2e 85 3c 3e 18 e7 6c bc 09 2e 31 3e f1 1a b4 bd
       0.18410179 -0.014459394 0.17302717 -0.08794201
0000b0 70 d8 80 bd 6e 08 5a 3e aa cb 80 3d 12 32 88 3e
       -0.06291282 0.21292278 0.06288846 0.266007
0000c0 99 43 97 3d 32 16 07 3e 20 e9 63 bd 93 a1 e7 bd
       0.0738594 0.1319206 -0.055642247 -0.11310115
0000d0 20 a9 0a 3e 77 89 31 3e 68 44 35 3e 15 fb c0 3d
       0.13541079 0.17337595 0.17701876 0.0942289
0000e0 63 48 64 bc 1d e9 16 bd 79 2e 80 3e 53 c6 46 be
       -0.013933274 -0.036843408 0.25035456 -0.19411592
0000f0 2e 84 8c 3e 69 c5 2a be 72 6d 31 3e 7d 32 e6 bd
       0.27444595 -0.16676868 0.17326906 -0.112400986
000100 ec 91 8a 3d 27 cd 4c 3e 51 2e 53 3a a7 be 3d 3e
       0.06766114 0.20000134 0.0008055913 0.1852976
000110 18 4c 4b 3e 5f 19 97 3d df a9 dc bc dd 3b 29 be
       0.19853246 0.07377886 -0.02693647 -0.16526742
000120 5a 17 29 3d 71 97 e4 3d 6f fe 2a be bf 2c 4a be
       0.041282035 0.11161698 -0.16698621 -0.19743632
000130 06 81 41 3e e0 40 a8 bd a1 a2 a8 bc 4b 2d 1f 3e
       0.18896875 -0.08215499 -0.02058536 0.15544622
000140 e4 00 5e 3e f9 79 50 3e 5e 31 41 3e dd 61 b5 3d
       0.21680027 0.20359029 0.18866488 0.088565566
000150 46 d8 1f be 31 b3 3b 3e f1 ce 3c 3e e4 ac d0 3d
       -0.15609846 0.18330075 0.18438317 0.10189226
000160 1f a3 2d bd 44 ae 2e 3e 71 7e 8f bd 07 b4 88 bd
       -0.042391893 0.17058665 -0.07006539 -0.066749625
000170 11 2c e3 3d 8f 24 99 3d c9 e5 7b bd 0e b4 dd 3b
       0.110923894 0.07477676 -0.061498437 0.006765849
000180 da 99 50 be 7d c6 1b be 36 b0 4c be d5 54 15 be
       -0.2037119 -0.15212436 -0.19989094 -0.14583142
000190 36 87 08 be e6 4a 32 3e 39 a4 7b 3d 6b bb 04 3e
       -0.13332829 0.17411384 0.06143591 0.1296212
0001a0 1f e6 ec bc 41 6e 40 3e 66 cb 81 3e f8 fc 4a 3d
       -0.028918324 0.18792059 0.25350493 0.049557656
0001b0 93 53 01 3e 3e 93 0d bd 5f 94 45 be d1 68 fc bd
       0.12629537 -0.03456425 -0.1929488 -0.1232468
0001c0 f5 6c 9d bc 17 72 7a 3e 54 c7 15 3e 58 c2 19 be
       -0.019216994 0.24457584 0.14626819 -0.15015543
0001d0 cc 4a 13 be 3e ba cc 3d 6d 17 8c bd 0b b2 9f 3e
       -0.14384001 0.099964604 -0.068404056 0.31190524
0001e0 9d a8 24 be a7 0e 16 3e d3 8b 50 3e 7c 46 24 3d
       -0.16079946 0.14654027 0.20365839 0.04010628
0001f0 9e 9d 12 be aa b8 2b be 4e 87 85 3e 46 09 8f 3d
       -0.14317939 -0.16769662 0.26079792 0.06984191
