results/train/SAC_distance_40m_slope_128hidden/best_model.pt (torch, 90959 bytes, 6 tensors)

linear1.weight f4 [128, 40]
000000 19 42 42 3c 17 98 b2 bd a3 39 e2 bd a2 9e 96 3e
       0.011856579 -0.08720415 -0.110461496 0.29417902
000010 89 c6 f9 bd 41 01 45 bd 94 94 c8 3e 4f 35 13 be
       -0.12196071 -0.0480969 0.39175856 -0.14375804
000020 61 c1 93 be 14 c9 81 3d fe bc c3 bd ec c8 c7 3d
       -0.28858474 0.06337181 -0.09557532 0.0975512
000030 e0 93 6f bc 97 0b 5b 3b d9 38 2f 3e d4 8c 14 be
       -0.0146226585 0.0033423656 0.1711153 -0.14506847
000040 71 30 3f be bb 5b eb bd f5 b6 38 be d5 67 56 be
       -0.18670823 -0.114921056 -0.18038543 -0.20938046
000050 71 8f 50 be c3 d1 fa bc 16 0a 60 bd 59 3f f1 3c
       -0.20367219 -0.0306176 -0.05469712 0.029449152
000060 76 6d 27 bd ec d3 d3 3d 04 76 ea bc 2f fd 4b 3b
       -0.040875874 0.10343155 -0.028620727 0.003112625
000070 dd 75 66 bc 1b 62 92 3b 89 ce 70 bc e4 cd ca 3c
       -0.014066187 0.0044672615 -0.014697679 0.02475638
000080 59 fa 2e 3c 79 a8 c6 3d 4f fd fb 3c 28 94 84 3b
       0.010679805 0.09700102 0.030760435 0.004045982
000090 85 00 d1 3d cd 39 92 bd b4 7e 34 3e eb 65 8a 3d
       0.10205177 -0.07139931 0.17626458 0.067577206
0000a0 a5 7b d4 3d de 95 56 bd 51 0e 11 3e 7a 9d 16 3f
       0.10375146 -0.05238902 0.14165618 0.5883404
0000b0 6b 01 95 bd 1a 10 29 be d4 78 24 3f 2e 29 5e 3d
       -0.07275661 -0.16510049 0.6424687 0.05423849
0000c0 ab 3f b7 3d 7d 08 17 be a6 17 2c 3e 9e a2 08 be
       0.089476906 -0.14749332 0.16805896 -0.13343284
0000d0 d0 39 f3 bc 30 a4 39 3e ad b5 41 3e 4d 64 86 bd
       -0.029690653 0.18129039 0.1891696 -0.065620996
0000e0 13 f7 80 bc 83 d5 65 3c 8f e8 96 bd c0 62 05 3e
       -0.015742814 0.014027956 -0.07368576 0.13025951
0000f0 a4 f3 19 be af 67 f8 3d 95 99 f5 3c 18 94 fc 3d
       -0.15034348 0.12129151 0.02998046 0.12332934
000100 84 89 19 be dc b8 58 3d 0c a8 54 be db 24 0d be
       -0.14993864 0.05291067 -0.2076723 -0.1378359
000110 68 89 4b be b0 f3 84 bd c8 56 2c be a5 a0 7d 3c
       -0.19876635 -0.06491792 -0.1682998 0.015480195
000120 d5 ac a3 3d c8 d5 61 3b db bd e9 3d d7 ba 16 be
       0.079919495 0.00344597 0.11413165 -0.14719711
000130 60 75 b4 3d d0 67 1e be 7f 50 28 3b 4e b5 4f be
       0.0881145 -0.15469289 0.0025682745 -0.20284006
000140 e2 da 9d bd a8 9c 3b 3e 5f cd 46 3e 75 37 21 bf
       -0.07707764 0.18321478 0.1941428 -0.62975246
000150 fa f2 7e 3e 2a 27 01 3e f9 82 05 bf aa 76 5a bc
       0.24897376 0.12612596 -0.52152973 -0.013333956
000160 8b 0a 4c 3e 77 cb 38 3e 01 64 6e be 77 ea c0 3d
       0.19925897 0.18046366 -0.23280336 0.094197206
000170 9a ce e4 3d 47 cb 07 3e 24 5e 49 be 06 ac 47 3e
       0.111722186 0.13261138 -0.19664818 0.19499215
000180 d4 62 98 bc 88 a5 34 3e 0d 5f 93 bd 2f ac 91 3d
       -0.018601812 0.1764127 -0.07195864 0.071129195
000190 dc 9a b7 bc b5 dd 1d be d4 93 48 3e 50 de 02 3b
       -0.02241271 -0.15416606 0.19587642 0.0019968934
0001a0 e1 24 04 be c9 ac ba 39 ba 6d 28 bd 47 10 62 3d
       -0.12904693 0.0003560542 -0.04112027 0.055191305
0001b0 ca dd 4f 3e b8 46 5f 3e 68 9d a5 3d ec 58 21 3e
       0.2029945 0.21804321 0.080866635 0.15756577
0001c0 84 bd 11 3e 98 09 5a 3e 7c 96 cf be 55 d6 0b 3e
       0.1423245 0.21292722 -0.40544498 0.1365598
0001d0 8d 54 13 3e b8 97 99 3c dd 65 ac bc 4f 58 79 bd
       0.14387722 0.018749103 -0.021044666 -0.060875233
0001e0 f7 99 18 be 2c 9d 0c bd 61 d1 a8 bd c0 d8 50 3d
       -0.14902483 -0.03432958 -0.08243061 0.05098796
0001f0 5d a3 33 3d ca 5f 40 be 2b 84 1c 3e 94 d9 3b bd
       0.043856967 -0.1878654 0.15284793 -0.045861796
000200 9a 2a bf 3c c6 13 c0 bd 14 31 fa bd 18 4b b0 3d
       0.023335744 -0.093787715 -0.12216392 0.08608073
000210 20 10 e0 3d 45 74 20 be 5f 04 f4 bd bb 95 87 bd
       0.109405756 -0.15669353 -0.11914896 -0.06620356
000220 5f a8 2c bd 93 6d 56 bc e1 f0 b0 bd c9 4f b0 bd
       -0.04215276 -0.013087648 -0.08639694 -0.08608968
000230 4f ce 9d 3c 24 95 bc 3d ba f3 24 be 1c bf f2 bd
       0.019263415 0.09208134 -0.161086 -0.118528575
000240 4e b3 82 bb 1e 4d f0 bb e7 d3 31 3e a2 ae 57 3d
       -0.00398866 -0.007333412 0.1736599 0.052656777
000250 64 be 73 3d 61 fc 21 3e b9 f0 90 3d 37 d9 10 be
       0.059507743 0.15818931 0.07077164 -0.14145361
000260 c8 c2 bd bd 93 9a 9e 3d 76 0f c6 3c a5 46 72 bc
       -0.09265667 0.077443264 0.024177294 -0.014787351
000270 39 4c 20 be 81 f6 bc bd d5 bf 0f be 5f 60 fc bd
       -0.15654077 -0.092267044 -0.14038022 -0.12323069
000280 49 82 a7 3d d6 74 a7 bd 7d 59 2b 39 63 07 14 bd
       0.08179147 -0.081765816 0.00016341168 -0.036139857
000290 c9 fd 13 3e 2d e9 8d 3d c8 cc 15 be 53 33 be 3d
       0.1445228 0.069292404 -0.14628899 0.09287133
0002a0 58 64 80 bc 93 50 29 3e d0 84 2c bc 28 13 3f 3d
       -0.015672848 0.16534643 -0.010529712 0.04664913
0002b0 fc 74 9c bd de 54 0b be 4c 38 1b be e1 49 10 3e
       -0.076395005 -0.13606593 -0.15158194 0.14090683
0002c0 2d 08 9f bd 19 73 51 be 34 45 f7 bd 88 57 fa 3d
       -0.07765231 -0.20454063 -0.12073746 0.122237265
0002d0 4d 85 a5 bc 91 d3 aa bc 13 f1 06 bc 3f 8e 8f 3d
       -0.020205164 -0.020852836 -0.0082361875 0.07009553
0002e0 4e 15 21 3e a0 9d 8e bd b1 db c8 bd 12 5c bc 3d
       0.15730783 -0.06963658 -0.09807528 0.091972485
0002f0 68 d4 fc 3d 8c f4 17 be 43 2c 39 3d a0 26 31 be
       0.12345201 -0.14839381 0.045208227 -0.1729989
000300 f5 70 2f be 24 fb 17 be 4f 7b 3c be cd cc fd 3d
       -0.17132933 -0.14841896 -0.18406413 0.12392578
000310 6c 7b 21 3e 88 31 12 be 1e 4a b0 bd 13 e6 20 3e
       0.15769738 -0.14276707 -0.08607887 0.15712766
000320 23 31 8a bd bd 5c cf 3b 05 ab d8 bd ca 24 21 3f
       -0.06747653 0.006328194 -0.105794944 0.6294676
000330 3d 33 34 3d 3a 7b 56 be de 72 ca 3e a9 eb 5a be
       0.043994177 -0.20945445 0.39540762 -0.2137896
000340 ba 70 1e 3a 20 03 01 be ea 83 91 3d 2e 39 94 3c
       0.0006044019 -0.12598848 0.07105239 0.018093672
000350 ab 46 b9 3d 75 e7 c7 bd 2d 02 72 3e c0 de 38 be
       0.09046682 -0.09760944 0.23633642 -0.18053722
000360 35 c5 f6 3c e7 4a 89 3d 66 3b 3d be 91 26 fd bd
       0.030123333 0.067037396 -0.1847969 -0.123608716
000370 4f 77 da 3c b4 56 75 3e 7f 8a 09 bd 04 8a 47 be
       0.026668219 0.23958856 -0.033579346 -0.19486243
000380 15 c4 7c be 59 49 45 3e b7 57 be bd 64 87 66 bb
       -0.24684174 0.19266261 -0.09294074 -0.0035175914
000390 5c 24 1b 3d 78 80 5b be 8a 21 3b bd e4 42 3f be
       0.037876472 -0.21435726 -0.045686282 -0.1867786
0003a0 fb 0c f7 bd 45 d6 e9 bd c6 03 11 3e a0 7b c7 bd
       -0.12063023 -0.11417822 0.14161596 -0.097403765
0003b0 9c b5 aa 3c e1 f0 22 3c fa de 2f 3e 90 7f 2b bd
       0.020838551 0.009945125 0.17174903 -0.0418697
0003c0 ce 26 b2 bd 6e 97 d4 bd 51 a1 00 3e 60 5c 4a bf
       -0.08698808 -0.103804454 0.12561537 -0.79047203
0003d0 f4 2c 6d 3d 47 9f 39 3d 5f ce f6 be cd f7 80 3c
       0.0579042 0.045317914 -0.48204324 0.01574316
0003e0 e3 03 93 3e 61 bb 5e 3d a1 a1 91 be 91 8b 0a 3e
       0.28713903 0.054377917 -0.28443626 0.13529803
0003f0 2d cd 30 3d 9d 1c 35 3e 1a 27 bb 3d f1 4a 5c 3e
       0.04316442 0.17686696 0.091383174 0.21512963

linear1.bias f4 [128]
000000 a7 2c 9b bd 7b a2 08 bd 18 d4 8b 3d 00 00 00 00
       -0.07576876 -0.03335808 0.06827563 0.0
000010 4c 5e a6 bc 2e 0f 9c bd c4 06 99 3d dc 50 2a bd
       -0.020308636 -0.07620083 0.074719936 -0.04158102
000020 66 3e 89 bc 5b 38 d6 bc c0 d9 db 3d e3 52 ae bd
       -0.016753387 -0.02614992 0.10734892 -0.08511903
000030 00 00 00 00 d5 3a 13 bc 61 60 a8 bd 0f f1 a4 bd
       0.0 -0.008986195 -0.08221508 -0.08053791
000040 84 59 a4 bd 0a c0 a2 bd e1 da 3c bc df c2 a5 bc
       -0.08024886 -0.07946785 -0.011526794 -0.020234523
000050 00 00 00 00 00 00 00 00 34 ab b0 bc 87 ae 9e 3d
       0.0 0.0 -0.021566011 0.07748132
000060 36 88 b8 bd 8f 26 87 bc 4d 05 b3 3d 2e 5f de bc
       -0.09010355 -0.016497878 0.087412454 -0.027144995
000070 0f 38 cb 3d 00 00 00 00 01 f8 8e bc 22 a3 b3 bd
       0.09922802 0.0 -0.017452242 -0.087713495
000080 e0 a8 83 bd a9 cd fa bc 00 00 00 00 00 00 00 00
       -0.06428695 -0.030615645 0.0 0.0
000090 ed a0 b0 3d 1a a7 a1 3d 57 b4 32 bc 42 18 9d bd
       0.08624444 0.078932 -0.010907254 -0.076706424
0000a0 35 4a cc bd 65 f3 2e bd 5e 4c 76 bc d0 70 99 bd
       -0.09975091 -0.042712588 -0.015032856 -0.074922204
0000b0 00 00 00 00 f5 19 2e bc 08 76 03 bd 4b 6f 9b bd
       0.0 -0.010626306 -0.032094985 -0.07589587
0000c0 00 00 00 00 7c 4d a5 bd 01 4b cd bd 00 00 00 00
       0.0 -0.080714196 -0.100240715 0.0
0000d0 14 2f 4e bd 00 00 00 00 c0 ac 88 bd 00 00 00 00
       -0.050337866 0.0 -0.066735744 0.0
0000e0 fc f4 1a bd 00 00 00 00 ff b5 ef 3d 13 37 af bc
       -0.03783129 0.0 0.11704635 -0.021388566
0000f0 76 7f 8f 3c 8e 9e 91 3d 02 f3 95 bd 6c 25 ae bd
       0.017516833 0.0711032 -0.07321741 -0.085032314
000100 27 69 be bd 00 00 00 00 e9 6e 83 3d 00 00 00 00
       -0.092974 0.0 0.06417639 0.0
000110 26 74 c2 bc 00 00 00 00 82 bd b2 bd 00 00 00 00
       -0.023737025 0.0 -0.08727552 0.0
000120 7b be a5 3d 00 00 00 00 bf 7f 20 bc 1f 76 9f 3d
       0.08092972 0.0 -0.009796082 0.07786202
000130 00 00 00 00 00 00 00 00 00 00 00 00 91 a6 b4 bd
       0.0 0.0 0.0 -0.088208325
000140 5d 3c 91 bd 4a 09 af bd 00 00 00 00 00 00 00 00
       -0.070915915 -0.085466936 0.0 0.0
000150 00 00 00 00 98 4d b3 3d 08 34 d8 3d 99 be 0f bc
       0.0 0.08755034 0.10556799 -0.008773469
000160 00 00 00 00 ed e6 c6 bd d6 41 b1 bd 00 00 00 00
       0.0 -0.09712014 -0.08655135 0.0
000170 4a 8b d0 bd 00 00 00 00 b2 10 e6 3d 87 90 4d bc
       -0.10182817 0.0 0.11233653 -0.012546665
000180 92 da 92 bc c2 04 4d bd 00 00 00 00 f0 a1 b0 bd
       -0.017926488 -0.050053366 0.0 -0.08624637
000190 3f c9 9e bb bc 0a da bc 5c 81 b4 bc 02 3c 1a bc
       -0.0048457677 -0.026616447 -0.02203434 -0.009413721
0001a0 fa 26 d4 bd 6f 35 8b bd 00 00 00 00 00 00 00 00
       -0.10358997 -0.06797301 0.0 0.0
0001b0 59 76 64 bc 63 6a 4f bc 00 00 00 00 8c f6 36 bc
       -0.013944232 -0.012659642 0.0 -0.01116718
0001c0 2a d5 84 bd 00 00 00 00 00 00 00 00 00 00 00 00
       -0.0648597 0.0 0.0 0.0
0001d0 68 57 1a bc fc 4b 01 bd 3e a3 c9 3d ea 04 eb bb
       -0.009420253 -0.031566605 0.09845589 -0.0071722167
0001e0 00 00 00 00 5f a1 94 3d 81 4f 2e bc 58 b0 1b bc
       0.0 0.072573416 -0.010639072 -0.009502493
0001f0 52 19 20 bc b4 5d d4 3d 00 00 00 00 0e 04 8a bd
       -0.009771662 0.10369435 0.0 -0.067390546

linear2.weight f4 [128, 128]
000000 97 88 9d 3a 99 9c 81 3e 67 4b 12 be fb c4 bc bd
       0.0012018856 0.25314787 -0.14286576 -0.092172585
000010 35 dd b9 bd 8b 63 66 3e f3 eb e7 bd f2 62 05 3e
       -0.09075395 0.2249891 -0.113243006 0.13026026
000020 53 b7 b5 bc 86 21 ea 3d 60 55 9e be 51 e0 16 3f
       -0.022182142 0.11432175 -0.3092451 0.5893603
000030 44 dd f2 3d a2 88 0f 3e d4 82 b8 3e d3 9e e2 3e
       0.11858609 0.14016965 0.36037314 0.44261798
000040 77 e3 e5 3e 05 8e 7d 3e 88 2f 05 3e 67 88 2e 3d
       0.44900104 0.24761207 0.13006413 0.042610552
000050 b5 6a b1 3d 75 ad e3 3b 0e 21 ab 3c b3 bd 59 3b
       0.08662931 0.006948168 0.020889785 0.0033224642
000060 36 54 c4 3e 8a 55 ec 3d e6 b1 bd bb d1 f7 11 3d
       0.38345498 0.11539753 -0.0057890294 0.035636727
000070 69 69 8f be 0c 9e 00 3e 00 42 a5 3d 67 94 73 3e
       -0.2801011 0.1256029 0.08069229 0.2378708
000080 dc 4f a2 3e 32 2b 60 bd de b0 8c 3d fc 54 ee bd
       0.31701553 -0.054728694 0.06869672 -0.11637303
000090 83 e1 39 be 6c 10 4d be f0 64 c4 3d 87 0e ed 3e
       -0.18152432 -0.20025796 0.09589565 0.46300146
0000a0 6d e6 93 3d ef 27 2e be 78 7a 46 bd 1d f2 eb 3e
       0.072216846 -0.17007421 -0.04845664 0.46083155
0000b0 cf 67 18 3e af 94 93 3d e2 a7 e7 bd 16 da 3c 3e
       0.1488335 0.072060935 -0.11311318 0.18442568
0000c0 17 02 87 bd e0 09 e8 3d ee f5 9b 3e a1 1d d4 bd
       -0.065921955 0.113300085 0.30461067 -0.10357214
0000d0 23 56 4f 3e 82 e3 7b bd ee f9 52 3e 50 07 9b bd
       0.20247702 -0.061496265 0.20603153 -0.07569754
0000e0 e8 19 a8 3d 2d 5c b7 bd cc db 1c be 5a b7 95 bc
       0.08208066 -0.08953128 -0.15318221 -0.018275905
0000f0 8d 34 fe bd 46 5d 98 bd 76 27 8a 3e e2 bd 08 3f
       -0.12412367 -0.074396655 0.2698323 0.5341474
000100 ca e1 b2 3e 44 63 98 bd af ab 24 be af 1d 1a be
       0.34937888 -0.074408084 -0.16081117 -0.15050386
000110 50 c0 f8 3d 77 fa 63 3d ab 97 47 3e fd d4 55 bd
       0.12146056 0.055658784 0.1949145 -0.052205075
000120 87 44 83 bd df 6c 82 bd c3 45 ff 3d 2c 4f 0b be
       -0.06409555 -0.06368422 0.12464478 -0.1360442
000130 ed 9a 21 bd 11 60 96 bc ce 3d 1a be b3 82 cf 3e
       -0.03945439 -0.018356355 -0.15062639 0.40529403
000140 4f bd f3 3e 33 c0 33 3e 6f c7 13 3d e5 40 e6 3d
       0.47605368 0.17553787 0.036078867 0.112428464
000150 01 cc f2 3d 3d 6c 4c be 07 3e 49 be 71 f6 d9 bc
       0.11855317 -0.19963165 -0.19652568 -0.02660677
000160 9f d4 e2 bd 92 6a dc 3d 14 1e fc 3e ba d9 0f 3d
       -0.110757105 0.10762514 0.49241698 0.03511975
000170 a1 35 79 bb f7 7a ac bc 6c 6b 64 be 72 fe 41 3d
       -0.003802635 -0.021054728 -0.22306603 0.0473618
000180 75 86 ec bd 01 44 8c 3e 6f 82 3a bd 0a cc 37 3e
       -0.11549083 0.27395633 -0.045534547 0.17948928
000190 26 52 fe 3d 34 e4 69 bc 17 4a 6a 3d c0 0e 3d 3d
       0.12418012 -0.014275599 0.057199564 0.046156645
0001a0 13 2f 79 3e 26 f1 97 3e 55 ad e0 bd e5 c2 24 bd
       0.24334364 0.2967617 -0.109705605 -0.04022493
0001b0 7f 45 ab bd bd 44 4f bc 8e 6b 18 3e 77 33 ad 3d
       -0.08362865 -0.012650666 0.14884779 0.08457082
0001c0 78 83 67 3e 76 c7 dd 3c d3 55 8b bd ff b4 0b 3e
       0.22608745 0.02707265 -0.06803479 0.13643263
0001d0 af 73 a1 bd f6 84 07 3e 4d 3a c6 bd f9 14 ff 3c
       -0.07883393 0.13234314 -0.09679089 0.03113793
0001e0 0b 9a 34 3c d9 6c bc bc e2 38 54 bc 10 e1 e7 3d
       0.011023055 -0.023001121 -0.012953015 0.11322224
0001f0 67 de fe bd c8 58 e3 bd 06 bc 39 bd c0 83 8a 3e
       -0.12444764 -0.11100918 -0.04534533 0.27053642
000200 fe 73 34 bd 29 9a d9 bc c1 78 86 bd 9e 2d 82 3c
       -0.04405593 -0.026562767 -0.06566001 0.015890893
000210 21 6a 0b 3e 1f 45 1a 3e b1 9d 43 be 49 fe 58 3e
       0.13614704 0.1506543 -0.19103123 0.21190752
000220 50 92 88 bd 6c 18 ab bd 00 9c 0b be 87 b5 07 3f
       -0.06668532 -0.083542675 -0.13633728 0.53011364
000230 1a ec e2 3d 33 e6 e5 3d ba 3e eb 3e ce 83 3f 3e
       0.11080189 0.11225548 0.45946294 0.18702623
000240 89 9d d1 3e cf 03 d9 3e 19 b5 13 bd 39 cc 25 bd
       0.40940502 0.42385718 -0.03606138 -0.040477965
000250 a8 e7 8a 3d dd 62 b5 3c 1a 7f 59 bd 8d 85 40 bd
       0.06782466 0.022141868 -0.05309973 -0.047002364
000260 d0 3b a8 3e 1a 43 dc 3d 9e ae 19 be af ae 85 bd
       0.32858133 0.10754986 -0.15008017 -0.06527459
000270 35 c6 fb bd e9 ef 82 3d 3a 6c 97 3d 03 00 59 3e
       -0.12293664 0.063934155 0.073936895 0.2119141
000280 de cf 82 3e db db df bd 88 f5 8f 3c 73 18 95 bc
       0.25549215 -0.10930606 0.017573133 -0.018200135
000290 8f b5 00 be 08 84 e3 bd 1d 08 76 3d 76 42 68 3e
       -0.12569259 -0.11109167 0.06006633 0.22681603
0002a0 46 7d d3 3d 94 ef ee bd 66 4a 15 3c 48 ba 48 3e
       0.103266284 -0.1166679 0.009111976 0.1960231
0002b0 42 ea be bd d7 53 00 3e 2d 56 19 bd a4 c8 d2 3d
       -0.09322025 0.12531982 -0.0374357 0.102921754
0002c0 f1 fc 4f bd 7b 2a 98 bb 73 5f 7f 3e 84 f1 dc 3c
       -0.050778333 -0.004643736 0.24938755 0.026970632
0002d0 70 54 81 bd 54 8e a8 bd d0 5c 9f 3e 7b 4c 92 bd
       -0.06314933 -0.08230272 0.31125498 -0.07143494
0002e0 5c 2d 94 bd eb de 4d 3b 3d e7 f4 bd 83 5f 92 3c
       -0.07235214 0.0031413387 -0.11958168 0.01786781
0002f0 be 80 54 bd 3e 98 e2 bd 6b e0 4b 3e 8d 76 f6 3e
       -0.05188059 -0.11064194 0.19909827 0.48137322
000300 80 d4 8f 3e 12 84 2c bc b3 13 e7 bc 29 05 9c bd
       0.28091812 -0.010529535 -0.028207636 -0.07618172
000310 07 88 12 3d ec 53 06 be 2e a6 00 3e a3 fb 06 3e
       0.035774257 -0.13117951 0.12563393 0.1318193
000320 cf 4c 93 be d5 6c fc bc e4 d2 f9 3d 85 73 2a 3c
       -0.28769538 -0.030813614 0.12198427 0.010403519
000330 e9 aa ca 3d 72 00 65 3d 0b 33 d2 bd 91 30 d4 3e
       0.0989588 0.055908628 -0.10263642 0.41443303
000340 a5 b8 96 3e 02 93 12 3e 67 5a 12 bd 1f 90 67 bd
       0.29437748 0.14313892 -0.035730746 -0.05653393
000350 dd b0 01 3e df 11 b7 bd 3b a6 ca be 5c fd c0 bc
       0.12665124 -0.089389555 -0.3957995 -0.023558311
000360 88 cd fc 3d f8 12 23 3e 2d 26 c6 3e a1 47 c2 3c
       0.123438895 0.15925205 0.38701 0.023715796
000370 ed c5 fa 3b ba 2f dd 3d 9d 18 c0 bd 3e 82 25 bc
       0.007652989 0.10800119 -0.093796946 -0.010101853
000380 15 4a d4 bd 8f cc c5 3c 2b 5e d1 3d e4 d6 6b 3e
       -0.103656925 0.024145393 0.10223039 0.23031193
000390 7d 73 4a 3d 8b 8b 98 bd 9c fb cf 3d 28 ce 00 be
       0.049426544 -0.07448491 0.101554126 -0.12578642
0003a0 f1 1f 46 3e 81 70 2b 3d c4 57 e7 39 7f 2c 13 3e
       0.19348122 0.04185534 0.00044125144 0.14372443
0003b0 01 6f ea 3c 3e 71 f5 bd 4a d9 0d be 44 03 19 be
       0.028617384 -0.1198449 -0.1385242 -0.14942652
0003c0 d2 1a 8f 3e d2 c6 3f 3c fb 62 10 3e 43 58 69 3d
       0.2795015 0.011705117 0.14100258 0.05696894
0003d0 fb 23 5d 3a 51 88 9c 3c a8 7a 9b bd c2 85 1f be
       0.00084358425 0.01910797 -0.07591754 -0.15578368
0003e0 8d bf fe 3d 5c 41 8c bd f4 14 be bc b7 5d 6d ba
       0.12438879 -0.06848404 -0.02320335 -0.0009054797
0003f0 76 2a a0 bb 70 56 4d bd 5d d9 71 3d 51 bf 17 3e
       -0.0048878742 -0.05013126 0.059045184 0.14819075

linear2.bias f4 [128]
000000 1f 38 5f bd d3 eb 96 bd 00 00 00 00 b4 25 11 3e
       -0.05449688 -0.07369199 0.0 0.14174539
000010 86 52 02 bd 32 1e 04 3e 1b ff 1e 3e bd 4b 07 bd
       -0.03181698 0.12902144 0.15527003 -0.033031214
000020 18 33 ab bc e2 df 29 bc bb 22 5a bd 00 00 00 00
       -0.020898387 -0.010368319 -0.053255778 0.0
000030 00 00 00 00 75 e2 1c 3e 03 49 15 3e d9 dd c5 bc
       0.0 0.15320762 0.14578633 -0.024153637
000040 d1 f5 8c bc a5 da 15 3e 1c a5 62 bd 86 5c 82 bd
       -0.017207058 0.14634188 -0.05533324 -0.06365304
000050 f7 57 4e bd 8a 19 8c bd fd 5c 52 bc a3 3a 9d bd
       -0.05037686 -0.06840809 -0.012839553 -0.076772
000060 d7 59 27 bc a2 f2 9a bc fb 83 1e 3d d4 49 1c 3e
       -0.010214291 -0.018914524 0.038700085 0.15262538
000070 c3 5d 07 3e be c1 17 bc 4a 71 0c 3e 7f 98 17 3e
       0.13219361 -0.0092625 0.13715091 0.14804266
000080 3f 1e 47 bd 47 c8 1f 3e a0 3b d7 bc 4d 9a 04 3e
       -0.04861283 0.15603743 -0.026273549 0.12949486
000090 2e 56 94 bd 84 6c 9a bd a0 cc 0e bc 41 22 1c bc
       -0.07243 -0.07540229 -0.008715779 -0.009529651
0000a0 80 8e 22 3e 85 34 3c bd c1 b4 1d 3d 10 a8 54 bd
       0.15874672 -0.045948524 0.03850246 -0.05191809
0000b0 38 e4 8c bc af 76 eb 3d ce 9b 07 bd 7b 55 2b 3e
       -0.017198667 0.114972465 -0.03310757 0.16731827
0000c0 86 cb 88 bd 0f a2 0f 3e 26 c8 10 bd b0 87 c3 bc
       -0.06679444 0.14026664 -0.035347126 -0.023868412
0000d0 f9 8c 99 bc e7 18 46 bd fb 8e 8b bc 0d 2d 80 bc
       -0.018743979 -0.048363592 -0.017035952 -0.015646482
0000e0 63 c5 c2 bc 9f 67 1d bd c6 22 18 bc 22 e9 a6 bc
       -0.023775762 -0.0384289 -0.009285634 -0.020374838
0000f0 00 00 00 00 8b b2 d1 bc 66 60 96 bc 0d a1 ad bc
       0.0 -0.025597831 -0.018356513 -0.021194959
000100 b6 c8 cc bc ff 9b c7 bc 3a 50 7d bd 09 ce 26 bd
       -0.02499805 -0.024366377 -0.061844088 -0.040723834
000110 45 8f 9c bc 67 a9 08 bb ea 03 af bb 4d 66 21 3e
       -0.019111285 -0.0020852925 -0.0053410428 0.15761681
000120 8a 72 96 bc 00 00 00 00 a1 08 f6 bc c7 bb b8 ba
       -0.018365163 0.0 -0.030033411 -0.0014094048
000130 00 e1 20 3e 64 37 68 bd 25 9d 65 bd 31 35 13 3e
       0.1571083 -0.05669345 -0.056058068 0.1437576
000140 61 7a e0 3d 9b 93 f6 bb fa 20 5b bc 2d 02 e9 3b
       0.10960842 -0.00752492 -0.013374561 0.007110855
000150 31 c6 11 3e 00 00 00 00 4f f5 17 3e 00 00 00 00
       0.1423576 0.0 0.14839672 0.0
000160 24 b1 89 bd 5f fa c6 bc fe 47 92 bd 55 eb 1f bd
       -0.0672324 -0.024289308 -0.07142638 -0.03904279
000170 45 81 71 bc 00 00 00 00 b1 26 20 3e e8 09 73 bc
       -0.014740293 0.0 0.1563976 -0.014833905
000180 24 27 e0 3d d0 c2 43 bc eb b5 a6 bb a9 1f a2 bc
       0.109449655 -0.011948302 -0.0050876043 -0.019790487
000190 7a 81 38 bd 00 00 00 00 da 0f c6 bb d7 c0 2b 3e
       -0.045045353 0.0 -0.00604437 0.16772781
0001a0 1e 74 57 bd 76 98 0d 3e bb aa 37 bd 01 61 04 bd
       -0.052600972 0.1382769 -0.044840556 -0.032319073
0001b0 97 eb fc bc a5 58 1a bc 28 12 72 bd b4 fa f6 bc
       -0.030874057 -0.009420549 -0.059099346 -0.030148841
0001c0 64 05 ed bc 8c 20 1c bc 4e 0c 36 bd 83 8d 53 bc
       -0.028933235 -0.009529244 -0.04444533 -0.012912157
0001d0 0d 7d 42 bd 1e 34 1a bc 18 96 19 bb e7 9f 02 bb
       -0.04748254 -0.00941184 -0.002343541 -0.0019931735
0001e0 47 f8 21 3c 8d 12 33 3e f6 b8 12 3e 08 0b 8a bc
       0.009885854 0.17487545 0.1432837 -0.016850963
0001f0 1b 6d 8a bd 17 eb 40 bd 73 62 b0 bc 53 bc 2b bd
       -0.067590915 -0.0470992 -0.02153132 -0.041927647

mean_linear.weight f4 [1, 128]
000000 bf 65 01 3f 2f 77 c3 3e 41 4e 16 3e 80 89 2f bf
       0.5054588 0.38176867 0.14678289 -0.68569183
000010 0a 92 27 be ee cf ea be 15 5b 26 bf f6 89 31 3e
       -0.16364303 -0.45861763 -0.6498273 0.17337784
000020 27 37 df bd 58 8c d3 bd b8 a3 ed 3e 73 96 ce bd
       -0.10899191 -0.10329503 0.4641397 -0.1008729
000030 8b b2 0f be c3 57 1d bf 46 5e df be 03 30 f0 39
       -0.14032952 -0.6146204 -0.43626612 0.0004581214
000040 c3 62 26 bd 8a 96 13 bf 2e 32 c7 3e 66 26 e7 3e
       -0.04062153 -0.5765158 0.38905472 0.45146483
000050 a1 fd 04 3f 61 f9 c4 3e dd 34 e0 3d e9 b0 bf 3e
       0.51949507 0.3847151 0.10947583 0.3743966
000060 47 7d 77 3c 84 f5 77 3c bd b2 25 be a8 5e 34 bf
       0.015105552 0.015134219 -0.16181464 -0.70456934
000070 c8 b5 04 bf 38 30 2d be bc c9 1f bf 29 9f 29 bf
       -0.51839876 -0.16912925 -0.624172 -0.66258484
000080 31 b6 de 3e 7d e9 22 bf f5 70 11 3f 01 e2 f9 be
       0.43498376 -0.63637525 0.56812984 -0.4880524
000090 44 18 f3 3e 79 ee e5 3e fc e1 c4 bd f1 50 b1 bd
       0.4747945 0.44908503 -0.096134156 -0.086580165
0000a0 c3 c9 14 bf 4e a0 9f bb a2 d8 30 bd 96 3e 00 3f
       -0.58120364 -0.0048714047 -0.043175347 0.500955
0000b0 62 22 f4 3d 6d 5f fa be 0f ab 04 3e 39 04 09 bf
       0.119206205 -0.4890093 0.12955879 -0.5352207
0000c0 46 6b 01 bc 13 54 11 bf d0 27 07 3f c2 4d 86 3d
       -0.007899111 -0.5676891 0.52795124 0.065578
0000d0 4b b0 d3 bd 6e 25 af 3e 1c fc 31 3e db 5d 17 be
       -0.103363596 0.34208244 0.17381328 -0.14781897
0000e0 72 52 f8 3e 3f b2 f0 3e ec 58 e2 3c 12 52 f3 3d
       0.485004 0.4701099 0.027630292 0.11880888
0000f0 93 75 14 be 22 50 23 be d9 70 33 be 86 bb 94 3d
       -0.14497976 -0.15948537 -0.17523517 0.0726233
000100 09 29 0a 3f 5a 68 e9 3d 15 94 00 3f 5d 46 20 be
       0.53968865 0.113968566 0.50225955 -0.15651841
000110 30 3b 5e 3d 5e b1 42 be 5b 7b 05 be 88 e6 0e bf
       0.054255664 -0.19012973 -0.13035338 -0.5582051
000120 14 ad 97 3d 15 74 42 3e 45 37 fc 3e 96 a0 f6 bd
       0.07406059 0.18989594 0.49260917 -0.12042348
000130 d1 9b 1a bf be d1 0d 3f 83 08 0d 3f ff e5 18 bf
       -0.60394007 0.55398166 0.5509111 -0.59725946
000140 3e 3d f9 be 81 30 94 bd 2c 3e f2 bc b8 26 e6 3d
       -0.48679537 -0.07235814 -0.029570661 0.11237854
000150 35 1c e6 be 96 8e af 3d 23 f2 0a bf ef 81 e9 bd
       -0.44943395 0.08572118 -0.5427572 -0.11401736
000160 bc cc da 3e 20 e7 fe bb a3 67 d9 3e b8 be 00 3f
       0.42734325 -0.007779017 0.4246188 0.50291014
000170 c3 65 f7 3b 39 f7 09 3c e6 df 38 bf db cd 83 3b
       0.0075499727 0.008420759 -0.7221664 0.0040223426
000180 b9 37 df be f7 e3 4d bd 05 59 83 bd f5 15 2b 3e
       -0.435972 -0.050266232 -0.064134635 0.16707595
000190 bf 7b 11 3f 49 3d 90 bd 7e 29 f2 bd 67 09 ce be
       0.56829447 -0.07042939 -0.1182432 -0.40241548
0001a0 13 cb df 3e d2 06 ea be b9 ee f3 3e 7a f1 05 3f
       0.4370962 -0.45708328 0.47643068 0.5232159
0001b0 da b1 f8 3c 85 a3 c6 bd ec 2b e5 3e 92 81 01 3f
       0.030358244 -0.096991576 0.44760072 0.50588334
0001c0 08 74 aa 3d cd 07 38 3d 5b 65 03 3f 7f 90 1f 3d
       0.083229125 0.044929314 0.5132653 0.03895616
0001d0 37 28 16 3f 15 03 32 3e 9f fb 13 be 53 8d db 3d
       0.58655113 0.17383988 -0.14451455 0.10720315
0001e0 f3 2a 07 be e4 22 27 bf 3d ee 02 bf 4b af df 3e
       -0.13199978 -0.65287614 -0.5114477 0.43688425
0001f0 53 3d de 3e 83 dd df 3e bd f1 d7 3d 7a 6b 19 3f
       0.43406162 0.43723688 0.10544155 0.5992962

log_std_linear.weight f4 [1, 128]
000000 8b a4 26 3e 90 46 b6 bd 31 4b 34 3e 53 6d 40 3c
       0.16273706 -0.089001775 0.17606808 0.011744815
000010 f8 f0 f4 bd e1 50 85 3e b3 2a 02 bc d9 20 2b be
       -0.11960024 0.26038268 -0.007944751 -0.16711749
000020 eb 98 54 be b5 c0 c0 bb 7a 3d 00 be a8 e6 ed bc
       -0.20761459 -0.0058823475 -0.12523451 -0.02904065
000030 94 05 de 3d 74 9a 17 3d bd 56 da 3d 15 a6 b6 bd
       0.10840908 0.037012532 0.10661075 -0.089183964
000040 ab d9 1a 3e 43 4d 53 3e 8f 3e 63 bd 7d f9 06 3e
       0.15122096 0.20634942 -0.055479582 0.1318111
000050 ae 05 5e 3e 3f ac 5d 3e 0a ac df 3d 78 ba 41 3e
       0.21681854 0.21647738 0.10921486 0.18918788
000060 e5 bd ef 3d 5b f2 3c bd 99 cc 16 3d 4c 68 2b be
       0.117061414 -0.046129566 0.036816213 -0.16739005
000070 e5 0b 4a bd 58 c3 0a 3e 33 f2 d4 ba 55 68 1f 3d
       -0.04932775 0.1355108 -0.0016246497 0.03891786
000080 f2 15 f7 bd bb b6 09 3e 72 0a cd 3c 06 29 62 3e
       -0.120647326 0.13448612 0.025029395 0.22085962
000090 68 2a 56 3e e5 9e 11 3e b8 74 4b 3d 97 ce 80 bd
       0.20914614 0.1422077 0.04967186 -0.06289404
0000a0 ed 69 ef bd 17 05 7b bd f1 02 bc bd a7 09 3e 3e
       -0.116901256 -0.06128415 -0.091802485 0.1855837
0000b0 0b 1f da bb d9 b6 18 be 00 49 17 be d9 43 21 bd
       -0.0066565326 -0.14913501 -0.14773941 -0.039371345
0000c0 03 9b 46 be 5a 38 82 bc 1b 38 08 be 62 3e 0e be
       -0.1939507 -0.015896011 -0.13302653 -0.13890985
0000d0 b2 c3 ff 3d 87 b5 c8 3d d7 37 8f bd d6 08 53 bc
       0.12488498 0.098002486 -0.069930725 -0.012880525
0000e0 5f df e9 bd 0c a8 29 bd 8e eb 16 be c4 d6 e2 bd
       -0.11419558 -0.041420028 -0.14738294 -0.110761195
0000f0 d8 1c 8d bb 25 18 90 bd ba dd c3 bd 5a b1 d7 bd
       -0.004306417 -0.07035855 -0.09563775 -0.10531874
000100 64 c7 fa 3d 7c 1a 4f be 60 1d 43 3d 4e be 1b be
       0.12245062 -0.20224947 0.047635436 -0.15209314
000110 e3 d8 2f be 59 54 c7 3d 00 c5 f5 bd b5 ba 72 3e
       -0.1717258 0.09732885 -0.120004654 0.23704036
000120 af d6 da 3c 52 9e 0b 3e 45 77 cb bc c4 5e 1a 3e
       0.026713697 0.13634613 -0.024837146 0.15075213
000130 81 f5 5e ba 85 f3 08 3e 9c 7e d6 bd 47 76 ff bd
       -0.0008505211 0.13374145 -0.104733676 -0.124737315
000140 94 10 30 3d 9e 28 02 bd 81 20 44 3d ac f5 59 3e
       0.04298456 -0.031777017 0.04788256 0.21285123
000150 1b 19 27 3e b9 26 29 3e ab e2 15 3e dc 69 4a be
       0.1631817 0.16518678 0.14637248 -0.19766945
000160 10 3c 0b be 7f dc 2a bd fb 00 a7 3d 59 83 11 3e
       -0.13597131 -0.041714188 0.08154484 0.14210261
000170 52 83 d1 3d b3 1e 55 be 60 b8 da 3d 90 8f eb bd
       0.102301255 -0.20812492 0.10679698 -0.11501992
000180 60 d6 71 3e f3 da 2b 3d ad 1b 52 bd aa fb 10 3d
       0.23616934 0.041956853 -0.051295925 0.035396256
000190 9b 7e 66 3d ad 6c 96 3d d5 8a ce 3d ef 15 1e 3e
       0.056273084 0.07344947 0.10085074 0.15438055
0001a0 38 2f 05 be f6 14 b0 3d 51 fc 57 3e 82 cd b1 bd
       -0.13006294 0.08597748 0.21092345 -0.08681776
0001b0 fb 58 68 bc 24 a5 27 3e 20 66 23 3e d8 f5 63 3e
       -0.014181371 0.1637159 0.15956926 0.2226175
0001c0 14 7e 41 be e1 52 fc 3d 49 48 7a 3e 59 c8 0a be
       -0.18895751 0.123204954 0.24441637 -0.13552989
0001d0 4a 9a 2b be c0 1e ed 3d 56 e2 59 be 33 0a 42 be
       -0.16758075 0.11578131 -0.21277747 -0.18949203
0001e0 67 a6 2b 3e 89 98 98 bd 5b fb 1f 3e ac 4f a7 3d
       0.16762696 -0.07450969 0.15623228 0.08169493
0001f0 64 ee 12 3e bc d5 89 3e 12 ba 40 be da 34 b5 3d
       0.14348751 0.2692088 -0.1882098 0.08847971
