results/train/hyperparam_models_time_400_steps/name_DQNMA/best_model.pt (torch, 193103 bytes, 8 tensors)

layer1.weight f4 [128, 40]
0	0xbd82bedd	-0.063840605
1	0xbdcf3219	-0.10116977
2	0x3d06de1a	0.032926656
3	0xbe3e17e5	-0.18563803
4	0x3df1e521	0.11811281
5	0x3dc0ad72	0.09408082
6	0xbbfeba95	-0.007773707
7	0x3e3bac04	0.18327338
8	0x3e3898f2	0.18027094
9	0xbdc5e5da	-0.09662981
10	0x3e0d4067	0.13794099
11	0xbe1c117b	-0.15241043
12	0x3dec6f10	0.11544621
13	0x3dbaa7e3	0.09114053
14	0x3d7d34f8	0.061818093
15	0x3da1ad22	0.078943506
16	0xbdc3a6d2	-0.09553303
17	0xbd53bf35	-0.05169602
18	0x3cf0ba18	0.029385611
19	0x3e05f5d6	0.1308206
20	0xbdd411cb	-0.10354956
21	0xbdb8f592	-0.09031214
22	0x3e0e88a6	0.13919315
23	0x3dd04d99	0.101710506
24	0x3da4bd0b	0.080438696
25	0x3dae5749	0.08512742
26	0x3dd0c0d0	0.10193026
27	0xbdae140a	-0.08499916
28	0xbd64d50d	-0.055867244
29	0x3d16b779	0.036796067
30	0x3e0bfd76	0.13670906
31	0xbbfe22ba	-0.0077556046
32	0x3d7335bc	0.059377417
33	0xbdd36ad5	-0.10323111
34	0xbdc65ed3	-0.09686055
35	0xbe0ff020	-0.14056444
36	0x3d30ad8a	0.04313425
37	0x3d007cb4	0.031368926
38	0x3d02eabe	0.03196215
39	0x3d8cc2d0	0.06873095
40	0x3d24f408	0.04027179
41	0xbe11c85d	-0.14236589
42	0xbaacab39	-0.0013173587
43	0xbdd3af8e	-0.10336219
44	0x3de3985e	0.11113046
45	0xbda1ca56	-0.07899921
46	0x3d6b2293	0.05740602
47	0xbdca7e6c	-0.09887394
48	0x3df1f93f	0.11815118
49	0x3c13f0a1	0.009029538
50	0xbd570a7a	-0.052500226
51	0x3be5587a	0.0069990726
52	0xbc8c8ad0	-0.017156035
53	0x3dae6d1a	0.08516903
54	0xbd4387bd	-0.047736872
55	0xbe18cf94	-0.14922935
56	0x3d24fa22	0.040277608
57	0x3d19391a	0.037407972
58	0xbc974825	-0.018467018
59	0xbdbbd272	-0.09170999
60	0x3d909f95	0.07061688
61	0xbe0ac2bb	-0.13550846
62	0x3da2bde7	0.07946377
63	0xbdd66de0	-0.10470176
64	0x3ba9532c	0.0051673856
65	0xbc0838e6	-0.008314347
66	0x3d306781	0.04306746
67	0x3d92991f	0.07158112
68	0x3c80961f	0.015696583
69	0x3d902843	0.07038929
70	0x3de4f924	0.11180332
71	0x3d2dbcfe	0.042416565
72	0xbe189d30	-0.14903712
73	0x3e02084c	0.12698478
74	0x3da4e74b	0.08051928
75	0xbdaa3855	-0.08311526
76	0xbd9f2c69	-0.077721424
77	0xbc075c9c	-0.008261826
78	0xbe1834ab	-0.14863841
79	0xbd67f39a	-0.0566288
80	0xbd68453b	-0.05670665
81	0x3dc5a3bb	0.0965037
82	0xbe122aa5	-0.1427408
83	0x3def44db	0.11683055
84	0x3e14a1d7	0.14514862
85	0xbdc8e5dc	-0.09809467
86	0x3e0eb549	0.13936342
87	0xbdc6e05f	-0.09710764
88	0xbd634445	-0.05548503
89	0x3dac72ac	0.084203094
90	0xbe126074	-0.14294606
91	0xbca57398	-0.020196721
92	0x3bf4c1df	0.0074694003
93	0xbc7d8fc7	-0.015476174
94	0xbe0fd633	-0.14046554
95	0xbce002b5	-0.02734504
96	0xbc22d819	-0.009939217
97	0xbdc4a0cb	-0.09600981
98	0xbe11fb99	-0.14256133
99	0x3da5b642	0.080914035
100	0x3cef558c	0.029215597
101	0xbe131e18	-0.14366949
102	0x3dec6a79	0.115437455
103	0xbd42a32d	-0.047518898
104	0xbd0ab923	-0.033867966
105	0xbd13c112	-0.036072798
106	0x3e170d20	0.147511
107	0x3d1872c7	0.037218835
108	0x3dcc3a77	0.09972089
109	0x3dbcf777	0.09226888
110	0xbd8f4224	-0.06995037
111	0xbdbb88e8	-0.09156972
112	0xbcc5a618	-0.024127051
113	0xbcccc4a0	-0.024996102
114	0x3d49dade	0.049280994
115	0xbd95fe75	-0.073239245
116	0xbdef5c3c	-0.11687514
117	0x3e1d9c70	0.15391707
118	0xbbd96c47	-0.006635222
119	0x3dd32504	0.103097945
120	0x3cdac0ab	0.0267032
121	0xbd77716f	-0.060410913
122	0x3d357be5	0.04430761
123	0x3d78d3e8	0.060748965
124	0x3c4c77a3	0.0124796955
125	0xbc7a81d6	-0.015289744
126	0xbd99cab1	-0.075093634
127	0xbd530332	-0.05151672
128	0x3e812e6f	0.2523074
129	0x3d90259b	0.07038423
130	0xbc9e8948	-0.01935257
131	0xbd616d15	-0.05503567
132	0x3da691ea	0.081333
133	0xbd08d45c	-0.033405647
134	0xbd65e78b	-0.05612902
135	0xbd9ad023	-0.0755923
136	0x3cce3390	0.025171071
137	0xbe0201cc	-0.12695998
138	0x3e0a0100	0.13476944
139	0x3d46ea7c	0.048563465
140	0x3ce2fe98	0.02770929
141	0x3ad4c06c	0.0016231663
142	0xbd98def4	-0.074644
143	0x3de116b4	0.109906584
144	0x3db93ada	0.09044428
145	0x3e0abbee	0.13548252
146	0x3e06d7bc	0.13168234
147	0x3d4021cf	0.046907242
148	0x3cda94ea	0.026682336
149	0x3df55f39	0.11981053
150	0xbde4fa37	-0.11180537
151	0xbd682606	-0.056676887
152	0xbc36cf4e	-0.011157824
153	0xbdbbded9	-0.09173364
154	0x3d1e8458	0.03870043
155	0x3da2431b	0.079229556
156	0x3cf10dd1	0.029425533
157	0x3c9eb68b	0.019374153
158	0x3d6a6141	0.057221655
159	0xbd87b415	-0.06626145
160	0x3e0a371a	0.13497582
161	0xbcfe056d	-0.031008447
162	0xbd1763d9	-0.036960457
163	0x3c549b7c	0.0129765235
164	0xbc09ad4e	-0.008403135
165	0x3d89e399	0.06732864
166	0xbe3efd9d	-0.18651433
167	0xbcf4da3a	-0.029889215
168	0xbcb18fa3	-0.021674937
169	0x3dafe5f2	0.085887805
170	0x3e043dba	0.12914172
171	0xbd740649	-0.059576306
172	0xbca782de	-0.020448145
173	0x3ddfe4f6	0.10932343
174	0x3e0a3c83	0.13499646
175	0xbbbc11da	-0.0057394328
176	0xbda9fdd2	-0.083003655
177	0xbe0411b4	-0.12897378
178	0x3d79eba0	0.061015725
179	0xbb9094ba	-0.004412261
180	0xbd9b9702	-0.07597162
181	0x3d0a2364	0.033725157
182	0x3d915b77	0.07097524
183	0x3ce2207c	0.02760338
184	0xbd8e69bd	-0.06953762
185	0x3cfa4046	0.030548226
186	0xbd544b5f	-0.051829692
187	0xbbafe099	-0.0053673503
188	0xbc097bc9	-0.008391329
189	0x3dc06a3a	0.09395261
190	0x3e2828d0	0.16421819
191	0x3e240606	0.16017923
192	0xbde79a62	-0.11308743
193	0x3dc899c7	0.09794956
194	0xbcd9229b	-0.026505759
195	0xbddac29d	-0.10681651
196	0xbc1df23c	-0.009640273
197	0x3ce06ec9	0.027396576
198	0xbe09de7e	-0.1346378
199	0x3dfb435c	0.12268707
200	0xbd352269	-0.04422227
201	0x3dae4900	0.085100174
202	0x3d779eb4	0.060454085
203	0xbdb2214f	-0.08697759
204	0xbe03854d	-0.12843819
205	0x3ddbefa9	0.10739071
206	0xbd0f86e5	-0.035040755
207	0x3e7da5de	0.24770305
208	0x3e72fcaf	0.23729204
209	0x3d24aff2	0.040206857
210	0x3e0f8706	0.14016351
211	0xbdbee24d	-0.09320507
212	0x3c188670	0.009309396
213	0x3ceed1fd	0.029152865
214	0x3dd7e6df	0.10542082
215	0x3de824cb	0.11335143
216	0xbdafdaf3	-0.08586683
217	0xb9ec4ec5	-0.00045072116
218	0xbe09fe64	-0.13475949
219	0xbcab90e8	-0.02094312
220	0x3b7ea440	0.0038855225
221	0xbdfe24e4	-0.1240938
222	0xbd0ffbf0	-0.035152376
223	0x3e196b78	0.14982402
224	0x3e0ac511	0.13551737
225	0xbd25e7f6	-0.04050442
226	0x3ded300e	0.11581431
227	0xbdf8ea88	-0.12154108
228	0xbe093389	-0.13398565
229	0x3dda09b6	0.106463835
230	0xbdecb3b1	-0.11557711
231	0x3e176092	0.14782932
232	0x3d8cc585	0.06873611
233	0xbcddef8c	-0.027091764
234	0x3df44cf2	0.11928739
235	0x3e0f4eca	0.139949
236	0x3ce6bec5	0.028167138
237	0xbd8dbc26	-0.06920652
238	0x3e2a14c9	0.16609491
239	0xbde494dc	-0.11161205
240	0xbe0cad40	-0.13737965
241	0xbdc475b0	-0.095927596
242	0x3dbe6b3a	0.092977956
243	0xbe0c8615	-0.13723023
244	0x3dae21fa	0.08502574
245	0x3d106e78	0.0352616
246	0x3e07cb3e	0.13261124
247	0xbd00a631	-0.031408492
248	0x3cb681e0	0.022278726
249	0xbe0bce05	-0.13652809
250	0x3df72908	0.12068373
251	0x3dc3bb46	0.09557204
252	0xbdc0727f	-0.093968384
253	0xbcc9f509	-0.024652975
254	0x3ce407ce	0.027835753
255	0x3db48295	0.08813969

layer1.bias f4 [128]
0	0xbe0ea13f	-0.13928698
1	0xbcab40a4	-0.020904846
2	0xbcd84e7d	-0.026404614
3	0x3e0c2ee9	0.1368977
4	0xbdbd9123	-0.09256198
5	0x3af4f8ff	0.0018689929
6	0x3e13e896	0.14444193
7	0x3e19689b	0.1498131
8	0x3d5d25ff	0.053991314
9	0x3db9199f	0.0903809
10	0x3c8a14cf	0.016855625
11	0x3cb5eb0d	0.022206808
12	0x3e139097	0.14410625
13	0xbd9b5e04	-0.075862914
14	0xbdc94228	-0.098270714
15	0x3dd5d202	0.104404464
16	0x3e1e1dcd	0.15441056
17	0xbdbbb14f	-0.09164678
18	0xbd6fc67f	-0.05853891
19	0xbce69a44	-0.028149731
20	0x3c4f62d1	0.012657837
21	0x3e20415d	0.15649934
22	0x3d03dace	0.03219109
23	0x3d02b0f3	0.031907033
24	0x3cfc90f4	0.030830838
25	0x3de97030	0.11398351
26	0xbe0a03e6	-0.1347805
27	0xbd93f2a1	-0.07224012
28	0x3e1bd3fe	0.15217587
29	0x3d979ffe	0.07403563
30	0xbdaceb4a	-0.08443315
31	0xbd89e6eb	-0.06733497
32	0xbd47ba39	-0.04876158
33	0x3e151cf5	0.14561827
34	0x3dc4ced3	0.09609761
35	0xbd51c9d3	-0.051217865
36	0xbcf98203	-0.030457502
37	0x3cf41cfa	0.029798973
38	0xbdd96010	-0.106140256
39	0x3dab14eb	0.08353599
40	0xbdcbcfd2	-0.09951748
41	0x3d8b3aa5	0.06798295
42	0x3d58afcd	0.05290203
43	0xbe0667a6	-0.13125476
44	0x390c0810	0.00013354444
45	0xbd90c7cb	-0.070693575
46	0xbc470bf4	-0.012148846
47	0xbd12a719	-0.035803888
48	0xbdfd794b	-0.123766504
49	0xbd92ddc1	-0.071712025
50	0x3c936081	0.017990353
51	0x3df5c39c	0.120002
52	0xbd244d5b	-0.040112834
53	0xbd87df43	-0.06634381
54	0x3bde9d0e	0.0067936247
55	0xbda22169	-0.07916529
56	0xbde4ffe1	-0.111816175
57	0x3da48784	0.0803366
58	0x3dbf6864	0.09346083
59	0xbde504ce	-0.11182557
60	0x3db04ad0	0.08608019
61	0xbdf637eb	-0.12022384
62	0x3daf3b09	0.08556182
63	0x3d2563ef	0.040378507
64	0x3e0b2fe6	0.1359249
65	0xbdaa7fd0	-0.083251595
66	0xbda07b7b	-0.07836052
67	0x3cce32c4	0.025170691
68	0xbd8ac546	-0.06775908
69	0xbd8e06cc	-0.0693489
70	0xbcb1a6a1	-0.0216859
71	0xbd8ec30f	-0.06970798
72	0x3deb3664	0.114849836
73	0x3d38d90b	0.045128863
74	0x3dc12dbe	0.09432553
75	0xbc4ea9c0	-0.012613714
76	0x3de18737	0.11012118
77	0x3dec45d4	0.11536756
78	0xbbf39148	-0.0074330904
79	0xbe0f1dfa	-0.13976279
80	0xbd685cff	-0.056729313
81	0xbc9c4525	-0.01907594
82	0xbd2ed323	-0.042681824
83	0xbde774a4	-0.11301544
84	0x3e01bd23	0.12669806
85	0xbde97cf9	-0.1140079
86	0xbdacd7ef	-0.084396236
87	0x3ba0cf01	0.0049074893
88	0x3e22b0dd	0.1588778
89	0xbdbc13ae	-0.09183441
90	0xbcc8ea5e	-0.024525817
91	0xbdce7699	-0.100812145
92	0x3d8a23fa	0.06745143
93	0xbe06c028	-0.1315924
94	0xbc61484b	-0.013750146
95	0x3e1ba8cb	0.15201108
96	0xbd8d4ad2	-0.068990365
97	0xbddac48d	-0.1068202
98	0x3caad5e4	0.020853944
99	0xbde9ab33	-0.11409607
100	0x3dd7fc43	0.10546162
101	0xbd44fe19	-0.04809389
102	0xbdf23386	-0.118262336
103	0xbd0f9515	-0.035054285
104	0x3dcbbe95	0.0994846
105	0x3dda50e0	0.10659957
106	0x3d0dd9dd	0.0346316
107	0xbcb269f6	-0.021779042
108	0xbdc709d0	-0.097186685
109	0xbd834bc1	-0.06410933
110	0xbe11d589	-0.14241613
111	0xbe137716	-0.14400896
112	0x3e001945	0.1250964
113	0xbc60c544	-0.013718907
114	0xbddfe7e6	-0.10932903
115	0xbdc8c2d7	-0.09802788
116	0x3e0cac4b	0.137376
117	0x3ddad6f8	0.10685533
118	0x3dfcfeb0	0.12353265
119	0xbc8f162e	-0.01746663
120	0xbd99f60f	-0.07517635
121	0xbdcbecf3	-0.09957304
122	0xbc87e421	-0.016588273
123	0xbda29023	-0.07937648
124	0x3dd40491	0.103524335
125	0xbd863dac	-0.06554732
126	0xbd934a2e	-0.07191883
127	0x3da7f1b3	0.08200397

layer2.weight f4 [128, 128]
0	0x3d0fbe04	0.035093322
1	0x3d99f9e7	0.07518368
2	0xbd9d267d	-0.07673357
3	0xbd8b1282	-0.067906395
4	0xbdec7d0a	-0.11547287
5	0x3d9fe260	0.078068495
6	0x3dc3d6f8	0.095624864
7	0x3d88a082	0.066712394
8	0xbd6ec925	-0.058297295
9	0x3e01ebf6	0.12687668
10	0xbdbd3e54	-0.09240404
11	0xbc6a0404	-0.014283184
12	0xbd95889d	-0.073014475
13	0xbd9335d5	-0.07188002
14	0x3d7f511c	0.06233321
15	0x3c27700a	0.010219583
16	0xbd7db6bc	-0.061941847
17	0xbda02c25	-0.0782092
18	0xbae94121	-0.0017795899
19	0xbd063bb3	-0.032771777
20	0xbd582ed8	-0.05277905
21	0x3d782808	0.06058505
22	0x3d8e2835	0.06941263
23	0xbd9c42dc	-0.0762994
24	0xbd8a194f	-0.067431085
25	0x3cf5ddce	0.030012991
26	0xb703ee41	-7.863681e-06
27	0x3a8fd284	0.0010972773
28	0x3c18bcb7	0.009322337
29	0x3c93ef01	0.018058302
30	0x3d4b23de	0.049594752
31	0xbda32a98	-0.079671085
32	0xbd5bac9f	-0.05363142
33	0x3d1d7156	0.038438164
34	0x3daece62	0.08535458
35	0x3b9a172b	0.004702469
36	0xbd474a71	-0.048654977
37	0x3d477232	0.04869289
38	0xbc78d736	-0.015188029
39	0x3d229754	0.0396951
40	0x3e243cba	0.1603879
41	0xbe1f2299	-0.15540542
42	0x3d2b524b	0.041826528
43	0x3cffb70d	0.031215215
44	0xbdadfb40	-0.08495188
45	0xbd457cfc	-0.048214898
46	0x3d48dc5d	0.04903828
47	0x3d7211ba	0.059098937
48	0x3d4a51b1	0.049394313
49	0x3d5e05df	0.054204818
50	0xbc8e8d5e	-0.017401394
51	0xbd4c25ec	-0.049840853
52	0x3d536fc4	0.05162026
53	0x3daf9409	0.08573157
54	0x3bc7052b	0.006073614
55	0xbdaad737	-0.0834183
56	0x3d8dc0ee	0.06921564
57	0xbd46e160	-0.048554778
58	0x3d319fa6	0.043365143
59	0xbc27e71a	-0.01024797
60	0x3da6c38c	0.08142766
61	0xbcee1da9	-0.029066877
62	0xbcec18c6	-0.028820407
63	0xbdee8cb3	-0.1164793
64	0xbd801eeb	-0.06255897
65	0xbbadc52f	-0.005303047
66	0x3ca38a48	0.019963399
67	0xbd6b8857	-0.05750307
68	0x3c166c69	0.00918112
69	0x3c8470e3	0.01616711
70	0xbd5ee3e6	-0.05441656
71	0x3da57266	0.080784604
72	0x3c00d24e	0.007862641
73	0xbcd34289	-0.025788562
74	0x3e04eeab	0.1298167
75	0x3c85967a	0.016307104
76	0x3c970ca4	0.018438645
77	0xbcb4c0cc	-0.022064589
78	0x3d1f7a66	0.038935088
79	0x3cb98507	0.02264644
80	0xbd247662	-0.04015196
81	0x37d943a2	2.589991e-05
82	0x3c22d940	0.009939492
83	0xbd2bae25	-0.041914124
84	0xbc6c06df	-0.014405935
85	0xbda93c45	-0.082634486
86	0x3e09459d	0.13405462
87	0xbc4e8a36	-0.012606194
88	0x3d5f02c7	0.054446008
89	0x3dbc64ab	0.091988884
90	0x3d8d6ecf	0.06905901
91	0xbca7d611	-0.020487817
92	0xbd6db98e	-0.058038287
93	0x3d6773f0	0.05650705
94	0xbda77d63	-0.081782125
95	0x3d9b5879	0.07585234
96	0xbdcfd274	-0.101475626
97	0x3d24b176	0.040208302
98	0x3cd828af	0.026386587
99	0x3cdb7854	0.026790775
100	0xbcc6f628	-0.024287298
101	0x3e1ea8fe	0.15494153
102	0xbdba4043	-0.09094288
103	0xbd9bdb3c	-0.07610175
104	0x3daa7b3c	0.08324286
105	0xbcd3b781	-0.025844337
106	0x3ccb5233	0.02481947
107	0x3ca188bd	0.019718522
108	0x3da1e6fc	0.07905385
109	0xbc221e69	-0.009894946
110	0x3d8662af	0.06561791
111	0x3d8cb762	0.06870915
112	0xbd3342ad	-0.04376476
113	0x3c665609	0.014058598
114	0x3a0ddbf1	0.0005411497
115	0xbd99e205	-0.07513813
116	0x3d0c1f2d	0.03420942
117	0xbd8c6a7b	-0.06856247
118	0xbd9d20f1	-0.07672299
119	0xbce69210	-0.02814582
120	0xbc32f04c	-0.010921549
121	0x3d4b7f56	0.049681984
122	0xb4ad1a86	-3.224306e-07
123	0xbd4c1987	-0.049829032
124	0x3d860915	0.06544701
125	0x3d8eaddb	0.06966754
126	0xbd6f14f0	-0.058369577
127	0xbcfef3e2	-0.031122152
128	0x3e20d5c7	0.1570655
129	0xbbae8bef	-0.00532674
130	0xbbf34fb9	-0.007425275
131	0xbce484d1	-0.027895363
132	0xbd50d98a	-0.05098871
133	0x3cc04c7e	0.023473974
134	0x3d9d2264	0.07672575
135	0x3d8f24b0	0.069894195
136	0xbc14cefc	-0.009082552
137	0x3d85bd93	0.06530299
138	0xbc254342	-0.010086836
139	0x3c1b7bc5	0.009489958
140	0xbd4df223	-0.050279748
141	0x3cfd2b6e	0.030904498
142	0x3da4485d	0.08021615
143	0xbc76b565	-0.015057896
144	0xbda520c6	-0.08062892
145	0xbd8faf00	-0.070158005
146	0xbda13d0a	-0.078729704
147	0xbd55670b	-0.052100223
148	0x3c1d2a46	0.009592598
149	0x3cd1032e	0.025514212
150	0xbd56893b	-0.052376967
151	0xbdbc4dde	-0.091945395
152	0xbd58e102	-0.05294896
153	0x3daf93bb	0.08573099
154	0xbcf77866	-0.030208778
155	0x3d944f2c	0.07241663
156	0x3c98ebd4	0.01866714
157	0xbd20182d	-0.039085556
158	0xbd36d428	-0.04463592
159	0x3da8ced6	0.08242576
160	0xbd18488e	-0.03717857
161	0xbd948ac8	-0.07253033
162	0x3d902339	0.07037968
163	0xbdd2f3c2	-0.10300399
164	0xbdd419ea	-0.10356505
165	0x3da5702d	0.080780365
166	0xbc08587f	-0.00832188
167	0x3da32997	0.07966917
168	0x3d56916d	0.052384783
169	0x3ccd46a3	0.025058096
170	0x3db756db	0.08952113
171	0xbba37658	-0.004988473
172	0xbc2b2082	-0.010444762
173	0xbd8de03e	-0.069275364
174	0x3c87578d	0.01652124
175	0x3be56aca	0.0070012556
176	0x3d89e0da	0.0673234
177	0x3c0bd1e2	0.008533927
178	0xbc88b908	-0.016689792
179	0x3d8bc028	0.0682376
180	0xbc626bae	-0.013819618
181	0x3dbde5e0	0.09272361
182	0xbdf0af62	-0.117522016
183	0xbbb40e25	-0.00549485
184	0xbb38b6c2	-0.0028185104
185	0xbdc2a160	-0.09503436
186	0x3cb2f7eb	0.021846732
187	0xbd297923	-0.04137529
188	0x3d66fe71	0.056394998
189	0xbd6d3efd	-0.0579214
190	0x3cdc52d4	0.026894964
191	0xbd92da24	-0.07170513
192	0x3d40eb27	0.04709926
193	0x3ccdd744	0.02512706
194	0x3d5ce6b1	0.053930942
195	0xbbfa3641	-0.007635862
196	0xbd8a1716	-0.067426845
197	0xbd8b33f6	-0.0679702
198	0x3d9c9f19	0.07647533
199	0xbd42cabd	-0.047556628
200	0xbc9aee36	-0.018912416
201	0x3da82759	0.0821063
202	0x3df3b485	0.11899666
203	0xbc9ea94c	-0.019367836
204	0xbd70fde8	-0.058835894
205	0xbd46e97a	-0.048562504
206	0x3ddfdd64	0.10930899
207	0x3d891509	0.06693465
208	0xbd2088ca	-0.039192952
209	0x3cc08deb	0.023505172
210	0x3cb12958	0.02162616
211	0x3c0aace0	0.008464068
212	0x3cc11570	0.023569793
213	0xbdca9dc0	-0.0989337
214	0x3ce1e99e	0.027577218
215	0x3c2717b3	0.010198521
216	0x3d609a0c	0.05483441
217	0x3c2b6f4c	0.010463547
218	0xbd89ab21	-0.067220934
219	0xbc8fa871	-0.017536374
220	0x3b44bb47	0.0030018853
221	0x3c9b40cb	0.018951794
222	0xbd1e1267	-0.03859177
223	0x3e062dbf	0.13103388
224	0xbd3a7041	-0.04551721
225	0x3d2144bf	0.039372202
226	0x3c4d85a6	0.012544071
227	0xbd5c4878	-0.05378005
228	0xbdc0b569	-0.09409601
229	0x3df07e4d	0.1174284
230	0xbaa00047	-0.0012207114
231	0x3ced96e7	0.02900262
232	0xbc751db9	-0.0149607
233	0xbd94b7f0	-0.07261646
234	0x3cfce877	0.030872567
235	0x3d37746c	0.044788763
236	0x3e083977	0.13303171
237	0xbcd812df	-0.026376186
238	0xbdab9be4	-0.08379343
239	0xbd84f9e5	-0.06492976
240	0xbcdef287	-0.027215255
241	0xbd861ab5	-0.06548063
242	0xbd354b5c	-0.04426132
243	0xbd0b180d	-0.033958483
244	0x3d21ad41	0.03947187
245	0x3c144960	0.009050697
246	0x3ce21fce	0.027603056
247	0x3dbc5738	0.09196323
248	0xbd8f7947	-0.07005554
249	0xbd267ac0	-0.040644407
250	0xbdb6d066	-0.089264676
251	0x3d14901b	0.036270242
252	0x3cd2e9b2	0.0257462
253	0x3d0aa40f	0.033847865
254	0x3da474cf	0.08030092
255	0x3da8ee28	0.0824855

layer2.bias f4 [128]
0	0x3c771add	0.015082088
1	0x3d97824f	0.07397901
2	0x3d246b1f	0.04014122
3	0xbd7e707d	-0.062118996
4	0xbd7dceba	-0.061964728
5	0xbca72ebd	-0.020408029
6	0xbda140ad	-0.07873664
7	0x3cb592f7	0.022164805
8	0xbcd965dc	-0.026537828
9	0xbda4e992	-0.080523625
10	0xbd93172f	-0.07182156
11	0xbc9362dc	-0.017991476
12	0x3d6f1ce0	0.058377147
13	0x3d6353e3	0.055499922
14	0x3beb9f54	0.0071906243
15	0x3d3fa31e	0.04678642
16	0xbcf4fce0	-0.029905736
17	0xbd9072c1	-0.070531376
18	0xbb04236a	-0.002016271
19	0x3d9dfa37	0.0771374
20	0x3d3ff1b5	0.04686137
21	0x3d9c7f00	0.07641411
22	0x3931120a	0.00016886755
23	0xbdb26af6	-0.087118074
24	0xbc0dc83b	-0.008653696
25	0x3d1b9553	0.037984204
26	0x3d658907	0.056038883
27	0xbd138016	-0.036010824
28	0x3cdf3946	0.02724899
29	0xbc72ab8a	-0.014811406
30	0x3bb03129	0.005376954
31	0x3d4add19	0.04952726
32	0x3cc5641c	0.024095587
33	0x3d69fb57	0.057124462
34	0x3dac377b	0.084090196
35	0x3c833999	0.016018676
36	0xbd4b694e	-0.049660973
37	0x3d988dde	0.07448934
38	0xbd453818	-0.0481492
39	0x3cff8cd2	0.031195078
40	0xbb3fd714	-0.0029272484
41	0x3d9df3be	0.07712506
42	0xbd64524a	-0.05574254
43	0xbd1a80ba	-0.03772042
44	0x3d9b2756	0.07575862
45	0x3da78eb4	0.08181515
46	0xbd825a57	-0.06364887
47	0x3d52ee3f	0.05149674
48	0x3d2f08ad	0.042732883
49	0xbdb0565d	-0.086102225
50	0x3cc4113f	0.023934005
51	0xbd1e6f36	-0.038680278
52	0x3d2bfa02	0.041986473
53	0x3cac4b30	0.021031946
54	0xbd0a88bc	-0.033821806
55	0x3d096f0b	0.033553164
56	0xbd417b78	-0.04723689
57	0xbd23bb53	-0.03997357
58	0xbd987572	-0.07444276
59	0x3b0a6fcd	0.0021123767
60	0xbd8778a9	-0.06614811
61	0x3cfe7aec	0.031064473
62	0xbcbcbaf4	-0.023038365
63	0xbd412d50	-0.047162354
64	0x3932d5b8	0.00017055019
65	0xbc95f3a0	-0.018304646
66	0xbd47f383	-0.048816215
67	0x3db40711	0.0879041
68	0x3cb6e914	0.022327937
69	0x3c8ec1c8	0.017426386
70	0x3c0a1b09	0.008429297
71	0x3d8ff31d	0.07028792
72	0xbd87129c	-0.06595346
73	0xbd3ee478	-0.046604604
74	0x3cd89f47	0.026443137
75	0x3c340398	0.010987185
76	0x3d5a7a8e	0.053339534
77	0xbd1a38f7	-0.037651982
78	0xbc4b4031	-0.012405441
79	0x3c396640	0.011315882
80	0x3d9a452b	0.07532724
81	0x3d9bbbbc	0.07604167
82	0xbbe0ad05	-0.006856563
83	0xbd638f3a	-0.055556513
84	0xbc5c1569	-0.013432839
85	0x3d12152b	0.03566472
86	0xbd1b1aa0	-0.03786719
87	0x3d62b7e0	0.055351138
88	0x3cd85283	0.026406532
89	0xbdad7d3b	-0.084711514
90	0x3dc11313	0.09427466
91	0x3c0a092f	0.008425041
92	0x3d0eca8a	0.034861125
93	0x39f65e5e	0.00046991085
94	0x3da5146f	0.08060538
95	0x3c20c9b0	0.009813711
96	0xbd90441d	-0.070442416
97	0x3c1e73d2	0.009671168
98	0xbd51b650	-0.051199257
99	0xbd9ac061	-0.075562246
100	0xbd93feca	-0.072263315
101	0x3c944956	0.018101376
102	0xbd44aa1d	-0.048013795
103	0xbbdec290	-0.006798096
104	0xbc4238d8	-0.011854373
105	0x3d120a53	0.035654377
106	0x3d95dcec	0.07317528
107	0xbd173ed5	-0.036925156
108	0x3c93f1d8	0.018059656
109	0x3c856f1c	0.016288333
110	0x3dacc783	0.08436491
111	0xbc2c7754	-0.010526497
112	0xbd07303b	-0.03300498
113	0x3c30c710	0.010789648
114	0xbd8b330d	-0.067968465
115	0xbdad9a20	-0.08476663
116	0x3d83d3e3	0.064368986
117	0xbd6064cb	-0.054783624
118	0x3d30e140	0.043183565
119	0x3d5e15d7	0.054220047
120	0xbd844ae8	-0.064596
121	0x3d53af92	0.05168111
122	0x3d3512be	0.044207327
123	0x3d326adb	0.043558937
124	0xbcd02d1d	-0.025412137
125	0xbd9edba1	-0.07756735
126	0x3a8d7752	0.0010793007
127	0xbb6e0bfa	-0.0036323057

layer3.weight f4 [128, 128]
0	0x3dd31f6b	0.10308727
1	0x3dd0b1cb	0.10190161
2	0x3d906e4d	0.07052288
3	0x3da6b2e5	0.0813959
4	0x393c1603	0.00017937277
5	0x3d7239c8	0.059137136
6	0xbd89bb60	-0.06725192
7	0x3dd1a30c	0.10236177
8	0x3d734492	0.059391566
9	0xbd09c4d3	-0.03363497
10	0x3d93b046	0.07211356
11	0xbd9e7770	-0.07737625
12	0x3d950794	0.07276836
13	0xbd68e62f	-0.056860145
14	0x3d0bcb98	0.03412971
15	0x3d2fffd9	0.042968605
16	0xbdb224cc	-0.08698425
17	0xbd47690c	-0.048684165
18	0x3dbf053c	0.0932717
19	0xbcbdba50	-0.02316013
20	0xbdb1f47a	-0.08689208
21	0xbc755a5e	-0.0149751585
22	0x3d7b5d3f	0.061368223
23	0xbd38c35e	-0.04510819
24	0x3daa4717	0.083143406
25	0x3c4931d1	0.012279944
26	0xbd8bc879	-0.068253465
27	0xbd2bbefb	-0.04193018
28	0xbd4b0602	-0.049566276
29	0xbd77eb48	-0.060527116
30	0x3c4868f8	0.012232058
31	0xbd1e59f4	-0.038660005
32	0x3c17ff5f	0.009277194
33	0xbd20e55a	-0.039281227
34	0xbd738d60	-0.059460998
35	0x3c8f2cdc	0.017477445
36	0x3dca9ab6	0.0989279
37	0xbc1ae757	-0.00945457
38	0xbabe3965	-0.0014512955
39	0x3d57c06e	0.05267375
40	0xbd0b2524	-0.033970967
41	0x3d94d107	0.07266431
42	0xbcfbb50d	-0.03072598
43	0xbcf99a92	-0.030469213
44	0xbdde879a	-0.10865708
45	0xbc25901a	-0.010105157
46	0x3dc5ada4	0.0965226
47	0x3c3926bc	0.011300739
48	0x3cd1d2a0	0.02561313
49	0x3daab227	0.08334761
50	0x3e0db909	0.13840117
51	0x3d8c33e2	0.06845833
52	0x3d690e39	0.05689833
53	0x3de3f536	0.11130755
54	0x3d1f4484	0.0388837
55	0xbd6bdd06	-0.05758383
56	0x3d68c87b	0.056831818
57	0xbbe2bdb6	-0.006919588
58	0xbcae07e7	-0.021244003
59	0x3dc43c80	0.09581852
60	0x3d1a7eb3	0.037718486
61	0x3cc4537d	0.023965592
62	0xbd0e7039	-0.034774993
63	0xbd9f9367	-0.07791787
64	0x3da90bde	0.082542166
65	0xbd589907	-0.052880313
66	0x3ca9922c	0.020699583
67	0x3d4f14de	0.05055701
68	0x3c4d74c5	0.012540047
69	0x3cda4df0	0.026648492
70	0xbdca3934	-0.09874192
71	0x3d052f88	0.032516032
72	0xbc6a9be9	-0.014319398
73	0xbd86492b	-0.065569244
74	0x3d4197b9	0.047263835
75	0x3c8923d9	0.016740726
76	0x3e0e7bce	0.13914415
77	0xbc9d5521	-0.019205632
78	0x3c9b1d1e	0.018934783
79	0xbd4de833	-0.05027027
80	0xbc1b565e	-0.009481041
81	0x3cad3ebf	0.021148084
82	0xbb46f781	-0.0030359926
83	0xbd8b77c0	-0.0680995
84	0xbd8809e4	-0.066425115
85	0x3d7f140a	0.06227497
86	0xbda78771	-0.0818013
87	0xbc3bfe62	-0.011474224
88	0x3dc642e0	0.09680724
89	0xbd52b17f	-0.051438805
90	0xbcabab9c	-0.020955853
91	0x3dd3f704	0.10349849
92	0xbd316aa6	-0.0433146
93	0xbd9a62c7	-0.075383715
94	0xbdb38081	-0.087647445
95	0x3d2cb401	0.042163853
96	0xbd0bb8d9	-0.03411183
97	0xbc939f66	-0.018020343
98	0xbd288df5	-0.041151006
99	0xbc8eb0c5	-0.017418275
100	0x3cc252b8	0.023721084
101	0xbd9a1884	-0.07524207
102	0x3d8d179e	0.0688927
103	0xbc666ed2	-0.014064508
104	0xbd65670e	-0.056006484
105	0x3d88fd03	0.06688883
106	0xbce08e23	-0.027411526
107	0x3c37d6ff	0.011220693
108	0xbdc1a838	-0.09455913
109	0x3da1afa5	0.0789483
110	0x3dac1556	0.08402507
111	0x3dd4e37a	0.1039495
112	0xbd291858	-0.04128298
113	0x3c1ea253	0.009682256
114	0x3d41586a	0.04720346
115	0xbce5357e	-0.027979609
116	0x3c9dc49a	0.019258786
117	0x3dbec1d9	0.09314317
118	0x3d995322	0.074865595
119	0x3c0ebc97	0.0087119555
120	0x3bf842fc	0.0075763445
121	0x3c6bdb84	0.014395598
122	0x3d682e59	0.056684826
123	0x3d5cd021	0.053909425
124	0x3c9330cf	0.01796761
125	0x3d944199	0.07239074
126	0x3c8742c5	0.01651133
127	0x3dbd9f3d	0.09258888
128	0xbab1dd15	-0.0013569916
129	0x3d10e3a9	0.035373364
130	0xbd275066	-0.04084816
131	0x3d11beba	0.03558228
132	0x3d3d924f	0.04628211
133	0x3cadf02b	0.021232685
134	0x3d0bfa55	0.034174282
135	0xbc0a295b	-0.0084327115
136	0x3dcbee06	0.09957509
137	0x3b835bc3	0.0040087416
138	0x3dcb2459	0.09919042
139	0x3d2e1477	0.042499986
140	0x3dad6c99	0.08467979
141	0x3bd22169	0.006412674
142	0xbd1674fc	-0.03673266
143	0x3d6e8340	0.05823064
144	0xbd8ddea7	-0.06927233
145	0x3da5c80b	0.08094796
146	0xbcd0358e	-0.025416162
147	0xbd39e072	-0.045380063
148	0xbd1610af	-0.036637004
149	0x3d1aaf8a	0.037765063
150	0x3dd9f09a	0.10641594
151	0xba95ca0c	-0.0011428013
152	0xbba0136b	-0.0048851273
153	0x3d27908f	0.040909346
154	0x3d644f15	0.05573948
155	0x3de7d04a	0.11319025
156	0xbc0c374e	-0.008558108
157	0x3ca83670	0.02053377
158	0x3dad0fea	0.08450301
159	0xbd823926	-0.063585564
160	0xbd3612eb	-0.044451635
161	0x3dd832ec	0.105565876
162	0x3cdab69a	0.0266984
163	0x3ceda5f8	0.029009804
164	0x3da1d2bb	0.07901522
165	0xbc8025af	-0.015642969
166	0x3d5e5b9a	0.054286577
167	0x3d240bef	0.040050443
168	0x3d340ae5	0.043955702
169	0x3d9de57c	0.07709786
170	0x3cd845e7	0.02640052
171	0x3c6f8c2e	0.014620824
172	0xbdd909c9	-0.105975695
173	0x3db18a1d	0.08668921
174	0x3c0a60b9	0.008445912
175	0x3c001798	0.007818125
176	0x3cbf71fe	0.023369785
177	0x3cf227b9	0.029559957
178	0x3e083d87	0.13304721
179	0x3d872ca2	0.0660031
180	0x3d547027	0.05186477
181	0x3e07810b	0.1323282
182	0xbc5fc568	-0.013657905
183	0x3c9d743a	0.01922046
184	0x3ca64938	0.020298585
185	0xbc8a1f5c	-0.016860656
186	0xbd84e9fc	-0.064899415
187	0x3de4588c	0.111497015
188	0x3da015af	0.07816636
189	0xbd93f9c6	-0.07225375
190	0x3c720258	0.014771067
191	0xbcd5fb4b	-0.026120802
192	0x3d076e1a	0.033063985
193	0x3d8bb541	0.06821681
194	0xbc358194	-0.011078257
195	0x3d1e1ea1	0.03860343
196	0xbd86fb02	-0.06590845
197	0x3c1eee58	0.00970038
198	0xbb92a457	-0.0044751572
199	0x3db7d660	0.08976436
200	0xbce6da12	-0.028180156
201	0xbd5f6da1	-0.05454791
202	0xbd277aa5	-0.040888447
203	0xbdca9ea1	-0.09893537
204	0x3ccffae1	0.025388183
205	0x3d9232c4	0.07138589
206	0xbd3f348d	-0.046680976
207	0xbd2c22c3	-0.04202534
208	0x3d2d648a	0.04233221
209	0xbcb0d7af	-0.021587221
210	0x3d0b0120	0.03393662
211	0xbd57fe21	-0.05273259
212	0x3c7df975	0.01550137
213	0x3d9002bb	0.07031771
214	0x3d2ccecd	0.042189408
215	0x3cf07ec7	0.029357327
216	0xbc8cedab	-0.017203173
217	0xbd35e78f	-0.044410285
218	0xbd081af4	-0.03322883
219	0x3bdf3792	0.0068120444
220	0xbc2c5a28	-0.010519542
221	0xbdc2b3dc	-0.09506962
222	0xbc33b55e	-0.010968534
223	0x3d7ab9cd	0.06121235
224	0x3da61df4	0.08111182
225	0x3d10e0b3	0.03537054
226	0x3d1fd800	0.039024353
227	0x3d031804	0.032005325
228	0xbd84af69	-0.06478769
229	0xbdecd14d	-0.115633585
230	0x3de27c13	0.110588215
231	0x3d587717	0.052847948
232	0xbd1dbb71	-0.038508836
233	0xbd7237b8	-0.05913517
234	0x3c5b9d0b	0.013404141
235	0x3d073ac0	0.033015013
236	0xbbf15198	-0.007364463
237	0x3d94913f	0.07254266
238	0x3cd5afd0	0.02608481
239	0x3ccb1bc0	0.024793506
240	0xbc63324f	-0.013866975
241	0x3b008e5c	0.0019616103
242	0xbb7b1a40	-0.0038315207
243	0xbd6372ac	-0.05552928
244	0xbe159b75	-0.14610083
245	0xbcdaae94	-0.026694573
246	0x3c17df9e	0.009269623
247	0xbd74b87a	-0.059746243
248	0xbce5cbfa	-0.028051365
249	0xbcc1a196	-0.02363662
250	0x3b893ad0	0.004187919
251	0x3dd0c3dd	0.10193608
252	0x3da2e423	0.0795367
253	0x3d4b8464	0.049686804
254	0xbd2ee9dd	-0.0427035
255	0x3cc5e2b8	0.02415596

layer3.bias f4 [128]
0	0xbd8c3a37	-0.06847041
1	0x3d192e4e	0.037397675
2	0xbd98ff94	-0.07470623
3	0x3bdc820e	0.006729371
4	0x39408b62	0.00018362471
5	0x3dcd2c44	0.100182086
6	0xbd072518	-0.03299436
7	0x3b9c8205	0.0047762417
8	0x3dbfcf39	0.093656965
9	0xbd92ac45	-0.07161764
10	0xbc96c0d0	-0.018402487
11	0xbd370757	-0.044684734
12	0xbd0666d7	-0.03281292
13	0x3b62d7c2	0.0034613465
14	0x3ba4b50c	0.0050264653
15	0x3d81e030	0.063415885
16	0x3d5e963c	0.054342493
17	0x3d84d843	0.06486561
18	0xbd89cfff	-0.06729125
19	0x3d3c7e44	0.046018854
20	0xbd329afb	-0.043604832
21	0x3d62c1af	0.055360492
22	0x3d5087e6	0.050910853
23	0x3d08383e	0.03325676
24	0xbd86187a	-0.06547637
25	0x3d9d13f6	0.07669823
26	0x3d1d884c	0.03846006
27	0xbc521276	-0.012821784
28	0xbd4c92c0	-0.04994464
29	0x3d52ea7a	0.051493146
30	0x3ce1f2e3	0.027581638
31	0xbce70426	-0.02820022
32	0x3d34d570	0.044148862
33	0xbd26be28	-0.04070869
34	0xbda5b184	-0.08090499
35	0x3dd5e6e8	0.104444325
36	0x3b163698	0.0022920724
37	0xbd84f0b5	-0.06491224
38	0x3da02cce	0.07821046
39	0xbc70929c	-0.014683392
40	0x3c11e1b7	0.008903912
41	0x3caadd8d	0.020857597
42	0x3d420d5f	0.047376033
43	0xbda376ee	-0.079816684
44	0x3d02c145	0.031922597
45	0xbd98eca1	-0.074670084
46	0xbd9d1891	-0.07670701
47	0x3d9c9948	0.076464236
48	0x3d42131e	0.047381513
49	0x3d9fe554	0.07807413
50	0x3dbfd7e1	0.093673475
51	0x3db7e273	0.08978739
52	0x3cbf41ed	0.023346866
53	0x3ce9e262	0.02855033
54	0xbc40adab	-0.011760156
55	0xbce40b2f	-0.027837364
56	0xbdaef41b	-0.08542653
57	0xbd845be9	-0.06462843
58	0x3d3b0cc4	0.04566647
59	0x3d146a75	0.036234338
60	0xbd86d1d5	-0.06582991
61	0x3c63c76b	0.013902525
62	0x3d37ec4d	0.04490309
63	0xbcc83c1a	-0.024442721
64	0xbcc81fca	-0.02442922
65	0x3cc73960	0.02431935
66	0x3d737616	0.059438787
67	0x3df43519	0.1192419
68	0x3d231ca3	0.039822232
69	0x3cbe49f0	0.023228616
70	0xbd68da7d	-0.05684899
71	0x3b8e4f25	0.004342931
72	0x3d92ab99	0.07161636
73	0x3d22ab96	0.03971442
74	0xb906ded6	-0.00012862249
75	0x3c68368e	0.014173163
76	0xbcaf5dec	-0.02140709
77	0xbafd46ad	-0.0019323431
78	0xbda18111	-0.078859456
79	0x3d0b6ab7	0.034037318
80	0x3ca2e084	0.019882448
81	0xbc3cd550	-0.011525467
82	0xbd2c2476	-0.04202696
83	0xbda8865d	-0.08228753
84	0xbd29d976	-0.041467153
85	0xbd1216df	-0.035666343
86	0x3c9e8fb0	0.019355625
87	0x3d0dce22	0.03462041
88	0xbd850002	-0.06494142
89	0x3d8efb2c	0.06981501
90	0x3db86234	0.09003106
91	0x3c9c5ec3	0.019088155
92	0xbc465625	-0.012105499
93	0x3d27b213	0.04094131
94	0x3c9c49a2	0.01907808
95	0xbd724b91	-0.059154097
96	0x3d6d7a66	0.057978056
97	0x3d32aaf6	0.043620072
98	0xbdae4f1a	-0.08511181
99	0x3d9eca0c	0.07753381
100	0x3d7a5002	0.061111458
101	0xbcfbf636	-0.030757051
102	0x3d8221f8	0.06354135
103	0xbcb7ef44	-0.022452958
104	0xbd94d868	-0.07267839
105	0xbd864d73	-0.06557741
106	0xbc834d4a	-0.016028065
107	0x3d21ae1f	0.039472695
108	0x3c6c086b	0.014406304
109	0xbd6649e8	-0.056222826
110	0xbcefd3db	-0.029275825
111	0xbd212ece	-0.039351277
112	0x3daadf9a	0.0834343
113	0x3cda7e02	0.026671413
114	0xbd9d5333	-0.076818846
115	0x3c042b4e	0.008066965
116	0x3d823317	0.06357401
117	0x3d75dd65	0.06002559
118	0x3d82bd29	0.06383736
119	0xbd45311c	-0.048142537
120	0xbd50fd50	-0.051022828
121	0x3d687f44	0.056761995
122	0x3d241bed	0.040065695
123	0xbd5fc36e	-0.054629736
124	0x3c7edd25	0.015555655
125	0xbcc925e4	-0.0245542
126	0x3d733f5e	0.059386604
127	0xbc482462	-0.012215706

output_layer.weight f4 [72, 128]
0	0x3c8ede17	0.017439885
1	0x3b0a93d7	0.0021145248
2	0x3d3fae95	0.046797354
3	0x3b927ed5	0.004470686
4	0xbd9e61cd	-0.07733498
5	0x3da927b2	0.082595244
6	0xbdc8541a	-0.09781666
7	0x3ce722e1	0.028214874
8	0xbda0ef28	-0.078581154
9	0x3c049368	0.008091785
10	0xbd0ba2a9	-0.03409067
11	0x3da07781	0.078352936
12	0x3d2fc69e	0.042914025
13	0x3d8a54f5	0.067544855
14	0xbb461c8c	-0.0030229418
15	0xbd4dd22d	-0.050249267
16	0xbd50dcc8	-0.050991803
17	0x3dad80c6	0.08471827
18	0x3d31bfb5	0.043395717
19	0xbdc8ca13	-0.098041676
20	0xbcecd135	-0.028908351
21	0x3d1a81dd	0.037721504
22	0x3cf5f8cb	0.03002586
23	0xbdf7a55b	-0.12092086
24	0x3d2bbd83	0.04192878
25	0xbd04dc4d	-0.032436658
26	0x3d289928	0.041161686
27	0x3d699471	0.05702633
28	0xbd4982b8	-0.04919693
29	0x3dc28a78	0.09499067
30	0x3c46b888	0.012128957
31	0x3d990de8	0.074733555
32	0xbdc249b6	-0.094867155
33	0xbd5a98cb	-0.05336837
34	0xbd44156c	-0.047871992
35	0xbc48f0e2	-0.012264462
36	0x3d4b5f13	0.049651217
37	0xbdaad479	-0.08341307
38	0x3d00da00	0.0314579
39	0xbd41d3d3	-0.047321152
40	0x3b17a6b3	0.0023140132
41	0xbca9f7d0	-0.020748049
42	0x3cff0162	0.031128589
43	0xbc03fcda	-0.00805589
44	0x3da14d21	0.07876039
45	0x3d86e714	0.065870434
46	0x3d5e8544	0.05432631
47	0x3d818629	0.06324417
48	0x3d97040c	0.07373819
49	0xbd88a93b	-0.06672903
50	0xbda00992	-0.078143254
51	0xbd037efb	-0.03210352
52	0x3c9619fd	0.018322939
53	0xbda0c7ff	-0.07850646
54	0x3d8538cd	0.065049745
55	0xbcfddd42	-0.030989293
56	0xbc3566b2	-0.011071848
57	0x3dc0c10c	0.09411821
58	0x3ce78b2d	0.028264606
59	0x3b5fced9	0.003415039
60	0xbc59d027	-0.013294256
61	0x3b2883ac	0.0025713248
62	0xbd8a5eba	-0.06756349
63	0xbd92d580	-0.07169628
64	0x3d4a8f92	0.049453326
65	0xbdb79ef6	-0.08965866
66	0x3c11acce	0.0088912975
67	0xbd1b161d	-0.037862886
68	0xbd0d2923	-0.03446306
69	0xbd8729f2	-0.06599797
70	0xbcf3d38d	-0.029763961
71	0xbcc08ac3	-0.023503667
72	0x3d9ad73d	0.07560585
73	0xbcee4540	-0.029085755
74	0x3d2b2b1d	0.041789163
75	0x3da0a1d2	0.07843365
76	0x3d52c385	0.051455993
77	0x3d7dbee8	0.06194964
78	0xbce062fc	-0.02739095
79	0xbe023e69	-0.1271912
80	0xbccd3451	-0.02504936
81	0xbd206a81	-0.03916407
82	0xbca5d41d	-0.020242745
83	0x3cb9dccd	0.022688294
84	0x3c02842e	0.007966084
85	0x3d42d737	0.047568526
86	0x3da17355	0.07883326
87	0xbd9a932e	-0.075476035
88	0xbc0e6e71	-0.0086933235
89	0x3d981b6c	0.07427105
90	0x3d36708e	0.044540934
91	0xbcb311d7	-0.021859093
92	0x3d47575b	0.048667293
93	0x3d094a93	0.033518385
94	0x3dc62e57	0.096768074
95	0x3d58edfd	0.05296134
96	0x3d8a75c5	0.06760744
97	0xbd13bf16	-0.036070906
98	0x3cf85a01	0.030316355
99	0x3d606a33	0.05478878
100	0x3d14bf71	0.036315385
101	0xbe01a196	-0.12659296
102	0xbdea0327	-0.114263825
103	0x3d2b725d	0.041857112
104	0xbcd50f71	-0.02600834
105	0x3d99386a	0.07481463
106	0x3d0ac949	0.033883367
107	0x3ce18088	0.027527109
108	0xbd5fe946	-0.054665826
109	0xbd94075a	-0.07227965
110	0xbdadf896	-0.0849468
111	0x3da5e4b1	0.0810026
112	0xbcc33c49	-0.023832457
113	0xbc593a2f	-0.013258501
114	0x3ca915b3	0.02064023
115	0xbd95abf1	-0.07308186
116	0xbc19b693	-0.009381908
117	0xbd301b29	-0.042994652
118	0xbd1b17ac	-0.037864372
119	0xbd43ff0b	-0.04785065
120	0xbd8bd80a	-0.068283156
121	0x3da8ccda	0.08242197
122	0x3dae731d	0.0851805
123	0x3d989531	0.07450331
124	0x3d9c2984	0.07625106
125	0x3dad7c75	0.08471004
126	0x3d545b8c	0.05184512
127	0x3d927031	0.07150305
128	0x3dba06f7	0.0908336
129	0x3d03b470	0.0321545
130	0xbd9f36ff	-0.077741615
131	0x3b9544d1	0.0045553227
132	0xbd407701	-0.04698849
133	0x3d9888c3	0.0744796
134	0xbd4c8b99	-0.04993782
135	0xbcc0f353	-0.023553526
136	0xbd8af141	-0.06784297
137	0xbc91a6a4	-0.017779656
138	0xbd8d84c3	-0.06910088
139	0x3c9daf63	0.01924867
140	0x3da03c4a	0.07823999
141	0xbce8bbc8	-0.028409854
142	0xbd8f0f51	-0.06985343
143	0x3d3293a2	0.043597825
144	0x3ce55777	0.027995808
145	0x3dba0b1e	0.09084152
146	0x3d8c911f	0.06863617
147	0xbded4a00	-0.1158638
148	0x3d9bd132	0.0760826
149	0x3d840d13	0.06447806
150	0x3da5f58a	0.081034735
151	0xbd38154d	-0.04494219
152	0x3d8a969e	0.06767009
153	0x3daba398	0.083808124
154	0xbd8eff9d	-0.06982348
155	0x3db3be65	0.08776549
156	0x3dab0de1	0.083522566
157	0x3dad1041	0.08450366
158	0x3d9ea14b	0.07745608
159	0x3d1565c3	0.036474
160	0xbcaed358	-0.02134101
161	0xbd9ece70	-0.077542186
162	0x3d856dc6	0.06515078
163	0xbde61c24	-0.11235836
164	0x3d80c4ca	0.062875345
165	0x3d11a2ff	0.035555836
166	0x3d590f70	0.052993238
167	0xbd2ddab4	-0.0424449
168	0xbd4e5a16	-0.05037888
169	0x3bd13cdb	0.0063854284
170	0xbd644fe0	-0.055740237
171	0xbd54dab8	-0.0519664
172	0x3d891e7b	0.06695267
173	0xbd39a255	-0.045320828
174	0xbc371ed9	-0.011176788
175	0x3bc5006d	0.0060120136
176	0x3c473810	0.012159362
177	0x3cd9ad79	0.026571976
178	0xbda60bbd	-0.08107708
179	0xbdc4faad	-0.09618125
180	0x3da4fca5	0.080560006
181	0x3d80701e	0.06271385
182	0xbd396a91	-0.045267645
183	0xbba04439	-0.0048909453
184	0xbd0c7d8e	-0.034299426
185	0x3ccd2ccb	0.025045773
186	0xbe0cbda3	-0.13744216
187	0xbba0dee6	-0.004909384
188	0xbcf21fe9	-0.029556232
189	0xbb2840d0	-0.0025673397
190	0xbda0c9f9	-0.07851023
191	0x3d65acc1	0.056072954
192	0xbd4f41ba	-0.05059979
193	0xbd2809dc	-0.041025028
194	0xbc9be8ec	-0.019031964
195	0xbdca4f14	-0.09878364
196	0x3db099b3	0.08623066
197	0x3d036eda	0.03208814
198	0xbb105f3a	-0.0022029416
199	0x3cbee133	0.023300743
200	0xbd3ca96d	-0.046060015
201	0x3d1a04d2	0.037602253
202	0xbd431ca2	-0.04763473
203	0xb9d0888e	-0.00039774593
204	0x3d303497	0.043018904
205	0xbcb6b3cc	-0.02230253
206	0x3d4f9453	0.050678562
207	0xbd2edf94	-0.04269369
208	0x3c90088b	0.017582199
209	0x3d17cd2d	0.037060905
210	0x3d9c702b	0.07638582
211	0xbb361c20	-0.002778776
212	0x3dcc8524	0.09986332
213	0x3d85e134	0.06537095
214	0x3d698962	0.057015784
215	0x3d84f842	0.06492664
216	0xbda2d227	-0.0795024
217	0x3dc09c43	0.094048046
218	0x3ab11b0e	0.0013512091
219	0xbd4b99df	-0.04970729
220	0x3dc49be1	0.09600044
221	0xbc35b615	-0.011090775
222	0x3d1cb862	0.03826178
223	0x3ca5f8c0	0.020260215
224	0xbbd247eb	-0.0064172647
225	0x3de1e813	0.11030593
226	0x3cfd5536	0.03092442
227	0x3da29ae6	0.07939701
228	0x3d44e9ef	0.04807466
229	0xbd87ae9f	-0.06625103
230	0xbd270e0e	-0.040784888
231	0xbcc688d6	-0.02423517
232	0x3d0b736d	0.034045625
233	0xbcabd7af	-0.02097687
234	0x3c83eb15	0.016103307
235	0xbdb7db97	-0.0897743
236	0xbb7bbcfe	-0.0038412209
237	0xbd434a99	-0.047678564
238	0x3cf0b9fb	0.029385557
239	0x3d358395	0.04431494
240	0xbc800cfd	-0.015631193
241	0x3d4f1296	0.050554834
242	0xbbd1aa41	-0.0063984697
243	0x3d373c06	0.044734977
244	0xbd67c6b8	-0.056585997
245	0xbdb0a532	-0.086252585
246	0x3d9cde85	0.0765963
247	0xbd020836	-0.03174611
248	0xbd9d8056	-0.07690494
249	0x3c364dbc	0.011126932
250	0xbcaefe5a	-0.021361519
251	0xbd405e4e	-0.046964936
252	0x3d349759	0.04408965
253	0x3d49312e	0.049119167
254	0x3d950e6f	0.072781436
255	0xbd69f962	-0.057122596

output_layer.bias f4 [72]
0	0xbda3d34a	-0.079992846
1	0xbd3f249a	-0.046665765
2	0x3c2614af	0.010136767
3	0x3d482be0	0.048869967
4	0xbd654354	-0.055972412
5	0xbcf99438	-0.030466184
6	0x3d46e77b	0.0485606
7	0xbd734d77	-0.059400048
8	0xbd3ae71d	-0.045630563
9	0xbc885e58	-0.01664655
10	0xb8f6395f	-0.0001174088
11	0xbd2854bd	-0.041096438
12	0xbcc32e8d	-0.023825908
13	0xbd99b71a	-0.07505627
14	0x3d9b5e0a	0.07586296
15	0xbc4ae2bc	-0.012383159
16	0xbcd4b6e6	-0.025966119
17	0x3ca48cfe	0.020086762
18	0x3d244269	0.040102396
19	0xbd2c0ffb	-0.042007428
20	0x3c892a93	0.016743934
21	0xbdc3fe33	-0.09569969
22	0xbd8970a8	-0.067109406
23	0x3cfae35e	0.030625995
24	0xbc94e4a1	-0.018175425
25	0xbd9025b9	-0.07038445
26	0x3ca25d00	0.019819736
27	0xbcc98c31	-0.024602981
28	0xbdbbe8c6	-0.091752574
29	0xbd3e7f1c	-0.04650794
30	0x3d615cac	0.05502002
31	0xbd8610b1	-0.065461524
32	0xbd82aa4a	-0.06380136
33	0xbdac3bc9	-0.084098406
34	0xbd9ba3d1	-0.07599605
35	0xbda05619	-0.07828922
36	0xbd92f67f	-0.07175922
37	0xbcabf583	-0.020991093
38	0xbd39983b	-0.045311194
39	0x3c4bc991	0.012438194
40	0xbd962f3f	-0.0733323
41	0xbd648713	-0.05579288
42	0xbd503149	-0.050828252
43	0xbccaa73c	-0.024737947
44	0x3cb7dc05	0.02244378
45	0x3ce3cde7	0.027808143
46	0xbc652b69	-0.013987401
47	0x3c9c991a	0.019115973
48	0xbcd6675c	-0.026172332
49	0xbcc22b8a	-0.023702402
50	0xbc73cf7e	-0.014881013
51	0x3d1fb015	0.038986284
52	0xbc9fb1e8	-0.019494012
53	0x3c9266c6	0.017871272
54	0x3c841ba5	0.016126463
55	0x3d963364	0.07334021
56	0x3d0ba0aa	0.034088768
57	0x3cbd1e17	0.023085637
58	0xbd605cef	-0.05477613
59	0xbdb17b91	-0.086661465
60	0x3ce9b213	0.028527295
61	0x3d87d79e	0.066329226
62	0xbd96be6f	-0.07360541
63	0x3c8e481e	0.017368373
64	0x3d6dec93	0.058086943
65	0xbd9544a9	-0.072884865
66	0xbd53748f	-0.05162483
67	0xbd9ad607	-0.07560354
68	0xbd29111b	-0.04127608
69	0x3d41b825	0.047294755
70	0x3bedb568	0.0072542913
71	0xbdc1e91e	-0.09468292
