results/train/SAC_robot_weight_15kg_force25_SLOPE/best_model.pt (torch, 90959 bytes, 6 tensors)

linear1.weight f4 [128, 40]
00000000: cf70 44bd 0916 cbbc b490 debd 885c 0e3f
00000010: 4234 0a3c f92d 73be e729 863e 78b8 99bd
00000020: 4441 13be 2b7d 29bd 6703 523e e749 313d
00000030: 3ebb c0bd 6c0d cb3d 506c 023e 9e88 4bbd
00000040: c083 27be 5ba3 05bd ad34 75be 50be e7bb
00000050: 63bf d3bc 6318 fbbb 2eb0 c1bc c26a 0abe
00000060: 24d0 0ebe 4fcb 983d 8694 9abd eb9d 87be
00000070: 756b 723d 08f0 253c a4e2 35bd bc60 2cbe
00000080: 3ce2 9a3d 9232 a2bc f2af 283e bda8 3bbe
00000090: 41b7 adbd d748 363d ebe7 2ebe 4917 88bc
000000a0: bb88 96bd e78b f53d 60ec 80bd 8561 fdbe
000000b0: 0011 8e3e db7b ec3d 1030 cfbd a51f 9d3d
000000c0: efe9 853e ee02 8cbd 3751 8cbd 33ea 5e3e
000000d0: 6e6b 9a3d 4741 d83d bdf8 10bd e409 3cbd
000000e0: 2f45 97bc 18d3 a53d fee6 033e 1c4d 0d3e
000000f0: 8f2d 59bd ae25 163d 8cb0 803e f538 6fbd
00000100: d9be 8d3e 1356 a33c 8d55 523e 4a56 0d3e
00000110: 894d 213d 9e64 033e 1f6a e23d 658b c53d
00000120: 0491 543c f5bc 873e f09f 4e3e 2325 2a3e
00000130: e555 353e 9077 e7bc 1e84 1d3e b066 513d
00000140: c278 ba3d 729d 8cbe a7ba 4d3d 8fd8 1f3f
00000150: 812d 23be ed93 80be 980e f43d 6faf 20be
00000160: 547b 39be e65e 23bd c253 2e3e 2e6c 0ebe
00000170: 76aa c73d 2e0c 133b ce3b aa3d b09a 4f3d
00000180: 80eb 643d 0ac6 18be f68a e4bd 6c52 733d
00000190: 98ee 48bd f8e6 d93b 38a3 5d3b 5915 b43d
000001a0: bf01 a93d 5f4f c63d dfd5 923d e931 92be
000001b0: 52c6 07be c216 e7bb 7031 80be 91a2 c8bc
000001c0: 31c5 32be ceb3 843d af4a 15bc 7d6f c63c
000001d0: 8e67 6fbe 9f48 acba 8651 3dbd 8d54 6fbe
000001e0: b606 963c f179 3bbe 150c 0fbe 09ef 9d3e
000001f0: 8e63 d6bd 4dc7 9b3d 0e11 be3c 9ae5 d2bd
00000200: 4699 58bc b95b 0cbd 8ef9 51be 87b2 69be
00000210: 89e6 6d3d ef46 0abd 13e6 0ebe 5902 363d
00000220: e5d5 0d3e f915 a43d 1215 b0bd fd3a 013e
00000230: e74d 0e3d 55e4 da3d aa11 bb3d bc99 19bd
00000240: 1712 73bd 7527 e93d dd10 e13c 6e0b 4ebd
00000250: 0701 513d 1b45 18be 2d41 0f3e abaf e5bd
00000260: 2237 82bd bbec 57be d80a 1b3e b5b7 e13c
00000270: bc20 46bd 27d8 42be 12ae a63d 9afa fbbc
00000280: 4082 b73d 4d0a 3a3e f7e0 703c b2d1 1abf
00000290: c57f ab3d 1659 943e 1127 c0be 0a6d 683c
000002a0: db6b 54bd db5b f23d b00f a1bd 8d12 e23d
000002b0: c628 dc3d 9956 503d d96b 78bd fae8 2b3d
000002c0: cec1 b33d 9224 613e 0445 d13d 2a28 a93d
000002d0: 1a8f 9cbd 80d3 15be 5020 943e 1b4f 743e
000002e0: 0fdd a3bc 6ec1 2d3d 2103 483e 9232 4e3e
000002f0: aea6 693e 0469 2a3e 1d85 853e ab47 8c3d
00000300: 5bfa 8c3d f7bd 0a3d 3535 4d3e 9a99 bd3d
00000310: a909 633e eeb4 b83c b1d9 4a3e e1a8 953e
00000320: ea30 873e 08c1 683d 35f3 2b3e e8b9 01bf
00000330: 8545 743e cf79 383e 8ea5 3dbe 0fc9 10bd
00000340: 41ab 8f3d 4733 c8bb 9819 c1bd f114 693e
00000350: 2bd6 58bd 161e 163e 1307 c2bd eb33 5d3e
00000360: 49d2 123e ce5b 4d3b b54d 463e 236b c53c
00000370: 1176 663e 26e2 db3d c21e 48bd 2239 62bd
00000380: 5fd6 6b3e 811f 27be e7d1 23bd 075a 813e
00000390: 6d56 273e 6e20 f73d 0fe7 1f3e dda4 853e
000003a0: c429 82bd ba67 49bb cf61 8c3c bb07 253e
000003b0: 69cb e33d 38e8 023e b87e 283e 5fae 113e
000003c0: 1905 5fb8 fcd0 08be ab56 e5bd cb75 15be
000003d0: d599 2dbe aa5d 03be 2e2f 0f3e 41ac 353e
000003e0: 9092 3ebd dc9d 36be 1dd9 623c 455f 43be
000003f0: 017c dbbd 3834 173d 11ce f23d cff9 0bbd
-0.047959145 -0.02479078 -0.10867444 0.5560994 0.008435311 -0.23748006 0.26203844 -0.07505888
-0.14380366 -0.041379135 0.2050911 0.04328337 -0.094107136 0.099146694 0.1273663 -0.049690835
-0.16358852 -0.03262649 -0.23945875 -0.0070722476 -0.025848096 -0.007662819 -0.02364358 -0.13517287
-0.13946587 0.07460653 -0.0754786 -0.2648767 0.05918451 0.010128029 -0.044405594 -0.16833776
0.07562682 -0.019799504 0.16473368 -0.18326087 -0.084822185 0.04450306 -0.17080657 -0.016612666
-0.07350298 0.11989575 -0.06295085 -0.49488464 0.27747345 0.11547061 -0.10116589 0.07672051
0.2615504 -0.06836496 -0.06851428 0.21769027 0.07540022 0.10559326 -0.035393465 -0.04590787
-0.018465606 0.080969036 0.12881085 0.13798946 -0.053021964 0.036657028 0.25134695 -0.058403928
0.27684668 0.019938504 0.20540448 0.13802448 0.039380584 0.12831351 0.11055397 0.09645728
0.012974028 0.2651135 0.20178199 0.16615729 0.17708547 -0.028255254 0.1538243 0.05112332
0.09105064 -0.2746387 0.050226834 0.6243982 -0.15935327 -0.25112858 0.11916846 -0.15691923
-0.18113452 -0.039885424 0.17024139 -0.13908455 0.0974931 0.002243768 0.08312188 0.05068463
0.055888653 -0.14919296 -0.11159317 0.059404776 -0.049055666 0.006649848 0.003381921 0.08793134
0.08252286 0.096831076 0.07169699 -0.28553703 -0.13259247 -0.0070522735 -0.25037718 -0.02449158
-0.17458035 0.064796075 -0.009112044 0.024223084 -0.23379347 -0.0013144201 -0.046220325 -0.23372097
0.018313747 -0.18308236 -0.13969453 0.30846432 -0.10468207 0.07606373 0.023201492 -0.10297699
-0.013220137 -0.03426716 -0.20505354 -0.22822009 0.058081184 -0.033759054 -0.13954954 0.044435833
0.13851126 0.080120035 -0.08597769 0.12620158 0.034742262 0.10688082 0.091342285 -0.03750013
-0.059343424 0.11384479 0.027473861 -0.05030387 0.05102637 -0.14870112 0.13989706 -0.11215147
-0.06358172 -0.210864 0.15140855 0.027553419 -0.04837106 -0.19027768 0.0813867 -0.030759145
0.0896039 0.18167992 0.014702073 -0.6047622 0.083739795 0.28974217 -0.37529805 0.014186153
-0.05186067 0.11833926 -0.0786432 0.110386945 0.107499644 0.050863836 -0.060649727 0.04197023
0.087772 0.21986607 0.10218242 0.08259614 -0.07644482 -0.14631462 0.28930902 0.23858301
-0.02000287 0.042420797 0.19532444 0.20136479 0.2281749 0.16641623 0.2607812 0.06849607
0.06883689 0.03387257 0.20039828 0.09257813 0.22171654 0.022547211 0.19809605 0.29230407
0.26404506 0.056824714 0.16791995 -0.50674295 0.23854645 0.18015216 -0.18520185 -0.035347994
0.07015086 -0.0061096284 -0.0942871 0.22761895 -0.05293862 0.14659914 -0.094740056 0.21601836
0.1433803 0.0031335237 0.1936558 0.024098938 0.22505976 0.10736494 -0.048857458 -0.055230267
0.23030995 -0.16320612 -0.0399951 0.25263998 0.16341563 0.12066732 0.15615486 0.26102343
-0.063556224 -0.0030731992 0.017136483 0.1611623 0.11122782 0.12783897 0.1645459 0.14226674
-5.317209e-05 -0.13360971 -0.11198171 -0.14595716 -0.16953214 -0.12828699 0.13982841 0.17741491
-0.04652649 -0.17833656 0.013845709 -0.19079311 -0.10717011 0.036915034 0.1185571 -0.034173783

linear1.bias f4 [128]
00000000: 8f4b a5bd 8558 ed3d 573f bcbd 3b8c 2dbd
00000010: 0ec3 da3d 4871 c03d 2618 08bc 68e1 42bd
00000020: 0000 0000 891c d23d 6187 9b3d 0000 0000
00000030: ada0 af3d d300 50bd 0000 0000 0000 0000
00000040: 0000 0000 b766 a6bd 5e92 6abd df8d ba3d
00000050: 2817 f4bb 5757 5dbc 0000 0000 eada 9bbd
00000060: 3aa2 3fbc 464a b3bd 3e60 ab3d c80a 41bd
00000070: 3894 9f3d dc49 a43d 9e22 1cbc 6b9f 9b3d
00000080: bb86 733c 29f9 b53d 93e3 80bd ac1d 8dbd
00000090: 8ce6 69bc 2c70 87bd 48b6 a1bd ac18 95bd
000000a0: 1438 ea3d 3f26 fabd 7233 a3bd f245 bf3d
000000b0: 934c 1ebd f6fb 4ebc a638 f5ba ad1a 3dbd
000000c0: 13b4 8abd df06 9dbd 4cc7 12bb 381f b43d
000000d0: 2d10 6a3d 0000 0000 0dd6 72bd 7e7b 96bd
000000e0: dfcd d6bd 8346 303b 0000 0000 c3a2 c83d
000000f0: 3ed3 75bc 6745 c13d e714 e23d dd21 e8bc
00000100: 5369 e2bc 0000 0000 0000 0000 0000 0000
00000110: f85a cebc 0f05 17bc 0000 0000 ceff 8ebc
00000120: 668d 84bb 0000 0000 65aa ee3d 0000 0000
00000130: 8fcd 8abc 0000 0000 9803 b73d 88ff 60bc
00000140: bef7 9ebd 0000 0000 8f1b 77bc 0ecd 39bd
00000150: 081a 9dbd 0000 0000 9195 9d3d b6d6 803d
00000160: 2d13 c6bd 0000 0000 2ba4 b3bd 5754 adbd
00000170: 0000 0000 636d 96bc b88d 8dbc 0000 0000
00000180: 7061 03bd bc84 ca3d 5095 9ebd dcb7 dc3d
00000190: 04cf a3bd 2170 afbc 0399 963d 2678 73bc
000001a0: bb68 2fbc 0000 0000 416a ecbb 3536 62bc
000001b0: 45bb 02bd 7dcf f33d aa6f 88bc cb28 b53d
000001c0: 3291 e73d c712 973d 0000 0000 0000 0000
000001d0: 0000 0000 7640 b83d 0000 0000 13d6 e73d
000001e0: 688d 8fbd 5418 b2bb 0a80 ab3d 428d 1abc
000001f0: 0a1b 80bc 7acf febc 0000 0000 0000 0000
-0.08071052 0.115891494 -0.091917686 -0.042370062 0.10681735 0.09396607 -0.008306539 -0.047578245
0.0 0.10259349 0.07594181 0.0 0.08575568 -0.050782036 0.0 0.0
0.0 -0.0812506 -0.057268493 0.09109091 -0.0074490495 -0.013509593 0.0 -0.07610114
-0.011696393 -0.08754401 0.08367966 -0.047129422 0.07791942 0.080219 -0.009529738 0.07598766
0.014863665 0.08885414 -0.06293406 -0.06890425 -0.014276158 -0.06613192 -0.078960955 -0.072800964
0.11436477 -0.12214326 -0.07968797 0.09339513 -0.038647246 -0.012633314 -0.0018708899 -0.046168018
-0.06772628 -0.07667326 -0.0022396622 0.08795017 0.057144333 0.0 -0.059286166 -0.07347773
-0.104884855 0.0026897497 0.0 0.09796669 -0.015003977 0.094370656 0.11039143 -0.02833646
-0.027638113 0.0 0.0 0.0 -0.025189862 -0.009217515 0.0 -0.017455962
-0.0040451763 0.0 0.11653594 0.0 -0.016943721 0.0 0.08936232 -0.013732798
-0.07762097 0.0 -0.015082254 -0.04536157 -0.07670981 0.0 0.07694543 0.06290953
-0.09671626 0.0 -0.08771547 -0.08463352 0.0 -0.018362707 -0.01727949 0.0
-0.032075346 0.09888598 -0.07743323 0.10777256 -0.079984695 -0.021415772 0.073534034 -0.014860189
-0.010706122 0.0 -0.007214815 -0.013806869 -0.031916875 0.119048096 -0.016654808 0.08845671
0.11306991 0.07376628 0.0 0.0 0.0 0.0899667 0.0 0.11320128
-0.07009393 -0.005435029 0.08374031 -0.009433093 -0.015637893 -0.031104792 0.0 0.0

linear2.weight f4 [128, 128]
00000000: 2beb c9bc 28cf 1abe f8ed dc3d 9682 2a3d
00000010: 055e 46bd a004 16be 4774 34bc 84f0 7c3b
00000020: d99f 123e cdee 923d 4401 0fbe 84d9 10be
00000030: 347e 3dbd fcc6 e13d 8f5f f4bd 99c0 373d
00000040: 46d5 e43d 9824 753d b193 1b3d 8261 1bbe
00000050: 6e0c 5bbd e96b f9bd 6951 11be e348 c5bb
00000060: 21c3 91bc 2a7c 49be 8480 66be f159 453d
00000070: 3834 2abe bbc2 123d fa75 ff3d b5f9 3f3d
00000080: 899c 573d 2310 64be 0fa1 403e a94e cb3e
00000090: a514 abbd 5f58 c93d 4bc5 be3d bb27 1abc
000000a0: 2130 523d 7689 293e 8a66 643e 6702 bdbd
000000b0: 2fb3 b9bd 90d8 073e ad0e 12be a899 6d3d
000000c0: d0ea a13e e636 9a3c 2c1a f93c 0059 27be
000000d0: 1c13 ca3c 346b 5f3d fe46 1ebe 0118 27bd
000000e0: 6885 ccbd 83cb 3d3e 8258 193e 2946 83bd
000000f0: 77fe ec3d f984 81be fd6d f0bd ec79 c03d
00000100: f959 3e3d 0da4 073e 8b2b d7bd 37fa afbc
00000110: e044 293e 0a40 dc3c 7aee 88bd 0007 803e
00000120: 5c14 f0bd 2848 79bd b983 66be ff86 b9ba
00000130: 175e 013e e7d5 473d 1bee 42be 0a40 993d
00000140: f36e 403b dfe6 8bbc 72aa 0c3c 8a5d de3c
00000150: 2376 df3d 54a1 1a3e 22dd 91bb b608 8bbb
00000160: 583a 163e b62c eb3c 498b cd3d b6bf 61bd
00000170: e114 ca3c c123 3c3d 7d6a 973d 0581 443c
00000180: 52b3 02be 9b2d 98bd 5ee9 783d 3694 77be
00000190: a386 073e 37ee c3bd f895 ba3d a766 b03d
000001a0: d5ac c4bd ae80 203d 9911 f73d 78f9 f53d
000001b0: 3fa7 ab3d 1155 11be 85f1 04bd 88d7 87bd
000001c0: d797 4abc 1f75 e33c 3aef 083e 5c36 b2bc
000001d0: a956 dc3d a860 c53c 2c6e e2bd 7acb a13c
000001e0: 37fc 103d 1787 993d df4f 86be 5590 d53d
000001f0: 721b d83d 8293 9cbd ecf8 f83d c313 00bd
00000200: cf80 1c3e 6275 9e3e 254a 81bd 37cb febd
00000210: ed6a 183e ba92 8a3e 93b9 c4bd 0650 923d
00000220: a134 b6bd 4ac9 7d3e d65a ec3e ef6a 18be
00000230: 271a f73e 1135 ab3d 3382 303c ff0b 07be
00000240: e229 80bd a603 cf3a 36b1 2a3e 0208 893e
00000250: cb44 ca3d cf83 0cbc 7f14 183c 6d72 5ebe
00000260: 1a7b ee3d 9ae7 9ebd 3ac3 0c3f 8b73 55be
00000270: 5295 0b3e 4631 b03e f2ff fd3d ff7d a83e
00000280: d283 c3bd c68a 9c3e 3f0d 3abe b23f a7be
00000290: 5c6e e03c bee4 9bbe 7383 92be 275b 813c
000002a0: ba79 da3e eb12 d1bd 3dc9 2fbe 3443 c63e
000002b0: 1677 12be 3708 f3bd c116 833e 393b 10be
000002c0: 8072 67be 5a02 8ebe b3ae 57bd 363d 433e
000002d0: 1530 143e af10 a03d 324f 0e3e af68 8fbe
000002e0: 50a0 da3d 3456 3cbd f4f5 8f3d ffab a83d
000002f0: 5257 1b3e aadd 963e c9ac 8c3e d5fc 0abe
00000300: c855 d63d 4979 153e 35bf f9bb 232c 063e
00000310: 1009 32bc 22c9 8fbd c247 eab9 398d 0fbe
00000320: 8a45 44bd 8a10 863d 0425 9f3e 93e1 2c3d
00000330: 0482 b13d d10b 8f3d b52d c23e 1a85 23be
00000340: 15ec 463d 0368 613c d458 063e f7b9 d53d
00000350: ff3a babe 4a0e 623d 9905 d73e 1e4e 173e
00000360: 3d90 0a3d 5df8 583d a2a0 e3bd 38ce d93d
00000370: ca9c 9bbd c672 8c3d ace6 12bd 9214 a5bd
00000380: 31c9 bebd ca0b bc3e b701 a5be e60d bf3e
00000390: fff0 4abe 0668 e63c 5323 5e3e e3f7 04be
000003a0: 80f5 34bb 32fd c4bd 0014 80bd a4a1 12be
000003b0: d118 fbbc d0b1 a33e 53bd 543d 77b1 973e
000003c0: c082 5c3e c052 d13d ed79 3b3d 15fb f73d
000003d0: 7a3e 04bc 25a2 b63d 1c6d b4bb 5e57 c43d
000003e0: a2cc 68be d078 3f3e 6705 d73e 0140 19bd
000003f0: e40c dd3c a5f5 153e d476 2cba ad8a 1b3e
-0.02464827 -0.15118086 0.107875764 0.041628443 -0.048429508 -0.14650202 -0.011014051 0.0038595507
0.1431879 0.07174454 -0.13965327 -0.14145476 -0.046262935 0.110242814 -0.11932289 0.04486141
0.11173491 0.05984935 0.037982646 -0.15173915 -0.05347865 -0.12178785 -0.14191212 -0.0060206517
-0.01779324 -0.19676271 -0.22509962 0.048181478 -0.16621482 0.03583024 0.12473674 0.046869
0.052639518 -0.2227178 0.18811439 0.3970845 -0.08353547 0.098313086 0.093149744 -0.009408887
0.05131543 0.16556343 0.2230474 -0.09228974 -0.0906738 0.13266206 -0.14263411 0.058007866
0.3162446 0.018825006 0.030407988 -0.16342545 0.024667315 0.054545596 -0.15456769 -0.040794376
-0.09986383 0.18534665 0.1497517 -0.06409866 0.11571973 -0.25296763 -0.117397286 0.09398255
0.046472523 0.13246174 -0.10506352 -0.021481616 0.1653018 0.026886005 -0.06686111 0.2500534
-0.11722633 -0.06085983 -0.22511186 -0.0014154612 0.12633549 0.048787978 -0.19036143 0.074829176
0.0029363006 -0.017077861 0.008585559 0.027144212 0.10911205 0.15100604 -0.00445141 -0.004242982
0.14670694 0.028707843 0.10036332 -0.05511447 0.024668159 0.045932535 0.07393358 0.011993651
-0.12763718 -0.074305736 0.06076943 -0.24177632 0.13234954 -0.0956692 0.091106355 0.086133294
-0.096032776 0.03918522 0.12063903 0.12010473 0.08381509 -0.14192607 -0.032456893 -0.06632906
-0.012365303 0.027765809 0.13372508 -0.021754436 0.107587166 0.02409394 -0.1105617 0.019750345
0.03539678 0.074964695 -0.26232812 0.1042792 0.1055211 -0.076453224 0.12156853 -0.031268846
0.15283512 0.3094893 -0.0631297 -0.12441104 0.14884539 0.27065068 -0.09605708 0.071441695
-0.08896757 0.24783817 0.46163052 -0.14884542 0.4826214 0.08359731 0.010773229 -0.1318817
-0.062579885 0.0015793934 0.16669163 0.26763922 0.098764025 -0.0085763475 0.00928223 -0.21723337
0.116445735 -0.07759018 0.5498539 -0.20844857 0.1363118 0.34412593 0.12402333 0.32908627
-0.09546627 0.30574626 -0.18169115 -0.32665783 0.027396373 -0.30447954 -0.28615913 0.015790535
0.42670995 -0.102086864 -0.1716661 0.38723147 -0.1430324 -0.11866801 0.25603297 -0.14085092
-0.22602272 -0.2773617 -0.05265684 0.19066319 0.14471467 0.07815682 0.13897398 -0.28009555
0.106751084 -0.045980647 0.07029334 0.08235931 0.15170029 0.2946599 0.27475575 -0.1357301
0.1046558 0.14597048 -0.0076216706 0.13102774 -0.0108664185 -0.07020785 -0.00044685422 -0.14018716
-0.04791788 0.06546123 0.31082928 0.04220731 0.08667377 0.06984676 0.37925497 -0.15968743
0.04856499 0.0137577085 0.13119823 0.104358606 -0.36373135 0.05518941 0.41996458 0.14775893
0.033828963 0.052971233 -0.11114623 0.10635036 -0.075982645 0.06857829 -0.035864517 -0.08060564
-0.09315718 0.36727744 -0.3222787 0.3731529 -0.19818495 0.028125774 0.21693163 -0.12985186
-0.002761215 -0.09618606 -0.06253815 -0.14319474 -0.030651482 0.31971598 0.051938366 0.29627582
0.21534252 0.102208614 0.045770574 0.12108437 -0.008071536 0.08917645 -0.005506171 0.095869765
-0.22734311 0.1869843 0.4199631 -0.037414555 0.026983686 0.14644487 -0.0006578986 0.1518962

linear2.bias f4 [128]
00000000: 48f5 22bd 22c7 113e 0000 0000 efc5 f0bc
00000010: 77fb 96bb 3cf4 233e eee8 2fbd 6b82 7cbc
00000020: 1d10 183e 0000 0000 0000 0000 db41 45bd
00000030: ea8c cebc ec87 0cbc 6afc 1a3e 397c b63d
00000040: 65fc 19bc 0561 a1bc d166 8fbc 6e3d 0fbc
00000050: a3a7 47bc ef15 143e fc80 093e 1844 3bbd
00000060: 521c 13bc fd5f 32bc d1d0 0e3e 3182 123e
00000070: 0878 08bd ffc1 0c3e 9c93 4cb9 216d 1bbd
00000080: 65e2 afbb e6d3 a5bb e792 b3ba fb56 47bd
00000090: 7573 00bc 0000 0000 183a 62bc 01cf 4fbd
000000a0: cacd d4bc df3a b6bc 83b9 09bc 3ac7 7bbc
000000b0: c0d6 9cbb 7d9a 22bd 234a 5dbb 3fc7 07bd
000000c0: f09d 00bd 2238 1a3e 7b9d 2b3e 66b8 52bc
000000d0: 5cb6 163e 64e9 63bc 0375 04bc c2ea 1abc
000000e0: 8a78 1a3e 6526 2e3e c394 233e 23d4 59bc
000000f0: afb8 00bd f58e 263e d6cf babc 00af 863d
00000100: a2bc 82bc 1349 1f3e b12f 0f3e 141f 35bd
00000110: bef4 14bd 5a8e 5abc 53e0 00bd 3ea7 9fbc
00000120: 0000 0000 8248 aebb bfb9 603d f682 38bc
00000130: d0e4 7ebc 37cb b3bc 576d 06bd ff04 39bc
00000140: 81d3 cebc a4c4 adbc a716 98bb 0000 0000
00000150: e1bd 64ba 8e98 f8bb 0000 0000 f3a3 98bc
00000160: c52c 28bd 3fd4 ecbc 0000 0000 7d65 0abd
00000170: 47fc 26bd 0000 0000 0000 0000 0000 0000
00000180: 9f8c ffbc e151 fabb 5ccd 03bd eec6 b4bc
00000190: 02d2 26bd d545 ddba 6acf 46bc 25a3 a4bc
000001a0: 9577 77bd c362 1f3e e2da fdbc 7054 01bc
000001b0: 09ef 1bbd 2338 78bd 28b5 24bc 7957 153e
000001c0: 3d45 11bc 01bd 9bbc a993 ccbc 17a1 7cbc
000001d0: 0000 0000 60cd adbc 2299 bcbb 4a5a f1bc
000001e0: 2333 48bd 0bac 71bc ed24 2ebc bae6 50bc
000001f0: 80b7 26bd 6515 db3b 0000 0000 fc64 dabc
-0.0397847 0.1423612 0.0 -0.029391257 -0.0046076137 0.16011137 -0.04294675 -0.015411953
0.14849897 0.0 0.0 -0.048158508 -0.025213677 -0.008577328 0.15135351 0.08910412
-0.009398554 -0.019699583 -0.017505081 -0.008742673 -0.012185964 0.14461492 0.1342811 -0.045719236
-0.00897892 -0.010887143 0.13946845 0.14307477 -0.033317596 0.13745879 -0.00019509945 -0.03794587
-0.0053675645 -0.0050606607 -0.0013700397 -0.048666935 -0.007840027 0.0 -0.013807796 -0.050734524
-0.025977034 -0.022244869 -0.008406046 -0.0153673235 -0.0047863424 -0.039698113 -0.0033766113 -0.033149
-0.03140062 0.15060475 0.16759293 -0.012861347 0.14718002 -0.013910625 -0.008084538 -0.009455385
0.15085045 0.17006834 0.15974717 -0.013295206 -0.031426128 0.16265471 -0.022804182 0.06576347
-0.015959088 0.1555522 0.13983037 -0.04421909 -0.036366217 -0.013339603 -0.031463932 -0.019488927
0.0 -0.005318702 0.05486464 -0.011261692 -0.015557483 -0.021947486 -0.03281912 -0.011292695
-0.025247337 -0.02121193 -0.0046413722 0.0 -0.0008725804 -0.0075865453 0.0 -0.018632865
-0.04105832 -0.0289098 0.0 -0.033788193 -0.040767934 0.0 0.0 0.0
-0.031194983 -0.0076391553 -0.032178268 -0.022067513 -0.040727623 -0.0016881773 -0.012134412 -0.020097325
-0.060416777 0.15565018 -0.03098816 -0.007893667 -0.03806976 -0.06060041 -0.010052957 0.1458415
-0.008866605 -0.019011023 -0.024972754 -0.015419266 0.0 -0.021216094 -0.0057555595 -0.029461998
-0.048876893 -0.014750491 -0.010628921 -0.012750322 -0.040702343 0.0066859 0.0 -0.026659481

mean_linear.weight f4 [1, 128]
00000000: cd35 733e effc e4be 7033 3ebe b30a 9a3e
00000010: 7934 263e 0efa b5be 7b48 b73e 8547 ccbd
00000020: cc94 d4be 8594 c1bd 09ea 92bd 7e8d b73e
00000030: 1273 a13e 48a1 b83d 6ddd e2be ba74 1abe
00000040: 36d5 44bd 0dcc 7bbd 8f53 37be 7f7c a43d
00000050: 2636 3e3e f20a ebbe fa54 b1be aa9c ce3d
00000060: 975a 173e c63c 063f 680b c7be 2a23 dbbe
00000070: 7b75 2e3e b95c fbbe 696a 153e 7939 8f3e
00000080: 165e 623e 2077 3e3d c867 e1bd 6404 a83e
00000090: 1285 063d 3448 17be 0693 24be 5f99 8e3e
000000a0: 2008 473e 1886 19be a8c8 2dbe d476 c43e
000000b0: b048 9fbd 5976 373e 912e f8bd 3bef ee3e
000000c0: 630f b5bd aa11 aebe 6648 d5be 184c 08be
000000d0: 9eb2 0abf 4ac3 a6bc 1f8c 2bbe 2e8f bbbd
000000e0: 65f3 d7be 7444 babe 56c4 c8be 146e 5cbb
000000f0: eb59 9c3e b252 d2be a859 933c fbc2 3fbe
00000100: e6af 4cbe 6bcf c9be 8f82 a8be a28f f73e
00000110: 8d29 f23d 9cee 10be a835 973e f25e 0b3d
00000120: 368e 223e 8278 9c3c 051d 5bbe e89f 2f3e
00000130: 72a1 b13e 1859 053e e125 de3e a28a 34bd
00000140: 2a49 d53e 27fe ce3e 5564 0ebd 2a7e 3a3e
00000150: d640 c3bd 973f 593e eb9c d13d 92fc bd3e
00000160: 7b99 003f 1c81 97bd c3bc 513e a597 873d
00000170: 78c4 da3e 7a20 eabc 22f5 593e 5a3e f6bd
00000180: b99c e83e f50d 593e 4746 db3e 4a65 373e
00000190: c5f9 c63e 32a7 09bd e4a2 e8bd dbd1 05be
000001a0: ccd3 813e f53a b9be 80c3 da3e 3f01 2abe
000001b0: 29cd b33e 1956 f43e 4ec0 f2bd f49e 0cbf
000001c0: 3a6a 183e 6027 413b 2ab4 463e a606 523e
000001d0: eaea aa3d 4e52 df3e 8c72 2ebe b17b 503e
000001e0: 6869 da3e a542 7d3d aa3f b03d 25ca 20bd
000001f0: 6046 823e 102a 3f3e 7053 01be 1b0e 7f3e
0.23750992 -0.44724223 -0.1857431 0.30086288 0.16230954 -0.3554234 0.35797486 -0.09974579
-0.41519773 -0.09452156 -0.07173545 0.35850137 0.31533104 0.09015137 -0.4430956 -0.1508359
-0.048054896 -0.061473895 -0.17902969 0.08031558 0.18575343 -0.45906788 -0.34635144 0.10088475
0.14780651 0.5243648 -0.3887589 -0.42800266 0.17037003 -0.4909418 0.14591374 0.27973536
0.22106203 0.046500325 -0.11006123 0.3281585 0.03284175 -0.14773637 -0.1607171 0.27851388
0.19436693 -0.14992559 -0.16971076 0.3837191 -0.07777536 0.1791624 -0.12118257 0.46666893
-0.088408254 -0.33997852 -0.41656798 -0.13310277 -0.541788 -0.020356793 -0.1675267 -0.09158169
-0.42177883 -0.3638035 -0.39212292 -0.0033634948 0.30537352 -0.41078717 0.017987087 -0.18726723
-0.19988975 -0.3941606 -0.32912108 0.4835177 0.118243314 -0.14153522 0.29533124 0.034026094
0.15874562 0.019100431 -0.21397789 0.17150843 0.34693485 0.13022268 0.43388274 -0.044077523
0.41657382 0.40428278 -0.034763653 0.1821219 -0.09533851 0.21215664 0.10235008 0.37106758
0.5023419 -0.073976725 0.20482163 0.06620721 0.4272802 -0.02857994 0.21284917 -0.12023611
0.4543207 0.2119673 0.42827055 0.17909732 0.38862434 -0.033606716 -0.11359194 -0.13068335
0.253569 -0.36177793 0.4272728 -0.16602038 0.35117462 0.47721937 -0.118530855 -0.54930043
0.14884272 0.0029472932 0.19404665 0.20510349 0.083455876 0.4361748 -0.17035884 0.20359685
0.42658544 0.061831135 0.08605893 -0.03925528 0.25444317 0.1866839 -0.12629485 0.24907725

log_std_linear.weight f4 [1, 128]
00000000: 6b8a 98bb 6893 643e f51f db3c 8076 193e
00000010: f6e0 cc3d 64ca 193e 9c3c 663e f5c6 3cbe
00000020: 8a03 d93d df77 0bbe 269d e4bd 210d 2b3e
00000030: 0815 c53d 8c7d 20be c8fa 643c bfae 023e
00000040: bfff 83bd ffa7 203e e12c 93bd 68ac 06be
00000050: 385b 543d cf8d 2b3d b0ee 133e 764b 29be
00000060: eb9e 49be 0a8a 9e3d 03d3 503e 37ff ad3d
00000070: 1957 f8bd 199e 18be 83df 0c3d 1a8c 393e
00000080: 726b d63d 1455 de3d 5be0 cb3b c7ec 193d
00000090: c992 c83c dbf1 51be 7b6d 873c ed82 51be
000000a0: 4c97 a73d 72f9 07be 7a45 163e 64fd 483e
000000b0: c7c7 5b3e 8037 51be 7ac6 c23c 332f 8d3d
000000c0: 40ac 423e 774d 023e b545 1b3e 62cf f83b
000000d0: c50f 813b ca0a 2d3e d480 003e fb38 a4bd
000000e0: 5296 863d 7d76 583e cb7a d6bb f064 393e
000000f0: 6c94 443e d810 033e a265 223c 6f31 033e
00000100: fe52 263e 2bac ee3d 4f5c 553e b9c3 433e
00000110: 80ac 743d 1f96 653e ed7a b63c 509e 49bd
00000120: a99e d0bc 544d 4b3e 9ee9 1ebe 291d 21bd
00000130: 2279 0c3e c1d1 1d3e 6a7e e73d 1c65 653d
00000140: 1939 863c 3294 b83d 3e70 4ebe 49f8 8c3c
00000150: 68ef 5a3d 319d b9bd 87fe 093e 40e3 16be
00000160: 1b02 363d ebf4 21bd fdc1 25be 7825 0f3e
00000170: ed4d 543b 0400 11be d461 bb3d 8d40 7b3d
00000180: c731 aebd 72b9 0ebe fda2 07be f1d8 a2bd
00000190: 270e 5e3e db1d 303c 2336 543e 6f0c 5a3e
000001a0: 2c59 e3bd 0522 11bb 51e0 923d dfdd 2dbe
000001b0: 25bb f23d 100c 22be 1c07 11be f913 9cbd
000001c0: f319 7b3d f3dc 9fbd 74b8 f1bd c06d 39be
000001d0: 7dfa 03bc 8bfd 38be b435 bf3a 5175 5c3e
000001e0: b2a3 d23d 2fc7 51bc 78df 07be e522 343e
000001f0: a21a 3c3e 682d 083e ffc1 83bd 6e0b 293e
-0.0046551726 0.22321856 0.026748637 0.1498661 0.100038454 0.15018612 0.22484058 -0.18435271
0.10596378 -0.13619946 -0.11162786 0.16704227 0.09623152 -0.15672892 0.0139758065 0.12761973
-0.06445264 0.15689085 -0.07186294 -0.13151705 0.051844805 0.041883286 0.14446521 -0.16532692
-0.19689529 0.077411726 0.20392995 0.08495944 -0.121259876 -0.1490406 0.034392845 0.18119851
0.10469712 0.10856071 0.0062218136 0.037579324 0.024484055 -0.20502417 0.016531697 -0.204601
0.081831545 -0.1327875 0.1467494 0.19627911 0.21462928 -0.20431328 0.023776282 0.06893768
0.1901102 0.12724863 0.1516331 0.0075930813 0.0039386475 0.16898647 0.12549144 -0.08018681
0.0657164 0.2113895 -0.0065454 0.18104911 0.19197243 0.12799394 0.009911926 0.12811826
0.16242597 0.11653932 0.20835994 0.19117631 0.05973482 0.22420548 0.022275412 -0.049223244
-0.02546628 0.19853717 -0.15518805 -0.03933445 0.13718084 0.15412046 0.113034084 0.05600463
0.016384648 0.09012641 -0.20160004 0.017208235 0.05345097 -0.09063185 0.13476 -0.14735126
0.0444356 -0.039540213 -0.16187282 0.13979137 0.003239508 -0.14160162 0.091495186 0.061340857
-0.08505588 -0.1393793 -0.13245769 -0.079515345 0.21685086 0.010749306 0.20723777 0.21293806
-0.111009926 -0.0022145521 0.07171691 -0.16979168 0.11852101 -0.15824914 -0.14162868 -0.07620997
0.061304044 -0.078058146 -0.1180276 -0.18108273 -0.0080553265 -0.18065469 0.0014588148 0.21529128
0.10285129 -0.012803837 -0.1326884 0.17591436 0.18369535 0.13298571 -0.06433486 0.16508266
