results/train/SAC_time_400steps/best_model.pt (torch, 90861 bytes, 6 tensors)

linear1.weight f4 [128, 40]
00000000: d415 eabd 8e38 fdbd 7b04 13be 66e7 d6bd
00000010: db35 0abe 3e5b 323c 857d cdbd df19 3b3e
00000020: ad7e cebb 3d18 ffbd 7926 1fbe 8b1d 2abe
00000030: 25b6 7abc 23bd fc3c f53f 9b3c fb29 df3d
00000040: 2293 21bd 4702 0bbe 642d adbd 5b7a 133e
00000050: 6775 b5bd bf1e bf3a 536f e0bb 7858 d4bd
00000060: 6c48 0cbe 69d9 14be eabd 37be ba05 92bc
00000070: 6490 153e ca86 b03d 2219 0b3e 95a8 20be
00000080: 9485 68bd a8cc 55bd 793e 1f3e 1771 973d
00000090: 9bba 0bbd 4d2c 273d feb6 2b3e eeac 3cbd
000000a0: 3036 253e 382b 85bd 3a0e 713d ff48 9fbb
000000b0: c46e b03d 48c4 c6bd 1d17 11be 8276 20be
000000c0: 2587 62bd 0306 c7bd c9eb 7b3c 5147 e03d
000000d0: 75dd 133e 47cc 1b3e 4136 c3bc 14a8 b2bd
000000e0: 6990 10be 65e4 c63d e1ac 0b3d 936f 1d3e
000000f0: 2e6f d43d b0a5 f93d baad b33c 4dff 0e3e
00000100: 6cce 903d 5dfd 2d3d 5d85 05be 65a6 023e
00000110: 7935 debd 9fbc 05be 856d 1b3e 235c 06be
00000120: 598e c03d 693c 1bbd ac78 a33d d57d 45bd
00000130: 4554 c8bc 72ec d4bc 5c1f 0abe e7b0 073e
00000140: aa3e 16be 18a4 993c d4dc 1ebd 3f04 833d
00000150: 3e25 353e 02dc c93d f151 cbbd d8e6 11be
00000160: 2893 613d de47 e33d e9ba 1d3e 4fa0 ce3d
00000170: 2572 68bc 625d ae3c a676 92bc d71e a8bc
00000180: 2387 3b3e 5e64 cb3d fbde 083d 56b4 823d
00000190: 2a2f 273e a3cb 12be b7c5 393e 5d5b c23d
000001a0: 198e bcbd eee4 c8bb b155 df3d e016 6f3d
000001b0: b789 183e 9724 1ebd a25e c83c 94a3 8a3d
000001c0: 3176 2dbd 7925 413e dd85 91bc c0d4 d4bb
000001d0: 6ad7 be3c 9890 1abe 13e7 d9bc af0b 5dbd
000001e0: 9568 d63d 910e ff3d f6d3 1d3d 3f0f 9abd
000001f0: c853 ad3d f5e9 de3d c527 673d a95f a9bc
00000200: 08a5 d1bd 8fcf 8f3d 2fb6 3cbd 9811 523c
00000210: 64b3 523d e9a7 1cbe cb9c 84bd e14f 9dbd
00000220: 84c9 d2bd c92b 3dbe 079f 35be d4e9 2a3e
00000230: 75c8 833d 32bd 1c3e 66ba ae3d b0fd 8d3d
00000240: d2e3 d63c f74c 833d 8216 2cbc c2ce 4b3d
00000250: 5234 ad3d 1cfb 533d 7714 9d3d 2e00 663d
00000260: 430f a2bc 2ebc b9bd 85d0 26bd a5c6 2ebe
00000270: 1a53 3dbd a862 743c dedf 3abe 60e8 2c3e
00000280: 0940 0abe 3b3d f43b 502e 913d 50a5 483d
00000290: 31fe 7ebd 2416 06be 2948 b6bd f4ec 0fbe
000002a0: f615 10be a4cf 253e 6915 3abd 1f08 62bd
000002b0: a284 bcbd 94da f13c 6ff7 1e3e 1a40 be3c
000002c0: b8f1 07be b2b2 9b3b 27bc 3c3c 80af 44be
000002d0: 4e88 1c3e 332c fd3d 3a62 ecbd 2986 a73d
000002e0: 215c 313e fc26 be3d 37d6 b8bb 13ea ffbd
000002f0: 8db7 9f3c 34d9 8ebd fa8f dc3d 608a 51bd
00000300: 7ac2 3bbd 1f2a 183e 318c 243e 3b7b 333d
00000310: bfe5 3ebe f375 bbbc 7bc1 1ebe ed46 edbd
00000320: 55b4 ae3d 096d ad3d 91f6 633c b866 083e
00000330: f7a7 273e 505d 93bd 1ee1 a93d fa69 113e
00000340: 3539 9c3d accb 263d 3432 eb3d e116 4d3d
00000350: 3f49 393e 22f4 bfbd 68b3 c83d 3779 0e3e
00000360: 55ed 453e d392 35be ef66 323e d92f 433e
00000370: 738a 273d 6dda a83d 5bc0 223d 6b1a 31be
00000380: c29f a1bc 3e45 043c 2290 56bd 8652 483e
00000390: b5a5 af3c cf69 303d bb48 0bbd f397 973d
000003a0: 95ae 263e 83ec 2fbd 7304 13be 90a1 423e
000003b0: 7fed 443e e249 d0bd 7649 11bd f4fc 5f3b
000003c0: 688f 513d 00cc f4bd 540a cc3d c016 bfbd
000003d0: 1009 e7bd 79e9 363e 6fcf fc3d 137f 89bd
000003e0: 248a 223e be8a 96bd 8f39 18bd f009 30bd
000003f0: 74f3 54bd b2c2 873d fa3d 2dbe 3a23 783c
-0.11429945 -0.123643026 -0.14357178 -0.104933545 -0.13497107 0.010886012 -0.100337066 0.18271588
-0.006301722 -0.12455795 -0.1554202 -0.16612832 -0.015302216 0.030851906 0.018951396 0.10896679
-0.039446957 -0.13575087 -0.08455923 0.14402144 -0.08860283 0.0014581307 -0.0068492084 -0.103684366
-0.13699502 -0.1453606 -0.1794354 -0.017824996 0.14605862 0.08619459 0.13583806 -0.15689309
-0.056768015 -0.05219713 0.15551175 0.07394617 -0.034113508 0.040813733 0.16769025 -0.046063356
0.16133952 -0.06502384 0.058851458 -0.0048609967 0.08614877 -0.097054064 -0.14168973 -0.15670207
-0.055304665 -0.097179435 0.01537604 0.109511025 0.14439948 0.15214644 -0.023829581 -0.087234646
-0.14117588 0.097115315 0.034100417 0.15374593 0.10372768 0.121898055 0.021933425 0.13964577
0.07070622 0.042477954 -0.13039155 0.12758787 -0.10850043 -0.13060234 0.15178497 -0.13121085
0.09402151 -0.03789941 0.07982001 -0.048215706 -0.024454245 -0.025991652 -0.13488525 0.13251077
-0.14672342 0.018755004 -0.038784817 0.06397294 0.17689988 0.09856416 -0.099277385 -0.14248216
0.05507198 0.11097692 0.15403332 0.1008917 -0.01418737 0.021284763 -0.017878842 -0.020522518
0.1831327 0.09931253 0.033415776 0.063820526 0.16326585 -0.14335494 0.18141828 0.094900824
-0.092067905 -0.006130806 0.10905016 0.058371425 0.14896284 -0.038609114 0.024459187 0.06769481
-0.042349044 0.18861951 -0.017764026 -0.0064950883 0.023296077 -0.1509422 -0.026599443 -0.05396622
0.10469166 0.1245395 0.03853222 -0.07522439 0.08463246 0.108844675 0.05643441 -0.020675497
-0.10236555 0.070220105 -0.04607218 0.0128215775 0.05144061 -0.15298428 -0.064752184 -0.07681251
-0.10292342 -0.18473734 -0.17736445 0.16690761 0.064347185 0.15306547 0.085316464 0.06933153
0.02623168 0.06411164 -0.010503413 0.049757726 0.08457245 0.05175315 0.07669919 0.056152515
-0.019782668 -0.090690956 -0.040726203 -0.17067964 -0.04622183 0.0149161 -0.18249461 0.16885519
-0.1350099 0.0074535883 0.070889115 0.04898578 -0.062254135 -0.13094383 -0.08900482 -0.14055234
-0.14070877 0.1619249 -0.045430575 -0.055183526 -0.09204985 0.029523171 0.15524076 0.023223925
-0.13275802 0.0047515268 0.011519468 -0.19207573 0.15286371 0.12361946 -0.11542173 0.08179886
0.173203 0.092847794 -0.005640771 -0.12495818 0.019496704 -0.06975022 0.10769649 -0.051157355
-0.045839764 0.14859818 0.16069104 0.043818694 -0.18642329 -0.022883391 -0.15503494 -0.11585794
0.08530489 0.084680624 0.0139137665 0.13320434 0.16372667 -0.07195532 0.08294891 0.14200583
0.07628099 0.04072158 0.11484185 0.050070647 0.18094347 -0.093727365 0.09799844 0.13913427
0.19328816 -0.1773179 0.17422079 0.19061221 0.04090352 0.082447864 0.039734226 -0.17295234
-0.019729499 0.008073149 -0.05238355 0.1956273 0.02144132 0.043069657 -0.034004908 0.07402029
0.16277535 -0.042950165 -0.14357166 0.19006944 0.19231223 -0.10170342 -0.03547045 0.0034177871
0.051162153 -0.119529724 0.099629074 -0.09330511 -0.112810254 0.178625 0.12344252 -0.067136906
0.15873009 -0.07350682 -0.037164267 -0.042978227 -0.051989987 0.06628932 -0.16918173 0.015145117

linear1.bias f4 [128]
00000000: 0000 0000 ac05 34b8 6edf 1c3c 5e2b b6bb
00000010: 1172 1fbc a939 dc3b ed2d 913b 0000 0000
00000020: 094e 25bb e328 493c 5489 e439 fb35 16bb
00000030: bad3 fe3a 122d b23a 0000 0000 ef60 a03c
00000040: 120e ff3b 0000 0000 4018 e4bb 0000 0000
00000050: 2a6b 063c aa23 39bc 8457 cebb e9c4 ab3b
00000060: bc25 423c 1ce9 49bc 4483 ce3b 52e7 303c
00000070: b47d de3b 9430 0538 309f 5eb9 4dbc cb3b
00000080: 29ae fa3b e395 283c 0000 0000 d0b9 0ab9
00000090: 3ddf 973c 28a8 603c 32cd 7bbb 1365 463b
000000a0: 1738 933c 41a5 28b9 38fe 5a3c d981 36bb
000000b0: 8843 7e3c 3f77 903a 24f3 163c 5094 82bc
000000c0: 5041 9c3b 02d7 c2bb fa14 223c 2a96 43bb
000000d0: b904 b7bb 28e7 a73a 6d45 b73c d151 133b
000000e0: e4da 0c3c 5395 c438 08ff ac3c ada4 1bbc
000000f0: ea42 94bb 0000 0000 6780 533c dde0 d3bb
00000100: 0000 0000 5d1d 203c e802 c73b d9c0 d2b9
00000110: 086a 42b8 807a 9f3b 07de 463b 0000 0000
00000120: ee9d c43b 8815 3e3c e5e2 cc3c b836 c93b
00000130: 0000 0000 d665 473b d217 993b 0000 0000
00000140: 5473 a63c 0000 0000 0000 0000 0000 0000
00000150: 725e fdb9 fba4 033c bc65 9cbb 064c 1c3a
00000160: e165 d438 ad94 e23b d64f ca39 cc26 9dbb
00000170: 37dc cabb e621 093c 0000 0000 9f94 023a
00000180: 3e7e de3b 0000 0000 475b cf3b 8a20 d939
00000190: 76c2 ca3a 329f 3e3c ca94 3cbc 4941 b7bb
000001a0: 0000 0000 0000 0000 2e2a 933b 27fb 00b7
000001b0: bb60 103b 4aa9 19bc 5ea6 eab7 5223 2e3c
000001c0: cadb 033c 6249 abba a49b 943c 0000 0000
000001d0: a74a ad3c e23b 85b8 41f8 4ebb 0336 4d3c
000001e0: 6308 893c 9430 a23c 0000 0000 b6ee e4ba
000001f0: 814e b33c 0000 0000 0000 0000 706e debb
0.0 -4.2920627e-05 0.009574754 -0.005559369 -0.009731785 0.006720741 0.0044305236 0.0
-0.0025223515 0.012277815 0.00043589866 -0.0022920358 0.0019441762 0.0013593754 0.0 0.019577472
0.0077836597 0.0 -0.0069608986 0.0 0.008204261 -0.011300007 -0.006297054 0.0052419794
0.011849817 -0.012323644 0.006302269 0.010797339 0.0067898873 3.1754913e-05 -0.00021230872 0.0062175156
0.007650156 0.010289642 0.0 -0.00013229926 0.018539065 0.013711967 -0.0038421866 0.0030272647
0.017971082 -0.0001608329 0.013366275 -0.0027848391 0.01551903 0.0011021866 0.009213243 -0.015939862
0.004768528 -0.005946041 0.0098926965 -0.0029844143 -0.00558528 0.0012809979 0.022371972 0.0022479186
0.0085971095 9.373822e-05 0.021117702 -0.009499711 -0.0045245783 0.0 0.0129090315 -0.006466015
0.0 0.009772626 0.0060733445 -0.00040198004 -4.6351954e-05 0.004866898 0.003034474 0.0
0.006000272 0.011601813 0.025010535 0.006140556 0.0 0.003042569 0.004672029 0.0
0.020318665 0.0 0.0 0.0 -0.00048326288 0.00803494 -0.00477287 0.0005962256
0.00010127924 0.006914696 0.00038587925 -0.0047958847 -0.0061908024 0.008369898 0.0 0.0004981253
0.0067899516 0.0 0.00632802 0.0004141371 0.0015469331 0.011634635 -0.011510083 -0.0055924994
0.0 0.0 0.004491112 -7.6878705e-06 0.0022030312 -0.009378741 -2.7972445e-05 0.010628538
0.008048007 -0.0013068134 0.018140621 0.0 0.021153761 -6.353088e-05 -0.0031581076 0.012525084
0.016727632 0.019798554 0.0 -0.0017466161 0.02188802 0.0 0.0 -0.0067880675

linear2.weight f4 [128, 128]
00000000: 03fb e9bd 2c48 1ebe dd7c 033d ce12 97bd
00000010: 43c6 993d 3694 c93d 6223 933d 7258 213c
00000020: d556 43bd c20b 9f3c 1506 2dbd 2542 eb3d
00000030: 768a 893d 206f 083d ec2f 1a3d a0fb 1cbe
00000040: 5d1e d0bd 948a 0ebe bbe8 f43d d929 213d
00000050: 09b9 fbbd 0704 86bd b4b8 013e 9023 033c
00000060: 55ac 4d3d ec1d 48bd fa6c dcbd 57d2 8b3d
00000070: d678 afbd 8b41 503c 0de6 d3bd b31c f3bc
00000080: 312e 9b3d 74bd dbbd c9c5 c13d ec6d 93bc
00000090: 8932 583d f1e0 7abd 09b5 0dbd 807d adbc
000000a0: 73fe d13d daf4 0cbe 7adf 8d3d cd76 f43c
000000b0: c5ef d93d 18c3 533b 45b1 60bd 022f c43d
000000c0: 0059 c9bd e78d a93d f387 8ebd f0a6 fd3d
000000d0: 8682 083e b22b 83bd 9d98 84bd 488e 6e3d
000000e0: 93a7 643d 088f 3bbd c529 0d3e 3d59 7abd
000000f0: 3aa4 1bbe f24b 0dbe 1613 2d3d 5d03 f73c
00000100: fcf5 cbbd bcdb 00bd 68a8 0c3c 3ca0 99bd
00000110: a905 96bd c2bb c3bd bdd9 eb3d cb03 08be
00000120: 3adf a53c 193c 2e3a f863 1abd 4fa8 d93d
00000130: 8f5e 67bd 05ed acbd 6f51 10bd 9773 b2bd
00000140: bda9 be3d d563 d6bd 9b31 c8bc e3f2 ff3d
00000150: af0c e7bd a68b b43d be8c cabd 85b9 d9bc
00000160: a198 e23d fe00 b1bd d104 a03d 7959 063c
00000170: cd1f 3cbd 2e42 5dbd 6bbe 033e a9fa 563d
00000180: 9c15 cabb 316c 85bd 69a1 14bd 957c 17bd
00000190: aae9 a5bd 3a90 303d f355 e9bd 13dc fdbd
000001a0: 1aae 3abd d743 f5bd b422 31bd 80c9 f73d
000001b0: 7d74 153e 0796 91bd 3fc6 5c3d 28ef 62bd
000001c0: fdfd 8f3d d102 f2bd bf4c 303d b42a 56bd
000001d0: 8b07 003e 5557 98bd b835 d3bd 39a2 d93d
000001e0: d593 fdbd 727b 2abb f363 13be cdb2 8b3d
000001f0: 5386 56bb fd15 27bd fcfd 61bd 80d1 27bc
00000200: de6a 93bd 7c78 913c f67f 0a3e cbc9 15be
00000210: e9c5 073e c2be dcbd 32aa aabd 8c19 ddbc
00000220: 1383 813d f6ab 973d 496f f1bd 4498 ba3d
00000230: 88c3 843d 2116 b3bd f128 73bd 6d4b a1bd
00000240: 562e e63d d3b2 f9bd f8f4 82bd 5b66 053e
00000250: de33 42bd 3513 0cbe 15e9 f2bc 1505 04bd
00000260: 09b4 08be fbd0 a8bd af80 093e cae2 12bb
00000270: 1a62 193e 1292 0b3e 17da 853d fea0 bebd
00000280: 6c92 52bd 5863 c33d 4dc8 29bd 2343 d1bd
00000290: 11ef 0ebd 22c4 2fbd ba7d f23c bbe4 6c3c
000002a0: 1cc6 0f3e ec8a 753d 23ec 423d e51d 633d
000002b0: df58 073e 5d20 e5bd 8ba8 77ba 80b3 6bbd
000002c0: 75b7 ee3d 10ba 16bb e68e 95bd 09f2 ec3d
000002d0: 1bd6 7cbd 6313 a1bd 1f93 f5bd cb01 203d
000002e0: 78ce fd3d 9458 6bbd bb88 84bd f30f 1cbe
000002f0: 24ba 10bd e75f 00be 3435 1b3e 7d7f 4cbd
00000300: 9bb8 fe3d 52fa 29bb f071 babd 6860 9cbc
00000310: 5c4f 71bb 2492 b53d 0331 efbd def7 0fbe
00000320: 4f61 0a3e 1257 f3bd 79d2 babd b9fb ab3d
00000330: 774b f5bc c559 c6bd ccdf c73d eba9 86bd
00000340: e1ee b53d 657b ae3d 827b 5d3d 67e5 c73c
00000350: cf73 b13d f06c b13d 40f4 cd3d a72d 8ebc
00000360: 95a1 fbbc fe7e 89bd 568f 06bd a1a4 94bd
00000370: 7a01 3b3c ccb6 61bd 2933 04be fd52 f7bd
00000380: 0215 e7bb 16f2 8fbd 0704 11bc 8af3 0b3e
00000390: f184 303d 97fb 133e aadc dcbc b2a4 d43d
000003a0: a3bd 15bd e18e 9b3d 1991 c43d 1dc3 253d
000003b0: 5b14 1d3d 68d0 0c3e c778 d83d 74b0 06be
000003c0: 4af9 e7bd 39a3 b13d a5d9 0b3e d942 b43d
000003d0: 9536 8fbd a331 d33d 4d22 17be f2aa 16bd
000003e0: d31d 2d3d dadb 6f3d 342d 48bd eb50 19bc
000003f0: a4c7 8e3d b010 2bbd 258e 533c e380 e33d
-0.1142483 -0.15457219 0.0321015 -0.073766336 0.075085185 0.09842722 0.07184483 0.009847747
-0.04769023 0.019414786 -0.04224213 0.114872254 0.067158625 0.033309102 0.037643358 -0.15330362
-0.10162041 -0.13920051 0.11958452 0.03934655 -0.12291152 -0.06543737 0.12668115 0.008004084
0.050213177 -0.04885666 -0.10762973 0.068272285 -0.085679695 0.012710939 -0.10346613 -0.02967677
0.0757717 -0.10729495 0.09461553 -0.01799675 0.05278257 -0.061249677 -0.034596477 -0.021178007
0.102536105 -0.13765278 0.069273904 0.029841805 0.106414355 0.003231233 -0.054856557 0.095792785
-0.098314285 0.08279019 -0.06959524 0.123853564 0.1333104 -0.064048186 -0.06474421 0.05824116
0.055823874 -0.045790702 0.13785465 -0.06112026 -0.15199366 -0.13798502 0.04225453 0.03015297
-0.09959027 -0.031459555 0.008585073 -0.075012654 -0.07325298 -0.09557296 0.1151614 -0.13282697
0.020248044 0.00066465285 -0.037692994 0.106278054 -0.056486662 -0.084436454 -0.03523391 -0.08713453
0.09309719 -0.1046826 -0.024437716 0.12497499 -0.11281716 0.08815698 -0.09890126 -0.02657772
0.11064268 -0.08642767 0.07813419 0.008200043 -0.045928765 -0.054018192 0.12865607 0.052485142
-0.006167127 -0.065147765 -0.036286745 -0.036984045 -0.081012085 0.043106295 -0.11393347 -0.123954915
-0.045576192 -0.1197583 -0.043245986 0.1209898 0.14595218 -0.071086936 0.0539 -0.05540386
0.07030866 -0.118169434 0.04304194 -0.05228682 0.12502877 -0.07438532 -0.103129804 0.10626645
-0.12381712 -0.002601352 -0.14393596 0.06821213 -0.0032733872 -0.040792454 -0.05517386 -0.01024282
-0.07198118 0.017757647 0.13525376 -0.14627759 0.1325909 -0.10778572 -0.083332434 -0.02698972
0.063238285 0.07405846 -0.11788804 0.091110736 0.06482607 -0.08744455 -0.059365217 -0.078757145
0.11239307 -0.12192311 -0.0639438 0.13027327 -0.047412746 -0.13679202 -0.029652158 -0.03223141
-0.13349928 -0.08242985 0.13427995 -0.002241301 0.14978829 0.1362994 0.06535738 -0.093080506
-0.05140917 0.09540433 -0.041450787 -0.102178834 -0.03489596 -0.042911656 0.029600967 0.0144588305
0.14040416 0.05994694 0.04758848 0.05544843 0.13217495 -0.111878134 -0.0009447417 -0.05754423
0.116560854 -0.0022999085 -0.07302646 0.11569602 -0.061727624 -0.07865026 -0.11990952 0.03906421
0.123928964 -0.05745752 -0.06471392 -0.15240459 -0.035333768 -0.12536584 0.15157014 -0.04992627
0.124375544 -0.0025936556 -0.09103763 -0.019088939 -0.0036820984 0.08865765 -0.1167927 -0.14059398
0.13513683 -0.11881842 -0.09122176 0.08397622 -0.029943211 -0.09685091 0.09759483 -0.06575378
0.08883453 0.085196294 0.054072864 0.02440138 0.08664667 0.08663356 0.100563526 -0.017355753
-0.030716697 -0.06713675 -0.03285154 -0.07257963 0.011413926 -0.05510597 -0.12910141 -0.12076376
-0.007052065 -0.07028596 -0.008851058 0.13667122 0.043095533 0.14451443 -0.02696069 0.10382976
-0.036557805 0.07595611 0.09597988 0.040469278 0.03834949 0.13751376 0.105699115 -0.13153249
-0.11326845 0.086737104 0.13657244 0.08801813 -0.069928326 0.10312202 -0.14759178 -0.03678412
0.04226477 0.058559276 -0.048871234 -0.009357671 0.06971672 -0.04176396 0.012912308 0.111085676

linear2.bias f4 [128]
00000000: 5e27 1abc 7d04 643a eb75 a03c e637 cf3c
00000010: d406 d0bb b394 1b3c 1a2c d63b 5dd7 7c3a
00000020: 55ec 673b b310 b63b dea7 893c 0000 0000
00000030: 3b53 8bbc 77ca 3b3b 72db cfbb 7d1c cdbb
00000040: e734 1abb 0000 0000 72a3 553c a5b2 e4bb
00000050: 45ba a5bb 092b c3ba a131 04bc 9a21 06bc
00000060: 6b25 8d3c 0000 0000 1356 f2bb eafb bf3b
00000070: faa0 303b c4ab cbbb 7223 003c ee7a 043c
00000080: 29af df3b 33d1 ad3c 16aa a63c 617b 96bc
00000090: 8623 ceba dbbe f2bb f077 28bc ca96 80b8
000000a0: e512 0938 f2a6 e53b 6d9f 11bc 43ea eb3b
000000b0: 7180 ac3c 0000 0000 64b1 423b 8df6 163a
000000c0: f305 83b9 635c d238 5869 2a3a 599a c93c
000000d0: 0000 0000 1e9a 48bc ce7b 7fbb 0000 0000
000000e0: bc73 b1bb bf8a 3d3c 8484 05bc 4121 a03c
000000f0: 647c 0bbc e43d 9b3c 0b96 20bc bf6c 8cbb
00000100: 0ee6 97b9 1e8c a13a 91e5 c73c 6d81 013c
00000110: d4e2 673c 0b49 9e3b 1b8c a03a 0000 0000
00000120: 45f2 2ebb b8bb ee3a 00d9 183c 84b6 16ba
00000130: e9ce b638 cabe 083c 6ce7 5e3c 9431 c63b
00000140: e767 1dbc 67cc 843b f059 5f39 1b5b 173c
00000150: c675 ff3a c2a1 68bc af66 223c 0000 0000
00000160: a3f2 b7bb 4338 903b 0000 0000 4159 a1bb
00000170: d5ea bebc 5e19 d83b 721a 0abc f3fc 93bb
00000180: c22a a13c 0000 0000 1e51 09bc 5de9 9d3a
00000190: 1a76 af3c 0000 0000 ea70 2ebb 0232 80ba
000001a0: d893 6e38 ca50 45ba e92e ec3b ed83 d0bb
000001b0: 0000 0000 357f ecb9 ce06 80bb 778f a5bb
000001c0: 2697 bc3b ac4d 3fbc 0000 0000 5d0a aa3b
000001d0: 8b46 9a3c 6b87 61bc 620b 65bb 1935 d9ba
000001e0: 0000 0000 fc52 b8bb af5e beba c4ab b0ba
000001f0: 96cf ca3a da9e 60bc 93ee 963c 0000 0000
-0.0094088 0.00086981786 0.019587478 0.02529521 -0.00634847 0.009495902 0.006536019 0.0009645129
0.0035388668 0.00555619 0.016803678 0.0 -0.01700746 0.0028654614 -0.0063432986 -0.0062594996
-0.0023530067 0.0 0.013039457 -0.006979304 -0.0050576054 -0.0014890145 -0.008068473 -0.008186722
0.017229756 0.0 -0.0073955148 0.005858888 0.0026951418 -0.0062155444 0.007820951 0.008085949
0.0068263006 0.021217918 0.020344775 -0.018369379 -0.001572714 -0.0074080057 -0.010282502 -6.131602e-05
3.2680942e-05 0.007008427 -0.008888108 0.007199557 0.02105734 0.0 0.0029707784 0.0005758785
-0.000249907 0.00010030789 0.0006500683 0.024609732 0.0 -0.012243776 -0.0038983705 0.0
-0.005415408 0.011568724 -0.00814927 0.019547107 -0.008513544 0.01895041 -0.009801398 -0.0042854245
-0.00028972368 0.0012325083 0.024401458 0.007904393 0.014153201 0.0048304847 0.0012248786 0.0
-0.0026694697 0.0018213904 0.009329081 -0.0005749243 8.716976e-05 0.008346269 0.01360498 0.0060483906
-0.009607292 0.004052687 0.00021300442 0.00923803 0.0019490055 -0.014198722 0.009912177 0.0
-0.0056136413 0.004401238 0.0 -0.00492397 -0.023305336 0.006594821 -0.008429157 -0.004516238
0.019673709 0.0 -0.008381156 0.0012047697 0.02141862 0.0 -0.0026617595 -0.0009780528
5.6881312e-05 -0.0007526992 0.0072077406 -0.006363383 0.0 -0.00045108204 -0.003907061 -0.0050525027
0.005755323 -0.011676233 0.0 0.0051892237 0.018832466 -0.013765196 -0.0034949412 -0.001657161
0.0 -0.005625127 -0.0014524068 -0.0013478925 0.0015473242 -0.013709748 0.018424308 0.0

mean_linear.weight f4 [1, 128]
00000000: 19dd 373c e6df 49be 4af5 063e 7e5f 963d
00000010: 292b 5a3d 54f0 6cbd 0046 543e f5dc 0fbe
00000020: 3edb 49be ca90 8bbc b9a2 463e 62ea 3bbe
00000030: f0e4 06bd d45e 4ebe bdee 033d cabc 2abe
00000040: 1bef b4bd c0f8 d13c 2040 b43d c04a a1bd
00000050: 5b24 1bbd d28a 23be 5ce0 373e fc31 13be
00000060: 2ec6 e73c dbe3 25be eec4 a23d ddf7 38be
00000070: 9458 3fbe 8ad1 cabd af6e 1abe 68f5 24be
00000080: c186 513e cef4 9e3d ea67 4a3e 42ae c23b
00000090: c32b 30be 8719 bd3d b3af 2dbe a930 3b3e
000000a0: fd9c eb3c 89e4 19be be5d 333e 1682 8ebd
000000b0: 20eb 1aba d54b 31be c704 50be 5bef 36be
000000c0: ec9c cbbd 23e5 c93d cd45 a83d fde4 663d
000000d0: 5413 2d3d 8f82 32bd e3d3 34be 72bb a63c
000000e0: d834 913d a98f 8a3d 154c 17be b5a6 5e3e
000000f0: 5f70 3fbc b888 f33d 7794 b33d e16e 5e3e
00000100: 6268 05be ba63 43bd f295 973d 91b6 393e
00000110: fd0c 383c 9de3 003e 2ef2 c13c 82ce 3b3e
00000120: 7db1 de3d 9540 613e 39cd cebd f21d 243e
00000130: e1f2 fe3c 9c28 663e ccd5 afbc 1635 cdbd
00000140: 56ae bb3d 432e 4a3e 8a76 13be d43d a7bd
00000150: e7a6 2f3e ed02 50be 882b 42bd 9a58 3cbe
00000160: 3e80 49be 8b1a 503e 3fc2 adbd 254b 023e
00000170: 26eb a8bd b45a 053e a3e2 63bd 6531 64bd
00000180: e3e3 5e3e bf0f fd3d 7daf 3fbd df8f fa3c
00000190: 028f fc3d 087c 53be 13e3 b03d d000 b43d
000001a0: 16f5 0a3e 631f 7dbd 8f9e 3a3e 4958 d83d
000001b0: 023d 07bd de43 55be 704e 143e c4ce d1bd
000001c0: 599c 45be 3f13 cd3c 1f57 fabd ac08 1fbe
000001d0: 1181 013e d678 ddbc 13e6 8bbd c2ec 003b
000001e0: 3db0 cbbd f436 983d 1d97 16be 3075 c33d
000001f0: a04e 3f3e 6935 20be ed8a f43d fe9d ed3d
0.011222147 -0.19714317 0.13179508 0.073424324 0.053263817 -0.057846382 0.20729828 -0.14049132
-0.1971254 -0.017036814 0.19398011 -0.18351129 -0.032933176 -0.20153362 0.0322101 -0.1667358
-0.08834668 0.025631309 0.088012934 -0.078755856 -0.03787647 -0.15970924 0.1795668 -0.14374536
0.028292742 -0.16200201 0.079477176 -0.18063302 -0.18686134 -0.09903248 -0.15081285 -0.1610924
0.20461561 0.077615365 0.19766203 0.0059411833 -0.17204194 0.092333846 -0.16961555 0.18280281
0.028761381 -0.15028585 0.17516229 -0.06958406 -0.000590967 -0.17314084 -0.20314322 -0.17864744
-0.0994204 0.098581575 0.082164384 0.056370724 0.04225476 -0.04358154 -0.17658953 0.020353053
0.07090157 0.06765682 -0.14775117 0.21743281 -0.011684506 0.118913114 0.08768552 0.21721984
-0.130281 -0.04770253 0.07401647 0.1813605 0.011233565 0.12586828 0.02367505 0.18340495
0.10873697 0.21997292 -0.10097737 0.16027048 0.031121673 0.22476429 -0.021464251 -0.10019891
0.09164111 0.1974421 -0.14400688 -0.0816609 0.17153512 -0.20313616 -0.047404796 -0.18393174
-0.19677827 0.20322625 -0.08484315 0.12723978 -0.08247976 0.13022882 -0.05563606 -0.05571117
0.2176662 0.12356519 -0.046798218 0.030586181 0.12331964 -0.20652783 0.08637061 0.087892175
0.13570055 -0.06179751 0.18224548 0.10563714 -0.033017166 -0.2082667 0.14483047 -0.102445155
-0.19297923 0.025033591 -0.12223648 -0.15530652 0.12646891 -0.027035158 -0.068309925 0.0019672369
-0.09945724 0.074323565 -0.14706083 0.09543836 0.18682337 -0.15645374 0.119405605 0.116024

log_std_linear.weight f4 [1, 128]
00000000: 51ba 6abc f8d5 193e 8ef6 d53d ab8e 193e
00000010: 0a7f 2fbd d18a ee3d 5b32 20bc ac3d 2e3e
00000020: d10e 533e ed3e 0a3d 9e20 073e 0690 b53d
00000030: 19d7 4ebe c55a 1f3e 965b cabc 4c36 f13c
00000040: f0d5 11bb 625d 0a3e 75c8 f13c 46e1 f5bd
00000050: c24c a0bc 1e5d 71bd 3f2e 34be db50 debd
00000060: 5b70 ca3c 1f5b 173c d346 56be 4aa0 503e
00000070: 8b1a 123e 85ae 42be f8d2 6d3e 675f 653e
00000080: 2597 e7bc b751 d83d 92f5 2e3e 7813 93bd
00000090: e36f ac3d 05e6 42be 49a3 57b9 7511 50be
000000a0: 507f 0d3e 7fd5 593e 9851 4cbe 408e f93d
000000b0: b4bc 053e 1433 1abe 659c 213e aec2 163e
000000c0: fb75 c3bd 6e75 98bd 44df 8e3d 255a 0b3e
000000d0: b949 5fbd 11b6 6abd 3a54 703d 2145 98bd
000000e0: 39f6 dbbd 001f ca3c d756 46be b4e4 293e
000000f0: 414c debd 0897 223e 508a 45be 27ee 38be
00000100: cf46 d43a 7988 a63d 0efe 013e 23af 313b
00000110: aacc 363d a1f3 9a3c 3db4 473e 10c5 0dbe
00000120: 7532 55bd b237 c2bd 3cd4 583e a2d3 82bd
00000130: d33b f23d 23b0 8e3b 3f23 073e ce63 f73d
00000140: d82d ebbd f722 cd3a 9d5f 5a3d 387f 253e
00000150: 42af dcbd 19af 13be 337e fd3d 292c 1bbe
00000160: bbe0 473d b7eb 963c 9653 97bd e53d 2fbe
00000170: 6e5b 24be 62e0 2e3c 0d97 30be dbef 30bd
00000180: 2313 4c3e 18a2 3e3c d608 2abd 7041 713a
00000190: 71eb 213e 32cc 94bc ea2c 4ebd 7282 02be
000001a0: 4080 72bd fe0e 573d dc2d ea3c 7a86 1fbe
000001b0: e608 523d 7030 333e 6ce5 4abe f937 f6bd
000001c0: 9803 5a3e 1a8b 4abe 1a6b 283d b9d7 273e
000001d0: 0fc3 da3d 2585 20be e2ab 23bd 9211 24be
000001e0: 39e3 6a3c b8c3 95bd 54e0 24be fe4a 52be
000001f0: 4395 ce3d 918b 78bd a248 a73d 21b1 1fbb
-0.014326648 0.15023029 0.10447417 0.1499583 -0.042845763 0.11647571 -0.009777631 0.17015713
0.20611121 0.033751417 0.13196036 0.08865361 -0.2019924 0.1556197 -0.024701875 0.029444836
-0.002225276 0.13512185 0.02951453 -0.12005858 -0.019567851 -0.058926694 -0.17595766 -0.10855266
0.024711778 0.009238034 -0.20925455 0.20373645 0.14267938 -0.19011886 0.2322501 0.22399674
-0.028270314 0.10562461 0.17085865 -0.07181448 0.08419778 -0.19033058 -0.00020564826 -0.2031916
0.13818097 0.21272849 -0.19953 0.12185335 0.13060266 -0.15058547 0.15782316 0.14722702
-0.09543987 -0.07444273 0.06976178 0.13608606 -0.054513667 -0.05730254 0.058674075 -0.0743506
-0.107403226 0.024672985 -0.19369064 0.1659115 -0.10854388 0.15877926 -0.19291043 -0.18059598
0.0016195419 0.08131499 0.1269457 0.0027112446 0.044628777 0.018915 0.19502349 -0.13844705
-0.052050073 -0.09483279 0.21174711 -0.06388022 0.11827817 0.004354493 0.13197039 0.12079583
-0.114833534 0.0015650679 0.05331384 0.16161811 -0.10775615 -0.14422263 0.12377586 -0.15153565
0.048798304 0.018422944 -0.073889896 -0.17113455 -0.16050503 0.010673614 -0.17245121 -0.043197494
0.19929175 0.011635326 -0.041512333 0.00092031714 0.1581247 -0.018163774 -0.050335802 -0.12745073
-0.05920434 0.052504532 0.02858632 -0.15578642 0.051278017 0.17498946 -0.1981408 -0.12022395
0.21290433 -0.19779626 0.041117765 0.16390885 0.10681736 -0.1567579 -0.039958842 -0.16022328
0.014336401 -0.07312721 -0.161012 -0.2053642 0.10087063 -0.060679976 0.081681505 -0.0024367052
