results/train/hyperparam_DQN_learning_rate_slope_40m/learning_rate_actor_0.0001/best_model.pt (torch, 160591 bytes, 8 tensors)

layer1.weight f4 [128, 40]
0.3787802 0.106865995 0.07836931 0.004363585 -0.04013275 -0.19470187 -0.028693017 0.07729082
0.22696224 0.05799923 0.0071213027 0.042641006 -0.044298984 -0.043808915 0.091962785 0.006134805
0.0060698027 -0.015437338 0.09959962 -0.023160247 -0.016752921 0.07354062 0.03959515 0.049777273
-0.022126699 -0.0072916667 0.075550556 -0.062268514 -0.005420465 0.09083281 0.052811425 0.042552058
0.09751517 0.0814547 0.044886775 0.12987868 0.036077086 0.008426188 -0.02676475 0.012999571
-0.08471009 0.022143548 -0.015557046 0.303592 -0.05279959 0.21567427 0.22145367 -0.044310857
-0.17665209 -0.037853587 0.163013 0.02780499 -0.021326497 -0.078682736 -0.008203361 -0.043580182
0.040019065 -0.034645576 0.0022918466 -0.07925885 -0.06853597 0.033191368 -0.008975561 -0.077529445
0.048848424 0.10890387 0.026952785 -0.150778 0.033641938 -0.06907616 -0.03947978 0.066199
0.050690915 0.00046750033 0.008341917 -0.063812196 0.056799382 -0.06147991 0.0142254615 -0.0033104848
0.3489312 0.13413534 0.026722942 0.48983756 0.035945952 -0.13822757 0.36963278 0.001086412
0.094960585 0.014142736 0.11068146 -0.03558832 0.031323206 -0.001819788 0.011195057 0.08067019
0.032856774 -0.0052343076 0.08363663 0.0136959525 -0.046962295 0.056677602 0.097914666 0.029338637
0.030820874 0.16248548 0.051756408 -0.024475254 -0.05210048 -0.013812747 0.0037383134 -0.040260218
-0.029430602 0.09266773 0.13126382 0.04493522 -0.016686969 0.025814006 0.14540862 0.07492988
0.18757789 0.084731534 0.11321364 -0.3344176 0.033496387 -0.13350622 -0.06816717 0.10463815
0.31976926 0.04522959 -0.13077202 0.013841346 0.07793995 0.05612592 -0.03830055 0.08715375
-0.018816564 0.08047458 0.025992325 0.07622888 0.060064882 -0.011194836 0.030829232 -0.01973107
0.10039854 -0.078640416 0.028058426 0.094322465 0.124980435 -0.02206619 0.018336223 0.10289559
0.013007236 0.08164386 0.04220643 0.12657605 -0.019140907 0.05458345 -0.0062393146 0.11342105
0.22761582 0.040899865 -0.030020898 -0.21990421 0.078454174 -0.10451513 -0.1692646 0.0114997905
0.28557214 -0.018125461 -0.02144747 0.04065257 0.047597587 0.018710833 -0.0045621097 -0.035402145
0.010451212 0.09139262 0.060127135 0.048169345 -0.02184116 -0.062275276 0.0086747445 0.072795436
-0.008604455 -0.039055143 0.09788986 -0.042834587 0.044379268 0.0545172 -0.003095398 0.095509976
0.10970614 0.06575347 0.006886435 0.020263018 0.07631847 0.038715277 0.0120986 -0.034567036
0.18933308 0.16916339 -0.010702836 -0.22961584 0.06747063 -0.20969252 -0.09438158 0.07243047
0.3007085 0.05871623 -0.10682634 -0.020950466 0.07887236 0.010130711 0.050336152 0.025680587
0.01765352 0.04034866 0.08386928 0.07544469 0.028208053 -0.05773339 0.10306023 0.12041375
0.085772656 -0.057084613 0.1219454 0.06977814 0.1044103 0.018591158 0.06584635 0.08680106
0.09674392 0.03508285 -0.035782643 0.06480809 0.05524924 0.09831137 0.018486405 0.058224414
-0.07337197 0.066010915 0.007209025 -0.053855356 0.016114542 -0.07666618 0.075507365 -0.012058567
-0.0045664916 0.03346551 0.010603875 -0.015523118 -0.038222518 -0.051798426 0.009094315 -0.013310922
00000000: 7aef c13e 8fdc da3d 1780 a03d 67fc 8e3b
00000010: 3d62 24bd ed5f 47be 9e0d ebbc a64a 9e3d
00000020: ca68 683e 9a90 6d3d d159 e93b 56a8 2e3d
00000030: da72 35bd fa70 33bd fc56 bc3d 7906 c93b
00000040: 32e5 c63b e3ec 7cbc e3fa cb3d 8fba bdbc
00000050: 6c3d 89bc 779c 963d 862e 223d 41e3 4b3d
00000060: 0d43 b5bc efee eebb 40ba 9a3d 450d 7fbd
00000070: 289e b1bb 8d06 ba3d cb50 583d 114b 2e3d
00000080: 09b6 c73d b9d1 a63d 32db 373d ebfe 043e
00000090: 91c5 133d fe0d 0a3c c041 dbbc 27fc 543c
000000a0: 7c7c adbd 6366 b53c fbe2 7ebc 6970 9b3e
000000b0: 6244 58bd b7d9 5c3e c0c4 623e 4d7f 35bd
000000c0: 49e4 34be 5d0c 1bbd e1ec 263e 4ac7 e33c
000000d0: e8b4 aebc 6a24 a1bd 6467 06bc 2281 32bd
000000e0: 08eb 233d 85e8 0dbd ce32 163b 7752 a2bd
000000f0: 965c 8cbd acf3 073d 3b0e 13bc c2c7 9ebd
00000100: 4915 483d fe08 df3d 16cc dc3c 8c65 1abe
00000110: 21cc 093d cd77 8dbd 8db5 21bd 5793 873d
00000120: 47a1 4f3d d51a f539 89ac 083c f8af 82bd
00000130: 78a6 683d 5cd2 7bbd e911 693c b8f4 58bb
00000140: 1ca7 b23e c65a 093e 12ea da3c fdcb fa3e
00000150: 103c 133d 878b 0dbe 8240 bd3e f065 8e3a
00000160: b27a c23d efb6 673c f6ac e23d 0fc5 11bd
00000170: c34c 003d f485 eeba 796b 373c 6a36 a53d
00000180: d394 063d 8e84 abbb ae49 ab3d fd64 603c
00000190: 895b 40bd c626 683d 7c87 c83d 9557 f03c
000001a0: 0f7c fc3c 9862 263e 87fe 533d 5480 c8bc
000001b0: 5067 55bd dc4e 62bc 7efe 743b e6e7 24bd
000001c0: 7218 f1bc 94c8 bd3d 066a 063e fe0d 383d
000001d0: 1cb3 88bc e577 d33c ffe5 143e d674 993d
000001e0: 6b14 403e ba87 ad3d 8edc e73d c938 abbe
000001f0: 8233 093d dbb5 08be 3b9b 8bbd 874c d63d
00000200: ccb8 a33e aa42 393d 1ae9 05be d0c6 623c
00000210: fb9e 9f3d 4be4 653d 0ae1 1cbd aa7d b23d
00000220: 3225 9abc dbcf a43d dbed d43c e31d 9c3d
00000230: 9806 763d 8c6a 37bc 968d fc3c 0ea3 a1bc
00000240: c09d cd3d 3a0e a1bd c9da e53c 232c c13d
00000250: bef5 ff3d 28c4 b4bc d935 963c ecba d23d
00000260: 4d1c 553c e534 a73d a6e0 2c3d 279d 013e
00000270: 64cd 9cbc e592 5f3d 2a73 ccbb 4c49 e83d
00000280: 1f14 693e 9e86 273d 63ee f5bc 922e 61be
00000290: 95ac a03d 070c d6bd b353 2dbe 9e69 3c3c
000002a0: 8336 923e d97b 94bc 9bb2 afbc 4f83 263d
000002b0: b0f5 423d 7647 993c c07d 95bb d701 11bd
000002c0: 8f3b 2b3c 0e2c bb3d df47 763d 384d 453d
000002d0: 3bec b2bc 5c14 7fbd 8420 0e3c c615 953d
000002e0: b3f9 0cbc 49f8 1fbd 7b7a c83d 5273 2fbd
000002f0: 09c7 353d 6d4d 5f3d 29dc 4abb bc9a c33d
00000300: 9dad e03d c1a9 863d 9ba7 e13b a1fe a53c
00000310: dc4c 9c3d e993 1e3d 3539 463c 2a96 0dbd
00000320: 88e0 413e 2b39 2d3e f35a 2fbc 6a20 6bbe
00000330: 0b2e 8a3d a3b9 56be 214b c1bd 6d56 943d
00000340: 77f6 993e 6e80 703d c5c7 dabd 50a0 abbc
00000350: d587 a13d 48fb 253c 482d 4e3d 1860 d23c
00000360: 1d9e 903c a344 253d a8c3 ab3d bf82 9a3d
00000370: 9314 e73c d979 6cbd 3e11 d33d 7c9b f63d
00000380: 93a9 af3d 8ed1 69bd 83be f93d d7e7 8e3d
00000390: 11d5 d53d 7c4c 983c 73da 863d c1c4 b13d
000003a0: ad21 c63d 09b3 0f3d d290 12bd 1bba 843d
000003b0: 074d 623d 7957 c93d cd70 973c b97c 6e3d
000003c0: 0b44 96bd bb30 873d af39 ec3b 6f97 5cbd
000003d0: a502 843c 2803 9dbd 9ba3 9a3d 4c91 45bc
000003e0: 82a2 95bb 2113 093d e0bb 2d3c ad54 7ebc
000003f0: 378f 1cbd 962a 54bd 5200 153c 0e16 5abc

layer1.bias f4 [128]
0.08859994 -0.11248149 0.067517534 0.094228104 0.10790497 0.045950077 -0.06408708 -0.029607834
-0.048251394 -0.0068372367 0.05240793 0.07662042 0.08316468 -0.057584215 0.10195395 0.054376636
-0.0469154 -0.02201812 0.023579065 0.104035735 0.023146637 0.073892266 0.04894353 -0.0213519
0.115254916 -0.010733916 0.06381899 0.008143287 0.065802775 0.014935141 0.057900973 -0.008422295
0.006788856 -0.060762 0.08564909 0.01476025 0.044025335 0.10932612 0.076297775 0.065750696
0.050030038 0.08999438 -0.038773075 0.0077187526 0.12074386 0.05232498 0.018110277 0.04538001
0.0553252 -0.030149305 -0.0130537 0.006785043 -0.00382764 -0.020912066 0.020098897 -0.04881313
-0.03447511 -0.007995756 0.096609 0.08774077 0.022818735 0.085010946 0.011306352 0.04865022
0.0931448 0.093204305 0.004066412 0.094215825 0.074463956 0.029439088 0.048930153 -0.03607271
-0.013969433 -0.05885159 0.056976166 -0.0018904221 -0.06750731 -0.052169897 -0.07402706 -0.053036474
-0.008133003 0.016155811 -0.0053427815 0.03629998 -0.046712622 0.05956514 -0.018735895 -0.056716118
0.0043931124 0.0057664886 -0.035909496 0.03588287 0.08230133 0.088278 0.054163907 0.005468551
-0.030689908 0.05060239 -0.026634302 -0.0010436724 0.013056744 0.08350539 -0.044395525 0.0039398107
0.066502325 0.04356214 0.029330673 0.06287427 -0.050979406 0.08083439 -0.019564765 -0.072143115
0.066380024 -0.04415618 0.113392815 0.096667975 -0.002691559 0.03038895 -0.060971458 0.017871067
-0.048738092 0.02554941 0.05765195 -0.04499411 -0.0058890823 -0.07695558 -0.0527208 0.104175806
00000000: e373 b53d b25c e6bd a246 8a3d aafa c03d
00000010: 48fd dc3d 2636 3c3d 1640 83bd 218c f2bc
00000020: 41a3 45bd e60a e0bb b3a9 563d 2beb 9c3d
00000030: 3e52 aa3d 6ddd 6bbd 3ccd d03d 09ba 5e3d
00000040: 5d2a 40bd 585f b4bc e228 c13c b010 d53d
00000050: 049e bd3c d454 973d 0379 483d 2eea aebc
00000060: c50a ec3d 4fdd 2fbc 88b3 823d 6c6b 053c
00000070: 9bc3 863d 86b2 743c 9229 6d3d aafd 09bc
00000080: 0d75 de3b 93e1 78bd ca68 af3d fad4 713c
00000090: e953 343d 5fe6 df3d 0242 9c3d 4da8 863d
000000a0: 4cec 4c3d f94e b83d 84d0 1ebd 97ed fc3b
000000b0: 8f48 f73d b852 563d 015c 943c 64e0 393d
000000c0: ad9c 623d adfb f6bc 30df 55bc 1155 de3b
000000d0: 25d9 7abb c84f abbc 71a6 a43c 47f0 47bd
000000e0: c635 0dbd a200 03bc f0da c53d 6fb1 b33d
000000f0: 5bee ba3c 381a ae3d 473e 393c 7445 473d
00000100: b3c2 be3d e6e1 be3d 893f 853b 3af4 c03d
00000110: 8f80 983d 3e2a f13c fc6a 483d fac0 13bd
00000120: 0ce0 64bc 5d0e 71bd d75f 693d 0ac8 f7ba
00000130: 4641 8abd 1ab0 55bd 809b 97bd c63c 59bd
00000140: 4940 05bc 3159 843c 8012 afbb 4aaf 143d
00000150: bc55 3fbd 94fa 733d 057c 99bc 294f 68bd
00000160: 19f4 8f3b d0f4 bc3b d615 13bd ebf9 123d
00000170: 9a8d a83d 19cb b43d f9da 5d3d 8831 b33b
00000180: 6769 fbbc 7444 4f3d 2e30 dabc d6cb 88ba
00000190: f4eb 553c e004 ab3d 15d8 35bd 8719 813b
000001a0: 5f32 883d 376e 323d e146 f03c 3ac4 803d
000001b0: c8cf 50bd 808c a53d 4946 a0bc c5bf 93bd
000001c0: 40f2 873d 1cdd 34bd 7e3a e83d dcf9 c53d
000001d0: de64 30bb 3ff2 f83c 35bd 79bd 5866 923c
000001e0: 98a1 47bd ff4c d13c 7324 6c3d be4b 38bd
000001f0: 34f9 c0bb e39a 9dbd c4f1 57bd 205a d53d

layer2.weight f4 [128, 128]
0.007013807 -0.0050237505 -0.017133445 0.0065514473 -0.015802482 -0.03955799 -0.019353881 -0.0008055491
-0.0033916922 -0.035408076 -0.0151015 0.014875504 0.017702108 0.035902422 -0.030723779 -0.033248223
0.0066360375 -0.040576514 0.0046974528 -0.005587629 0.023481973 0.03953821 -0.033673547 0.008792063
0.014914416 -0.0040403716 0.012843935 -0.042970497 -0.023026766 0.033250183 -0.024192804 0.023922648
0.03959372 0.00624385 0.007236674 -0.013906124 -0.004791777 0.019223792 0.040533043 -0.01735956
0.023550611 0.015821414 0.015083847 -0.0004486817 0.016172774 0.019199714 0.032256708 0.02929589
-0.03592819 0.0058021597 0.020870663 -0.02268582 -0.029497081 -0.029064162 -0.03785692 -0.012702031
-0.03131474 -0.04269277 0.012686823 0.0064005805 0.011533558 -0.017314838 0.04053588 -0.023435282
-0.038257685 -0.012828857 -0.01965998 -0.03741378 0.02884621 0.0132254455 -0.0012911856 -0.030528758
0.002987365 -0.01338401 -0.017564652 -0.0051044514 0.033577777 0.023054892 -0.03506079 0.022983763
-0.020918895 -0.008420088 -0.019360024 -0.008861711 0.0029486849 -0.032043073 -0.03857016 -0.025171556
0.023587575 0.014504819 -0.038733084 -0.0021629198 0.033486746 -0.03131411 0.013036877 0.020209594
-0.014346628 -0.039739177 0.0347048 -0.006419532 0.025877796 0.012956163 -0.02358793 -0.02987879
0.022155793 0.023938404 0.021822454 0.033934742 0.034160066 0.041225865 -0.03880151 -0.027677383
-0.010910999 -0.014468105 0.012538886 0.03635642 0.013663728 0.00562489 0.012656741 0.0020879575
-0.0177472 0.005788193 -0.008919838 -0.01979788 -0.038710933 -0.020869642 -0.0020919826 0.03852184
0.02656653 -0.015483528 -0.006912287 -0.039136034 -0.0075781704 0.037966516 -0.036702193 -0.011146969
0.04022799 -0.0030791888 -0.037250977 -0.036264457 -0.006488245 0.0024055657 -0.024577223 0.02365717
-0.0242313 0.025347486 0.037546553 0.032455955 -0.013214743 0.002238392 -0.04278356 -0.017596329
-0.029617686 -0.038255706 -0.015029572 -0.023455724 0.02646973 -0.0059740474 -0.011017489 -0.03228557
0.030556433 -0.017762 -0.0046040383 -0.025751319 0.005185642 0.0053997226 -0.001878101 -0.019510081
0.008900699 -0.009759802 0.016674079 -0.022990007 0.015880777 -0.042283196 0.024368089 -0.022505308
-0.0063858815 0.02045999 0.029261796 0.021544809 0.03946842 -0.016429747 -0.0013192744 -0.030800452
0.02285404 -0.017098354 0.008097174 0.03459478 -0.008528366 0.032683592 0.026460111 -0.043752383
-0.013020014 0.017766068 -0.038148057 -0.014317534 -0.018097932 0.027320601 0.014419848 -0.016327284
0.013778104 -0.042417433 0.027820976 0.015788384 -0.00023686342 -0.026805062 -0.003328064 0.029929647
-0.021540858 0.0399277 -0.031044643 0.022061022 -0.036395784 -0.0040655406 0.029676933 -0.024403954
-0.023711607 -0.0015494421 0.04068235 -0.0028853233 -0.03445387 -0.024829641 -0.021021979 0.038526326
-0.020828651 -0.017990889 -0.013007539 0.00848016 -0.025792256 0.023853663 0.014545132 -0.0075622587
-0.037078623 -0.012837755 -0.013385154 -0.026763093 -0.039553553 -0.023940999 8.383176e-05 0.043132704
-0.005674103 0.03530806 0.027375037 0.039814025 -0.034697782 -0.03384931 -0.04277038 0.02570678
0.0396772 -0.034654845 -0.0051834336 0.026883963 -0.024978522 0.01892942 0.036912356 0.024792688
00000000: 14d4 e53b 469e a4bb 705b 8cbc 86ad d63b
00000010: 3574 81bc 8f07 22bd 088c 9ebc 7c2b 53ba
00000020: 2747 5ebb 0f08 11bd 486c 77bc 63b8 733c
00000030: 0304 913c 6b0e 133d 6fb0 fbbc 4a2f 08bd
00000040: 1e73 d93b 8f33 26bd 17ed 993b 6e18 b7bb
00000050: 445d c03c d1f2 213d 46ed 09bd 960c 103c
00000060: 985b 743c 1865 84bb 5e6f 523c d501 30bd
00000070: a1a2 bcbc 5831 083d fd2f c6bc 6ef9 c33c
00000080: 062d 223d 3699 cc3b 9f21 ed3b 83d6 63bc
00000090: 5704 9dbb 377b 9d3c fa05 263d a335 8ebc
000000a0: 36ed c03c e99b 813c 3d22 773c 0a3d ebb9
000000b0: c47c 843c b848 9d3c 9c1f 043d effd ef3c
000000c0: 7029 13bd 0b20 be3b f4f8 aa3c 9dd7 b9bc
000000d0: dda3 f1bc f717 eebc dc0f 1bbd 2e1c 50bc
000000e0: e343 00bd 9dde 2ebd 64dc 4f3c f6bb d13b
000000f0: 40f7 3c3c d9d7 8dbc f308 263d 59fb bfbc
00000100: 17b4 1cbd 2030 52bc f70d a1bc 313f 19bd
00000110: e34e ec3c 8aaf 583c 003d a9ba 7217 fabc
00000120: abc7 433b 9b48 5bbc bfe3 8fbc 3e43 a7bb
00000130: da88 093d 9ddd bc3c e79b 0fbd 7248 bc3c
00000140: 1a5e abbc 69f4 09bc ea98 9ebc b630 11bc
00000150: b93e 413b 993f 03bd befb 1dbd 9434 cebc
00000160: bb3a c13c 9fa5 6d3c 95a6 1ebd c6bf 0dbb
00000170: 6629 093d 3943 00bd a098 553c 978e a53c
00000180: 1f0e 6bbc 8cc5 22bd 9f26 0e3d f05a d2bb
00000190: acfd d33c 1646 543c 793b c1bc 5dc4 f4bc
000001a0: 1180 b53c 791a c43c 01c5 b23c 28ff 0a3d
000001b0: 6deb 0b3d 74dc 283d 55ee 1ebd aebb e2bc
000001c0: 0cc4 32bc a10b 6dbc e66f 4d3c 78ea 143d
000001d0: d4dd 5f3c ff50 b83b 385e 4f3c 1dd6 083b
000001e0: 9362 91bc e2aa bd3b 8324 12bc 2a2f a2bc
000001f0: 5b8f 1ebd d0f6 aabc a519 09bb 14c9 1d3d
00000200: 0da2 d93c a0ae 7dbc 7780 e2bb 1b4d 20bd
00000210: 4d52 f8bb c782 1b3d 0a55 16bd c7a1 36bc
00000220: 1bc6 243d 37cc 49bb 7b94 18bd 0a8a 14bd
00000230: 589b d4bb b2a6 1d3b 2c56 c9bc aecc c13c
00000240: b880 c6bc 88a5 cf3c 6aca 193d 89f0 043d
00000250: a682 58bc fcb1 123b d03d 2fbd 2d26 90bc
00000260: caa0 f2bc 04b2 1cbd 983e 76bc 3826 c0bc
00000270: 0cd7 d83c f1c1 c3bb b382 34bc e03d 04bd
00000280: 7c51 fa3c 9d81 91bc 79dd 96bb 6ef4 d2bc
00000290: 51ec a93b 28f0 b03b 9d2a f6ba 9bd3 9fbc
000002a0: 3dd4 113c 94e7 1fbc 1498 883c 8a55 bcbc
000002b0: 6718 823c 2531 2dbd 969f c73c 0d5d b8bc
000002c0: a840 d1bb b59b a73c 6fb6 ef3c bd7e b03c
000002d0: a3a9 213d ad97 86bc 81eb acba 3b51 fcbc
000002e0: 6538 bb3c d911 8cbc 02aa 043c 42b3 0d3d
000002f0: 8fba 0bbc 3bdf 053d e0c2 d83c b335 33bd
00000300: e651 55bc 258a 913c 2341 1cbd 1794 6abc
00000310: 1d42 94bc 74cf df3c 3a41 6c3c ccc0 85bc
00000320: 8fbd 613c e7bd 2dbd d1e8 e33c a456 813c
00000330: 8a5e 78b9 4a96 dbbc a61b 5abb 052f f53c
00000340: 7476 b0bc 3a8b 233d 5651 febc 51b9 b43c
00000350: bf13 15bd 3a38 85bb 0a1d f33c cdea c7bc
00000360: d83e c2bc a616 cbba 89a2 263d b117 3dbb
00000370: 801f 0dbd 8867 cbbc 4936 acbc c8cd 1d3d
00000380: d9a0 aabc a161 93bc 931d 55bc 5ef0 0a3c
00000390: 484a d3bc c268 c33c b54e 6e3c d3cc f7bb
000003a0: c1df 17bd 7255 52bc 684d 5bbc 463e dbbc
000003b0: e802 22bd ea1f c4bc d5ce af38 ebab 303d
000003c0: d3ed b9bb 2f9f 103d 9d41 e03c 0814 233d
000003d0: 431f 0ebd 93a5 0abd fe2f 2fbd 0697 d23c
000003e0: 8f84 223d 3df2 0dbd cbd9 a9bb c23b dc3c
000003f0: c29f ccbc df11 9b3c 6931 173d 091a cb3c

layer2.bias f4 [128]
0.014514475 -0.0034190735 -0.027519843 0.016973078 0.06471863 0.014659995 0.06812689 0.001666471
-0.010450099 -0.027285183 0.02095803 0.26304165 -0.008900286 0.044615664 0.08160871 0.079899386
0.073911026 0.030545173 0.13411781 0.15938795 0.051090226 -0.0024214862 0.07333206 0.00726602
-0.0019622112 0.020437643 -0.012400174 0.018704155 0.062005516 0.027118074 0.006021965 -0.017012095
0.012490851 -0.017771846 -0.029605187 0.0027317319 0.078538254 -0.024664333 0.073863804 0.15593104
0.06191685 0.034552727 0.08664568 0.022424085 0.038203638 -0.010076513 0.09220353 0.0014215285
0.028553752 0.060167536 0.14352675 0.016749369 0.061986282 0.060461164 0.044808615 -0.032130253
-0.030568838 0.043309543 0.053571608 0.031640757 0.05992554 0.07093191 0.020551736 0.06390129
0.01278946 0.013245905 -0.043865025 0.07021802 -0.0124422945 0.013504921 0.05794314 -0.016469257
-0.0372303 0.035570756 0.06583428 -0.009482464 0.01691435 -0.034172673 0.03445507 -0.018107597
-0.042976633 -0.0084763635 0.03336981 0.03637046 0.048590656 0.012418957 0.026572969 -0.000106298
0.057924047 0.115237206 0.046472132 0.040820763 0.022431195 0.068888515 -0.03932075 0.021839028
-0.043166406 0.12251645 0.05256484 -0.04270708 -0.0063063605 0.0073757865 0.071201555 0.011084487
-0.037592724 0.086029224 0.02185383 0.07386751 0.018359534 0.05822808 -0.024544919 0.0262242
0.014706916 -0.03734866 0.04298938 -0.04223191 0.07109994 0.08034554 0.030746063 -0.03843092
-0.037637018 -0.007879454 0.058473665 0.05802672 -0.0183085 -0.013024911 0.103199065 0.06102638
00000000: 1fce 6d3c 8912 60bb 4b71 e1bc 200b 8b3c
00000010: 338b 843d 7a30 703c 1c86 8b3d 7d6d da3a
00000020: e436 2bbc 2d85 dfbc 2db0 ab3c 65ad 863e
00000030: 81d2 11bc eabe 363d 7822 a73d 4aa2 a33d
00000040: aa5e 973d df39 fa3c 2e56 093e 9836 233e
00000050: fc43 513d ccb1 1ebb 1e2f 963d cb17 ee3b
00000060: 7198 00bb d86c a73c 192a 4bbc 7539 993c
00000070: 7ff9 7d3d b926 de3c e753 c53b f35c 8bbc
00000080: 6da6 4c3c 4396 91bc 9486 f2bc db06 333b
00000090: aad8 a03d db0c cabc e845 973d 63ac 1f3e
000000a0: 869c 7d3d 2987 0d3d 4a73 b13d b7b2 b73c
000000b0: 6b7b 1c3d f517 25bc 34d5 bc3d 9552 ba3a
000000c0: 8fe9 e93c 3c72 763d adf8 123e f935 893c
000000d0: 54e5 7d3d 20a6 773d 3d89 373d 039b 03bd
000000e0: 806b fabc 5965 313d e76d 5b3d bd99 013d
000000f0: 7c74 753d c044 913d 1d5c a83c aede 823d
00000100: e28a 513c 5a05 593c d0ab 33bd 77ce 8f3d
00000110: c4da 4bbc bf43 5d3c c955 6d3d 89ea 86bc
00000120: cd7e 18bd a4b2 113d 1fd4 863d 565c 1bbc
00000130: f78f 8a3c a5f8 0bbd c220 0d3d 6256 94bc
00000140: 4408 30bd 72e0 0abc c8ae 083d 31f9 143d
00000150: ff06 473d e278 4b3c 8eaf d93c 4eec deb8
00000160: c441 6d3d 7c01 ec3d 9059 3e3d ac33 273d
00000170: a0c1 b73c 6c15 8d3d cb0e 21bd c3e7 b23c
00000180: 42cf 30bd e8e9 fa3d 3b4e 573d 9eed 2ebd
00000190: 96a5 cebb 95b0 f13b 1fd2 913d b59b 353c
000001a0: d4fa 19bd 1730 b03d ce06 b33c d947 973d
000001b0: bc66 963c 9180 6e3d 6d12 c9bc 22d4 d63c
000001c0: 47f5 703c e9fa 18bd a215 303d 5efb 2cbd
000001d0: d89c 913d 348c a43d 2bdf fb3c be69 1dbd
000001e0: 4629 1abd d318 01bc 1582 6f3d 6dad 6d3d
000001f0: b5fb 95bc 7066 55bc 085a d33d ccf6 793d

layer3.weight f4 [128, 128]
0.022707228 0.009952222 1.246037 -0.0037846311 -0.055468235 1.0809257 -0.2652272 0.018439455
0.04012637 1.2420051 -0.037472244 0.23424779 -0.004460827 -0.14152499 0.7271105 -0.19189507
-0.04539562 -0.30211112 -0.004461946 0.048008833 -0.18795034 0.040744316 0.47618973 -0.16050637
0.032129463 -0.016662061 -0.0144901415 0.011439747 0.5011773 0.009250953 0.54038924 0.008216882
-0.034877848 -0.02028675 1.2714951 0.5396815 -0.04644981 0.01654664 -0.28084496 0.055082023
-0.01789649 -0.006924766 0.59468216 0.006366409 -0.019410826 0.01041401 -0.12363856 -0.017601144
0.4021026 -0.19133872 0.06080949 0.023832945 -0.24330355 -0.20335022 -0.178534 -0.0014822399
0.04100686 0.47958076 -0.29145265 -0.017846888 -0.31290877 -0.18718423 -0.023195641 -0.26486415
0.015604364 0.033252463 -0.0014542649 -0.25855547 0.002565419 -0.10701721 -0.15967022 -0.013934448
-0.03308078 -0.0065979194 -0.05671944 0.04310259 0.015730748 0.011172366 -0.031705495 -0.03793913
-0.010888661 0.018263303 0.9423938 -0.002551567 0.5117138 0.024873026 -0.07794772 0.026618678
-0.2789888 0.004594844 -0.099396005 0.014407525 -0.006383622 -0.1027908 0.026528865 1.2579257
0.012967931 0.027602056 -0.24597225 -0.0099237 1.1063659 -0.19435196 -0.13434808 -0.14528574
0.008596652 -0.15485683 1.2119786 -0.018531743 -0.012364536 -0.17826952 1.0755569 -0.16015081
0.00871987 -0.019404951 -0.15043904 -0.039508734 0.6804028 -0.03451705 -0.21844177 0.04517123
0.0026974299 0.02296291 -0.06525502 -0.010649171 -0.03600354 0.025976535 0.0046937796 -0.15330565
-0.022163076 0.009488629 -1.181462 0.012222783 0.23731095 -0.90247345 0.31442997 0.0009394013
0.018816175 -0.85982424 -0.035009053 0.05993972 -0.024701577 0.2658037 -0.26887485 0.3242651
0.27402127 0.3493024 0.19830054 0.1881963 0.25934884 -0.00044060327 -0.31416282 0.26755583
0.019708265 -0.02994363 0.03525481 -0.006975252 -0.2735646 0.004110259 -0.31966195 -0.036454916
0.028233198 0.018204037 -1.1211873 -0.2884785 0.2636653 -0.037594195 0.34341893 0.22543582
0.20922032 -0.040067952 -0.2130922 -0.034742855 0.26108325 -0.037882123 0.264185 0.003004034
0.984288 0.3339107 0.19043155 0.0009950963 0.35135654 0.29787427 0.29564616 -0.029104063
0.03982945 0.06046367 0.30176967 0.010629365 0.3311541 0.2938349 -0.038263842 0.32190326
0.040989786 0.0038198773 -0.03044346 0.3319711 0.011404978 0.29977307 0.23449548 -0.030084807
-0.015478589 -0.040503778 0.25740016 -0.0065394407 0.016681124 -0.008596538 0.041439034 0.0021523791
-0.013533852 -0.040293813 -0.33643684 -0.028190851 -0.27877873 0.021066796 0.23282126 0.04174766
0.32789227 0.2274483 0.21942925 -0.042497482 -0.008073487 0.27230978 0.042477507 -1.2427592
0.016604505 0.17383666 0.3712479 0.027096555 -0.8585679 0.2647798 0.2526538 0.2750184
0.019149901 0.25782225 -1.2269571 0.23185755 -0.006659232 0.26388934 -1.0561637 0.25720564
0.019169567 -0.019033287 0.2935517 -0.036278225 -0.17172071 0.24477574 0.32008886 0.01250224
-0.026624542 -0.03920936 0.2476691 0.23069805 0.004653486 0.035182044 0.22301583 0.24999607
00000000: 8204 ba3c a50e 233c 247e 9f3f 9307 78bb
00000010: a932 63bd c65b 8a3f dccb 87be 570e 973c
00000020: 8c5b 243d 06fa 9e3f 7f7c 19bd a7de 6f3e
00000030: 212c 92bb edeb 10be ea23 3a3f 2480 44be
00000040: c2f0 39bd 4fae 9abe 8435 92bb e9a4 443d
00000050: 0e76 40be 83e3 263d 24cf f33e c85b 24be
00000060: 2f9a 033d e07e 88bc 0f68 6dbc c76d 3b3c
00000070: 284d 003f 4f91 173c f356 0a3f 1aa0 063c
00000080: 13dc 0ebd 6630 a6bc 5ac0 a23f 9128 0a3f
00000090: 2842 3ebd d28c 873c e9ca 8fbe b09d 613d
000000a0: a99b 92bc 26e9 e2bb 173d 183f 4f9d d03b
000000b0: 7403 9fbc 869f 2a3c 3736 fdbd 4630 90bc
000000c0: 64e0 cd3e 4cee 43be 5f13 793d 4f3d c33c
000000d0: 9124 79be 0a3b 50be 9ed1 36be b847 c2ba
000000e0: cff6 273d 9c8b f53e 4839 95be a333 92bc
000000f0: 9435 a0be 39ad 3fbe c904 bebc 469c 87be
00000100: 72a9 7f3c bc33 083d 089d beba 6261 84be
00000110: 9720 283b d72b dbbd 9780 23be 504d 64bc
00000120: b67f 07bd 5c33 d8bb a552 68bd 578c 303d
00000130: c5dd 803c 4d0c 373c 9fdd 01bd 1066 1bbd
00000140: 5b66 32bc ec9c 953c b840 713f 3138 27bb
00000150: adff 023f 84c2 cb3c 0ea3 9fbd 6a0f da3c
00000160: 9fd7 8ebe 5890 963b 2290 cbbd 8a0d 6c3c
00000170: b42d d1bb fc83 d2bd 1053 d93c b603 a13f
00000180: 7277 543c b51d e23c 26e0 7bbe 0497 22bc
00000190: 669d 8d3f 3304 47be 8b92 09be c9c5 14be
000001a0: f9d8 0c3c ca92 1ebe 1d22 9b3f e2cf 97bc
000001b0: 9f94 4abc 498c 36be d9ab 893f 93fe 23be
000001c0: c9dd 0e3c 22f7 9ebc b10c 1abe e9d3 21bd
000001d0: e12e 2e3f c061 0dbd 33af 5fbe 7805 393d
000001e0: 5dc7 303b b61c bc3c 6da4 85bd dc79 2ebc
000001f0: 7378 13bd becc d43c 47ce 993b 28fc 1cbe
00000200: 578f b5bc 3276 1b3c 263a 97bf 1142 483c
00000210: a401 733e 8008 67bf f7fc a03e 2742 763a
00000220: 6124 9a3c 711d 5cbf a765 0fbd 5a83 753d
00000230: f65a cabc 6c17 883e f7a9 89be 1306 a63e
00000240: 844c 8c3e c4d7 b23e 4c0f 4b3e 88b6 403e
00000250: 5fc9 843e c500 e7b9 f3d9 a0be 14fd 883e
00000260: 3a73 a13c 584c f5bc 5967 103d a890 e4bb
00000270: a910 8cbe 5aaf 863b bbaa a3be c051 15bd
00000280: 4f49 e73c a220 953c 1183 8fbf 74b3 93be
00000290: 23ff 863e 5ffc 19bd 9bd4 af3e a6d8 663e
000002a0: da3d 563e 4b1e 24bd d734 5abe 864e 0ebd
000002b0: b4ac 853e 492a 1bbd 4243 873e 54df 443b
000002c0: 4cfa 7b3f 58f6 aa3e 7d00 433e e46d 823a
000002d0: 01e5 b33e fa82 983e ef5e 973e a56b eebc
000002e0: 3524 233d c1a8 773d 8e81 9a3e ca26 2e3c
000002f0: 088d a93e 8771 963e 8cba 1cbd 81d0 a43e
00000300: e8e4 273d e856 7a3b 9064 f9bc 1ef8 a93e
00000310: f2db 3a3c db7b 993e 951f 703e 6a74 f6bc
00000320: e899 7dbc 4ae7 25bd f4c9 833e ce48 d6bb
00000330: daa6 883c 7ed8 0cbc fabb 293d ee0e 0d3b
00000340: 17bd 5dbc 200b 25bd 7341 acbe 80f0 e6bc
00000350: 16bc 8ebe 4694 ac3c b268 6e3e 98ff 2a3d
00000360: 7fe1 a73e 35e8 683e 10b2 603e d711 2ebd
00000370: a946 04bc 306c 8b3e e5fc 2d3d bc12 9fbf
00000380: 2c06 883c 3d02 323e 3414 be3e 98f9 dd3c
00000390: 1bcb 5bbf 3891 873e d75b 813e 36cf 8c3e
000003a0: 41e0 9c3c 4701 843e ee0c 9dbf 116c 6d3e
000003b0: b035 dabb 811c 873e 5f30 87bf 75b0 833e
000003c0: 7f09 9d3c b2eb 9bbc 694c 963e 7a98 14bd
000003d0: 8ed7 2fbe 7ea6 7a3e b0e2 a33e 32d6 4c3c
000003e0: b61b dabc fe99 20bd f89c 7d3e 1c3c 6c3e
000003f0: 457c 983b 0c1b 103d 435e 643e f8fe 7f3e

layer3.bias f4 [128]
0.17173809 0.13588943 0.37262622 0.0021691006 0.0361185 0.07874931 -0.022841236 0.32813284
0.11137024 0.12552096 0.13527665 0.10593433 0.09703654 -0.03269375 -0.038137946 -0.020465657
0.112979196 0.12174709 -0.0046183774 0.07682781 0.09722424 0.12704104 0.11022919 0.11349121
0.01927775 -0.014760484 0.11549029 -0.02978156 0.102452874 0.03758793 0.018342724 0.18994528
-0.008241626 0.12569821 -0.008290462 0.11715678 0.10413298 0.06854059 0.08789202 0.12573434
0.087372765 0.16433841 0.06118496 0.3054355 0.054827917 -0.037527144 0.024568578 0.42496577
0.09495948 0.13262814 0.23714177 -0.03474451 0.06836883 0.09590113 0.06455823 0.16715926
0.19775996 0.13153772 0.07449504 -0.011535398 -0.015009304 0.10618941 0.18288843 0.021042766
0.15563026 0.17313544 -0.03981443 0.11464477 -0.04265901 0.10754309 0.07396936 0.010270946
0.028192706 0.12048743 0.015401215 0.11809758 0.11397325 0.1528231 0.068377815 0.030301476
-0.0037979342 0.10273254 0.13630493 -0.0139551805 0.19635232 0.121856466 0.15353268 0.1209866
0.118128866 0.10682583 0.090728655 0.09959719 0.119873725 -0.0034515643 0.07945728 0.07504983
0.012375451 0.14888568 0.09796425 -0.013539206 0.051762834 0.35781485 0.11421937 0.15003878
0.1178941 0.069025524 0.066125624 0.119778425 0.12986013 0.025681792 0.15469906 0.11262652
0.030128805 0.12662739 0.14410912 -0.029327258 0.039856866 0.30149812 -0.0020900026 0.20433834
0.072637975 0.11432382 0.19312282 -0.015788758 -0.006510595 0.10104309 0.008357737 0.13005036
00000000: 1cdc 2f3e 9926 0b3e ddc8 be3e 7827 0e3b
00000010: fef0 133d 5147 a13d 8b1d bbbc 0701 a83e
00000020: 1516 e43d 9188 003e f685 0a3e 19f4 d83d
00000030: 18bb c63d e2e9 05bd 8936 1cbd 98a7 a7bc
00000040: a361 e73d 8a56 f93d c255 97bb e657 9d3d
00000050: 811d c73d 0c17 023e d7bf e13d 146e e83d
00000060: 5fec 9d3c f5d5 71bc 2c86 ec3d 75f8 f3bc
00000070: d0d2 d13d cdf5 193d 7b43 963c 0481 423e
00000080: e307 07bc 08b7 003e b8d4 07bc e5ef ef3d
00000090: ac43 d53d 025f 8c3d bb00 b43d 81c0 003e
000000a0: 7ef0 b23d 5448 283e 159d 7a3d 0b62 9c3e
000000b0: 3d93 603d 10b6 19bd 0b44 c93c 1d95 d93e
000000c0: 1e7a c23d accf 073e 4bd5 723e 4250 0ebd
000000d0: f504 8c3d d067 c43d 1b37 843d cc2b 2b3e
000000e0: 9681 4a3e d3b1 063e db90 983d f7fe 3cbc
000000f0: 95e9 75bc d579 d93d 1b47 3b3e e161 ac3c
00000100: 8a5d 1f3e 6b4a 313e 7514 23bd e1ca ea3d
00000110: 37bb 2ebd 8d3f dc3d 3f7d 973d 7847 283c
00000120: 64f4 e63c 1dc2 f63d 6155 7c3c 25dd f13d
00000130: cf6a e93d a97d 1c3e ab09 8c3d cd3a f83c
00000140: c3e6 78bb 7065 d23d 8593 0b3e 45a4 64bc
00000150: 9510 493e e28f f93d ac37 1d3e d3c7 f73d
00000160: 8ced f13d 80c7 da3d f2cf b93d 9df9 cb3d
00000170: 5b80 f53d a433 62bb 80ba a23d bab3 993d
00000180: 67c2 4a3c 7d75 183e 7ba1 c83d 8cd3 5dbc
00000190: 4405 543d 8233 b73e d8eb e93d c4a3 193e
000001a0: 7672 f13d 415d 8d3d df6c 873d 644e f53d
000001b0: 0efa 043e 9f62 d23c 6e69 1e3e bca8 e63d
000001c0: afd0 f63c 9caa 013e 5791 133e b83f f0bc
000001d0: f440 233d f65d 9a3e 6df8 08bb 123e 513e
000001e0: 38c3 943d 9b22 ea3d fdc1 453e 6d57 81bc
000001f0: d456 d5bb aeef ce3d e4ee 083c ec2b 053e

output_layer.weight f4 [9, 128]
-0.3789535 0.16526078 -0.5654994 -0.011516223 0.0073583247 0.18459883 -0.038747076 -0.628706
0.12160957 -0.30017534 0.14281927 -0.3312965 0.16240016 -0.024161907 -0.013870379 -0.012336055
0.20157911 0.1305981 -0.018366773 0.14861904 0.13761656 0.21364625 0.12669681 0.15621017
0.00994206 0.0015990234 -0.4917158 -0.02082007 -0.052993625 0.01223172 -0.11518742 -0.44614357
-0.009835155 0.20278028 0.012381732 0.12084459 0.12884843 0.16698596 0.08617794 0.1826115
0.12987632 -0.5618614 0.18524241 -0.6132325 0.24556826 0.034885537 -0.040583152 -0.6349868
0.10769597 -0.24565375 -0.33056065 0.001345514 0.16718528 0.16615967 -0.17126818 -0.45406854
-0.33812958 0.16298555 -0.28699157 0.26616162 -0.004833726 0.18338922 -0.36734208 -0.016146721
-0.16395111 -0.36806354 -0.0050049764 0.1707826 -0.02522555 0.1993679 0.17781718 0.03594287
0.009458619 0.113404855 2.7914095e-06 0.15694089 0.18644036 -0.377966 0.13998081 0.015783342
0.25921902 0.10534676 -0.52261764 0.012805108 -0.39258903 0.13819215 -0.52747774 0.17876378
0.14842671 -0.3282531 -0.47922152 0.1754974 -0.30654258 -0.012331182 0.18677878 0.19659536
-0.033948757 -0.42688125 0.17998226 -0.03392377 0.19163522 -0.6493994 0.19733143 -0.5817845
0.14384592 0.14596456 0.14941205 0.1223861 -0.29620743 0.0040835347 -0.40519902 0.20537853
-0.016009498 -0.40009758 0.11412174 0.0027519737 0.21225236 -0.49479774 -0.00059634494 -0.45333543
0.19374315 -0.148522 -0.5159921 -0.0002391108 -0.0322222 0.1598635 -0.0032088044 -0.49460325
-0.38819835 0.1335683 -0.5132889 -0.023958057 -0.0369243 0.17710868 0.025786586 -0.42137787
0.12484942 -0.3336491 0.16497816 -0.33017913 0.14886564 -0.0010453153 -0.031930517 0.0412471
0.17265905 0.15162893 0.021786422 0.12449508 0.12488864 0.17264941 0.14462027 0.18176094
0.025573354 -0.010557977 -0.5178906 -0.0046052295 0.11003686 -0.018565046 -0.097318105 -0.40804088
0.021280786 0.15513524 0.035682254 0.17140973 0.1663191 0.15833284 0.16099621 0.18440732
0.122555435 -0.4176037 0.18476772 -0.48756492 0.18628168 -0.023033075 -0.014205145 -0.5595835
0.13200335 -0.35545716 -0.35642603 -0.027436446 0.14366725 0.14743063 -0.035561115 -0.38752595
-0.33998734 0.124628514 -0.29336983 0.18731982 -0.018226901 0.16289227 -0.31546 0.028227331
-0.40429062 -0.43628094 0.04808221 0.187377 -0.03585293 0.18551323 0.10701304 -0.015528952
-0.039349593 0.13009068 -0.030983068 0.16903457 0.13571334 -0.43505296 0.17672282 0.01317111
0.17483635 0.16443942 -0.49149 -0.039058268 -0.34837297 0.10138535 -0.4685018 0.1788631
0.16552314 -0.41426113 -0.108465515 0.16765316 -0.34445146 -0.02633969 0.1880487 0.1553909
0.00030048905 -0.41660103 0.1442484 -0.026079297 0.17351472 -0.5336874 0.14951898 -0.44148275
0.17627527 0.17764673 0.16426265 0.15839186 -0.44576302 0.0058475463 -0.45250103 0.18555985
-0.040929046 -0.41400942 0.12381604 0.016818732 0.19473545 -0.44528133 -0.034834456 -0.41442555
0.16360734 -0.2964393 -0.48192245 -0.014092518 0.011459877 0.17643906 -0.040574275 -0.40788418
00000000: 3106 c2be 1f3a 293e 92c4 10bf 8aae 3cbc
00000010: 1a1e f13b 7a07 3d3e 41b5 1ebd e0f2 20bf
00000020: 700e f93d 95b0 99be 373f 123e b29f a9be
00000030: 3a4c 263e 31ef c5bc 9640 63bc 2a1d 4abc
00000040: c16a 4e3e 82bb 053e ea75 96bc 972f 183e
00000050: 5beb 0c3e 15c6 5a3e cfbc 013e 8ff5 1f3e
00000060: 06e4 223c 5296 d13a 2cc2 fbbe da8e aabc
00000070: d80f 59bd 8d67 483c 62e7 ebbd ee6c e4be
00000080: a123 21bc a2a5 4f3e c0dc 4a3c 5e7d f73d
00000090: d8f0 033e 5efe 2a3e 0f7e b03d 82fe 3a3e
000000a0: 4cfe 043e 26d6 0fbf 30b0 3d3e cefc 1cbf
000000b0: 3f76 7b3e 23e4 0e3d 853a 26bd 7f8e 22bf
000000c0: b48f dc3d a88c 7bbe 3f3f a9be f55b b03a
000000d0: 9e32 2b3e c325 2a3e ed60 2fbe ac7b e8be
000000e0: 521f adbe afe5 263e 8ff0 92be 5646 883e
000000f0: 3c64 9ebb 62ca 3b3e 4314 bcbe 2146 84bc
00000100: cde2 27be d372 bcbe c900 a4bb a2e1 2e3e
00000110: d0a5 cebc 1927 4c3e b515 363e d538 133d
00000120: 53f8 1a3c ce40 e83d 0d54 3b36 1db5 203e
00000130: 39ea 3e3e c284 c1be 2157 0f3e 114c 813c
00000140: 5bb8 843e 0bc0 d73d 45ca 05bf 84cc 513c
00000150: 6e01 c9be 3e82 0d3e c808 07bf da0d 373e
00000160: 2cfd 173e ca10 a8be 865c f5be 97b5 333e
00000170: 26f3 9cbe ba08 4abc f042 3f3e 4b50 493e
00000180: da0d 0bbd 2e90 dabe 454d 383e a7f3 0abd
00000190: 063c 443e 0a3f 26bf 4011 4a3e d4ef 14bf
000001a0: 584c 133e bc77 153e 79ff 183e 90a5 fa3d
000001b0: 80a8 97be 2ccf 853b 3f76 cfbe c04e 523e
000001c0: 5a26 83bc 97d9 ccbe a9b8 e93d 755a 343b
000001d0: af58 593e 2156 fdbe 0854 1cba 951b e8be
000001e0: 9b64 463e 2716 18be 0f18 04bf d1b9 7ab9
000001f0: 6dfb 03bd 42b3 233e ce4a 52bb a33c fdbe
00000200: efc1 c6be 21c6 083e e766 03bf b043 c4bc
00000210: ef3d 17bd fa5b 353e 643e d33c d7be d7be
00000220: 0db1 ff3d 0ed4 aabe 09f0 283e 3d0d a9be
00000230: 3c70 183e f602 89ba 93c9 02bd b8f2 283d
00000240: 89cd 303e 9d44 1b3e 7079 b23c 47f7 fe3d
00000250: 9ec5 ff3d 02cb 303e 5617 143e 8a1f 3a3e
00000260: 367f d13c 5dfb 2cbc 7a94 04bf 77e7 96bb
00000270: 015b e13d b915 98bc b74e c7bd bcea d0be
00000280: 0b55 ae3c c6db 1e3e 8e27 123d 0886 2f3e
00000290: 8e4f 2a3e 0122 223e 31dc 243e 46d5 3c3e
000002a0: 58fe fa3d 27d0 d5be c033 3d3e 1ca2 f9be
000002b0: a0c0 3e3e dcaf bcbc b2bc 68bc dd40 0fbf
000002c0: e32b 073e 7bfe b5be 797d b6be 66c2 e0bc
000002d0: 821d 133e 0ef8 163e 88a8 11bd cd69 c6be
000002e0: d212 aebe 3c3d ff3d 9234 96be c4d0 3f3e
000002f0: 9550 95bc 3bcd 263e f983 a1be 013d e73c
00000300: 2eff cebe 3760 dfbe daf1 443d c2df 3f3e
00000310: 86da 12bd 2ef7 3d3e a729 db3d 256d 7ebc
00000320: 0a2d 21bd 7e36 053e 34d0 fdbc 6617 2d3e
00000330: 70f8 0a3e 43bf debe d4f6 343e a4cb 573c
00000340: 4d08 333e cf62 283e 94a4 fbbe 90fb 1fbd
00000350: f15d b2be 1fa3 cf3d 78df efbe e327 373e
00000360: e67e 293e 091a d4be 2b23 debd 45ad 2b3e
00000370: f15b b0be 55c6 d7bc d78f 403e cb1e 1f3e
00000380: f58a 9d39 bb4c d5be dab5 133e 40a4 d5bc
00000390: d8ad 313e bd9f 08bf 811b 193e 070a e2be
000003a0: 8181 343e 06e9 353e 7834 283e 7a31 223e
000003b0: 0d3b e4be c69c bf3b 37ae e7be 6703 3e3e
000003c0: 37a5 27bd 0bf9 d3be 4493 fd3d 70c7 893c
000003d0: bb68 473e eafb e3be 93ae 0ebd 962f d4be
000003e0: af88 273e e4c6 97be 8abe f6be 4ee4 66bc
000003f0: 35c2 3b3c 71ac 343e 3631 26bd 32d6 d0be

output_layer.bias f4 [9]
0.014765328 -0.048712853 0.035566658 0.03274664 0.0026368457 -0.0015705909 0.04506032 0.06376215
0.046006292
00000000: 46ea 713c 2187 47bd 58ae 113d 5721 063d
00000010: eece 2c3b 49dc cdba 2c91 383d bb95 823d
00000020: 1871 3c3d
