results/train/SAC_slope_40m_128hidden_6keps_5kgwheel/best_model.pt (torch, 90959 bytes, 6 tensors)

linear1.weight f4 [128, 40]
0	0xbada7108	-0.0016665766
1	0xbd17a5c1	-0.03702331
2	0xbd9c5070	-0.0763253
3	0xbf7c1cf1	-0.9848166
4	0xbcca552d	-0.024698818
5	0x3e07a993	0.13248281
6	0xbf09d475	-0.5383981
7	0x3e8a2fa5	0.26989475
8	0x3d970ea4	0.07375839
9	0x3e8dd9d8	0.27705264
10	0x3d3e394d	0.046441365
11	0x3e5a8502	0.21339801
12	0x3e4033e7	0.18769799
13	0x3e27d35b	0.1638922
14	0xbdf28f69	-0.118437596
15	0x3e845f48	0.25853944
16	0xbdba49d3	-0.09096112
17	0x3e746136	0.23865208
18	0x3d791b09	0.0608168
19	0x3e6bf219	0.23041572
20	0x3b3971bd	0.0028296553
21	0xbeb958c5	-0.36200538
22	0x3d918f23	0.07107379
23	0xbdaa8e08	-0.083278716
24	0xbdfcdff7	-0.123474054
25	0xbe7533f7	-0.23945604
26	0xbdbc4d4f	-0.09194433
27	0x3e2aab78	0.16666973
28	0x3d643b89	0.05572084
29	0x3e6cb19b	0.23114626
30	0x3d1e8580	0.038701534
31	0x3e056088	0.13025105
32	0xbd23c51a	-0.039982893
33	0x3e359bfb	0.17735283
34	0xbed5dba5	-0.41769138
35	0xbccff16f	-0.02538368
36	0x3e784c7f	0.24247931
37	0x3e75697d	0.23966022
38	0xbd95c752	-0.07313408
39	0x3e3edfca	0.18640056
40	0x3e13ab17	0.14420734
41	0xbdac4f96	-0.08413617
42	0x3d8e62dc	0.0695245
43	0xbf7bd82e	-0.9837674
44	0x3da1bc1a	0.07897206
45	0xbc641213	-0.013920325
46	0xbf173817	-0.5906996
47	0x3e4562ab	0.1927592
48	0xbd8ea2e5	-0.069646634
49	0x3d3bfe25	0.045896668
50	0x3d9ca60d	0.07648859
51	0x3c25c60a	0.010118017
52	0x3e2dc315	0.16968949
53	0x3ddfc1ed	0.1092566
54	0x3db8e3d2	0.09027828
55	0xbdc2270f	-0.09480106
56	0x3d935d5d	0.07195542
57	0xbccd5a62	-0.025067512
58	0x3e28f865	0.16501005
59	0x3e11c8e5	0.14236791
60	0x3e792bf7	0.24333178
61	0xbedbef52	-0.42956024
62	0xbd1b630e	-0.037936263
63	0x3e697e31	0.22802044
64	0xbd355400	-0.04426956
65	0xbc9cb84c	-0.019130848
66	0x3e6ce886	0.23135576
67	0x3e9a22a8	0.30104566
68	0x3de78b72	0.11305894
69	0xbdc36c6d	-0.09542165
70	0x3e679b2d	0.22617789
71	0xbd8cba13	-0.06871428
72	0x3e11ccb5	0.14238246
73	0xbd5e694b	-0.054299634
74	0xbebac042	-0.36474806
75	0xbcff309f	-0.031151114
76	0x3e8b1dbf	0.27171132
77	0xbd46f6d2	-0.04857523
78	0xbd6d39fc	-0.057916626
79	0x3e2eb658	0.17061746
80	0x3e1bde5a	0.15221539
81	0xbe1bbb1b	-0.15208094
82	0x3db8552c	0.0900062
83	0xbe1879f0	-0.14890265
84	0xbc2db5b1	-0.010602401
85	0x3e25421a	0.16138497
86	0x3d9065e2	0.070506826
87	0x3bf3c0fd	0.0074387775
88	0x3e40e360	0.18836737
89	0xbcd1bc67	-0.025602533
90	0xbd767131	-0.06016654
91	0xbe1dafce	-0.15399095
92	0x3e3c8b69	0.18412556
93	0xbde86a05	-0.113483466
94	0xbd11cf22	-0.035597928
95	0xbe0020df	-0.1251254
96	0xbdb28f2d	-0.08718715
97	0x3e176f56	0.14788565
98	0xbc0db795	-0.008649726
99	0xbe3c457c	-0.18385881
100	0xbdd47c87	-0.10375314
101	0x3da24362	0.079230085
102	0x3e07c0f5	0.13257201
103	0x3e02e038	0.12780845
104	0xbd8cabe3	-0.06868722
105	0xbbe77c1b	-0.007064355
106	0xbe03f607	-0.1288682
107	0xbdf70b21	-0.120626695
108	0xbd803c51	-0.062615044
109	0xbd925442	-0.07144977
110	0xbd98debc	-0.07464358
111	0xbdc63827	-0.09678679
112	0x3dab6830	0.083694816
113	0x3dc8ac0b	0.097984396
114	0x3dd0aee4	0.10189608
115	0xbd865ed4	-0.06561056
116	0xbe1a708e	-0.15081999
117	0xbda89784	-0.08232024
118	0x3d6513cf	0.055927094
119	0xbe087811	-0.13327052
120	0xbe2a0da2	-0.16606763
121	0xbdf1c10c	-0.11804399
122	0xbd835233	-0.06412163
123	0xbd0d94c4	-0.034565702
124	0xbe2b0890	-0.16702485
125	0xbbc5c801	-0.006035805
126	0xbe26efcf	-0.16302417
127	0x3cae4aa5	0.021275828
128	0xbe42e830	-0.19033885
129	0x3d1cdfec	0.038299486
130	0x3d0fcf71	0.03510994
131	0x3e114d00	0.1418953
132	0x3e180887	0.14847003
133	0xbd8460d8	-0.06463784
134	0xbc49c481	-0.012314917
135	0xbe50345a	-0.2033247
136	0xbd2806d0	-0.041022122
137	0xbd18a29d	-0.037264455
138	0x3e03e600	0.12880707
139	0x3d649a51	0.05581123
140	0x3d5331de	0.05156123
141	0x3d934721	0.07191301
142	0xbe1b32c6	-0.15156087
143	0x3dd1f2bc	0.10251376
144	0x3e2f494d	0.17117806
145	0xbdd6515e	-0.10464738
146	0x3dbe25a5	0.09284524
147	0x3d4ddc26	0.050258778
148	0xbe3a120c	-0.18170947
149	0xbca9c9a5	-0.020726034
150	0xbd5aa16c	-0.0533766
151	0x3dd0134c	0.101599306
152	0xbdf9eeec	-0.12203774
153	0x3e06bf50	0.13158917
154	0xbd113c06	-0.035457633
155	0xbb1df14a	-0.0024100118
156	0xbe35597b	-0.17709915
157	0x3ded595b	0.11589309
158	0x3df23930	0.11827314
159	0xbd543ba7	-0.0518147
160	0x3e1a3c79	0.15062131
161	0x3dc0a056	0.09405582
162	0xbe04b63f	-0.12960146
163	0xbe21de7e	-0.1580753
164	0xbe2a9e52	-0.16661957
165	0xbc87c144	-0.016571648
166	0x3d8037c8	0.062606394
167	0xbd4f9215	-0.050676424
168	0xbe5660e1	-0.20935394
169	0x3e0c5ebf	0.13708018
170	0x3d1216f7	0.035666432
171	0xbd97ffd2	-0.07421841
172	0xbdd670bc	-0.10470721
173	0x3c6ceb3f	0.014460384
174	0xbde83e75	-0.11340038
175	0x3dc8ea24	0.09810284
176	0x3c7eddca	0.015555808
177	0xbe35d060	-0.1775527
178	0xbe2b187e	-0.16708562
179	0xbd50c8b8	-0.05097267
180	0x3e1008ae	0.14065811
181	0x3ca4bbef	0.020109145
182	0xbd528cfb	-0.05140398
183	0xbd64e5ba	-0.055883147
184	0x3da34bf6	0.07973473
185	0x3d97b970	0.07408416
186	0x3d5a0fb8	0.053237647
187	0x3e1d09e2	0.15335801
188	0x3e0528ac	0.13003796
189	0x3cd0d39f	0.025491534
190	0xbe364b38	-0.17802131
191	0xbe20dc78	-0.15709102
192	0x3e0334c2	0.12813094
193	0xbda1bfc8	-0.078979075
194	0xbda5c931	-0.08095015
195	0xbe5b9036	-0.21441731
196	0xbdf8a921	-0.12141634
197	0xbe320577	-0.17384897
198	0x3dc39ba1	0.09551168
199	0xbe2962ff	-0.1654167
200	0x3bbe86eb	0.0058144233
201	0xbd8ee41d	-0.06977103
202	0x3e19972b	0.14999072
203	0x3dc508c5	0.09620813
204	0xbe2d117a	-0.16901198
205	0xbc45e587	-0.012078649
206	0xbe3189b3	-0.17337684
207	0xbd4f4021	-0.050598267
208	0xbd1eb28b	-0.03874449
209	0xbe2d98fb	-0.16952889
210	0xbc3916c1	-0.011296929
211	0x3e24e6fa	0.16103736
212	0x3d050d2d	0.03248327
213	0xbd6f5315	-0.058428843
214	0xbddea61f	-0.10871529
215	0xbdbea894	-0.093094975
216	0xbdbb2e3c	-0.09139678
217	0x3ca02f73	0.019553876
218	0xbe0d58f1	-0.1380346
219	0xbe039571	-0.12849976
220	0xbda2245e	-0.07917093
221	0x3c425b99	0.011862659
222	0x3d6d7a03	0.057977688
223	0xbe225e8f	-0.15856384
224	0x3e024081	0.12719919
225	0xbe3756ad	-0.17904158
226	0x3e1015b3	0.14070778
227	0xbc9dbfa7	-0.019256426
228	0xbddab2b4	-0.10678616
229	0x3b35b56b	0.0027726542
230	0x3e266785	0.16250427
231	0xbdbe4372	-0.09290208
232	0x3ce357d5	0.027751843
233	0xbcb32126	-0.021866392
234	0x3da2bc33	0.079460524
235	0xbd90e740	-0.070753574
236	0x3cdb2b96	0.026754182
237	0x3c958559	0.018252062
238	0x3de37f9b	0.11108323
239	0xbd35cf4c	-0.044387147
240	0x3e0c7b27	0.13718854
241	0x3e58321a	0.21112862
242	0x3e57597b	0.21030228
243	0xbf826600	-1.0187378
244	0x3d97780e	0.073959455
245	0x3e329633	0.17440109
246	0xbf12aac8	-0.5729184
247	0x3e639409	0.2222444
248	0x3e8674cf	0.26260993
249	0xbd8bff3e	-0.06835793
250	0xbcd69c5f	-0.02619761
251	0x3dda5c7d	0.10662172
252	0x3dffafca	0.12484701
253	0x3dcf1e15	0.101131596
254	0x3d8a9aab	0.06767782
255	0x3c356715	0.01107194

linear1.bias f4 [128]
0	0x3dc39d6c	0.0955151
1	0x3db01553	0.08597817
2	0x00000000	0.0
3	0xbcbbbfac	-0.022918545
4	0xbc7433e9	-0.0149049545
5	0xbc1b8f24	-0.009494577
6	0x3d98cde2	0.07461144
7	0xbd0d54e8	-0.0345048
8	0xbc2d32de	-0.01057121
9	0xbd775c96	-0.06039103
10	0x3ce984d0	0.028505713
11	0xbd2495e0	-0.040181994
12	0x3b0c06c6	0.0021366342
13	0xbcbefe38	-0.02331458
14	0x3dc66591	0.09687341
15	0xbd7f0ac9	-0.062266145
16	0x3daec5d8	0.085338295
17	0xbc1c4191	-0.009537117
18	0x00000000	0.0
19	0x3ae9eb5c	0.0017846632
20	0xbc831525	-0.016001293
21	0xbd9e4636	-0.077282354
22	0xbc914c8c	-0.017736696
23	0xbce0ac4a	-0.027425904
24	0x3da230e8	0.079194844
25	0xbd02ca22	-0.03193105
26	0x00000000	0.0
27	0xbc6af177	-0.014339796
28	0xbd132476	-0.035923444
29	0xbd177c0a	-0.036983527
30	0x3c0bf893	0.008543151
31	0xbc486763	-0.012231681
32	0xbd35205c	-0.044220313
33	0xbd0f91e6	-0.03505125
34	0x00000000	0.0
35	0xbcf07395	-0.029351989
36	0x3ae0b560	0.0017143898
37	0x00000000	0.0
38	0xbbfb2ecf	-0.007665492
39	0x3db8e0af	0.0902723
40	0xbc92ff7c	-0.01794409
41	0x3d9b3681	0.07578755
42	0xbd086c62	-0.033306487
43	0x00000000	0.0
44	0x00000000	0.0
45	0x3d8de7f3	0.069290064
46	0xbc61540e	-0.01375295
47	0xbd7140ce	-0.058899693
48	0x3da79f2b	0.08184656
49	0xbc1be7dc	-0.009515729
50	0x00000000	0.0
51	0xbc3a7def	-0.011382564
52	0xbc9fca90	-0.019505769
53	0x00000000	0.0
54	0x3cad7b51	0.021176966
55	0xbd3caba6	-0.046062134
56	0x3dbbe93e	0.09175347
57	0xbc53a6bc	-0.012918171
58	0xbd0184a9	-0.031620655
59	0xbd381253	-0.04493935
60	0xbbe9c286	-0.0071337847
61	0xbc852138	-0.016251191
62	0x00000000	0.0
63	0xbd24cff2	-0.040237375
64	0xbcffa46f	-0.031206338
65	0xbc085e43	-0.008323255
66	0x00000000	0.0
67	0xbc38dbb2	-0.011282848
68	0xbcb34094	-0.02188138
69	0x39d07662	0.00039761054
70	0xbcaf6ded	-0.021414721
71	0xbd688385	-0.05676605
72	0x3da67ebd	0.08129642
73	0xbc922315	-0.017838994
74	0xbdd742a0	-0.105107546
75	0xbbf70b1b	-0.0075391657
76	0x00000000	0.0
77	0x3d9a6336	0.07538454
78	0xbda3b029	-0.07992584
79	0xbd4b40b8	-0.049622267
80	0xbcbaf045	-0.022819648
81	0xbc757609	-0.014981755
82	0xbcd4d6ad	-0.025981272
83	0xbc1ba30d	-0.009499324
84	0x3c0e70f2	0.00869392
85	0x3da4d664	0.08048704
86	0xbcd95926	-0.026531767
87	0x3da526ce	0.08064042
88	0x3d9ca26e	0.076481685
89	0x00000000	0.0
90	0xbd838631	-0.06422079
91	0xbc46369e	-0.012097983
92	0x00000000	0.0
93	0xbd5a0dd8	-0.05323586
94	0x00000000	0.0
95	0xbc95fd0d	-0.01830914
96	0xbc512053	-0.012764054
97	0x00000000	0.0
98	0x3db8223e	0.08990906
99	0x3c383523	0.0112431375
100	0xbd738bc2	-0.059459455
101	0xbca1ea20	-0.01976496
102	0xbc7ef878	-0.015562169
103	0x00000000	0.0
104	0xbcdb1e87	-0.026747955
105	0xbd6d10fa	-0.05787752
106	0x00000000	0.0
107	0xbc98eaae	-0.018666591
108	0xba5e22e2	-0.0008473826
109	0xbca05cdf	-0.019575534
110	0x3d9975ad	0.07493148
111	0x00000000	0.0
112	0x3b887476	0.004164274
113	0x00000000	0.0
114	0xbdd1fce9	-0.10253317
115	0xbd4eba75	-0.050470788
116	0xbd851b87	-0.06499391
117	0x3b4e4854	0.0031476216
118	0xbc20d804	-0.009817127
119	0xba808bf0	-0.000980733
120	0x00000000	0.0
121	0x3bbdd3c1	0.0057930653
122	0x00000000	0.0
123	0xbb39713b	-0.002829625
124	0x00000000	0.0
125	0x3d3efadb	0.046625953
126	0x00000000	0.0
127	0xbc1976fd	-0.009366748

linear2.weight f4 [128, 128]
0	0xbdcfdc2d	-0.10149417
1	0xbe2f1359	-0.17097224
2	0xbd1a799e	-0.03771364
3	0x3db3ebac	0.08785185
4	0xbe175d42	-0.14781669
5	0x3d9e32bc	0.077245206
6	0xbe6e8663	-0.23293452
7	0xbd3b41e5	-0.04571714
8	0xbe117415	-0.14204438
9	0x3cb1ed26	0.021719526
10	0x3d48bc15	0.049007494
11	0xbda1c3f4	-0.07898703
12	0xbe72bd08	-0.23704922
13	0xbdf667d1	-0.1203152
14	0xbe91610e	-0.2839436
15	0xbddc0b72	-0.107443705
16	0xbbf125af	-0.0073592286
17	0xbe0f13ec	-0.13972443
18	0x3e1b51fc	0.15167993
19	0x3e119785	0.14217956
20	0xbe155138	-0.14581764
21	0x3c408460	0.011750311
22	0x3de1545f	0.11002421
23	0x3d8343ca	0.06409414
24	0xbe178dba	-0.14800158
25	0xbda21145	-0.0791345
26	0x3db695bb	0.089152776
27	0x3cefd6c2	0.02927721
28	0xbdfa2b89	-0.12215335
29	0x3d2c5f02	0.042082794
30	0xbc278ea4	-0.010226879
31	0xbd30acfd	-0.043133724
32	0x3dabc9b2	0.0838808
33	0xbd2c9a6a	-0.04213945
34	0x3e0d7bb2	0.13816717
35	0x3da29fe5	0.07940654
36	0x3c7059c1	0.0146698365
37	0x3e0fd2b8	0.14045227
38	0xbe01e810	-0.12686181
39	0xbd26b1be	-0.040696852
40	0xbdc8e090	-0.09808457
41	0xbdfa39a8	-0.12218028
42	0xbbb88688	-0.0056312717
43	0x3dc243f2	0.09485616
44	0xbd0abb2c	-0.033869907
45	0xbd8e0e0c	-0.06936273
46	0x3df9fcc6	0.12206416
47	0x3d68cde1	0.056836966
48	0xbe3d2e41	-0.18474676
49	0x3de9b1e1	0.11410881
50	0x3e1506c7	0.14553367
51	0x3b3be159	0.0028668253
52	0xbb75a935	-0.0037484888
53	0x3de54f1d	0.1119673
54	0x3dae468e	0.08509551
55	0xbdc983d2	-0.09839596
56	0x3d60952e	0.05482977
57	0x3e149b58	0.14512384
58	0xbc928466	-0.017885398
59	0xbe0ce56a	-0.1375939
60	0x3dbfb529	0.093607254
61	0xbdb4c926	-0.088274285
62	0x3d979c72	0.074028865
63	0x3d23456c	0.039861128
64	0x3c0a956c	0.0084584765
65	0xbe161652	-0.14656952
66	0xbd68ebe0	-0.056865573
67	0x3d7345d7	0.059392776
68	0x3d14e22d	0.03634851
69	0x3c0e1484	0.0086718835
70	0xbcbfdf10	-0.023421794
71	0x3c37d838	0.011220984
72	0xbe614750	-0.2199986
73	0xbd6c0eed	-0.05763142
74	0xbdcd3b90	-0.10021126
75	0xbd9a8875	-0.07545558
76	0x3cd323be	0.02577388
77	0xbd80da53	-0.06291642
78	0xbe1d1f7d	-0.15344043
79	0xbde6bb5b	-0.11266204
80	0xbdac7fa1	-0.08422781
81	0xbde2ec9e	-0.110802874
82	0x3dfac7c7	0.12245136
83	0xbd68f968	-0.056878477
84	0xbd7d7950	-0.06188327
85	0x3b5eb3fd	0.0033981793
86	0xbd45b20c	-0.0482655
87	0xbe403363	-0.18769602
88	0x3dc00b9f	0.093772165
89	0x3dc888b4	0.09791699
90	0xbcfc51e2	-0.030800764
91	0xbdfed5aa	-0.12443097
92	0xbb23db35	-0.0025002484
93	0xbd85a996	-0.065264866
94	0xbd1e3bd3	-0.03863127
95	0x3def74c4	0.11692193
96	0x3dfd1c0e	0.12358867
97	0xbd7a19c8	-0.061059743
98	0xbe16320c	-0.14667529
99	0xbe27a445	-0.16371258
100	0xbe1d1726	-0.15340862
101	0x3de5edf0	0.112270236
102	0x3c4cbe75	0.01249658
103	0xbd89d231	-0.06729544
104	0x3d0ca742	0.034339197
105	0x3d9c19a9	0.07622082
106	0xbc084d98	-0.008319281
107	0x3ddd85e0	0.1081655
108	0xbe80d5af	-0.25163028
109	0xbd5a5c9b	-0.05331097
110	0xbde2b6fc	-0.11070058
111	0xbde2fd86	-0.11083512
112	0x3d2fd4ef	0.04292768
113	0x3d42cf2c	0.047560856
114	0xbe46489d	-0.19363637
115	0xbdc145bb	-0.09437128
116	0x3d50b74f	0.050956067
117	0x3dd7e00c	0.105407804
118	0x3bea38ca	0.007147883
119	0xbc8655ce	-0.016398337
120	0x3e1aefaf	0.15130495
121	0xbd21d854	-0.039512947
122	0xbe15be13	-0.14623289
123	0x3d942435	0.072334684
124	0xbdfb1620	-0.122600794
125	0x3cd1fe97	0.025634093
126	0xbd98f5a6	-0.07468729
127	0xbde6dd2b	-0.11272653
128	0x3ede1a47	0.43379423
129	0x3f1518f2	0.5824119
130	0xbcd2da1b	-0.025738766
131	0xbddb03d1	-0.10694087
132	0xbc5c98b5	-0.013464143
133	0xbb1058b3	-0.0022025525
134	0x3e8484e6	0.25882643
135	0xbe9b2dd9	-0.30308416
136	0xbc09b859	-0.008405768
137	0xbd5a80e5	-0.05334558
138	0x3e26fb26	0.16306743
139	0xbcb6b845	-0.022304663
140	0x3cc4e102	0.024033073
141	0xbde5ab0d	-0.11214266
142	0x3e5a442b	0.21315067
143	0xbe849e1d	-0.2590188
144	0x3f058252	0.5215198
145	0xbe127a75	-0.14304526
146	0x3dc4ea5b	0.09615012
147	0x3caaea56	0.020863693
148	0xbc5707e2	-0.013124438
149	0xbe7adec3	-0.2449904
150	0x3d9d4f87	0.07681184
151	0xbe11a90a	-0.1422464
152	0x3ecbc3b6	0.39797753
153	0x3de60783	0.112319015
154	0x3e000348	0.12501252
155	0x3e109bc3	0.14121918
156	0xbde0f54d	-0.109842874
157	0x3b226ff1	0.002478596
158	0xbcbc43bb	-0.022981515
159	0xbd4e6fc0	-0.05039954
160	0xbd736288	-0.05942014
161	0xbdb7989b	-0.08964654
162	0x3deb576f	0.11491286
163	0x3d4bb18b	0.049729865
164	0x3eaedd0e	0.34153026
165	0x3e11763b	0.14205258
166	0xbe054883	-0.13015942
167	0x3e912070	0.2834506
168	0x3d3dab58	0.046305984
169	0x3eca864d	0.39555588
170	0xbe63e553	-0.22255449
171	0x3da934ac	0.082619995
172	0x3ded6004	0.11590579
173	0x3f06df5b	0.52684563
174	0xbe09e4cc	-0.13466185
175	0xbdb4102d	-0.08792148
176	0x3ef5f016	0.48034734
177	0x3d70854b	0.058720868
178	0x3d99ce82	0.07510091
179	0xbd004e68	-0.031324774
180	0x3df82efe	0.12118338
181	0xbcb370a9	-0.021904306
182	0x3dd3bd5f	0.10338854
183	0xbdb8d197	-0.09024351
184	0x3f443b3b	0.7665288
185	0x3d1b1da3	0.03787006
186	0xbe5b5edf	-0.21422909
187	0xbda431af	-0.08017289
188	0x3e1b4296	0.1516212
189	0x3d11cbb7	0.03559467
190	0xbc7cd207	-0.015430934
191	0x3d1fea23	0.03904165
192	0x3d39cf71	0.045363847
193	0xbc4be1e6	-0.012443995
194	0x3e0fc3f8	0.140396
195	0xbe16a825	-0.1471258
196	0x3abf1986	0.001457975
197	0xbd926f95	-0.07150189
198	0xbd816b99	-0.06319351
199	0xbe341694	-0.17586738
200	0x3ef3ca60	0.47615337
201	0xbc4f7575	-0.012662281
202	0xbe717302	-0.23579028
203	0x3d8fe9fe	0.07027052
204	0x3ddd26b4	0.10798398
205	0x3cb57b25	0.022153446
206	0xbd81f099	-0.063447185
207	0xbd759828	-0.05995956
208	0xbd0be840	-0.034157038
209	0x3d89c904	0.06727794
210	0xbd6ee996	-0.058328234
211	0xbdd321a4	-0.10309151
212	0x3eac0de7	0.33604357
213	0x3ee3adee	0.44468635
214	0xbd846dd7	-0.06466263
215	0x3e9671aa	0.29383594
216	0x3d805d43	0.06267788
217	0xbddd7119	-0.10812587
218	0xbe450d1e	-0.19243285
219	0x3db7b8ed	0.08970819
220	0xb994f5a8	-0.00028411788
221	0xbe3bc1fb	-0.18335716
222	0xbc698330	-0.014252469
223	0xbdc34ce1	-0.09536148
224	0xbddef75a	-0.10887022
225	0x3ccac498	0.024751946
226	0x3f2f86c9	0.6856504
227	0x3eaf73c7	0.3426802
228	0x3ca3095a	0.01990192
229	0xbdf2f036	-0.11862223
230	0xbb094657	-0.0020946467
231	0x3df3ea0a	0.11909874
232	0xbd7ab302	-0.06120587
233	0xbe3634ca	-0.17793575
234	0xbc5bd393	-0.013417142
235	0x3db5cee2	0.088773504
236	0xbdf07cc9	-0.11742551
237	0xbdc842f4	-0.09778395
238	0x3f24c2a1	0.6435948
239	0xbc324db5	-0.010882785
240	0xbdb2b872	-0.087265864
241	0x3debe928	0.115190804
242	0xbd5ad14b	-0.053422254
243	0xbd02033d	-0.03174137
244	0xbeb66e85	-0.35631195
245	0xbd7008a6	-0.058601998
246	0xbda528c7	-0.08064418
247	0xbd9f65ed	-0.07783113
248	0x3c7bd30d	0.015370143
249	0x3e5e5189	0.2171079
250	0x3d6f1657	0.058370914
251	0xbdad95de	-0.084758505
252	0xbcb33f7b	-0.021880856
253	0x3e8ab767	0.2709305
254	0xbd8757df	-0.06608557
255	0x3e2ff0d3	0.17181711

linear2.bias f4 [128]
0	0xbd345164	-0.044022933
1	0x3d4d7dee	0.050168924
2	0xbc875a04	-0.016522415
3	0xbc0ca377	-0.008583895
4	0x3d4f733a	0.050646998
5	0x3d67cd38	0.056592196
6	0x00000000	0.0
7	0x3dadaaf2	0.08479871
8	0xbcbd6f5d	-0.023124391
9	0xbcdbfc88	-0.026853815
10	0xbc67371f	-0.014112263
11	0x3d237785	0.039908905
12	0xbcc86d31	-0.024466129
13	0x3d7bc1c7	0.061464097
14	0xbc73b005	-0.014873509
15	0xbc3c7d5b	-0.011504496
16	0xbd0b725e	-0.034044616
17	0x3de63816	0.11241166
18	0xbcb07b33	-0.021543121
19	0x3d997ab8	0.0749411
20	0xbc26f555	-0.010190328
21	0x3d52888a	0.051399745
22	0xbc5ce0b6	-0.01348131
23	0x3de39199	0.11111755
24	0xbce07af2	-0.027402375
25	0xbb82e9e0	-0.003995165
26	0x3df5d616	0.12003724
27	0xbc0441a8	-0.008072294
28	0x3d20af27	0.03922954
29	0x3db9616c	0.09051785
30	0x3d743a3b	0.059625845
31	0x3df8c5e9	0.12147123
32	0xbd111656	-0.03542169
33	0xbd8c9e8d	-0.06866179
34	0x3db0fe95	0.08642308
35	0xbd67946a	-0.056538023
36	0x3df48b54	0.11940637
37	0x3e052fc1	0.13006498
38	0xbc8bf160	-0.01708287
39	0x00000000	0.0
40	0x3d489f79	0.04898021
41	0xbd7a2b53	-0.061076473
42	0xbcc47fdb	-0.023986747
43	0xbcf1617d	-0.029465431
44	0xbca7434d	-0.020417834
45	0xbd9e9f07	-0.07745176
46	0xbd79650f	-0.060887393
47	0x3d2c83a7	0.04211774
48	0xbc83dab8	-0.016095504
49	0xbcb548b5	-0.022129396
50	0xbc1c1b3d	-0.0095279785
51	0x3dac27c1	0.0840602
52	0x3dbda5c7	0.09260135
53	0xbbeeab22	-0.007283584
54	0x3dce1893	0.10063281
55	0xbca0bd74	-0.019621588
56	0xbc8d992e	-0.017284956
57	0x3d4e6360	0.05038774
58	0x3d1b4ee8	0.037917048
59	0x3db151d9	0.08658189
60	0x3de0bdbd	0.1097369
61	0x3dbced8e	0.092249975
62	0x3dbb7558	0.09153241
63	0x3db4edc0	0.0883441
64	0x3d93acd7	0.07210701
65	0x3d8d5288	0.06900507
66	0xbd372987	-0.044717338
67	0xbd4a3b1c	-0.049372777
68	0x3d89dc17	0.06731432
69	0xbd0b126c	-0.033953115
70	0x00000000	0.0
71	0xbcbadec4	-0.022811301
72	0xbc5aad19	-0.013346934
73	0xbce42f4d	-0.027854586
74	0x3d6178ca	0.055046834
75	0xbd46d0ef	-0.0485391
76	0x3d721d20	0.059109807
77	0xbd4dcf7a	-0.050246693
78	0x3d69efe1	0.057113532
79	0xbc8a3b4f	-0.016873984
80	0x3deac6c2	0.11463691
81	0x3d7e037f	0.062015053
82	0xbcf1db7a	-0.0295236
83	0xbb96d7fa	-0.004603383
84	0xbc399fb6	-0.011329582
85	0x3d9454b8	0.07242721
86	0x3ddd0913	0.107927464
87	0x3deb3a45	0.114857234
88	0xbdab5830	-0.0836643
89	0xbd6f0a79	-0.058359597
90	0x3dc8933f	0.0979371
91	0xbd0f0619	-0.034917925
92	0x3d41ab22	0.047282346
93	0xbc000302	-0.007813217
94	0x3dcf1c2c	0.10112795
95	0x00000000	0.0
96	0x3dafeadb	0.08589717
97	0x3dd3384e	0.10313474
98	0x3dae6f6b	0.08517345
99	0x3dd83c2d	0.105583526
100	0x3d1785a2	0.036992677
101	0x00000000	0.0
102	0x3d31de09	0.04342464
103	0x3d0f236f	0.0349459
104	0xbd38745b	-0.04503284
105	0xbc1c2103	-0.009529355
106	0xbd0f0d69	-0.0349249
107	0xbca81c47	-0.020521296
108	0x3de5d080	0.11221409
109	0x3da247a3	0.0792382
110	0x3d94a1a2	0.072573915
111	0xbc563fcd	-0.013076735
112	0xbd29185c	-0.041282997
113	0xbc33ab0b	-0.010966073
114	0xbdcee39b	-0.10102006
115	0xbd08d13f	-0.033402678
116	0xbcbbe9ac	-0.022938572
117	0xbd87510e	-0.06607257
118	0xbb978b15	-0.004624734
119	0xbd40c3b9	-0.047061656
120	0xbc33d35b	-0.010975684
121	0x3dd3fccf	0.10350954
122	0x3d8a2ab5	0.06746427
123	0x3d5beb84	0.053691402
124	0x3daa39bb	0.083117925
125	0x3c0b1909	0.008489856
126	0xbc07bcf1	-0.008284793
127	0x3d54d727	0.051962998

mean_linear.weight f4 [1, 128]
0	0x3e20472f	0.15652154
1	0xbeda3317	-0.42617103
2	0x3b4901d2	0.003067125
3	0x3e4252b4	0.18976861
4	0x3ef24041	0.47314647
5	0xbf0c7168	-0.54860544
6	0x3e2f8785	0.1714154
7	0xbf1fe333	-0.62456053
8	0xbdde9866	-0.108689114
9	0x3dafaf0b	0.08578309
10	0xbacf1d01	-0.001580149
11	0x3eeb18f5	0.45917478
12	0x3d1ff3d4	0.039050892
13	0x3ee906ef	0.45513102
14	0x3c1a5aec	0.0094210915
15	0x3d3aeca7	0.045635846
16	0xbcdf431a	-0.027253676
17	0xbf0bcbdc	-0.5460794
18	0xbdc02691	-0.09382356
19	0x3ec3d1de	0.38246053
20	0x3e36d720	0.17855501
21	0x3ece1d55	0.40256754
22	0xbdb0e226	-0.086368844
23	0xbee89fdb	-0.4543446
24	0xbd6245f1	-0.055242483
25	0xbdf72818	-0.12068194
26	0xbf14d361	-0.5813504
27	0x3d638d32	0.055554576
28	0x3f0dd276	0.5539926
29	0xbf0683b0	-0.5254469
30	0x3eadefc7	0.33971998
31	0xbf1731c1	-0.59060293
32	0x3bf602a8	0.007507641
33	0xbbb61bdd	-0.005557521
34	0xbf0bf000	-0.54663086
35	0xbd25f229	-0.040514145
36	0xbf23e68b	-0.64023656
37	0xbf0f4f05	-0.5597995
38	0xbd07a218	-0.03311357
39	0xbd07b880	-0.033134937
40	0x3efe0abf	0.49617574
41	0xbe89fbc8	-0.26949906
42	0xbdd533fa	-0.10410304
43	0x3d6f3554	0.058400467
44	0xbc64b965	-0.013960217
45	0xbe8f196f	-0.27949092
46	0xbeb0e6e4	-0.34551156
47	0x3e011601	0.1260605
48	0x3e27f404	0.16401678
49	0xbd83ffe1	-0.064452894
50	0xbe365a78	-0.17807949
51	0xbead7f63	-0.3388625
52	0xbee15b67	-0.44015047
53	0xbe30aee3	-0.17254214
54	0xbf25f12d	-0.6482113
55	0xbc05aeaf	-0.008159324
56	0x3d80f38d	0.062964536
57	0x3eceb942	0.40375715
58	0x3f0f098d	0.5587395
59	0xbedb831b	-0.42873463
60	0xbf2a4e90	-0.66526127
61	0xbeb46d8b	-0.35239825
62	0xbf12e144	-0.5737498
63	0x3ee5e2fc	0.44899738
64	0xbf0cbae0	-0.5497265
65	0xbf255083	-0.64575976
66	0xbe33b0f7	-0.17547975
67	0x3d45b3fa	0.048267342
68	0xbef83ba9	-0.48483017
69	0xbdad02bf	-0.084477894
70	0xbd01660a	-0.031591453
71	0x3c0ccafa	0.008593315
72	0x3d5d1d61	0.053983096
73	0x3d6e7a34	0.05822201
74	0xbedc43db	-0.4302052
75	0xbbc54ee9	-0.0060213697
76	0x3ee56e48	0.448107
77	0xbd49f591	-0.049306456
78	0x3ee51511	0.44742635
79	0x3e0351f0	0.12824225
80	0xbef5dafb	-0.4801863
81	0xbf0cb451	-0.5496264
82	0xbe94c1a6	-0.29053992
83	0x3e016c7b	0.12639038
84	0xbe0e2d71	-0.13884522
85	0xbec63db0	-0.3871894
86	0xbf14ce36	-0.5812715
87	0xbf070cd6	-0.5275396
88	0x3ddacaf8	0.106832445
89	0xbe919ebb	-0.28441414
90	0xbeffd9bd	-0.4997081
91	0xbe312208	-0.17298138
92	0x3e1ee3b9	0.15516557
93	0x3c450e49	0.012027332
94	0xbee0ab57	-0.43880722
95	0xbe12dc37	-0.14341818
96	0xbec03534	-0.3754059
97	0xbf388b92	-0.7208797
98	0xbf29ed10	-0.66377354
99	0xbebd3ccd	-0.3696045
100	0x3f0ac7c3	0.5421106
101	0x3d83e072	0.06439294
102	0x3e689c8f	0.22715972
103	0x3f0493be	0.51787937
104	0xbe7f0ad3	-0.24906473
105	0xbe48b9c0	-0.19602108
106	0xbcfa1ad1	-0.030530365
107	0xbdcb9441	-0.099403866
108	0xbee5fe1a	-0.44920427
109	0xbedf808e	-0.43652767
110	0x3f104e45	0.5636943
111	0x3d91655d	0.07099412
112	0xbd3e1692	-0.046408243
113	0xbd86c56d	-0.06580625
114	0xbeb811a9	-0.35950974
115	0xbeae7363	-0.34072408
116	0x3dff501a	0.1246645
117	0xbe6ff663	-0.23433833
118	0xbcefe46b	-0.029283723
119	0x3bec4b0d	0.007211095
120	0x3d821b18	0.06352824
121	0xbf116efa	-0.5680996
122	0x3f0bf2fe	0.5466765
123	0x3f127fd5	0.57226306
124	0xbf209cdd	-0.62739354
125	0x3a906c9b	0.0011018695
126	0xbd066352	-0.032809563
127	0x3f043c09	0.51654106

log_std_linear.weight f4 [1, 128]
0	0xbe22399f	-0.15842293
1	0x3db092f8	0.08621782
2	0xbe1cbcbd	-0.15306373
3	0x3e1a1bcf	0.1504967
4	0xbd954229	-0.0728801
5	0x3e295ff9	0.16540517
6	0x3d40a65f	0.047033664
7	0xbdc65f8b	-0.09686192
8	0xbd0473ee	-0.03233712
9	0x3e20ba50	0.15696073
10	0x3e1f42c5	0.15552814
11	0x3e435022	0.19073537
12	0xbc6fadef	-0.014628871
13	0x3e50711b	0.20355646
14	0xbe237fbc	-0.15966696
15	0xbb0b06db	-0.0021213803
16	0x3d243328	0.04008785
17	0x3e507fc9	0.20361246
18	0x3d9e230d	0.07721529
19	0x3d9490a6	0.07254152
20	0xbdfe1cef	-0.124078624
21	0xbd510306	-0.051028274
22	0x3e18e769	0.14932026
23	0x3d703d6e	0.058652334
24	0x3d8fd024	0.070221215
25	0x3e1a0f6f	0.1504495
26	0xbe224fdd	-0.15850778
27	0xbd257f4f	-0.040404614
28	0x3e0d5cfa	0.13804999
29	0xbd1fcb67	-0.03901234
30	0x3e8cfc7f	0.2753639
31	0x3dbba6d0	0.09162676
32	0xbe38eb0a	-0.1805841
33	0x3dc41ddb	0.09576007
34	0x3dc807f4	0.09767142
35	0xbd573164	-0.052537337
36	0x3e55bb98	0.20872343
37	0x3d98680e	0.07441722
38	0xbdd66d18	-0.10470027
39	0xbe3cc4dc	-0.18434471
40	0x3e2bfdc2	0.1679602
41	0x3cb654d3	0.022257244
42	0x3df4baa6	0.11949663
43	0x3e728e89	0.23687185
44	0xbe37d059	-0.17950572
45	0x3e4a626b	0.19764106
46	0x3e5088a0	0.20364618
47	0x3da5fceb	0.08104881
48	0x3d14c345	0.036319036
49	0xbe0ab0bb	-0.1354398
50	0xbe28e14c	-0.16492194
51	0xbd01548b	-0.031574767
52	0x3e200bdf	0.15629528
53	0x3db4a4e0	0.0882051
54	0x3e853ce3	0.26023015
55	0x3e4686bc	0.19387335
56	0xbc10939c	-0.008824255
57	0x3cb59d8a	0.022169847
58	0xbd3fcb9b	-0.046825033
59	0x3e191007	0.1494752
60	0xbe291444	-0.16511637
61	0x3ddce7a8	0.107863724
62	0x3df6504b	0.120270334
63	0x3e171be9	0.1475674
64	0xbd304407	-0.043033626
65	0xbdf7cafd	-0.12099264
66	0xbdabed7b	-0.08394905
67	0xbd80a06d	-0.06280599
68	0x3e1785ac	0.14797086
69	0x3d8c56be	0.06852482
70	0xbc1429f6	-0.009043207
71	0xbe231548	-0.15926087
72	0xbdf1a7b5	-0.11799566
73	0xbdde8d8e	-0.10866843
74	0x3e7b9585	0.24568756
75	0xbdc6b51c	-0.097025126
76	0x3e8752e5	0.2643043
77	0xbde03e3a	-0.10949369
78	0x3e61b896	0.2204307
79	0xbe58726a	-0.21137396
80	0x3e1a9be3	0.15098529
81	0x3d3c93fb	0.046039563
82	0x3d00b8ee	0.031426363
83	0xbe23090a	-0.15921417
84	0xbdcdccaa	-0.10048802
85	0x3e40cea5	0.18828829
86	0xbda85af6	-0.082204744
87	0x3d802c10	0.06258404
88	0x3e3c9a45	0.18418224
89	0xbde5be05	-0.11217884
90	0x3e349175	0.17633612
91	0xbe270c62	-0.16313317
92	0xbd1b9af1	-0.03798956
93	0xbcb31f43	-0.021865493
94	0x3e4a93e5	0.1978298
95	0x3e0a9289	0.13532461
96	0x3d2fbcea	0.042904772
97	0x3e15c0d3	0.14624338
98	0x3e6535f1	0.22383858
99	0x3e5c347c	0.21504396
100	0xbc4318ef	-0.0119078
101	0xbcc684ac	-0.024233185
102	0xbe0387f5	-0.12844832
103	0xbd74d34e	-0.05977183
104	0x3d8ea399	0.069647975
105	0x3e1f6bdc	0.15568489
106	0x3e40560f	0.18782829
107	0xbdbb8d94	-0.09157863
108	0x3e43a2de	0.19105098
109	0x3d089bd5	0.033351738
110	0x3e49ed52	0.19719437
111	0xbe52ef4a	-0.20599094
112	0xbd2e7d64	-0.04260005
113	0x3e38c9a0	0.18045664
114	0xbe2e7fbc	-0.17040914
115	0x3ce83b51	0.028348597
116	0x3df4bc94	0.11950031
117	0x3e0802bb	0.13282292
118	0x3e0a647c	0.13514894
119	0x3e77700d	0.24163838
120	0xbe242c69	-0.16032566
121	0x3dfd1fc8	0.123595774
122	0x3e830780	0.2559166
123	0xbd41cfae	-0.0473172
124	0x3e32ac58	0.17448556
125	0xbe1ede0b	-0.1551439
126	0xbd9955ec	-0.074870914
127	0x3e323176	0.1740168
