results/train/hyperparam_DQN_slope_40m/epsilon_decay_type_exponential/best_model.pt (torch, 748367 bytes, 8 tensors)

layer1.weight f4 [512, 40]
0	0xbd2843b0	-0.041080177
1	0xbd88c4e5	-0.0667818
2	0x3d83ba8a	0.06432064
3	0x3c5ec238	0.01359611
4	0xbda66bfa	-0.08126064
5	0xbd81be7d	-0.06335161
6	0x3d9c7d61	0.07641102
7	0x3d11d4f2	0.03560347
8	0x3bf1da95	0.0073807933
9	0x3d64826f	0.055788454
10	0xbd7bb416	-0.06145104
11	0x3d3240eb	0.04351894
12	0x3c8e56f0	0.01737544
13	0xbcebbccf	-0.028776554
14	0x3d2b797e	0.04186391
15	0x3d84ab04	0.06477931
16	0xbd833e9e	-0.06408428
17	0x3d207201	0.039171223
18	0xbd9082c1	-0.07056189
19	0xbd61d8ee	-0.05513852
20	0x3d8b8d5b	0.06814071
21	0x3c6bff87	0.014404184
22	0xbd9980f1	-0.07495297
23	0xbdb7dc25	-0.08977536
24	0x3dab7b11	0.083730824
25	0xb9a96520	-0.00032309536
26	0xbce0163e	-0.027354356
27	0xbd079fec	-0.033111498
28	0x3d917257	0.07101887
29	0x3d93c33a	0.07214971
30	0xbd541e98	-0.05178699
31	0xbd8ca636	-0.0686764
32	0x3b927851	0.0044699092
33	0xbc84036f	-0.016114919
34	0xbca04cb8	-0.019567832
35	0x3ca1ba3f	0.01974213
36	0xbd806427	-0.062691025
37	0xbd4a7ce3	-0.049435508
38	0x3c62e65f	0.01384887
39	0xbdaabe52	-0.08337082
40	0x3d134233	0.035951804
41	0xbd429d4b	-0.047513288
42	0x3d81c223	0.06335857
43	0x3d52f510	0.05150324
44	0x3db30e47	0.087429576
45	0x3ce89172	0.028389666
46	0x3d997691	0.07493318
47	0x3cd61ee5	0.026137779
48	0xbe8bd5e7	-0.27311632
49	0xbb4b5541	-0.0031026157
50	0x3e23098d	0.15921612
51	0x3dbee06b	0.09320148
52	0xbccb7189	-0.024834411
53	0xbc8a81c6	-0.016907584
54	0xbe3262f3	-0.17420559
55	0xbd86a222	-0.06573893
56	0x3d3a90d4	0.045548275
57	0x3d20779d	0.039176572
58	0x3d1fd774	0.03902383
59	0xbd0ac415	-0.033878405
60	0x375bf4b8	1.3110395e-05
61	0xbb1d1e3a	-0.0023974315
62	0xbd880cb0	-0.06643045
63	0x3d5860c7	0.05282667
64	0x3cb656c1	0.022258164
65	0xbc3b2f9b	-0.011424924
66	0x3dce6780	0.10078335
67	0xbe4f400b	-0.20239274
68	0x3cc0e9c1	0.023548963
69	0x3ceddffe	0.029037472
70	0xbd0e2a8d	-0.03470855
71	0x3d9d7b68	0.076895535
72	0xbcf9c383	-0.030488735
73	0xbc82e86c	-0.015979968
74	0xbcbff5e2	-0.023432676
75	0x3d6e077f	0.058112618
76	0x3d730198	0.05932769
77	0x3bd56ffd	0.006513594
78	0x3d9ebe09	0.0775109
79	0x3dcc254e	0.09968053
80	0x3de174c0	0.110085964
81	0x3e1a361d	0.15059705
82	0x3d8cec5b	0.06881019
83	0xbe9bc566	-0.3042404
84	0x3d4aabe5	0.049480338
85	0x3d4a971f	0.049460527
86	0xbdd95c12	-0.10613264
87	0x3dd9254d	0.10602818
88	0x3e52ae0d	0.20574208
89	0x3e1a27e6	0.15054283
90	0xba108a60	-0.00055137835
91	0x3dc69caf	0.09697854
92	0x3d55510f	0.052079257
93	0x3ddb9178	0.10721105
94	0x3d8240cf	0.063600175
95	0x3e0614db	0.13093893
96	0x3d055425	0.03255095
97	0x3d6d9745	0.05800559
98	0x3de89214	0.11355987
99	0x3d91af69	0.07113535
100	0x3dbd68e1	0.0924852
101	0x3dae4679	0.08509535
102	0xbc33d4ea	-0.010976056
103	0x3dd3874b	0.103285395
104	0x3e125559	0.1429037
105	0x3d9d5776	0.076826975
106	0x3e0edd32	0.13951567
107	0x3e9cb06a	0.30603343
108	0x3c817e26	0.015807223
109	0x3e18340d	0.14863606
110	0x3d8047a6	0.06263666
111	0x3da3e259	0.08002157
112	0x3b585cf2	0.0033014384
113	0x3d24e680	0.040258884
114	0x3b4fbd07	0.0031698362
115	0x3e07bdba	0.13255969
116	0xbc2a257d	-0.010384914
117	0x3d84b886	0.064805076
118	0x3c685b65	0.014181946
119	0x3d3f8a35	0.046762664
120	0x3ed9cbfc	0.4253844
121	0x3e5f215a	0.21790066
122	0x3e70253b	0.23451702
123	0x3f0cf6e0	0.550642
124	0x3e6958c1	0.22787763
125	0x3e8bc40e	0.27298015
126	0x3f239527	0.63899463
127	0x3e950afc	0.29109943
128	0x3dc3bda2	0.09557654
129	0x3e51f861	0.20504905
130	0x3ed81e48	0.42210603
131	0x3e8933e4	0.26797402
132	0x3eb152d3	0.34633502
133	0x3ea6d907	0.32587454
134	0xbe350ebf	-0.17681406
135	0x3eb153bf	0.34634206
136	0x3ea002bc	0.31252086
137	0x3ea15c2a	0.31515628
138	0x3e8a35a5	0.26994053
139	0x3eb4e422	0.35330302
140	0x3eb86332	0.3601318
141	0x3edb5cd1	0.4284425
142	0x3e89e409	0.2693179
143	0x3eb5989f	0.35468003
144	0x3e8f4eac	0.2798971
145	0x3eaf6795	0.34258714
146	0x3eb10e2b	0.34581122
147	0x3eaf3e46	0.34227198
148	0x3e812948	0.25226808
149	0x3e81afe6	0.25329512
150	0x3e4af18b	0.19818704
151	0x3eb95aab	0.36201987
152	0x3e618b9a	0.2202591
153	0x3e65248e	0.22377226
154	0x3edf362b	0.43596014
155	0x3ebcd8e8	0.36884236
156	0x3ebeed23	0.37290296
157	0x3e8b9195	0.27259508
158	0x3ebbf2da	0.3670872
159	0x3eabd919	0.3356407
160	0x3d23461a	0.039861776
161	0x3d4b42df	0.04962432
162	0x3c16d0d9	0.009205067
163	0x3e6a9428	0.2290808
164	0xbd62e8ab	-0.05539767
165	0x3d453100	0.048142433
166	0x3e309efa	0.17248145
167	0x3c9adced	0.018904174
168	0xbdd19769	-0.10233957
169	0x3d2cd264	0.04219283
170	0x3d9d225e	0.07672571
171	0xbd563a18	-0.052301496
172	0xbde3d402	-0.11124422
173	0xbdf096a4	-0.117474824
174	0xbe366d82	-0.17815211
175	0x3d6e5a4a	0.058191575
176	0x3d5c48cf	0.053780373
177	0xbdb25766	-0.08708076
178	0x3db88190	0.09009087
179	0xbd31935a	-0.043353416
180	0xbd42ae77	-0.047529664
181	0x3da22a57	0.07918232
182	0x3c8bf5cd	0.01708498
183	0xbd18577c	-0.037192807
184	0x3cd5cecc	0.026099585
185	0x3c7d28b3	0.015451598
186	0x3c7ed238	0.01555305
187	0xbe048d5e	-0.12944552
188	0xbc7913aa	-0.015202442
189	0x3d8f2151	0.069887765
190	0x3d44992d	0.047997642
191	0xbda1ecd8	-0.079065025
192	0x3c438275	0.011932959
193	0x3cca378a	0.024684686
194	0x3d1794f9	0.037007306
195	0x3da7a862	0.08186413
196	0x3d817a9d	0.06322215
197	0xbd703095	-0.05864008
198	0xbda09f77	-0.078429155
199	0xbbfbe1e5	-0.007686841
200	0xbd8567e4	-0.06513956
201	0x3d66a7b4	0.056312278
202	0x3b6e8d0e	0.0036399993
203	0xbf1c803e	-0.6113318
204	0x3c5dc910	0.013536707
205	0x3d0c385d	0.03423344
206	0xbea59aa2	-0.32344538
207	0x3e060d6a	0.13091055
208	0x3e51164f	0.20418666
209	0x3dc639b2	0.09678973
210	0xbe3ac8b6	-0.18240628
211	0x3c046c8e	0.008082522
212	0x3da1b87a	0.07896514
213	0xbc05ec8e	-0.008174075
214	0xbb3c7f43	-0.0028762377
215	0x3ddd8207	0.108158164
216	0x3e103ad1	0.14084937
217	0x3ded6561	0.11591602
218	0x3e0bd73d	0.13656326
219	0x3e0254c1	0.12727644
220	0x3d1d7c33	0.038448524
221	0xbdc2c88c	-0.095109075
222	0x3d380c70	0.044933736
223	0x3ce45cf4	0.027876355
224	0x3e34e746	0.17666349
225	0xbdf8d6a9	-0.12150318
226	0x3da42b5b	0.08016082
227	0x3e1c5fac	0.15270871
228	0x3e06545d	0.1311812
229	0x3e06abed	0.13151522
230	0x3d0f7bbd	0.035030115
231	0x3e2d0d37	0.16899572
232	0x3e14b9ff	0.14524077
233	0x3d03a809	0.032142673
234	0xbdcf8b29	-0.101339646
235	0x3e1183bf	0.14210413
236	0x3da62e47	0.081142955
237	0x3d16e223	0.036836755
238	0xbd88c788	-0.066786826
239	0x3e0c5021	0.13702442
240	0x3d90ceaa	0.07070668
241	0x3a187d3b	0.00058170006
242	0x3c64736f	0.013943537
243	0xbd583c3e	-0.052791826
244	0x3d4a88f9	0.049447034
245	0xbd39d8bd	-0.045372713
246	0xbd005101	-0.03132725
247	0xbcb25531	-0.021769138
248	0xbd82cffa	-0.06387325
249	0x3cd314e2	0.025766794
250	0xbd176d3b	-0.036969405
251	0xbcde8dbc	-0.027167194
252	0xbccaa007	-0.02473451
253	0xbdb52870	-0.088456035
254	0xbdb2f247	-0.08737617
255	0x3da83f6f	0.08215224

layer1.bias f4 [512]
0	0xbc883590	-0.016627103
1	0xbe1d302e	-0.1535041
2	0x3d9d42cc	0.07678756
3	0x3e8ace87	0.27110693
4	0xbe1b0297	-0.15137707
5	0x3d761655	0.06007989
6	0x3da1f46a	0.079079464
7	0xbd0cadb6	-0.03434535
8	0xbd8f1313	-0.0698606
9	0x3d67ce71	0.056593362
10	0x3d3fe421	0.04684842
11	0xbcf893f3	-0.030343985
12	0xbd7208b7	-0.059090342
13	0x3dc71578	0.09720892
14	0x3d385b00	0.04500866
15	0xbd5a7442	-0.05333353
16	0x3d90c722	0.070692316
17	0xbdeb8de9	-0.115016766
18	0xbdadcc7b	-0.08486267
19	0xbd1df0ab	-0.038559597
20	0x3d864afa	0.065572694
21	0x3dc881af	0.0979036
22	0x3d6db305	0.058032054
23	0x3e5d6fb4	0.21624643
24	0xbd7d16bf	-0.06178927
25	0xbb194915	-0.0023389508
26	0x3d448de1	0.04798687
27	0xbb3e3622	-0.0029023965
28	0xbc41d883	-0.011831406
29	0x3d84e8e6	0.06489734
30	0x3def3053	0.11679139
31	0x3e30739f	0.17231606
32	0xbd353f0b	-0.044249576
33	0xbd2182c3	-0.039431345
34	0x3bb0e11f	0.0053979303
35	0xbde15671	-0.110028155
36	0x3e4fa423	0.20277457
37	0x3dffb27b	0.12485214
38	0x3d58c350	0.05292064
39	0xbd9eb18a	-0.07748707
40	0xbd27d147	-0.040971067
41	0xbc992709	-0.018695371
42	0xbc673e63	-0.014113995
43	0xbd11d30a	-0.035601653
44	0x3cd7bd2c	0.026335321
45	0xbd10dbde	-0.03536593
46	0x3ce1e55f	0.027575193
47	0x3e6d86dc	0.23195976
48	0x3dbacb14	0.09120765
49	0x3e1a3987	0.15061007
50	0xbd9e7898	-0.07737845
51	0x3daa57a9	0.08317501
52	0x3e38d1cd	0.18048783
53	0xbd9337b3	-0.07188358
54	0xbdb67209	-0.08908469
55	0x3e0e198d	0.13876934
56	0xbd167ca7	-0.03673997
57	0x3e08ed50	0.13371778
58	0x3e2bd43b	0.16780178
59	0xbce04206	-0.027375232
60	0x3cbcaed3	0.023032581
61	0xbda61bf5	-0.08110801
62	0xbd649778	-0.055808514
63	0x3bd12042	0.0063820193
64	0x3e4fbfdb	0.20288031
65	0x3e4fa955	0.20279439
66	0xbc97984f	-0.018505244
67	0xbd9ee218	-0.07757968
68	0x3ea43b98	0.32076716
69	0xbdd50a25	-0.104023255
70	0xbd88bdb4	-0.06676808
71	0x3d7bbddd	0.061460365
72	0x3b8d64a2	0.004314975
73	0xbce1e26f	-0.027573792
74	0xbd6c7af3	-0.05773444
75	0x3da62e5e	0.081143126
76	0xbb1ebb26	-0.0024220436
77	0x3e625319	0.22102012
78	0x3c6f6c0a	0.014613161
79	0x3db7af2f	0.089689605
80	0x3d68f4c9	0.05687407
81	0x3cecbbef	0.028898207
82	0xbd876607	-0.06611257
83	0xbda4e573	-0.080515765
84	0xbc8ee25f	-0.017441927
85	0x3dee5d90	0.116389394
86	0x3e2e2428	0.1700598
87	0xbd0114cc	-0.031513974
88	0x3debbafd	0.115102746
89	0x3de18614	0.110119015
90	0x3d159c5b	0.036526065
91	0x3d94507b	0.07241913
92	0xbcf7e673	-0.030261254
93	0xbdbd6133	-0.09247055
94	0xbd951763	-0.07279851
95	0x3c670b00	0.014101744
96	0xbe37dfa7	-0.1795641
97	0xbd2dd7e3	-0.042442214
98	0xbcccbb5c	-0.024991684
99	0xbdac0364	-0.08399084
100	0x3b9c1620	0.0047633797
101	0x3db7f017	0.089813404
102	0xbda7960b	-0.08182915
103	0x3ddfabfc	0.10921475
104	0xbd35e248	-0.04440525
105	0x3db146c8	0.086560786
106	0xbd418dbb	-0.047254305
107	0x3bab8b79	0.0052351323
108	0xbba038be	-0.0048895767
109	0x3e2d1b3f	0.16904925
110	0xbce51d91	-0.0279682
111	0x3d29097f	0.04126882
112	0xbd5ce80c	-0.053932235
113	0x3e373041	0.17889501
114	0x3d7b60cf	0.06137162
115	0x3da51e42	0.08062412
116	0xbe2d6c97	-0.16935955
117	0xbc59f07c	-0.013301965
118	0xbda625a3	-0.081126474
119	0x3e11436e	0.14185879
120	0x3e026bb3	0.12736396
121	0x3e36a3fd	0.17835994
122	0xbd25183b	-0.04030631
123	0xbcec800d	-0.028869653
124	0xbd4dcc35	-0.050243575
125	0xbd2bd987	-0.041955497
126	0xbdadf8a5	-0.08494691
127	0xbbb2e278	-0.005459126
128	0x3dde622b	0.10858568
129	0x3d565fbf	0.052337404
130	0xbe06f801	-0.13180543
131	0x3d102783	0.03519393
132	0xbdbd937a	-0.092566445
133	0xbe4f66d8	-0.20254076
134	0x3db8adaa	0.09017499
135	0x3dee528c	0.11636838
136	0x3cd58cb4	0.026068069
137	0xbd87bf55	-0.066282906
138	0x3e518fcc	0.2046501
139	0xbdb2bf57	-0.087279014
140	0x3e27ac76	0.16374382
141	0xbce8857f	-0.028383968
142	0x3e2293be	0.15876672
143	0xbab5043b	-0.0013810465
144	0xbd765c90	-0.06014687
145	0xbdcd26cc	-0.100171655
146	0xbccf093c	-0.025272958
147	0x3dcad597	0.0990402
148	0xbdb83a98	-0.08995551
149	0x3beb721f	0.007185235
150	0x3dede48e	0.11615859
151	0x3db09a74	0.086232096
152	0xbd0ed43b	-0.034870367
153	0xbd5c1cc0	-0.053738356
154	0x3c9306a3	0.0179475
155	0x3a341597	0.0006869672
156	0x3c323eb5	0.010879208
157	0xbd92b551	-0.071634896
158	0x3dfabd26	0.122431085
159	0x3d970c7a	0.073754266
160	0x3e8178d7	0.25287506
161	0xbdaf8d6d	-0.08571897
162	0x3cab0b7f	0.020879505
163	0x3e999d8e	0.30003017
164	0x3deb08a8	0.114762604
165	0x3ea7509e	0.32678694
166	0xbcea4f8d	-0.028602386
167	0xbd2d7e3f	-0.042356726
168	0xbdac8cc4	-0.084252864
169	0xbd12b52e	-0.035817318
170	0xbe446806	-0.19180307
171	0xbd8cc275	-0.06873027
172	0xbd932be7	-0.07186108
173	0xbcf7bf3d	-0.030242557
174	0x3d73765d	0.059439052
175	0x3d220451	0.039554898
176	0x3d4dc95c	0.05024086
177	0xbce0e757	-0.027454061
178	0x3d4707ed	0.048591543
179	0xbd1ca92d	-0.038247276
180	0x3d13168d	0.035910178
181	0xbd834915	-0.06410424
182	0x3e172f19	0.1476406
183	0x3dc784cd	0.097421266
184	0x3e1ac058	0.15112436
185	0x3e0b57fa	0.13607779
186	0x3c35722c	0.011074584
187	0x3c1cc631	0.009568737
188	0x3d3f1330	0.046649158
189	0x3e31e463	0.17372279
190	0xbd77bc8c	-0.060482547
191	0x3da90d8f	0.08254539
192	0x3e1f4d95	0.15556939
193	0x3ac888db	0.0015299575
194	0xbd92275e	-0.07136415
195	0xbd45159b	-0.048116308
196	0xbcaac950	-0.020847946
197	0x3d0a2062	0.03372229
198	0xbcc86b2b	-0.024465164
199	0xbd7a7beb	-0.061153334
200	0x3d8879ef	0.06663882
201	0xbdace664	-0.08442381
202	0xbdb0e9ab	-0.08638319
203	0xbd6ff95c	-0.058587417
204	0x3dee9247	0.11648994
205	0xbc4f7f6e	-0.012664659
206	0xbdd3c905	-0.10341076
207	0x3d31fc4f	0.04345351
208	0x3cb54cbb	0.022131315
209	0xbca02e5f	-0.019553361
210	0xbcc006e8	-0.023440793
211	0x3db2e933	0.087358855
212	0xbdc49ea5	-0.096005715
213	0x3d3a3532	0.045460887
214	0xbca467dc	-0.020069055
215	0xbd99899e	-0.074969515
216	0xbd551100	-0.052018166
217	0x3dcfd2b3	0.101476096
218	0xbb5667b0	-0.003271561
219	0x3d87aa48	0.066242754
220	0xbcf1ff05	-0.029540548
221	0x3d83a1b4	0.06427327
222	0xbc93a6d5	-0.018023888
223	0x3ca861dc	0.020554475
224	0x3d3e90b6	0.046524726
225	0xbd17f70f	-0.037100848
226	0x3d71a48c	0.058994815
227	0xbd2d4fe1	-0.042312507
228	0x3c7a37bd	0.015272078
229	0x3d0598cd	0.032616425
230	0x3d58c700	0.052924156
231	0x3e813a01	0.25239566
232	0x3da97f41	0.08276225
233	0x3ddfcf34	0.10928193
234	0xbd089346	-0.033343576
235	0xbddd379b	-0.108016215
236	0x3dc921e9	0.09820921
237	0xbd003f34	-0.031310275
238	0xbd866098	-0.065613925
239	0xbd2a434f	-0.041568097
240	0xbca8d000	-0.020606995
241	0xbe4f8fee	-0.20269749
242	0x3d83d11b	0.06436368
243	0x3c22a8fa	0.009927982
244	0x3de971f2	0.113986865
245	0x3cc1f0a0	0.02367431
246	0x3e32e182	0.17468837
247	0x3e3f65a0	0.1869111
248	0xbd9cc109	-0.07654006
249	0xbd58ad08	-0.05289939
250	0x3e62fb48	0.22166169
251	0x3e0d161b	0.13777964
252	0x3dfb0687	0.12257104
253	0x3d4dfdb6	0.050290786
254	0xbe1e51e2	-0.15460923
255	0x3deeff30	0.11669767

layer2.weight f4 [256, 512]
0	0xbc8e5285	-0.017373333
1	0xbb5f2c34	-0.0034053447
2	0x3c17832c	0.009247582
3	0xbbb2ca51	-0.005456247
4	0xbc23c014	-0.009994525
5	0xbca94104	-0.020660885
6	0xbc8adaa8	-0.016949967
7	0x3bc8d8b1	0.0061293473
8	0xbbaa263d	-0.0051925466
9	0xbbee7251	-0.007276811
10	0xbca2ac44	-0.019857533
11	0xbcc179ca	-0.023617644
12	0xbadd0d1f	-0.0016864872
13	0x3c2182c0	0.009857833
14	0xbc942e33	-0.018088436
15	0x3b7ec3dd	0.0038874068
16	0x3c235c32	0.009970712
17	0xbba07dd3	-0.004897812
18	0x3c3c4688	0.011491425
19	0xbadec9e9	-0.001699743
20	0x3cc85c5d	0.024458105
21	0x3ccada24	0.02476222
22	0x3b442038	0.002992643
23	0xbc8e35f4	-0.017359711
24	0x3bdf7a4d	0.0068199993
25	0x3c5fe682	0.013665797
26	0xbc97e2e2	-0.018540803
27	0x3c38b227	0.011272944
28	0x3ccd4a86	0.02505995
29	0x3be60889	0.0070200604
30	0x3c517e48	0.012786455
31	0x3b864899	0.00409801
32	0x3bf90c61	0.0076003526
33	0x3c02f3e2	0.0079927165
34	0xbc36d725	-0.011159693
35	0xbbe39323	-0.0069450303
36	0xbcb4a91f	-0.0220533
37	0x3c9b42be	0.018952724
38	0xbcc9963e	-0.024607774
39	0xbc9f9c8e	-0.01948383
40	0x3c240a40	0.010012209
41	0x3b97a4d5	0.004627804
42	0xbc377e27	-0.011199511
43	0x3b992e58	0.004674714
44	0x3c2fca59	0.010729396
45	0xbc383713	-0.0112435995
46	0xbc7ddb4f	-0.015494182
47	0xbc797876	-0.015226474
48	0x3c252d1a	0.010081554
49	0x3b32849d	0.0027239688
50	0x3c728e67	0.014804459
51	0x3ca7b659	0.020472692
52	0xbb130efb	-0.002243935
53	0x3c68dec3	0.014213267
54	0xbc5d6362	-0.013512464
55	0x3c037b39	0.008024984
56	0x3ccd287a	0.025043715
57	0x3cbd4b63	0.023107236
58	0xbc904a5b	-0.01761358
59	0xbc77589d	-0.015096811
60	0x3c01d851	0.007925109
61	0x3cafb2bf	0.021447537
62	0xbc139353	-0.009007293
63	0xbc941aa3	-0.018079108
64	0xbcbe7ae5	-0.02325196
65	0x3a467013	0.0007569801
66	0xbca655b8	-0.020304546
67	0xbb9267dd	-0.004467948
68	0xbcd79c54	-0.02631966
69	0x3cba583b	0.02274715
70	0x3c3b162b	0.0114188595
71	0x3cacebba	0.021108497
72	0x3c8e1c64	0.017347522
73	0x3c98541a	0.01859479
74	0xbcc2d2bb	-0.023782125
75	0xbca7c923	-0.020481652
76	0xbc5d5783	-0.013509634
77	0x3ca1ffee	0.019775357
78	0xbc8d5400	-0.017251968
79	0xbc16d275	-0.00920545
80	0x3ba453a8	0.0050148554
81	0xbc76dbc3	-0.015067044
82	0x3c9a0fed	0.018806422
83	0x3c709a4f	0.014685228
84	0xbb9e7b09	-0.0048364443
85	0x3bb6ce5f	0.0055788006
86	0xbc18bcba	-0.00932234
87	0x3c89028a	0.016724844
88	0x3cb0e533	0.021593666
89	0x3c80067f	0.015628098
90	0x3c2bbca3	0.010481986
91	0xbbacce5e	-0.0052736243
92	0xbb75ba2c	-0.0037495
93	0xbc3e5ccb	-0.011618803
94	0xbc539d7e	-0.012915967
95	0x3aff08d3	0.0019457586
96	0xbcb5632c	-0.022142015
97	0x3b2196b4	0.0024656476
98	0xbc3dd40a	-0.011586199
99	0x3cc096f5	0.023509482
100	0x3cbf4d9d	0.023352439
101	0x3bf56b45	0.007489594
102	0x3c84a423	0.016191548
103	0xbc1aa628	-0.009439029
104	0xbc91e891	-0.017811092
105	0xbbe223a6	-0.0069012223
106	0x3ca6f94f	0.020382551
107	0xbbfaf33e	-0.0076583913
108	0x3c490acd	0.0122706415
109	0xbc03f14b	-0.008053134
110	0xbbb7be61	-0.0056074117
111	0xbaa6e971	-0.0012734366
112	0x3c58abd9	0.013224565
113	0xbcc98675	-0.024600247
114	0xbca86f3e	-0.020560857
115	0xbc171b95	-0.009222885
116	0x3c4e828a	0.012604365
117	0xbc044099	-0.008072042
118	0xbcb9e0dd	-0.022690231
119	0x3b8e6e56	0.004346649
120	0xbcc301a9	-0.023804503
121	0x3c97d2f9	0.018533217
122	0xbba12819	-0.00491811
123	0xbca366fd	-0.01994657
124	0x3ca1c322	0.019746367
125	0xbc69fda5	-0.014281665
126	0x3c8dd400	0.017313004
127	0xbcbc8641	-0.023013236
128	0x3bbfa1df	0.005848154
129	0xbc51fa30	-0.012815997
130	0x3c903637	0.017603977
131	0xbcce381b	-0.025173238
132	0xbcc407b1	-0.023929449
133	0x3ca0c8f9	0.019627081
134	0xba16ed35	-0.00057573925
135	0xbc7b162c	-0.01532511
136	0xbb98a101	-0.004657865
137	0xbccaf1a2	-0.024773423
138	0x3ad18a80	0.0015986711
139	0xbc43c493	-0.011948722
140	0xbc2cb3bc	-0.010540899
141	0xbcb79c8d	-0.022413516
142	0xbc68a737	-0.014200023
143	0x39251fc8	0.00015747466
144	0xbc422152	-0.0118487645
145	0xbbfda567	-0.0077406648
146	0xbc7b07d2	-0.015321689
147	0xbc38c729	-0.011277952
148	0x3c50b7f0	0.012739167
149	0xbc1ab8f7	-0.009443513
150	0x3ac4d78e	0.0015017854
151	0xbccf5f17	-0.025313897
152	0xba803b82	-0.000978336
153	0xbb8373ed	-0.004011622
154	0xbcb00ab3	-0.021489477
155	0x3cb6d017	0.022316022
156	0xbb4b55c0	-0.0031026453
157	0xbc37c8a9	-0.011217275
158	0xbcad0773	-0.021121716
159	0x3a4ae459	0.0007739715
160	0x3c2b0fa2	0.010440739
161	0x3beb1a58	0.0071747713
162	0xbc837d60	-0.016050994
163	0xbc8ee47a	-0.01744293
164	0x3ba9252e	0.005161903
165	0x3c35aaf9	0.011088126
166	0xbccd56f0	-0.02506587
167	0x3bcd37d6	0.0062627597
168	0xbc39f6cd	-0.011350346
169	0xbbafb81b	-0.0053625233
170	0x3cc3e610	0.023913413
171	0xbbda0a04	-0.006654026
172	0x3c7ab198	0.015301131
173	0xbcc78459	-0.0243551
174	0xbc8895b6	-0.01667295
175	0x3c9a7061	0.018852415
176	0x3ca484e2	0.020082895
177	0xbccf0b41	-0.025273921
178	0xbcbaf0cc	-0.022819899
179	0xbc79d6c2	-0.015248956
180	0x3c105db3	0.008811402
181	0x3bd12f0e	0.006383783
182	0xbc8f9e47	-0.017531527
183	0x3af230bf	0.0018477662
184	0xbc3b0b6f	-0.0114163
185	0x3c3cc59b	0.011521722
186	0x3c490c6b	0.012271027
187	0xbc7c2deb	-0.015391807
188	0xbbda428f	-0.0066607664
189	0xbc8a56f1	-0.01688716
190	0x3a8aacda	0.0010580078
191	0xbcdb8fae	-0.02680191
192	0xbc03fccf	-0.00805588
193	0xbc53f6b0	-0.012937233
194	0xbc3f1efb	-0.011665101
195	0x3c59b2b2	0.013287233
196	0xbc009c90	-0.007849827
197	0x3ba6e4c8	0.005093191
198	0xbc034362	-0.008011671
199	0xbcbbca7e	-0.022923704
200	0xbcab4434	-0.020906545
201	0xbad05e30	-0.0015897211
202	0x3b2614ea	0.0025342056
203	0x3cbad009	0.022804277
204	0xbc844159	-0.016144441
205	0xbccdf0f5	-0.025139311
206	0xbcac7715	-0.021052876
207	0xbc819293	-0.015816962
208	0xbcbbf959	-0.022946047
209	0xbc45b6e5	-0.012067531
210	0x3c09c681	0.008409143
211	0x3b489dd4	0.003061165
212	0xbc64b3e3	-0.013958904
213	0x3ca79f01	0.020461561
214	0xbcaebc9f	-0.021330176
215	0xbcd01cd4	-0.025404371
216	0x3c9da7ad	0.019244993
217	0xbccc0ab2	-0.024907444
218	0x3cc73684	0.024317987
219	0x3b910303	0.004425408
220	0x3cb5fb05	0.022214422
221	0x3be11a5c	0.0068695974
222	0xbc2fee4e	-0.010737969
223	0x3c473d48	0.012160607
224	0x3c9a1127	0.018807007
225	0x3b9904c2	0.0046697566
226	0xbc7ae069	-0.015312293
227	0xbca1c650	-0.019747883
228	0x3c806276	0.01567195
229	0x3bef032c	0.0072940793
230	0x3c256929	0.010095873
231	0x3c34e09f	0.011039882
232	0xbc53bd6e	-0.0129235815
233	0xbccc7334	-0.024957277
234	0xbc8f4971	-0.017491074
235	0xbc002324	-0.007820878
236	0x3c48e061	0.012260527
237	0xbbccddb0	-0.006252013
238	0x3cca8a12	0.02472404
239	0xbc3ca1b7	-0.011513165
240	0xbcc4afe9	-0.024009662
241	0xbc36c401	-0.011155129
242	0xbca6affc	-0.020347588
243	0xb96bbd93	-0.00022481968
244	0xbc7c72a1	-0.015408189
245	0xbb96cc25	-0.0046019726
246	0x3c9171f8	0.01775454
247	0x3cbdb341	0.023156764
248	0x3c1d98a3	0.009618911
249	0xbcc25845	-0.02372373
250	0xbbf3e47c	-0.007443009
251	0xbc9f6c79	-0.019460903
252	0x3cadc6a0	0.021212876
253	0xbb1cc4e5	-0.002392107
254	0x3c28e1a3	0.010307702
255	0x3c89a7d7	0.016803665

layer2.bias f4 [256]
0	0x3ca4a885	0.020099888
1	0xbcb84255	-0.022492567
2	0xbcabec36	-0.020986658
3	0x3b281471	0.002564695
4	0xbc1b974c	-0.009496521
5	0x3db6681b	0.08906575
6	0x3cb508d5	0.022098938
7	0x3dbde594	0.09272304
8	0x3c8a0820	0.016849577
9	0xbcaefc3b	-0.021360507
10	0x3d0fc388	0.035098583
11	0x3d8d6d8f	0.06905662
12	0xbcd3198d	-0.02576902
13	0x3dbe3860	0.092880964
14	0x3dc1628d	0.09442625
15	0x3db474cb	0.08811339
16	0xbccfb0a4	-0.025352784
17	0x3db02c06	0.08602147
18	0x3dc5c680	0.096570015
19	0x3c9bc1b4	0.019013263
20	0x3dabed80	0.08394909
21	0x3ba8a550	0.00514666
22	0x3b50aab7	0.0031840035
23	0xbbff3e6f	-0.007789425
24	0x3dbdeac4	0.092732936
25	0xbbc19398	-0.005907487
26	0x3e09e695	0.13466866
27	0x3deef88c	0.116685
28	0xbc0598a4	-0.008154068
29	0x3d30ac45	0.04313304
30	0xbb496bca	-0.0030734413
31	0x3d88198a	0.06645496
32	0xbc25176b	-0.010076384
33	0xbc8907bd	-0.016727323
34	0x3c9fc86b	0.019504746
35	0xbca8a2a3	-0.020585364
36	0x3da0fa40	0.078602314
37	0x3c1993e7	0.009373642
38	0x3e3d2545	0.18471248
39	0x3ab23f45	0.0013599178
40	0x3db1a833	0.086746596
41	0x3cb94125	0.022614071
42	0xbc862878	-0.016376719
43	0x3e528f50	0.20562482
44	0x3b7abd7d	0.0038259916
45	0xbca0b388	-0.019616857
46	0x3d4aba76	0.04949423
47	0x3cc67ed7	0.024230404
48	0xbbc41be7	-0.0059847715
49	0x3c3b1543	0.011418643
50	0x3cb6e62d	0.022326553
51	0x3d37cfc6	0.044875883
52	0x3d02ee51	0.031965557
53	0x3e41cbd1	0.18925406
54	0x3e0f2ba4	0.13981491
55	0xbc929226	-0.017891955
56	0x3c24310f	0.010021462
57	0xbca46f03	-0.020072466
58	0x3dc64471	0.09681023
59	0xbc4949aa	-0.012285629
60	0x3d5b9cb0	0.053616226
61	0x3dca94e1	0.09891678
62	0x3dde572b	0.1085647
63	0x3bcc1d6a	0.0062290924
64	0xbb3b8fc5	-0.002861963
65	0x3ba52047	0.005039248
66	0x3c704803	0.014665606
67	0xbcbe73e6	-0.023248624
68	0xbc0661b0	-0.008202001
69	0xbca74e61	-0.020423116
70	0x3c229030	0.009922072
71	0x3cbafa41	0.022824408
72	0x3e3efd0d	0.18651219
73	0xbc0994ae	-0.008397264
74	0xbcae0965	-0.021244714
75	0x3dad4d27	0.08461981
76	0x3ca3e37b	0.020005932
77	0x3b83d11c	0.0040227305
78	0x3d8c72bf	0.068578236
79	0xb99937c1	-0.00029223974
80	0x3d92fc4d	0.07177029
81	0x3bba586b	0.00568681
82	0x3d594288	0.053041965
83	0x3aa8a5b6	0.0012866769
84	0xbcc0cd3c	-0.023535363
85	0x3daa9647	0.083294444
86	0x3ca721dc	0.020401888
87	0x3e2ee904	0.17081076
88	0xbbd9c969	-0.0066463244
89	0x3dc2dda0	0.09514928
90	0xbc018210	-0.0079045445
91	0xbbd07840	-0.006361991
92	0x3d0a1863	0.033714663
93	0xbb8ec1ae	-0.0043565845
94	0x3c92e72c	0.017932497
95	0xbbb7abd3	-0.0056052
96	0xbcc96a81	-0.024586918
97	0xbcb987bd	-0.022647733
98	0xbbca98d1	-0.006182768
99	0x3d1d3362	0.03837908
100	0x3d5f6802	0.05454255
101	0xbcd01ce7	-0.025404407
102	0xbc33327c	-0.010937329
103	0xbbb1993f	-0.0054198797
104	0x3d797fad	0.060912777
105	0x3bbf36a9	0.0058353734
106	0x3d9b49cc	0.07582435
107	0xbcc73cc1	-0.024320962
108	0x3c07faa5	0.008299504
109	0x3c3a9e19	0.0113902325
110	0xbca0151e	-0.01954132
111	0x3d9638ee	0.07335077
112	0xbcc79ae4	-0.02436585
113	0xbc9ae40e	-0.018907573
114	0xbc1f7aae	-0.009733839
115	0x3d0445f2	0.032293268
116	0x3c53eb56	0.012934526
117	0x3c966fd4	0.01836387
118	0x3b50dfc6	0.003187166
119	0x3ba8ffe2	0.0051574567
120	0x3dbd10fd	0.09231756
121	0x3dbc427d	0.09192369
122	0xbc6e7aad	-0.014555615
123	0xbc78be88	-0.015182145
124	0x3cbb392d	0.022854412
125	0x3dbbcac4	0.09169534
126	0x3dfd9da0	0.1238358
127	0xbc2218f9	-0.009893649
128	0x3daa7a5e	0.08324121
129	0xbccd0ebc	-0.02503144
130	0x3bcc3303	0.006231667
131	0xbcad81b2	-0.021180008
132	0x3c1e03aa	0.009644428
133	0xbc7e52a0	-0.015522629
134	0x3c3fb494	0.011700768
135	0x3e313116	0.17303881
136	0x3caf8117	0.02142386
137	0x3b0988ae	0.0020986008
138	0x3c56d71c	0.0131128095
139	0x3bd2ca18	0.006432783
140	0xbcac5c62	-0.021040145
141	0x3da6a0e0	0.08136153
142	0x3a28991c	0.00064315065
143	0x3cb2b620	0.02181536
144	0x3cb4db5b	0.022077253
145	0xba850405	-0.0010148293
146	0x3da26d9d	0.07931063
147	0x3cd735f1	0.026270838
148	0x3d5837f9	0.052787755
149	0x3b149749	0.002267318
150	0x3d82db23	0.06389453
151	0xbc045669	-0.008077242
152	0x3dbc2a88	0.091878
153	0x3de4ec8d	0.11177931
154	0x3d876eed	0.06612954
155	0xbb0e209b	-0.0021686915
156	0xbcc25843	-0.023723727
157	0x3db704b0	0.08936441
158	0x3ba1b12d	0.004934451
159	0x3ca05931	0.01957378
160	0x3cbb9397	0.022897525
161	0x3c9f104b	0.019416949
162	0xbcbc1c5d	-0.022962743
163	0x3d2e92dc	0.042620525
164	0x3985938c	0.00025477668
165	0x3c0575e2	0.008145781
166	0x3c4ecd46	0.012622183
167	0x3da1dc7c	0.07903382
168	0x3b3daccd	0.0028942109
169	0x3d56dfc0	0.05245948
170	0x3e25ed96	0.16203913
171	0x3c029712	0.007970588
172	0xbc7c7d55	-0.015410741
173	0x3c89d092	0.016823087
174	0x3b8a201b	0.004215253
175	0x3dab5107	0.08365064
176	0x3dc6cbef	0.09706866
177	0xbb5b2e4e	-0.0033444348
178	0x3dbf1da5	0.09331826
179	0x3ccf49b4	0.0253037
180	0x3e34858f	0.17629074
181	0xbbc26482	-0.0059323916
182	0x3da46d1f	0.08028626
183	0x3cbf3379	0.023339974
184	0xbcd257f4	-0.025676705
185	0x3d882b9d	0.066489436
186	0xbc868cb7	-0.01642452
187	0x3e0d2bde	0.13786265
188	0xbccab724	-0.024745531
189	0x3adf632d	0.0017043106
190	0x3d857ffb	0.06518551
191	0x3cbef315	0.02330927
192	0x3dfabc1c	0.1224291
193	0x3d1ee26c	0.03879015
194	0xbc97bfe4	-0.018524118
195	0xbc662e9b	-0.014049198
196	0x3dc47dfd	0.09594343
197	0xbc0b2063	-0.008491608
198	0xbb839ab1	-0.0040162434
199	0x3d9edb89	0.07756717
200	0x3d666c62	0.056255706
201	0x3d97e7d2	0.07417263
202	0xbc2c7e07	-0.010528094
203	0x3bac945e	0.00526671
204	0x3c189d51	0.009314851
205	0x3ad6ce1a	0.0016388327
206	0x3e230a7d	0.1592197
207	0x3bff26cf	0.0077866088
208	0x3c6d05a8	0.014466681
209	0x3e261c69	0.16221775
210	0x3db0c937	0.08632129
211	0x3dbcdfed	0.09222398
212	0x3d55589a	0.05208645
213	0xbcae38e9	-0.021267371
214	0x3e0b89c1	0.13626768
215	0x3ca03fe1	0.01956171
216	0xbc6652bd	-0.014057812
217	0x3bea1d65	0.0071446174
218	0xbc56c9ee	-0.013109667
219	0xbcb3b064	-0.021934696
220	0x3db2587f	0.087082855
221	0x3d5b7c70	0.05358547
222	0x3d245a3f	0.040125128
223	0x3bc8ad5b	0.006124181
224	0x3d849ebb	0.06475588
225	0xbcba198e	-0.022717264
226	0xbc9bd0c8	-0.019020453
227	0x3d6c194b	0.05764131
228	0x3ab4b543	0.001378693
229	0xbb6d42d5	-0.0036203165
230	0x3b159dda	0.0022829683
231	0x3c81fdca	0.015868086
232	0x3d101c97	0.035183515
233	0xbc0e8901	-0.008699656
234	0x3c4ef2bf	0.012631117
235	0x3cb72939	0.022358524
236	0x3d68f148	0.05687073
237	0x3c175cc0	0.009238422
238	0xbc4a1950	-0.0123351365
239	0x3ccbc95c	0.02487629
240	0x3c56148c	0.013066422
241	0xbcb0f9a1	-0.021603407
242	0xbc864f4a	-0.01639523
243	0x3db9d1c4	0.09073213
244	0x3db49fed	0.08819566
245	0x3b434410	0.0029795207
246	0x3d3b1c3c	0.045681223
247	0x3d5f1198	0.054460138
248	0x3c8d1d1a	0.01722579
249	0xbc94cb24	-0.018163271
250	0xbb4dc5fa	-0.003139852
251	0x3cc2bc46	0.023771416
252	0xbbc2ade1	-0.005941138
253	0x3dcfc01e	0.10144065
254	0x3c7de022	0.015495332
255	0x3dbed52d	0.09318004

layer3.weight f4 [128, 256]
0	0x3c117027	0.008876837
1	0xbb64f482	-0.0034935777
2	0xbd145a8e	-0.036219172
3	0x3c48e728	0.012262143
4	0xba821d51	-0.000992695
5	0x3c5d6791	0.013513462
6	0xbcf9bf14	-0.030486621
7	0x3cf53183	0.029930836
8	0x3cebab3f	0.02876818
9	0x3c1534a9	0.009106793
10	0xbd06a0cb	-0.032868188
11	0xb9719ed8	-0.00023042725
12	0x3cf04a1f	0.029332219
13	0x3ce3b553	0.027796423
14	0xbbf16b4a	-0.007367526
15	0x3bd17c66	0.0063930033
16	0x3a94819f	0.0011330134
17	0xbc9e1543	-0.019297248
18	0x37a100fb	1.9193152e-05
19	0xbb43a923	-0.0029855452
20	0xbca6e76d	-0.020374024
21	0xbb956d21	-0.0045601283
22	0x3c95cdd0	0.018286616
23	0x3cf38f0d	0.029731298
24	0xbc161098	-0.00915923
25	0x3c9c800b	0.019104024
26	0xbccfe728	-0.025378779
27	0xbc7783ad	-0.015107078
28	0x3b065c53	0.0020501807
29	0xbb96496f	-0.0045863907
30	0x3cd63b48	0.026151314
31	0x3ce23a23	0.027615612
32	0xbafe1181	-0.0019383879
33	0xbcabc254	-0.020966686
34	0xbce3822e	-0.027772035
35	0x3b3d27f1	0.0028862918
36	0x3cb13229	0.021630364
37	0xbc61d087	-0.013782627
38	0xbcea7a71	-0.028622838
39	0xbc78fb56	-0.015196642
40	0x3d12ccc5	0.035839815
41	0xbceb283a	-0.028705705
42	0x3b882f99	0.0041560647
43	0x3ca21bc2	0.019788627
44	0x3cee05f3	0.029055571
45	0x3c463001	0.012096406
46	0xbd007286	-0.031359218
47	0xbccc6bd6	-0.024953764
48	0x3ca75f7e	0.020431276
49	0xbcbc9d08	-0.023024097
50	0xbbe706c6	-0.007050368
51	0x3c784408	0.015152939
52	0x3bdbd04f	0.006708182
53	0xbc8ef324	-0.017449923
54	0x3bf74a43	0.0075466945
55	0x3bd7a77b	0.0065812445
56	0xbbee1f3c	-0.007266907
57	0x3ca53a2b	0.020169338
58	0xbd08cd00	-0.03339863
59	0xbc31eb79	-0.010859364
60	0x3ce6a022	0.02815253
61	0x3c607e8c	0.013702046
62	0xbc68f9fc	-0.014219757
63	0x3c50c926	0.01274327
64	0xbcef8407	-0.02923776
65	0xb824bcc5	-3.9276452e-05
66	0x3c9ca7e5	0.019123027
67	0x3b10da19	0.0022102653
68	0x3bd6bc78	0.006553229
69	0xbcd4b044	-0.025962956
70	0xbd0ad275	-0.033892114
71	0xbd08d361	-0.03340471
72	0x3ceb48c1	0.028721215
73	0x3c056cf3	0.008143651
74	0xbd0520a1	-0.03250182
75	0x3d0c62e6	0.034274004
76	0xbcafc687	-0.02145697
77	0x39fe44ba	0.0004849786
78	0xbc278cef	-0.010226472
79	0x3abfb65c	0.0014626491
80	0xbd0c2f53	-0.03422482
81	0x3cf16287	0.029465927
82	0xbc837bbd	-0.016050214
83	0x3c022b0c	0.0079448335
84	0xbceb7911	-0.028744252
85	0x3c0b2981	0.008493782
86	0x3c759711	0.01498963
87	0x3c898340	0.016786218
88	0xbbd031e7	-0.006353605
89	0x3c93e789	0.01805474
90	0x3ca7ec5f	0.020498453
91	0x3d09e32c	0.033663914
92	0x3b8b1d6d	0.004245451
93	0x3bc78e10	0.006089933
94	0xbc403dba	-0.011733467
95	0xbcff23df	-0.031145034
96	0xbc728393	-0.014801878
97	0x3c0cbd87	0.008590109
98	0x3cf65063	0.030067628
99	0xbcadffe9	-0.021240192
100	0x3cb0e6cf	0.021594433
101	0x3ca13b83	0.019681698
102	0xbc1cc2f5	-0.009567966
103	0xbc18c814	-0.009325046
104	0x3cda8a92	0.026677404
105	0xba898563	-0.0010492023
106	0xbc210455	-0.009827693
107	0x3c9bb0fc	0.019005291
108	0xbb564229	-0.0032693243
109	0xbb78d04c	-0.0037965951
110	0x3cfcaaab	0.0308431
111	0xbd0d9267	-0.03456345
112	0xbce3d280	-0.027810335
113	0xbb6b1ccc	-0.0035875319
114	0xb9ab44b2	-0.00032666844
115	0x3c8b3380	0.01699233
116	0x3c8635da	0.0163831
117	0x3d06d990	0.032922328
118	0x3ca1eb3a	0.019765485
119	0xbc2083c3	-0.009797039
120	0x3bcbbe74	0.006217772
121	0xbc20ad88	-0.009806998
122	0x3b1dcd05	0.00240785
123	0x3cedf01f	0.029045163
124	0xbcc86f33	-0.024467086
125	0x3bed9acf	0.0072511206
126	0xbcf703e8	-0.03015323
127	0xbc12026a	-0.008911708
128	0x3c301c5d	0.01074895
129	0x3d069826	0.032859944
130	0x3ce94802	0.028476719
131	0xbc653a81	-0.013990999
132	0xbd08b4b3	-0.033375453
133	0x3cd6e0d0	0.026230246
134	0xbccccc6f	-0.024999825
135	0x3c63e74a	0.013910124
136	0xbc885b3f	-0.016645072
137	0x3c5f2c05	0.013621335
138	0x3b0171b7	0.0019751617
139	0xbc819841	-0.01581967
140	0xba83e491	-0.0010062625
141	0xbd0ce182	-0.03439475
142	0xbc02f518	-0.007993005
143	0x3cf6a115	0.030106107
144	0x3834a46d	4.3068478e-05
145	0x3a9b7434	0.0011860193
146	0x3c9eb1dc	0.01937192
147	0xbcca1cdf	-0.02467197
148	0x3cc247c4	0.023715861
149	0xbcec3925	-0.028835842
150	0x3ca24198	0.019806668
151	0xbc22a850	-0.009927824
152	0xbd1cc5a0	-0.038274407
153	0xbbc5934b	-0.0060295216
154	0x3c1d0e7e	0.009585975
155	0x3c1e4db7	0.009662083
156	0xbb820b3e	-0.0039686253
157	0xbd0704eb	-0.032963675
158	0x3ca08ee4	0.019599386
159	0xbd00d884	-0.031456485
160	0xbaa93d4a	-0.0012911942
161	0xbcca0139	-0.024658786
162	0x3cbc7f12	0.02300981
163	0xbc6ac02d	-0.014328045
164	0x3c81d91d	0.015850598
165	0xbc5a78a8	-0.013334431
166	0xbc7886b1	-0.015168832
167	0xbc7e461d	-0.015519646
168	0x3b4364d1	0.002981473
169	0xbc8ea197	-0.017411036
170	0x3c249e05	0.01004744
171	0xbc37b9f5	-0.011213769
172	0x3c9fa3d1	0.019487293
173	0xbcbbc0f5	-0.022919158
174	0xbcbcb21f	-0.023034154
175	0xbc705e05	-0.0146708535
176	0xbd08b01a	-0.03337107
177	0xbc9fd029	-0.019508438
178	0x3ca8358a	0.020533342
179	0xbbe68bdc	-0.0070357155
180	0xbbdcd827	-0.0067396346
181	0xbc064b01	-0.008196593
182	0xbc75c5a3	-0.015000734
183	0x3d064a08	0.032785445
184	0xbc1e18a7	-0.009649432
185	0x3c4b5c10	0.012412086
186	0xbbc56a11	-0.006024607
187	0x3b456e37	0.0030125508
188	0x3b04033e	0.0020143534
189	0xbcda4688	-0.02664496
190	0xbcd1f9d4	-0.025631823
191	0x3b8d7141	0.0043164794
192	0xbbb20f23	-0.0054339333
193	0x3c4906c5	0.01226968
194	0xbbbb428d	-0.0057147206
195	0x3cfc568b	0.030802986
196	0x3bf98147	0.007614288
197	0x3c093258	0.008373819
198	0x3c441871	0.011968718
199	0x3c681d47	0.0141671365
200	0x3c0a29ae	0.008432789
201	0xbc5a98a3	-0.0133420555
202	0x3cec4bea	0.028844792
203	0x3ce2cdff	0.027686117
204	0xbcfedd54	-0.031111397
205	0xba54f132	-0.0008123099
206	0x3c8b1ab1	0.0169805
207	0x3cb06a8b	0.021535179
208	0x3cb5f29c	0.022210412
209	0xbc2dc6f9	-0.010606521
210	0xbcbea8ba	-0.023273814
211	0xbc13eed9	-0.009029114
212	0xbc80f780	-0.015743017
213	0x3ce3e266	0.027817916
214	0xbc79ca42	-0.015245976
215	0xbcbdbf2d	-0.023162449
216	0xbd13d0d7	-0.036087837
217	0xbcfcad5e	-0.030844387
218	0x3c512eab	0.012767474
219	0x3c229a8d	0.009924543
220	0x3c6f2428	0.014596023
221	0xbc8d52bf	-0.01725137
222	0x3b033abd	0.0020024024
223	0xbcd1baf1	-0.025601836
224	0xbd05fc2e	-0.0327112
225	0x3cd97446	0.026544701
226	0xbc72475a	-0.014787519
227	0xbcd370c2	-0.025810603
228	0xbd122cc5	-0.035687227
229	0xbaffb647	-0.0019509279
230	0xbd025b21	-0.03182519
231	0xbc61eea2	-0.013789805
232	0x3d13539f	0.03596842
233	0x3c5a460e	0.013322366
234	0x3d122ba5	0.035686154
235	0xbbf4aa9f	-0.0074666287
236	0xbcbf2c15	-0.02333645
237	0x3ce1987d	0.027538532
238	0xbcd51a58	-0.026013538
239	0x3be72b6b	0.0070547364
240	0xbacefb90	-0.0015791524
241	0xbc20503c	-0.009784754
242	0x3cce7dff	0.025206564
243	0x3ad6e97f	0.0016396492
244	0xbc96d4f3	-0.018412089
245	0xbccf13ae	-0.025277939
246	0x3cb67b4b	0.022275588
247	0xbbeb5325	-0.0071815425
248	0xbc0ba8f2	-0.008524166
249	0x3ce0bceb	0.027433833
250	0xbbc20eaf	-0.0059221606
251	0x3ccff68c	0.025386117
252	0xba50168f	-0.0007937932
253	0xbb466d02	-0.0030277376
254	0x3c6adb6f	0.014334544
255	0xbceda898	-0.029011056

layer3.bias f4 [128]
0	0x3c96ef80	0.01842475
1	0x3cab62b1	0.020921083
2	0x3d5bf4ad	0.053700138
3	0x3d5d2de0	0.053998828
4	0x3c813438	0.01577197
5	0x3d73898b	0.059457343
6	0x3b82e93a	0.003995088
7	0x3c828be9	0.015935855
8	0x3d725ef7	0.059172597
9	0xbc1ef21f	-0.009701281
10	0x3d09aa82	0.033609875
11	0x3d56294f	0.05228549
12	0xbc479e12	-0.012183683
13	0xbd13cb2d	-0.036082435
14	0x3e3f054d	0.18654366
15	0x3c788e53	0.0151706515
16	0x3df12141	0.11773921
17	0x3e1335d6	0.14376006
18	0xbd38930e	-0.045062117
19	0xbc543ccc	-0.012953948
20	0x3c941764	0.01807756
21	0x3d51c180	0.051209927
22	0x3e22fded	0.15917177
23	0xb92cbe90	-0.00016474188
24	0x3e2a475d	0.16628785
25	0x3d12cd0a	0.03584007
26	0x3e499e0d	0.19689198
27	0x3b3006d5	0.002685954
28	0x3d3c689e	0.04599821
29	0x3d060f30	0.032729328
30	0xbc839070	-0.016060084
31	0xbcaf4161	-0.02139348
32	0x3bd26c4e	0.0064216023
33	0x3d548be3	0.05189122
34	0x3d4226e4	0.04740037
35	0x3c0e9438	0.00870233
36	0x3d6ad665	0.05733337
37	0xbc9cd01d	-0.019142205
38	0xbcc6e125	-0.02427728
39	0x3d053b3c	0.032527193
40	0x3da1227e	0.07867907
41	0x3db81428	0.089882195
42	0x3d9c0d5f	0.07619738
43	0x3cb603c4	0.022218592
44	0x3cedea13	0.02904228
45	0xbc0d36b2	-0.008618997
46	0x3e01e3ca	0.12684551
47	0x3e2c20ba	0.16809359
48	0xbcb3ee12	-0.021964107
49	0xbcabbd2d	-0.02096423
50	0x3dca7f94	0.09887615
51	0x3d627797	0.05528983
52	0x3cb0dae7	0.021588756
53	0x3e1173c5	0.14204319
54	0x3da0f58e	0.07859336
55	0xbd160a88	-0.036631137
56	0x3de244d9	0.11048288
57	0xba3b9bc3	-0.0007156694
58	0x3cd774e8	0.026300862
59	0xbb0abab1	-0.0021168406
60	0x3dd11e0c	0.10210809
61	0xbc5d20d0	-0.013496593
62	0x3c93d806	0.018047344
63	0xbc108a69	-0.008822062
64	0xbc72b1ec	-0.014812928
65	0x3cee6474	0.029100634
66	0x3e30c116	0.17261156
67	0x3dcc7413	0.09983077
68	0xbd2b0180	-0.041749477
69	0x3e0d6636	0.13808522
70	0x3d5a32e4	0.05327119
71	0xbd29a46f	-0.04141658
72	0x3dcf1cbb	0.10112902
73	0x3c5cc062	0.013473602
74	0x3e21e715	0.15810807
75	0xbcc10e98	-0.02356653
76	0x3cbddd5f	0.023176847
77	0x3db9971d	0.09062026
78	0xbcc91c89	-0.02454974
79	0xbc86e805	-0.016468057
80	0x3ca6cc89	0.020361202
81	0xbd11efce	-0.035629086
82	0x3db4ae64	0.08822325
83	0xbc7c65f0	-0.015405163
84	0x3e23f387	0.16010867
85	0x3bb8e1ce	0.0056421524
86	0x3d3c420d	0.04596143
87	0xbb32fad0	-0.002731014
88	0x3ce0e74b	0.02745404
89	0xbc9c3fb9	-0.019073354
90	0x3dbac34c	0.09119281
91	0x3ca89dc3	0.02058304
92	0xbc80d59b	-0.015726855
93	0xbc25b98c	-0.010115039
94	0x3ce5f5be	0.02807128
95	0xbb39a7fa	-0.0028328882
96	0x3d837f6c	0.06420788
97	0x3e75956a	0.23982778
98	0x3d357554	0.044301346
99	0x3e59ff2d	0.21288748
100	0x3c953595	0.018214026
101	0x3d395a2b	0.045252007
102	0x3cd5bc20	0.026090682
103	0xbae1586d	-0.0017192491
104	0x3d301126	0.042985104
105	0xbcca2658	-0.024676487
106	0x3e0b36ee	0.13595173
107	0x3d2fec76	0.042950116
108	0xbc803f44	-0.015655167
109	0x3d31404c	0.04327421
110	0x3e2991bd	0.16559501
111	0x3d87435b	0.06604644
112	0x3da8089d	0.08204768
113	0xbcde7905	-0.027157316
114	0xbd239d5f	-0.039945003
115	0xbd149179	-0.036271546
116	0xbc8912a1	-0.016732516
117	0xbd18ba64	-0.03728713
118	0x3cff8ce3	0.03119511
119	0x3e1d159d	0.15340276
120	0xbcf1130f	-0.029428033
121	0x3ca5d2de	0.02024215
122	0xbc956337	-0.018235786
123	0x3d9827cf	0.07429468
124	0x3d0efa88	0.034906894
125	0xbcf047c1	-0.02933109
126	0x3decbc8d	0.11559401
127	0x3dc91a65	0.098194875

output_layer.weight f4 [9, 128]
0	0xbc06ba42	-0.008223118
1	0x3e0e9414	0.13923675
2	0x3e03af9b	0.12859957
3	0x3dda7270	0.106663585
4	0x3e074ad5	0.1321214
5	0x3e09baec	0.13450211
6	0x3df91f6e	0.12164198
7	0x3cedc7fa	0.02902602
8	0x3e00189f	0.12509392
9	0xbd11506f	-0.035477098
10	0x3dc7254b	0.0972391
11	0x3e00ae25	0.12566431
12	0xbcdf03f3	-0.027223563
13	0xbd105f56	-0.03524717
14	0xbe443c80	-0.19163704
15	0x3ccef030	0.025261015
16	0xbed0f66e	-0.4081301
17	0xbeeebb76	-0.46627396
18	0x3e425136	0.18976292
19	0xbc8df17c	-0.017327063
20	0x3be4aca8	0.00697859
21	0x3df1cf2b	0.11807092
22	0xbed92195	-0.42408434
23	0x3c902a72	0.017598365
24	0xbe2482b4	-0.16065484
25	0x3d8c9acc	0.06865463
26	0xbe4616ed	-0.19344683
27	0x3cfad532	0.030619238
28	0x3df27f27	0.11840659
29	0x3e0d97f9	0.13827504
30	0x3da66d21	0.081262834
31	0xba819548	-0.0009886408
32	0xbd0434fb	-0.03227709
33	0x3dfc4e26	0.12319593
34	0x3dde5eb9	0.10857911
35	0xbc8efe56	-0.017455261
36	0xbebd4f5d	-0.36974612
37	0x3c333563	0.010938021
38	0xbd140cd5	-0.03614505
39	0x3e057698	0.13033521
40	0x3d9709d4	0.073749214
41	0xbea5a241	-0.32350352
42	0x3d38f49c	0.045155153
43	0x3ce96257	0.028489275
44	0x3df8855a	0.1213481
45	0xbc7837b7	-0.015150002
46	0xbeded49c	-0.43521583
47	0xbefa6103	-0.4890214
48	0xbe09e587	-0.13466464
49	0xbd0ed42f	-0.034870323
50	0xbd1ccbf5	-0.038280446
51	0xbf05d5c1	-0.5227929
52	0x3dab3670	0.083599925
53	0xbebe7589	-0.37199047
54	0x3d9fcf3e	0.078032
55	0xbaf13765	-0.001840335
56	0xbe9622a3	-0.293233
57	0x3dccb486	0.099953696
58	0xbb6c78f3	-0.0036082834
59	0xbcbf3b1c	-0.023343615
60	0xbeda6b52	-0.42660004
61	0x3e15e4cb	0.14638059
62	0x3da736d3	0.08164754
63	0xbce2ecf2	-0.027700875
64	0xbc584186	-0.013199216
65	0x3dbde1c5	0.09271578
66	0xbedd4852	-0.4321924
67	0xbea7ba45	-0.327593
68	0x3e9312ee	0.2872538
69	0xbeeeb0a3	-0.46619138
70	0x3d7f5a84	0.06234218
71	0x3c000b14	0.007815141
72	0xbea60dd6	-0.3243243
73	0x3db0a935	0.08626024
74	0xbef993c0	-0.48745537
75	0x3d20716b	0.039170664
76	0x3dddb5e7	0.10825711
77	0xbeb3db6b	-0.3512834
78	0x3d151b1a	0.0364028
79	0x3c937191	0.017998489
80	0x3e0bf913	0.13669233
81	0x3c06711f	0.008205681
82	0xbebf4927	-0.37360498
83	0x3bd3c145	0.0064622485
84	0xbed22e1f	-0.41050813
85	0x3e08f251	0.13373686
86	0x3dd46e0f	0.103725545
87	0x3ce48c36	0.027898889
88	0x3deab71b	0.11460706
89	0x3cadd903	0.021221643
90	0x3d9731cb	0.07382544
91	0x3ddfb1f8	0.10922617
92	0x3e1a4013	0.15063505
93	0x3e8a2461	0.2698088
94	0x3e01dcd7	0.126819
95	0xbcaaa886	-0.020832311
96	0x3d48706b	0.048935335
97	0xbe50f7ce	-0.2040703
98	0x3d97ab8c	0.07405767
99	0xbe32c5ba	-0.17458239
100	0x3e01aad0	0.12662816
101	0x3d50d9d0	0.050988972
102	0x3d40d43e	0.04707741
103	0x3d23bd48	0.039975435
104	0xbe9fb0ce	-0.3118958
105	0x3e157f4e	0.14599344
106	0xbef14b56	-0.4712779
107	0x3db7f007	0.089813285
108	0x3d07ea9b	0.03318272
109	0x3dd848ee	0.10560785
110	0xbf0b63e3	-0.5444929
111	0x3df2b1f4	0.11850348
112	0xbf035ac1	-0.51310354
113	0x3e04ffe3	0.12988238
114	0x3e4a93b8	0.19782913
115	0x3d0a717b	0.03379963
116	0xbcec7e0f	-0.028868703
117	0x3c0caa60	0.008585542
118	0x3df681e9	0.12036497
119	0xbed0f622	-0.40812784
120	0x3d41950f	0.047261294
121	0x3e06a41d	0.13148542
122	0x3d068eff	0.032851215
123	0xbe9c87fb	-0.30572495
124	0xbee7ad91	-0.45249608
125	0xbd0d7d7f	-0.03454351
126	0xbeef7955	-0.46772256
127	0xbcf9f11c	-0.030510478
128	0x3cb217ab	0.021739801
129	0x3e099a48	0.1343776
130	0x3db7c714	0.08973518
131	0x3de803d1	0.11328853
132	0x3e0b9b7d	0.13633533
133	0x3e140ec6	0.1445876
134	0x3daf1bee	0.08550249
135	0x3d2043b0	0.03912705
136	0x3d8b6fbc	0.06808421
137	0x3cdeb0e1	0.027183952
138	0x3deff691	0.11716951
139	0x3d513181	0.0510726
140	0xbb01b019	-0.00197888
141	0x3caa106d	0.020759786
142	0xbe0be1d9	-0.13660373
143	0x3cd8f011	0.02648166
144	0xbecacc1e	-0.39608854
145	0xbed8adf1	-0.42320207
146	0x3da6ed1d	0.081506945
147	0x3d2a1dd0	0.041532338
148	0x3d2737ca	0.04082469
149	0x3de10d3c	0.109888524
150	0xbed104f4	-0.4082409
151	0x3d45bfa4	0.048278466
152	0xbe3a3d50	-0.18187451
153	0x3e07df36	0.13268742
154	0xbe409e5a	-0.18810406
155	0xbb1a7834	-0.0023570182
156	0x3da174b8	0.078835905
157	0x3ddbec96	0.107384846
158	0x3db1efba	0.08688302
159	0x3d04bd99	0.032407377
160	0x3cabdf55	0.020980516
161	0x3e220f1b	0.15826075
162	0x3d5e400b	0.054260295
163	0x3d264f6b	0.040603083
164	0xbeb86745	-0.36016288
165	0x3cbbe5f7	0.022936804
166	0xbb9e37b5	-0.004828418
167	0x3dcfcfa9	0.1014703
168	0x3d3ba7df	0.04581439
169	0xbeac62e1	-0.3366919
170	0x3de6204c	0.11236629
171	0xbc9bb367	-0.019006444
172	0x3e0f9652	0.14022186
173	0x3d6245e4	0.055242434
174	0xbee716e9	-0.45134667
175	0xbef1d643	-0.4723378
176	0xbe171664	-0.14754635
177	0xbd36051b	-0.044438463
178	0x3d63d5e4	0.055623904
179	0xbee66770	-0.45000792
180	0x3de13ecd	0.109983064
181	0xbed03473	-0.40665016
182	0x3db1a352	0.08673729
183	0xbbe7956b	-0.0070673726
184	0xbdbba772	-0.09162797
185	0x3de2cff7	0.110748224
186	0xbd009a98	-0.031397432
187	0x3c4fdbca	0.012686679
188	0xbee9282f	-0.4553847
189	0x3df605b2	0.12012805
190	0x3db1fc25	0.08690671
191	0xbc375995	-0.011190792
192	0x3d12556d	0.035726
193	0x3e20b322	0.15693334
194	0xbefde6ba	-0.49590093
195	0xbebbc30f	-0.36672255
196	0x3e1617e2	0.14657548
197	0xbedfb4d7	-0.43692657
198	0x3daef75f	0.08543276
199	0x3c79471b	0.015214707
200	0xbeb41152	-0.35169464
201	0x3e0127da	0.12612858
202	0xbeef422c	-0.46730173
203	0xbb668f2a	-0.0035180547
204	0x3dddb5c8	0.10825688
205	0xbec351a9	-0.3814824
206	0xbcb579a7	-0.022152735
207	0xbc21bd57	-0.009871802
208	0x3db513c3	0.0884166
209	0xbceabd3a	-0.028654683
210	0xbedc44de	-0.43021291
211	0x3c271655	0.010198195
212	0xbed6ecec	-0.41977632
213	0x3e1a7bda	0.15086308
214	0x3e0f1931	0.13974454
215	0x3ac9f088	0.0015406767
216	0x3d9de457	0.07709568
217	0x3d1075c3	0.035268556
218	0x3d73939c	0.059466943
219	0x3dee37f2	0.116317645
220	0x3e0c26a9	0.13686623
221	0x3e2c2b76	0.16813454
222	0x3d8732b8	0.06601471
223	0x3baa4739	0.0051964787
224	0x3d9684ad	0.07349525
225	0xbe55603f	-0.20837496
226	0x3e06967c	0.13143343
227	0xbde3d241	-0.11124087
228	0x3d5e400f	0.05426031
229	0x3d0fdf89	0.03512529
230	0x3d2d8cf7	0.042370763
231	0xbc7c6a6e	-0.015406234
232	0xbea33c2c	-0.31881845
233	0x3da8e452	0.08246674
234	0xbecc1f46	-0.3986761
235	0x3de68f97	0.11257856
236	0x3d213912	0.039361067
237	0x3d610060	0.054932
238	0xbef9b825	-0.48773304
239	0x3de84203	0.11340716
240	0xbed8a96b	-0.42316756
241	0x3e29eebf	0.1659498
242	0x3da88a5f	0.08229517
243	0x3ccfc69e	0.025363263
244	0x3ccca018	0.024978682
245	0x3d274d23	0.040845048
246	0x3dea9c83	0.114556335
247	0xbebb611f	-0.36597535
248	0x3c21364c	0.009839606
249	0x3e093204	0.13397986
250	0xbd125ecf	-0.035734948
251	0xbeb7a428	-0.3586743
252	0xbe92f61f	-0.287034
253	0xbd1bf846	-0.03807857
254	0xbed8a4df	-0.42313287
255	0x3ac52ace	0.0015042664

output_layer.bias f4 [9]
0	0xbd369762	-0.044577964
1	0xbd648fe5	-0.05580129
2	0xbd8e6270	-0.06952369
3	0xbd5102e8	-0.051028162
4	0xbd68bd21	-0.056820992
5	0xbcca705d	-0.024711782
6	0xbdbccb55	-0.0921847
7	0xbdb833b4	-0.089942366
8	0xbe007074	-0.12542897
