results/train/models_distance_40m_slope/name_DQN/best_model.pt (torch, 160585 bytes, 8 tensors)

layer1.weight f4 [128, 40]
0.049529765 0.058504228 0.063749984 0.33239362 -0.040709082 0.07074749 0.1518743 -0.05488201
-0.3577437 0.0013725925 0.14200833 0.06462711 -0.13404387 0.031834647 0.052249003 0.035441983
0.062129583 -0.12440905 -0.13066737 -0.12239139 0.08855764 0.06816319 -0.12879062 0.008356727
0.00057351793 0.2208708 -0.038111832 0.052029677 0.08686484 -0.110561654 0.010171087 -0.05423426
-0.05313927 0.10198241 0.08723875 0.084149264 -0.02623579 -0.018760163 0.039968718 0.06948569
-0.038129516 0.0126251895 0.058830325 -0.50315255 0.12644354 0.041910276 -0.22198072 0.108758815
-0.16622189 -0.07035024 -0.058180504 0.049474653 0.13316 0.009960597 -0.058280874 -0.024911486
-0.042198423 0.05413856 0.05100834 0.1288888 -0.017014336 -0.034600962 -0.049363207 0.109816365
0.007560074 -0.014117373 0.14866821 -0.06970606 -0.076804556 0.09090394 -0.075540155 0.023986407
0.11980308 0.068937205 -0.03522386 0.07908499 0.1564907 0.05355133 -0.13653378 -0.06657849
-0.06785543 -0.11399572 -0.035969887 -0.06432477 -0.08115681 0.08392249 -0.05608622 0.04816326
0.11223991 -0.056143023 0.09668372 -0.06423298 -0.045373634 -0.04882636 -0.04218653 0.07506158
0.05911611 -0.11472347 -0.05163118 -0.0835459 0.033580985 0.041892823 -0.011081816 -0.027582008
0.116069056 -0.012494296 0.03427182 -0.0010785563 0.058053482 -0.072475985 0.10767984 -0.08915074
0.08860723 0.06709295 -0.06375306 0.08221603 -0.108745106 -0.025012124 0.007219343 -0.061837442
0.05733272 -0.013516759 0.0155071635 -0.6400622 0.030047443 0.11683202 -0.38627672 0.07736936
-0.23615423 0.013195261 0.01246024 0.10420689 0.05809489 -0.07758758 0.02041342 -0.028444707
0.018003818 0.14068598 -0.05908358 -0.028167175 -0.04175486 -0.13588807 0.0883191 0.14489192
0.016963525 0.015669746 -0.00664317 0.09499144 0.09115002 -0.048053976 0.033488367 -0.023359792
0.04244844 0.059821412 -0.20893115 -0.032443102 -0.0050055757 -0.01163255 -0.014600188 0.07365695
-0.043257285 0.11705413 0.048492625 -0.029051157 0.009294495 0.10660481 0.015425255 -0.013739277
0.03464467 0.03308386 -0.070277154 0.09203547 -0.018359618 0.054027498 -0.006920678 0.09146058
0.07317527 -0.03383674 -0.06695119 -0.010412566 -0.037522692 0.037522748 -0.055548348 -0.024217125
0.032896455 0.024935786 0.083860524 -0.09012377 -0.060258377 0.0090783015 0.08161502 -0.033780634
-0.108356774 -0.05018781 0.07119783 -0.11826974 -0.03769751 -0.007809737 -0.099457085 -0.014528018
0.05710982 -0.020685196 -0.027499251 -0.06906004 0.08368795 0.089818686 -0.0745466 -0.061327603
0.047321215 0.10846258 -0.0968419 -0.057766527 -0.09383887 0.057490055 -0.042901624 -0.045955777
0.0026016936 0.111387044 -0.061861917 -0.048265666 -0.116827905 0.0008420388 -0.04302357 0.0893397
0.026118018 -0.07346953 0.113157175 0.07376532 -0.054986928 0.020492358 -0.024661586 -0.10299032
-0.035864104 0.031521536 -0.093897484 -0.00056413066 -0.054143343 0.033193745 -0.039035764 -0.11663822
-0.028195428 0.061846893 -0.07653106 -0.04024763 -0.029949713 0.002982904 -0.15310603 -0.054739065
0.40670222 0.04916692 0.034542635 0.065690115 0.02165645 0.05142176 0.112886325 -0.09401135
00000000: b9df 4a3d 21a2 6f3d 5a8f 823d 7f2f aa3e
00000010: 91be 26bd 0fe4 903d f084 1b3e f5cb 60bd
00000020: 2f2a b7be 90e8 b33a a26a 113e 385b 843d
00000030: cc42 09be 0c65 023d 0d03 563d 9d2b 113d
00000040: 977b 7e3d 2cca febd abcd 05be 56a8 fabd
00000050: b55d b53d 2499 8b3d b0e1 03be a7ea 083c
00000060: 2358 163a f42b 623e 271b 1cbd 121d 553d
00000070: 31e6 b13d 266e e2bd a2a4 263c be24 5ebd
00000080: 90a8 59bd 27dc d03d 3baa b23d 7356 ac3d
00000090: 71ec d6bc eaae 99bc 3db6 233d 834e 8e3d
000000a0: b22d 1cbd e2d9 4e3c 11f8 703d 9bce 00bf
000000b0: 6a7a 013e 1caa 2b3d ea4e 63be f1bc de3d
000000c0: 1236 2abe c913 90bd ae4e 6ebd efa5 4a3d
000000d0: 185b 083e c631 233c edb7 6ebd 2c13 ccbc
000000e0: 41d8 2cbd 65c0 5d3d 1fee 503d 6dfb 033e
000000f0: a661 8bbc bdb9 0dbd 1331 4abd 67e7 e03d
00000100: 7fba f73b 8e4c 67bc 7b3c 183e 0dc2 8ebd
00000110: b54b 9dbd d82b ba3d ccb4 9abd 247f c43c
00000120: 515b f53d f32e 8d3d e546 10bd 50f7 a13d
00000130: 193f 203e a458 5b3d 83cf 0bbe 4e5a 88bd
00000140: caf7 8abd 9776 e9bd 2955 13bd b4bc 83bd
00000150: 8b35 a6bd 8edf ab3d aaba 65bd d746 453d
00000160: 0ade e53d 3af6 65bd 1d02 c63d 958c 83bd
00000170: b4d9 39bd 26fe 47bd c8cb 2cbd e3b9 993d
00000180: bc23 723d 23f4 eabd 377b 53bd 1d1a abbd
00000190: 378c 093d cf97 2b3d 8190 35bc aaf3 e1bc
000001a0: 9db5 ed3d e0b4 4cbc 9c60 0c3d 585e 8dba
000001b0: 7dc9 6d3d 4a6e 94bd 3f87 dc3d aa94 b6bd
000001c0: b577 b53d 0768 893d f790 82bd e160 a83d
000001d0: c1b5 debd 3ae6 ccbc 3d90 ec3b 4249 7dbd
000001e0: b7d5 6a3d 6575 5dbc c211 7e3c 1edb 23bf
000001f0: 0e26 f63c a045 ef3d 10c6 c5be d473 9e3d
00000200: 6ad2 71be f030 583c 0926 4c3c 6c6a d53d
00000210: e8f4 6d3d 3de6 9ebd 0b3a a73c e004 e9bc
00000220: be7c 933c fc0f 103e a001 72bd d9be e6bc
00000230: 2507 2bbd 3e26 0bbe a5e0 b43d 8c5e 143e
00000240: 17f7 8a3c d75d 803c f3ae d9bb df8a c23d
00000250: ddac ba3d 3fd4 44bd 192b 093d 095d bfbc
00000260: 6ade 2d3d 4c07 753d 0cf2 55be 0fe3 04bd
00000270: d005 a4bb 7396 3ebc a035 6fbc 74d9 963d
00000280: 8d2e 31bd 13ba ef3d 34a0 463d b1fc edbc
00000290: f047 183c 9f53 da3d 35ba 7c3c b41a 61bc
000002a0: 92e7 0d3d f182 073d 78ed 8fbd 187d bc3d
000002b0: e966 96bc f04b 5d3d dbc6 e2bb af4f bb3d
000002c0: eadc 953d 6598 0abd b51d 89bd 7899 2abc
000002d0: 65b1 19bd 74b1 193d aa86 63bd fe62 c6bc
000002e0: 6fbe 063d 2246 cc3c 11bf ab3d d092 b8bd
000002f0: 7dd1 76bd 28bd 143c c725 a73d 905d 0abd
00000300: 28ea ddbd bc91 4dbd 2bd0 913d 6837 f2bd
00000310: b468 1abd d3e8 ffbb 28b0 cbbd ed06 6ebc
00000320: fdeb 693d 0074 a9bc 1c46 e1bc 5a6f 8dbd
00000330: 9764 ab3d dcf2 b73d e3ab 98bd a732 7bbd
00000340: e4d3 413d a121 de3d 0c55 c6bd 989c 6cbd
00000350: 982e c0bd b17a 6b3d 9db9 2fbd 203c 3cbd
00000360: 2d81 2a3b e41e e43d ec62 7dbd 38b2 45bd
00000370: 7843 efbd 44bc 5c3a 7c39 30bd bcf7 b63d
00000380: 74f5 d53c 3177 96bd f3be e73d 4612 973d
00000390: f939 61bd 97df a73c 1807 cabc 97ec d2bd
000003a0: 3de6 12bd ba1c 013d 534d c0bd 2be2 13ba
000003b0: 69c5 5dbd 2af6 073d f7e3 1fbd 05e0 eebd
000003c0: 19fa e6bc 2b53 7d3d 51bc 9cbd b3da 24bd
000003d0: 1a59 f5bc d37c 433b d4c7 1cbe 1236 60bd
000003e0: 463b d03e 4163 493d 947c 0d3d 8a88 863d
000003f0: de68 b13c a09f 523d f230 e73d 0689 c0bd

layer1.bias f4 [128]
-0.09843006 0.14473757 -0.044002123 0.08357275 -0.0896351 0.09742338 -0.0024599943 -0.019381696
0.08848755 -0.032551453 0.06083477 0.03152465 -0.002180601 0.08089283 0.11936208 -0.053483605
0.07163433 -0.017463569 -0.050197244 -0.10482145 -0.03245623 0.10946393 0.045804624 0.10106885
0.14203481 -0.006728498 0.08755588 -0.10630773 -0.0126837175 -0.09792599 0.07303823 -0.011231747
-0.08443356 -0.100380644 0.08705058 0.033168826 0.03753509 -0.06838196 0.12787913 -0.00020809843
-0.11824576 0.070882455 0.04265684 0.08771012 0.031007675 0.09586735 0.07863822 0.07585395
-0.04664288 -0.0888613 0.034415066 0.08522969 -0.08146347 0.018295432 0.113005586 0.11312228
-0.11661915 0.10743689 0.10282566 0.11591375 0.061126668 0.015045801 0.040944748 0.0868563
-0.016402986 -0.023457855 0.032074686 -0.09501978 0.09380496 -0.020568838 0.12628615 0.101428375
-0.057019945 -0.010762807 0.014124729 0.024443753 0.013246825 -0.030004948 -0.023151679 0.03943204
0.025224792 0.021001311 -0.036832746 -0.108535215 0.100920655 -0.019250104 0.08280759 0.09680215
0.021352516 0.11656356 0.12740186 -0.034156453 0.06755876 0.08992886 0.11024409 -0.040362764
-0.0763126 -0.016960166 -0.0062566763 0.0017922902 -0.042275786 0.102286175 0.097014375 -0.0377927
-0.112116195 -0.09758345 -0.024142759 -0.031136429 -0.0099998275 -0.04565379 -0.0015548236 -0.047840945
0.072987966 0.043399785 0.07846757 0.033281434 -0.10496256 -0.0016747838 -0.071587056 -0.09669729
0.12359622 -0.061545014 0.102783084 -0.098119594 -0.016865635 0.06360833 0.0023535814 0.080424964
00000000: b395 c9bd 1636 143e 923b 34bd 3128 ab3d
00000010: 9b92 b7bd e985 c73d db37 21bb 5dc6 9ebc
00000020: f638 b53d ac54 05bd e12d 793d fe1f 013d
00000030: 6ae8 0ebb 24ab a53d 1b74 f43d a011 5bbd
00000040: 05b5 923d c20f 8fbc a09b 4dbd a1ac d6bd
00000050: d3f0 04bd a02e e03d a19d 3b3d 2ffd ce3d
00000060: 9371 113e bb7a dcbb 7f50 b33d deb7 d9bd
00000070: 5ecf 4fbc 6c8d c8bd 1195 953d 5d05 38bc
00000080: 81eb acbd 5e94 cdbd 9347 b23d 09dc 073d
00000090: 65be 193d d70b 8cbd bff2 023e ff34 5ab9
000000a0: d52a f2bd d22a 913d f0b8 2e3d 5da1 b33d
000000b0: cf03 fe3c 1a56 c43d 130d a13d 5159 9b3d
000000c0: 9b0c 3fbd eafc b5bd d0f6 0c3d e78c ae3d
000000d0: 52d6 a6bd 4de0 953c 796f e73d a7ac e73d
000000e0: 05d6 eebd df07 dc3d 4296 d23d 3064 ed3d
000000f0: f55f 7a3d aa82 763c aeb5 273d b7e1 b13d
00000100: 8e5f 86bc b02a c0bc bf60 033d bb99 c2bd
00000110: d11c c03d fb7f a8bc 2851 013e aeb9 cf3d
00000120: bf8d 69bd 7c56 30bc 686b 673c 443e c83c
00000130: 3609 593c f0cc f5bc 97a8 bdbc 7e83 213d
00000140: 39a4 ce3c f10a ac3c efdd 16bd b647 debd
00000150: 7daf ce3d 65b2 9dbc 0797 a93d 3540 c63d
00000160: 79eb ae3c e0b8 ee3d a275 023e a3e7 0bbd
00000170: 3f5c 8a3d 9f2c b83d a7c7 e13d 6d53 25bd
00000180: c849 9cbd 0cf0 8abc ce04 cdbb 48eb ea3a
00000190: 6029 2dbd 6a7b d13d 79af c63d 85cc 1abd
000001a0: 2d9d e5bd d5d9 c7bd 09c7 c5bc d311 ffbc
000001b0: 51d6 23bc 78ff 3abd 39cb cbba def4 43bd
000001c0: b77a 953d f9c3 313d 9bb3 a03d 1d52 083d
000001d0: 9cf6 d6bd 6b84 dbba 3c9c 92bd 3b09 c6bd
000001e0: 0420 fd3d a016 7cbd f07f d23d edf2 c8bd
000001f0: cd29 8abc 1645 823d 8b3e 1a3b d8b5 a43d

layer2.weight f4 [128, 128]
0.014927392 0.021362737 -0.01926159 -0.059405476 0.008903833 -0.0054556224 0.046196684 0.029205108
-0.010261268 -0.061310384 0.059989404 -0.019238066 0.0024288131 -0.010904953 -0.017073119 0.0041083237
-0.03804963 0.0131958965 -0.06029885 0.042976398 0.010645304 0.037789084 -0.061057597 -0.017512348
0.032926787 -0.0021868853 -0.05463175 0.044695612 0.059053984 -0.052736018 -0.012051813 0.05715466
-0.010737847 -0.011559961 -0.04666611 -0.03852807 0.006427724 0.06041728 -0.0052187415 0.047800433
-0.061488193 -0.033740666 -0.0100771105 -0.03253087 -0.06572314 -0.014623613 -0.028334646 0.029125968
0.007981525 0.055643473 -0.054593932 -0.015162584 0.040480465 -0.008123702 0.042187423 0.042867586
-0.0558142 -0.032973368 -0.02739823 0.026708938 -0.05095604 -0.034282073 -0.01745026 0.045268174
-0.067296565 -0.016382623 -0.01889502 -0.016482234 0.00019776082 -0.009636989 -0.01852512 -0.020281512
-0.023955401 -0.051873446 0.035369616 0.057752475 0.017979737 0.0055549727 -0.059290677 -0.051134393
-0.030696211 0.0038566315 -0.05253195 0.041916024 0.020855376 -0.06267064 -0.020999368 0.03284997
0.029131994 0.03269189 0.028583826 -0.024538673 0.023734072 -0.05486975 0.05867364 0.021930734
0.06524739 0.01440601 -0.045057945 0.0006055475 0.059689295 0.06042706 0.041681055 0.056679416
0.018847078 -0.012528882 -0.012195425 -0.025117602 -0.03543672 -0.02560138 -0.05997549 -0.019698653
0.005207089 -0.005037241 -0.06148692 -0.065815575 -0.06139538 0.022111412 0.02937282 0.014800032
-0.03208777 -0.00493096 -0.041959092 0.0073868157 -0.005661072 0.02496206 -0.03043539 -0.054539926
-0.47124067 -0.14615907 0.034569662 -0.42093387 0.035047892 -0.056953453 0.019659167 0.042804662
-0.37440333 -0.2180709 -0.1804542 -0.0063606305 -0.059079114 0.087801225 0.13609596 0.057875797
-0.2179284 -0.013035956 0.020934543 -0.038588297 -0.014544459 -0.07235043 -0.019428225 0.09804419
0.036645304 0.008435661 0.04249049 0.0042226557 -0.018478798 0.03188384 0.062902465 -0.38996205
-0.0383097 -0.007604144 -0.052028704 -0.05342813 0.030199302 -0.019088155 -0.36044326 0.06281334
-0.039051097 -0.0074391165 -0.062198654 0.057081927 -0.02067751 -0.026330806 0.013031019 0.06060662
-0.07821414 0.06335389 0.046315968 -0.13163264 -0.5963824 -0.04232439 0.10766454 0.0011033296
0.016039204 0.0641834 0.116619974 0.055106357 0.06868533 0.06328821 -0.062499683 0.10122212
-0.25369927 -0.4068675 -0.044179015 0.017544484 0.0011654336 0.023294572 -0.31509754 -0.11673929
-0.16570541 -0.52937907 -0.3905386 -0.036811873 0.054825705 -0.20222266 -0.045989122 0.022444995
0.104902774 0.045852914 0.03598919 0.022401135 0.040090054 -0.051286034 0.086524084 -0.05023749
0.032838486 0.0745016 0.13046971 0.14291036 -0.0044722017 0.036991555 0.071600035 -0.3727981
-0.05008507 -0.057899673 0.11105194 -0.06585428 0.105549656 -0.27636018 0.042305857 0.07798928
-0.009605659 0.13198872 -0.034198903 -0.010329119 -0.014660817 0.012388609 -0.00714676 -0.0003594059
0.013993625 0.0679785 0.05734879 -0.0045417747 0.0009682329 0.07854968 0.0047017606 0.14345385
-0.25321305 -0.006032736 0.05415848 -0.03148635 -0.047220558 0.077345684 0.052985184 -0.34897953
00000000: 0592 743c e800 af3c 7bca 9dbc 2853 73bd
00000010: 62e1 113c 14c5 b2bb bc38 3d3d 8d3f ef3c
00000020: e11e 28bc 9920 7bbd 73b7 753d 2699 9dbc
00000030: b92c 1f3b b0aa 32bc eddc 8bbc 1e9f 863b
00000040: eed9 1bbd 9a33 583c edfb 76bd 0508 303d
00000050: a469 2e3c bac8 1a3d 8817 7abd 0e76 8fbc
00000060: 3dde 063d d951 0fbb 8bc5 5fbd bf12 373d
00000070: 97e2 713d b901 58bd f874 45bc 011b 6a3d
00000080: cbed 2fbc fe65 3dbc f724 3fbd 9ccf 1dbd
00000090: a89f d23b 1c78 773d fa01 abbb 63ca 433d
000000a0: 0bdb 7bbd a733 0abd 771a 25bc 173f 05bd
000000b0: db99 86bd e197 6fbc 0f1e e8bc 9599 ee3c
000000c0: f1c4 023c 69ea 633d e39d 5fbd 7d6c 78bc
000000d0: d8ce 253d 4719 05bc b8cc 2c3d ec95 2f3d
000000e0: 6e9d 64bd 150f 07bd 4172 e0bc b4cc da3c
000000f0: 48b7 50bd 5c6b 0cbd d9f3 8ebc 1f6b 393d
00000100: c8d2 89bd da34 86bc bbc9 9abc c005 87bc
00000110: 045e 4f39 76e4 1dbc fec1 97bc 6a25 a6bc
00000120: 1e3e c4bc 4079 54bd bbdf 103d dc8d 6c3d
00000130: 3e4a 933c 7d06 b63b c8da 72bd 4c72 51bd
00000140: 9f76 fbbc 8abf 7c3b be2b 57bd 23b0 2b3d
00000150: e5d8 aa3c 7759 80bd de06 acbc b18d 063d
00000160: 38a6 ee3c eee7 053d a128 ea3c 5405 c9bc
00000170: f56d c23c 1abf 60bd c553 703d 15a8 b33c
00000180: 6ca0 853d 2f07 6c3c ae8e 38bd 9bbd 1e3a
00000190: c37c 743d 5d82 773d c1b9 2a3d ad28 683d
000001a0: 3065 9a3c f145 4dbc 52cf 47bc 6ec3 cdbc
000001b0: 1826 11bd fcb9 d1bc dca8 75bd 125f a1bc
000001c0: 3aa0 aa3b 710f a5bb b5d9 7bbd 51ca 86bd
000001d0: b979 7bbd fe22 b53c 459f f03c d57b 723c
000001e0: 776e 03bd e493 a1bb 4cdd 2bbd 1a0d f23b
000001f0: 8480 b9bb 3c7d cc3c a453 f9bc 4265 5fbd
00000200: 7546 f1be b9aa 15be eb98 0d3d a584 d7be
00000210: 618e 0f3d 0648 69bd 430c a13c f153 2f3d
00000220: cbb1 bfbe fa4d 5fbe fcc8 38be d66c d0bb
00000230: f1fc 71bd 21d1 b33d bd5c 0b3e 2c0f 6d3d
00000240: 9f28 5fbe c394 55bc eb7e ab3c c30e 1ebd
00000250: e24b 6ebc 762c 94bd f127 9fbc 64cb c83d
00000260: 6319 163d ba35 0a3c 820a 2e3d 345e 8a3b
00000270: d960 97bc a198 023d 02d3 803d 1ba9 c7be
00000280: a2ea 1cbd 2f2c f9bb 0d1c 55bd 74d7 5abd
00000290: 8764 f73c c35e 9cbc 058c b8be 48a4 803d
000002a0: 0bf4 1fbd d5c3 f3bb 04c4 7ebd bdce 693d
000002b0: e263 a9bc b4b3 d7bc 0e80 553c a63e 783d
000002c0: bc2e a0bd afbf 813d d0b5 3d3d b5ca 06be
000002d0: 84ac 18bf 575c 2dbd 3a7f dc3d 999d 903a
000002e0: a664 833c 9672 833d 74d6 ee3d 34b7 613d
000002f0: e5aa 8c3d 409d 813d abff 7fbd 8b4d cf3d
00000300: dfe4 81be f050 d0be 0ef5 34bd 73b9 8f3c
00000310: 76c1 983a 42d4 be3c 7754 a1be 0215 efbd
00000320: aeae 29be 6385 07bf adf4 c7be 0cc8 16bd
00000330: eb90 603d 7513 4fbe 175f 3cbd 91de b73c
00000340: 44d7 d63d 44d0 3b3d 6769 133d 9682 b73c
00000350: 7835 243d 4e11 52bd 8a33 b13d d4c5 4dbd
00000360: a681 063d 4b94 983d da99 053e 1857 123e
00000370: 8c8b 92bb 7584 173d 0aa3 923d 64df bebe
00000380: 0126 4dbd 3528 6dbd 336f e33d 9cde 86bd
00000390: 6b2a d83d 157f 8dbe e848 2d3d d8b8 9f3d
000003a0: 0e61 1dbc 0d28 073e 2614 0cbd 773b 29bc
000003b0: ec33 70bc 98f9 4a3c 5e2f eabb a56e bcb9
000003c0: 8445 653c 5038 8b3d 91e6 6a3d 2bd3 94bb
000003d0: 03d1 7d3a a8de a03d 3a11 9a3b 91e5 123e
000003e0: 24a5 81be 42ae c5bb 48d5 5d3d d5f7 00bd
000003f0: 586a 41bd 6a67 9e3d fe06 593d 72ad b2be

layer2.bias f4 [128]
-0.066027455 -0.010975971 -0.028553922 -0.010211462 0.0942033 0.04607201 0.05895489 0.045322087
-0.02724385 -0.06619475 0.00868472 -0.001400834 -0.0038862105 0.01642086 0.017042272 0.00034256955
0.019572483 0.07400492 -0.04297863 0.05671384 -0.05199695 0.019995743 0.058278013 -0.03487922
0.08891511 0.033959087 -0.005212784 -0.028449105 0.036624964 0.030237013 -0.0011872688 0.059346583
-0.042399038 0.014759316 0.06420238 0.08167502 0.08900211 -0.0006984631 -0.06608196 0.003353279
-0.031411234 -0.039185464 0.05341458 -0.0567625 0.0013933026 0.04189714 -0.04657052 0.04326065
-0.060922924 0.08099774 -0.037711088 -0.034151874 0.06642245 -0.009507284 0.015219159 0.036983185
0.03392402 -0.012593327 -0.01741882 -0.022922684 -0.057624727 0.09012421 -0.011671224 0.057585295
0.045238405 0.062687024 -0.0046363217 0.087300785 -0.022115173 0.047225438 -0.053777937 0.0133125335
-0.012410766 0.05661719 0.041819867 -0.047844086 0.038460866 0.030979257 0.07235536 0.05367701
-0.036618903 0.02974825 -0.03760651 0.002421021 0.033701256 0.04444052 0.016612647 0.053016417
0.025083339 0.0026590375 0.041448534 0.0111266915 0.02260347 -0.008677755 0.03581722 0.055459566
0.05201806 0.028635776 -0.053093843 -0.062143642 0.090998344 0.029282827 0.082664326 -0.051308196
0.08417625 0.037965108 0.032276507 0.031202815 -0.058816224 -0.060149223 0.0085531175 0.06269302
0.04835149 -0.04186569 -0.068106346 0.007010038 -0.052006155 0.088167936 -0.01906406 -0.02586308
0.013827645 0.0028623643 0.063232556 0.012375488 -0.008087066 -0.00090121094 0.0016590033 -0.024149057
00000000: 6739 87bd 8fd4 33bc eae9 e9bc fa4d 27bc
00000010: a9ed c03d 01b6 3c3d af7a 713d a7a3 393d
00000020: 7f2e dfbc 1d91 87bd 5b4a 0e3c 309c b7ba
00000030: cbaf 7ebb 0a85 863c 3c9c 8b3c e89a b339
00000040: 7956 a03c e48f 973d 5c0a 30bd c64c 683d
00000050: c1fa 54bd 1dce a33c edb4 6e3d 83dd 0ebd
00000060: 2019 b63d af18 0b3d 00d0 aabb 190e e9bc
00000070: 0f04 163d 9db3 f73c 219e 9bba 6715 733d
00000080: 9daa 2dbd 0fd1 713c 8a7c 833d 3c45 a73d
00000090: bd46 b63d 1119 37ba fb55 87bd b0c2 5b3b
000000a0: 11a9 00bd f080 20bd 3fc9 5a3d cc7f 68bd
000000b0: 7a9f b63a 569c 2b3d bbc0 3ebd 1432 313d
000000c0: 518a 79bd 25e2 a53d f176 1abd d6e2 0bbd
000000d0: 7e08 883d 70c4 1bbc c859 793c ae7b 173d
000000e0: eaf3 0a3d 3e54 4ebc eab1 8ebc 5ac8 bbbc
000000f0: e807 6cbd 0b93 b83d a938 3fbc 8fde 6b3d
00000100: e84b 393d 0e62 803d 49ec 97bb c1ca b23d
00000110: e12a b5bc 766f 413d 4146 5cbd d01c 5a3c
00000120: 8756 4bbc 6de7 673d 4f4b 2b3d 29f8 43bd
00000130: 2489 1d3d 36c8 fd3c 0c2f 943d 6ddc 5b3d
00000140: b4fd 15bd 9ab2 f33c 4909 1abd fea9 1e3b
00000150: 540a 0a3d 4307 363d 3f17 883c be27 593d
00000160: 937b cd3c 3f43 2e3b f0c5 293d ba4c 363c
00000170: ea2a b93c 242d 0ebc 14b5 123d 9229 633d
00000180: e410 553d 9395 ea3c ee78 59bd 558a 7ebd
00000190: 575d ba3d 8ae2 ef3c ea4b a93d 8b28 52bd
000001a0: 9964 ac3d 4d81 1b3d 5f34 043d 0c9d ff3c
000001b0: 48e9 70bd 085f 76bd 6022 0c3c 3365 803d
000001c0: 360c 463d 5c7b 2bbd 577b 8bbd 76b4 e53b
000001d0: 6804 55bd 6491 b43d 3b2c 9cbc cfde d3bc
000001e0: 598d 623c 8196 3b3b 1280 813d 8fc2 4a3c
000001f0: 9d7f 04bc 3e3f 6cba ea72 d93a 3ed4 c5bc

layer3.weight f4 [128, 128]
0.063866206 -0.034333326 -0.033592146 0.018405033 0.059583068 0.0810385 -0.01780268 0.0155179445
-0.05647796 0.047452036 -0.05174932 -0.018173493 0.037475478 -0.013461468 -0.026450306 -0.028582389
-0.0057237386 0.03789777 0.019463055 -0.022593467 0.037085555 -0.065482825 0.008697863 0.004800361
-0.029727468 0.010228572 0.04420131 -0.06386531 0.021862822 0.054464515 0.055474386 -0.045592915
0.01784578 0.049118385 0.034767006 0.027739076 -0.048283555 -0.0078029637 0.048391704 0.0639292
0.02689993 -0.0025578088 0.058122486 -0.050151072 0.028240204 0.039597634 -0.007196512 0.020948142
-0.007944939 0.03055155 0.0026124304 0.022455614 -0.017696211 -0.05945967 -0.02360132 -0.026274763
-0.010973593 -0.06703255 -0.005006946 0.07002446 -0.023673812 0.025189744 -0.0074067772 -0.026591698
-0.04293455 -0.08471268 -0.04463478 0.06717797 0.011040577 0.06080437 -0.020755986 -0.04389541
-0.02704835 -0.013841528 -0.0077724764 0.0047380137 -0.04481466 -0.003960209 -0.02677849 0.08865965
0.04061264 -0.029308006 -0.0072553023 -0.053239785 0.046676815 -0.07091136 0.033755 -0.042238183
0.057330992 -0.053052783 0.093023695 0.028431615 0.027263038 0.09991909 -0.017554624 -0.0037481422
0.027500302 0.00698252 -0.035022195 -0.04046705 0.024628503 -0.012326649 -0.0682564 -0.034583304
-0.04489474 -0.0023072714 -0.04821261 0.025822181 0.012928611 0.024549684 -0.04041407 -0.06286495
-0.049941726 0.036064096 -0.029654117 0.025458021 0.031784385 0.016620828 0.05117029 0.008434674
-0.024868771 0.013951813 -0.016237626 0.0070164064 0.04232159 -0.02101898 -0.010763693 0.020965561
-0.056418087 0.0015107429 -0.031952724 0.039389208 0.0033868132 -0.0697805 -0.0010555981 -0.03816412
-0.018433077 0.0328282 0.036001857 -0.012233092 -0.041632015 0.016615856 -0.036446795 0.000843779
-0.049557403 -0.041856695 0.06126991 0.006967376 0.008362532 -0.012401711 0.006626336 0.06287405
0.047766462 0.010394637 -0.031811833 -0.057280365 -0.047414526 0.047058053 -0.039556995 -0.043726027
0.00824247 0.03991002 0.002213183 -0.024294076 -0.002793263 -0.020657916 0.059450712 0.010883585
0.06630995 0.0034709605 0.049668264 -0.025828432 0.03965882 -0.027563322 0.013563292 -0.009762839
0.019585915 -0.04978951 0.043681312 -0.032955304 0.050121218 -0.018832827 0.029040584 -0.04469323
0.004979176 0.031400375 -0.03388936 -0.0334908 -0.034069702 -0.038734592 -0.034783475 0.03487296
-0.011012159 -0.0013593822 -0.028846372 -0.002191897 -0.053304438 0.03688156 -0.06328066 0.04610216
-0.043724664 0.058260437 -0.010781408 0.04766523 0.05464841 -0.018255487 0.033833805 0.039228972
-0.0019772113 -0.054845672 -0.037979107 -0.06418597 -0.052987687 0.03619821 -0.02831545 0.060754403
-0.0368606 0.061756838 0.014116314 0.065164655 0.057907406 -0.06478491 -0.024336513 0.012595771
0.035926294 -0.06507598 0.04447024 0.010761665 -0.012800258 0.06584933 0.022735586 0.060370132
-0.03373485 -0.028416691 -0.026527148 0.022033364 -0.045071468 0.056638163 0.047005553 -0.0605104
-0.060116198 -0.015402522 0.05644002 -0.01657719 -0.06424485 0.0068563367 0.0412003 -0.023856228
-0.0347699 0.035685334 -0.007806214 -0.049426164 -0.0053431857 0.055046696 -0.034982145 0.013337777
00000000: 49cc 823d 1aa1 0cbd eb97 09bd 27c6 963c
00000010: 600d 743d 83f7 a53d edd6 91bc fa3e 7e3c
00000020: 6f55 67bd 115d 423d 18f7 53bd 94e0 94bc
00000030: e37f 193d 7d8d 5cbc 50ae d8bc 9d25 eabc
00000040: 338e bbbb b13a 1b3d fc70 9f3c ef15 b9bc
00000050: 06e7 173d dc1b 86bd 7b81 0e3c 594c 9d3b
00000060: 0587 f3bc be95 273c 6f0c 353d d1cb 82bd
00000070: a919 b33c 2f16 5f3d 1c39 633d a3bf 3abd
00000080: 5031 923c 5c30 493d d967 0e3d 0f3d e33c
00000090: fac4 45bd 01b0 ffbb 6136 463d 50ed 823d
000000a0: 3e5d dc3c e9a0 27bb d811 6e3d 366b 4dbd
000000b0: 0058 e73c 2131 223d b8d0 ebbb 709b ab3c
000000c0: 7d2b 02bc 3f47 fa3c 4f35 2b3b d6f4 b73c
000000d0: a5f7 90bc fc8b 73bd 8e57 c1bc 2c3e d7bc
000000e0: 96ca 33bc 5d48 89bd 4f11 a4bb fc68 8f3d
000000f0: 95ef c1bc b95a ce3c 8db4 f2bb d5d6 d9bc
00000100: 24dc 2fbd d77d adbd f6d2 36bd 9b94 893d
00000110: 89e3 343c 010e 793d 7508 aabc accb 33bd
00000120: 8094 ddbc 94c7 62bc 42b0 febb 5741 9b3b
00000130: 948f 37bd a4c4 81bb 905e dbbc 3193 b53d
00000140: 7159 263d 5817 f0bc e3bd edbb f611 5abd
00000150: 3030 3f3d fa39 91bd af42 0a3d f201 2dbd
00000160: e7d3 6a3d e04d 59bd 3583 be3d 6be9 e83c
00000170: bc56 df3c 61a2 cc3d b7ce 8fbc 64a3 75bb
00000180: 5048 e13c a0cd e43b 6f73 0fbd c7c0 25bd
00000190: b7c1 c93c b7f5 49bc 03ca 8bbd 39a7 0dbd
000001a0: 8ce3 37bd 9735 17bb 967a 45bd 0a89 d33c
000001b0: 86d2 533c 6b1c c93c 3989 25bd 57bf 80bd
000001c0: b28f 4cbd f2b7 133d 31ed f2bc 578d d03c
000001d0: 5830 023d 6728 883c f097 513d 9631 0a3c
000001e0: 98b9 cbbc 2596 643c c504 85bc e2e9 e53b
000001f0: 6759 2d3d ff2f acbc 335a 30bc f8bf ab3c
00000200: a716 67bd 1f04 c63a dce0 02bd 9456 213d
00000210: 4cf5 5d3b 14e9 8ebd ff5b 8aba fb51 1cbd
00000220: f700 97bc dd76 063d af76 133d 4f6d 48bc
00000230: 5586 2abd fa1d 883c 3c49 15bd 0d31 5d3a
00000240: b4fc 4abd ed71 2bbd 28f6 7a3d 964e e43b
00000250: 0003 093c 8c30 4bbc bc21 d93b 1cc4 803d
00000260: c4a6 433d 444e 2a3c 204d 02bd d19e 6abd
00000270: bc35 42bd f2bf 403d 8406 22bd 101a 33bd
00000280: 6d0b 073c b078 233d 0d0b 113b 5f04 c7bc
00000290: 2d0f 37bb ca3a a9bc 9782 733d 1051 323c
000002a0: 83cd 873d 0e79 633b f370 4b3d 2696 d3bc
000002b0: 4971 223d 7acc e1bc 9238 5e3c 51f4 1fbc
000002c0: a472 a03c 16f0 4bbd 2deb 323d 24fc 06bd
000002d0: e84b 4d3d 4d47 9abc 85e6 ed3c 4010 37bd
000002e0: 5b28 a33b ae9d 003d 92cf 0abd a62d 09bd
000002f0: ac8c 0bbd 2aa8 1ebd 1e79 0ebd f3d6 0e3d
00000300: 586c 34bc 4c2d b2ba 3a4f ecbc eea5 0fbb
00000310: c155 5abd 1e11 173d 4a99 81bd 9ed5 3c3d
00000320: a218 33bd 7fa2 6e3d 81a4 30bc 9e3c 433d
00000330: 03d7 5f3d 888c 95bc 5195 0a3d 8fae 203d
00000340: 1a94 01bb dba5 60bd fb8f 1bbd ef73 83bd
00000350: 9e09 59bd 9344 143d cdf5 e7bc 9cd9 783d
00000360: 24fb 16bd bdf4 7c3d 1d48 673c 0c75 853d
00000370: 5130 6d3d f3ad 84bd 5e5d c7bc 7e5e 4e3c
00000380: 7327 133d 8e46 85bd 6d26 363d b251 303c
00000390: 2cb8 51bc 03dc 863d fb3f ba3c ac46 773d
000003a0: 8e2d 0abd 1fca e8bc 764f d9bc 507f b43c
000003b0: dc9c 38bd 6bfd 673d e588 403d c1d9 77bd
000003c0: 673c 76bd dc5a 7cbc a72d 673d e3cc 87bc
000003d0: ce92 83bd 1fab e03b a5c1 283d 236e c3bc
000003e0: e26a 0ebd c92a 123d 45cb ffbb 1773 4abd
000003f0: e415 afbb a578 613d 7049 0fbd b186 5a3c

layer3.bias f4 [128]
-0.05739028 0.04102983 -0.038468644 0.12580134 -0.015886007 0.0017551701 0.029467462 0.007864486
0.011722519 -0.0019220008 0.044816863 -0.002694506 0.0382871 0.055786394 0.046830386 0.05179529
-0.0065845586 0.10097693 0.0015517498 -0.04073748 -0.03911164 0.09971099 -0.050341126 -0.03679845
0.100744024 -0.06634053 0.029332405 -0.011777252 -0.016944112 0.073708884 -0.01450282 -0.032846216
0.025338033 -0.026669815 0.055763356 0.061391555 0.007927193 -0.038730152 0.049363203 0.16840194
0.09358711 -0.014384437 -0.0579075 0.09109806 0.06167411 0.038873572 0.012968451 0.025161318
0.07934656 0.07630871 -0.052880708 -0.042919543 -0.034754857 -0.019506842 0.02788339 -0.05195517
-0.05501676 0.055128817 0.08943582 0.10277559 -0.030337352 -0.045502 0.03363089 -0.06078832
-0.047352836 0.044568643 0.033433378 0.062682435 0.09544095 -0.021691568 0.033750348 -0.018366976
-0.034041222 0.1029165 -0.05032357 0.12548985 -0.054549914 0.0022779377 -0.053117692 -0.061501894
0.025388386 0.059288017 -0.050851688 0.028993182 0.024717258 0.032566138 0.012753401 0.03656653
0.06820451 -0.016630646 -0.06661846 -0.037951507 0.10328816 0.039061196 -0.023441484 0.03821466
-0.07605167 0.105588235 6.477299e-05 0.079218276 0.037374582 0.0115525415 -0.05488577 0.10517593
0.11265442 -0.02560031 0.022102324 0.04338976 0.0811084 0.070784874 -0.048083417 -0.052508418
0.07234901 0.033247028 -0.0028313107 0.024839874 -0.021370962 -0.057514984 -0.05523764 0.07512318
0.10962652 -0.018677482 0.029990787 -0.021977756 0.053003598 0.076989 0.1034629 0.043737575
00000000: 1212 6bbd e50e 283d 4c91 1dbd 11d2 003e
00000010: 5f23 82bc bc0d e63a bf65 f13c 0cda 003c
00000020: cf0f 403c a5eb fbba e391 373d 4f96 30bb
00000030: efd2 1c3d 4680 643d 38d1 3f3d 4c27 543d
00000040: 48c3 d7bb fecc ce3d 1564 cb3a 58dc 26bd
00000050: 8733 20bd 4735 cc3d 7f32 4ebd f9b9 16bd
00000060: e252 ce3d 8bdd 87bd 834a f03c 60f5 40bc
00000070: 61ce 8abc aff4 963d 3c9d 6dbc c189 06bd
00000080: b591 cf3c a87a dabc 1e68 643d b675 7b3d
00000090: 0fe1 013c 82a3 1ebd 1231 4a3d 8f71 2c3e
000000a0: 99aa bf3d b4ac 6bbc 6a30 6dbd 9f91 ba3d
000000b0: fe9d 7c3d e539 1f3d a079 543c 1c1f ce3c
000000c0: 7380 a23d be47 9c3d 7199 58bd 67cc 2fbd
000000d0: 1c5b 0ebd d0cc 9fbc b56b e43c f2ce 54bd
000000e0: 4159 61bd c1ce 613d 212a b73d 027c d23d
000000f0: 0a86 f8bc 4e60 3abd 8bc0 093d 2cfd 78bd
00000100: 0cf5 41bd 9c8d 363d 70f1 083d a65f 803d
00000110: 8b76 c33d 84b2 b1bc ce3d 0a3d 5776 96bc
00000120: cf6e 0bbd e3c5 d23d 1620 4ebd 6980 003e
00000130: bb6f 5fbd 7449 153b f091 59bd 69e9 7bbd
00000140: 4efb cf3c fed7 723d dc49 50bd 1c83 ed3c
00000150: d97b ca3c 1264 053d a4f3 503c c9c6 153d
00000160: ceae 8b3d fe3c 88bc 426f 88bd 0a73 1bbd
00000170: be88 d33d a2fe 1f3d 5b08 c0bc fa86 1c3d
00000180: fac0 9bbd a53e d83d bcd6 8738 313d a23d
00000190: 1716 193d df46 3d3c e7cf 60bd 7a66 d73d
000001a0: 5cb7 e63d beb7 d1bc ef0f b53c 76b9 313d
000001b0: 291c a63d a9f7 903d 1ef3 44bd 1113 57bd
000001c0: b82b 943d 092e 083d 838d 39bb fe7c cb3c
000001d0: 2812 afbc d594 6bbd dd40 62bd 2fda 993d
000001e0: de83 e03d 8501 99bc 3daf f53c b20a b4bc
000001f0: 4d1a 593d 69ac 9d3d 5be4 d33d 2c26 333d

output_layer.weight f4 [9, 128]
0.0230061 -0.015297995 0.00850785 -0.14818509 0.09744306 0.07635525 -0.064666 0.07930796
0.021009069 -0.016403519 -0.18684256 0.06159482 -0.2549009 -0.19210489 -0.18208045 -0.056234397
-0.17940377 -0.21009676 0.14509462 0.059915084 0.053803135 0.010092843 0.13631754 0.041022938
0.05476449 0.11210217 0.050800472 0.048646484 0.002816716 0.054193698 0.01387018 -0.047034346
0.037943996 0.0107841315 0.060741846 -0.09348742 -0.011730782 0.0099542085 0.114374734 -0.15287937
-0.25868303 0.09443185 -0.025611667 0.016264603 0.060626276 0.019048888 0.10983483 -0.033697844
-0.1264707 0.009319281 0.011687303 -0.040254872 -0.040498275 -0.029961927 0.14435188 -0.008665328
-0.046512697 -0.032030806 -0.20393293 0.1327318 0.006469411 -0.026380146 0.051921576 -0.024299866
-0.0008518905 -0.0041169384 0.07082391 0.09974215 0.07678487 0.0037128183 0.09159923 0.11969286
0.12845844 -0.06229758 0.024585731 -0.2026035 0.008138504 0.0044038845 0.028027028 0.093134336
-0.1435616 0.11709278 -0.033070784 0.0105036 0.008766349 0.041252095 -0.01664939 0.09420534
0.0323728 -0.0025791738 0.02502189 0.024957336 -0.1701007 -0.089465134 0.046825815 0.055335715
0.061465193 0.07283464 0.0026584135 0.11800021 -0.16165143 0.07937685 -0.01317491 -0.26090512
-0.21700469 -0.12576377 -0.034314625 -0.0100087775 0.06118026 0.049376093 0.10032488 -0.054000787
-0.19660944 0.058317184 -0.02314164 -0.029202128 -0.033443592 0.009582528 -0.035193108 0.080479436
0.0846926 0.1360914 0.06080157 -0.0385723 0.028130503 0.0355057 0.067955606 -0.2266237
-0.05420044 0.03793397 0.019108582 -0.099291734 0.07552719 0.10912125 -0.038313814 0.069593616
0.1115603 0.014960505 -0.20774409 0.039893348 -0.18386048 -0.11615947 -0.12945516 -0.02758575
-0.09998834 -0.20704028 0.116380125 -0.01429705 0.041532263 0.026953237 0.05846707 0.03322504
0.09526523 0.13560937 -0.062931105 -0.05305644 0.0012748733 0.04739476 0.053753827 0.0508183
0.07534746 -0.017130354 0.016408633 -0.045616448 0.03805894 -0.03567493 0.05805048 -0.17244333
-0.1245061 0.030526502 0.00017457062 0.097742915 0.10535459 0.063666455 -0.011234561 -0.044362962
-0.13690211 0.11570794 -0.034653813 0.054495264 -0.01210002 0.065068826 0.032608613 -0.03509096
0.0494402 0.0034139291 -0.13049534 0.0905747 -0.008176547 -0.06358452 0.012550035 0.021907164
-0.05295547 -0.06282068 0.11103383 0.0131267775 0.016604535 0.02545729 0.116739854 0.1141166
0.11450233 -0.13953023 -0.03262579 -0.19867821 -0.005928474 -0.043663792 -0.047446202 -0.026993545
0.00036681344 0.12344433 -0.013279875 -0.008921395 0.048688304 0.13305055 0.015405381 0.07406159
0.12039028 0.032947 -0.050843775 -0.011218151 -0.21365243 -0.1036578 0.04315238 0.021481037
0.07747035 0.027659286 -0.01982464 0.030676158 -0.10787971 0.04452566 0.037850123 -0.169624
-0.20479125 -0.11124178 -0.04730941 -0.0125650605 0.0926393 0.08985291 0.078137316 0.051943175
-0.08723588 0.06148399 -0.029759614 -0.052485727 0.02328519 0.042697135 0.032968357 0.11714576
0.09570846 0.061630666 -0.063232504 -0.028923804 0.08568756 0.02857949 0.10955896 -0.1353698
00000000: 4a77 bc3c 71a4 7abc 8264 0b3c d5bd 17be
00000010: 3a90 c73d 2460 9c3d 9c6f 84bd 366c a23d
00000020: 361b ac3c ac60 86bc a853 3fbe da4a 7c3d
00000030: 5f82 82be 25b7 44be 4c73 3abe 0a56 66bd
00000040: 9fb5 37be 9b23 57be af93 143e 8569 753d
00000050: ad60 5c3d 745c 253c d396 0b3e ab07 283d
00000060: bb50 603d d395 e53d 2814 503d 8941 473d
00000070: a798 383b 36fa 5d3d c03f 633c 16a7 40bd
00000080: 2a6b 1b3d edaf 303c 71cc 783d 5576 bfbd
00000090: 7732 40bc fa16 233c 4d3d ea3d 698c 1cbe
000000a0: 1a72 84be 7c65 c13d 8fcf d1bc 583d 853c
000000b0: 4253 783d 6a0c 9c3c 15f1 e03d c006 0abd
000000c0: 8981 01be e6af 183c 1a7c 3f3c 4be2 24bd
000000d0: 85e1 25bd b772 f5bc fbd0 133e 05f9 0dbc
000000e0: 1984 3ebd bc32 03bd cbd3 50be d8ea 073e
000000f0: 5afd d33b 2d1b d8bc b8ab 543d 8310 c7bc
00000100: 6751 5fba 62e7 86bb 200c 913d 9d45 cc3d
00000110: 6341 9d3d c152 733b 6198 bb3d 8821 f53d
00000120: 9c8a 033e bf2b 7fbd 0468 c93c 4b77 4fbe
00000130: 5c57 053c 764e 903b f098 e53c 37bd be3d
00000140: d001 13be 57ce ef3d 3b75 07bd 4b17 2c3c
00000150: bca0 0f3c f5f7 283d 4d64 88bc bbee c03d
00000160: 5799 043d 5b07 29bb b5fa cc3c 5473 cc3c
00000170: e12e 2ebe 7f39 b7bd 6dcc 3f3d b4a7 623d
00000180: edc2 7b3d 542a 953d c738 2e3b 18aa f13d
00000190: f487 25be 5490 a23d 94db 57bc 5b95 85be
000001a0: 7a36 5ebe 38c8 00be 7e8d 0cbd dbfb 23bc
000001b0: 2798 7a3d 963e 4a3d 2177 cd3d ee2f 5dbd
000001c0: fc53 49be 00de 6e3d 8993 bdbc 4d39 efbc
000001d0: 26fc 08bd 0900 1d3c a626 10bd 67d2 a43d
000001e0: 5073 ad3d 8b5b 0b3e 110b 793d fdfd 1dbd
000001f0: f171 e63c 6d6e 113d 4f2c 8b3d 0b10 68be
00000200: 4801 5ebd a760 1b3d 9a89 9c3c 7759 cbbd
00000210: 00ae 9a3d f67a df3d f2ee 1cbd 1987 8e3d
00000220: ba79 e43d e81c 753c deba 54be 3567 233d
00000230: ec45 3cbe 04e5 edbd e58f 04be 83fb e1bc
00000240: b0c6 ccbd 5e02 54be b458 ee3d 2d3e 6abc
00000250: bc1d 2a3d 09cd dc3c 2b7b 6f3d fb16 083d
00000260: 6b1a c33d 2fdd 0a3e 06e2 80bd b651 59bd
00000270: a619 a73a 0221 423d f92c 5c3d da26 503d
00000280: c54f 9a3d f554 8cbc 666b 863c 50d8 3abd
00000290: b1e3 1b3d e01f 12bd 57c6 6d3d fc94 30be
000002a0: 0efd febd b712 fa3c f20c 3739 702d c83d
000002b0: 26c4 d73d 8f63 823d 2a11 38bc f0b5 35bd
000002c0: 1130 0cbe 49f8 ec3d 28f1 0dbd 6d36 5f3d
000002d0: 2a3f 46bc ce42 853d 9c90 053d 8abb 0fbd
000002e0: cf81 4a3d 3abc 5f3b 92a0 05be 3a7f b93d
000002f0: ecf6 05bc 9a38 82bd a99e 4d3c a776 b33c
00000300: d6e7 58bd 21a8 80bd b465 e33d b211 573c
00000310: 3c06 883c ce8b d03c 4e15 ef3d f7b5 e93d
00000320: 3380 ea3d 03e1 0ebe 9fa2 05bd 4d72 4bbe
00000330: a543 c2bb ced8 32bd f356 42bd 9121 ddbc
00000340: de50 c039 62d0 fc3d d593 59bc 0b2b 12bc
00000350: 636d 473d 673e 083e da66 7c3c 9aad 973d
00000360: 2e8f f63d 6ff3 063d 9041 50bd 56cc 37bc
00000370: b4c7 5abe 8a4a d4bd 8dc0 303d 00f9 af3c
00000380: c6a8 9e3d ba95 e23c 4967 a2bc 914c fb3c
00000390: 0af0 dcbd 8a60 363d bb08 1b3d eab1 2dbe
000003a0: ccb4 51be bbd2 e3bd 83c7 41bd afdd 4dbc
000003b0: acb9 bd3d cd04 b83d 7506 a03d 5ec2 543d
000003c0: baa8 b2bd a3d6 7b3d 6fca f3bc 46fb 56bd
000003d0: 95c0 be3c 31e3 2e3d d409 073d 1eea ef3d
000003e0: cc02 c43d 7070 7c3d 0b80 81bd 9df1 ecbc
000003f0: f67c af3d 891f ea3c 7360 e03d 619e 0abe

output_layer.bias f4 [9]
0.054755118 0.03469745 0.05855109 0.0053123515 0.07259031 -0.046727955 0.07226003 0.06074801
-0.013603106
00000000: e746 603d ea1e 0e3d 45d3 6f3d 3c13 ae3b
00000010: 3aaa 943d d065 3fbd 11fd 933d e8d2 783d
00000020: 90df 5ebc
