results/train/hyperparam_models_distance_30m_3000/name_DQNMA/best_model.pt (torch, 193103 bytes, 8 tensors)

layer1.weight f4 [128, 40]
0	0x3c8260c9	0.015915291
1	0xbda59409	-0.08084876
2	0x3d8543fb	0.06507107
3	0x3e9ab0d7	0.30213043
4	0x3e113283	0.14179425
5	0x3c410631	0.011781261
6	0xbd9638af	-0.0733503
7	0xbe97e1ca	-0.2966445
8	0xbcffff8a	-0.03124978
9	0x3e372f7f	0.17889212
10	0xbca1bf73	-0.01974461
11	0xbde51430	-0.11185491
12	0xbe7c16dd	-0.24618097
13	0x3d8150f7	0.06314271
14	0x3df35454	0.11881319
15	0xbdca065c	-0.09864494
16	0xbd887642	-0.06663181
17	0xbc9a7e2c	-0.018858992
18	0x3ce3f8c7	0.027828587
19	0xbd95f2fc	-0.07321736
20	0xbdc39956	-0.09550731
21	0xbe0b1c25	-0.13584955
22	0x3e05f88f	0.13083099
23	0xbda6cbf9	-0.081443734
24	0x3d556e4f	0.05210715
25	0x3d9b6883	0.075882934
26	0x3ca2fbad	0.019895399
27	0xbca63426	-0.020288538
28	0x3cdea872	0.02717993
29	0xbdb7d7de	-0.0897672
30	0x3d896ce7	0.067102246
31	0x3bbf3517	0.005835186
32	0xbd57afcf	-0.0526579
33	0xbe053fa0	-0.13012552
34	0x3dad9092	0.0847484
35	0x3cd302a6	0.025758099
36	0x3bfc5b04	0.0077012796
37	0x3dd258ff	0.10270881
38	0xbdb2c0b5	-0.08728162
39	0x3df81236	0.121128485
40	0x3c8f12e1	0.017465057
41	0x3e02bed8	0.12768114
42	0xbd351442	-0.044208772
43	0xbe08eb6a	-0.13371053
44	0x3d82348f	0.06357681
45	0x3de9d7c2	0.11418106
46	0x3e4d4fcd	0.20049973
47	0x3ecfa0b1	0.40552285
48	0x3ea479b9	0.32124117
49	0xbd3316fd	-0.043723095
50	0xbd317d0d	-0.04333215
51	0x3cb9f095	0.022697726
52	0x3e53fcfb	0.20701973
53	0x3d87f480	0.066384315
54	0xbd224b0d	-0.039622355
55	0x3df43b72	0.11925401
56	0xbd4cb9e2	-0.04998196
57	0xbd73e0f7	-0.059540715
58	0x3b4b5c85	0.0031030488
59	0x3d4c4459	0.04986987
60	0x3e31c2dd	0.1735949
61	0xbe0fd7d2	-0.14047173
62	0xbdc24c61	-0.09487224
63	0xbaad6936	-0.0013230208
64	0x3e77544b	0.24153249
65	0x3dcea2b6	0.100896284
66	0xbde2da87	-0.11076837
67	0x3c06db96	0.008231064
68	0x3e2dc322	0.16968969
69	0xbd617ab6	-0.055048667
70	0xbce4560b	-0.02787306
71	0x3e3045eb	0.17214172
72	0x3e1c84b9	0.15285005
73	0x3ded9c2c	0.11602053
74	0x3e1d3ee5	0.15356024
75	0x3e0313b7	0.1280049
76	0x3e3cac01	0.1842499
77	0xbdda6a90	-0.106648564
78	0x3d6bfe81	0.05761576
79	0xbd2b9acd	-0.041895676
80	0x3e74ed7c	0.23918718
81	0x3d1e7b1b	0.03869162
82	0x3e05e88d	0.13076992
83	0x3c6fc072	0.014633285
84	0xbc24784a	-0.010038445
85	0x3e34cfb1	0.17657353
86	0x3e811335	0.25209966
87	0x3eb96b13	0.36214504
88	0x3e82b94c	0.25531995
89	0x3df585a8	0.119883835
90	0x3dcb6cb7	0.09932845
91	0x3e1aa721	0.15102817
92	0x3e44e92c	0.19229573
93	0x3e0cda24	0.13755089
94	0x3d265147	0.040604856
95	0x3dd6589b	0.10466119
96	0x3e6e1117	0.23248707
97	0x3dc6d686	0.09708886
98	0x3dfe31b4	0.12411824
99	0x3e40053f	0.18752001
100	0x3e47cbad	0.1951129
101	0x3e44eff1	0.19232155
102	0x3e633ff0	0.22192359
103	0x3e055269	0.13019718
104	0x3e297124	0.16547066
105	0x3e32cfda	0.17462102
106	0xbd4e78be	-0.050408117
107	0x3e6b5fa2	0.229857
108	0x3e80c187	0.2514765
109	0x3e47182d	0.19442816
110	0x3e664bc7	0.22489844
111	0x3e5abc13	0.21360807
112	0x3e46690f	0.19376014
113	0x3debed69	0.11519892
114	0x3d47cfcd	0.04878216
115	0x3e7c7d89	0.24657263
116	0x3e367035	0.17816241
117	0xbda2e410	-0.07953656
118	0xbc6add3e	-0.014334975
119	0x3d337ff5	0.0438232
120	0x3d8edcf6	0.06975739
121	0x3dd3ef31	0.103483565
122	0xbd8592cf	-0.06522142
123	0xbdb78aa6	-0.08961992
124	0x3e0df4e1	0.13862945
125	0xbdaae35a	-0.08344145
126	0xba192df2	-0.0005843333
127	0x3d2fa371	0.04288048
128	0x3e0a5c65	0.13511808
129	0x3e0d73ff	0.1381378
130	0xbe03e85a	-0.12881604
131	0xbde4469b	-0.111462794
132	0x3ab47408	0.001376749
133	0xbd8dee74	-0.06930247
134	0xbdbce814	-0.09223953
135	0xbe00762f	-0.12545083
136	0x3d439c56	0.047756515
137	0xbdea2883	-0.11433508
138	0xbd3a93d1	-0.045551125
139	0x3d1bd85b	0.03804813
140	0xbd955726	-0.07292013
141	0x3dae220c	0.08502588
142	0xbd6af2d7	-0.057360496
143	0xbdc61a68	-0.09673005
144	0x3def9064	0.11697462
145	0xbe1d459b	-0.15358584
146	0xbe0b2d0e	-0.13591406
147	0x3e1158ba	0.14194003
148	0xbc805b0f	-0.01566842
149	0x3dd81aee	0.105520114
150	0xbd9d4cab	-0.07680639
151	0xbd7a6e3a	-0.061140276
152	0xbd545cf3	-0.051846456
153	0xbcf7544f	-0.030191569
154	0xbb9d71f0	-0.004804842
155	0xbced7b2f	-0.028989403
156	0xbdf50afe	-0.11964987
157	0x3dbb5cd4	0.09148565
158	0xbc36d3f7	-0.011158935
159	0x3d64c22d	0.055849243
160	0x3db1b0b9	0.08676285
161	0x3e0a5c51	0.13511778
162	0x3c8b1169	0.016976075
163	0xbe5bf1e9	-0.21479
164	0x3db1d3c8	0.08682972
165	0x3e1a3328	0.15058577
166	0x3e27ffd8	0.1640619
167	0x3e919cb7	0.28439876
168	0x3e81ba27	0.25337335
169	0xbdd162b7	-0.102239065
170	0x3da312bb	0.07962557
171	0xbdc08acc	-0.094014734
172	0x3e4fe596	0.20302424
173	0x3e50ec7f	0.20402716
174	0x3cf5976e	0.029979434
175	0x3ce4230f	0.027848748
176	0x3e331370	0.17487884
177	0x3e40c5a3	0.18825392
178	0x3e1e9c4d	0.15489312
179	0xbd916fa1	-0.0710137
180	0xbdabef98	-0.08395308
181	0x3da4a66d	0.08039556
182	0x3d9d0c1b	0.076683246
183	0xbdad92fe	-0.08475302
184	0x3ddab56f	0.10679137
185	0xbdc45a6f	-0.09587561
186	0xbd949bfa	-0.07256313
187	0x3e039bc6	0.12852392
188	0xbc98a23a	-0.018632043
189	0x3e2ce5bb	0.1688451
190	0xbd8b4b69	-0.06801493
191	0x3df4d99b	0.119555674
192	0xbdbe8295	-0.0930225
193	0x3e3e2b0d	0.1857111
194	0x3b78e03b	0.0037975449
195	0x3e86cbe2	0.26327425
196	0xbd9eab90	-0.07747567
197	0xbd9c191c	-0.07621977
198	0x3e33fb0d	0.17576237
199	0x3ce89a27	0.028393818
200	0xbe0aaca0	-0.13542414
201	0x3dd32e57	0.10311573
202	0xbdbb35ab	-0.09141096
203	0xbd8cedbf	-0.06881284
204	0xbc5fe7f3	-0.013666141
205	0xbdb82ee1	-0.089933164
206	0x3dc647d0	0.09681666
207	0xbd6630e0	-0.056198955
208	0xbc91aa4f	-0.017781405
209	0xbc7c0fac	-0.015384596
210	0x3d971b33	0.07378235
211	0x3e109b0a	0.14121643
212	0xbe098aba	-0.13431826
213	0xbdd54fdf	-0.10415625
214	0xbe0a8823	-0.13528495
215	0xbd3bee27	-0.045881417
216	0x3d0177d0	0.031608403
217	0x3c54d919	0.012991213
218	0x3e0e81bd	0.13916679
219	0x3d481c03	0.04885484
220	0xbd48e70f	-0.04904848
221	0xbe1262ca	-0.14295498
222	0x3c8afcee	0.01696631
223	0xbe0e9384	-0.1392346
224	0x3e102931	0.14078213
225	0xbd571622	-0.052511342
226	0xb96034a2	-0.00021381912
227	0xbda9c82b	-0.08290132
228	0x3dd5be80	0.104367256
229	0xbd8929be	-0.06697415
230	0xbdb9805c	-0.09057686
231	0x3e0fd4d3	0.1404603
232	0x3d7d41d1	0.061830346
233	0xbdc8cd06	-0.0980473
234	0x3e13dd0d	0.14439793
235	0xbd9dfb4c	-0.07713947
236	0xbd87f337	-0.066381864
237	0x3df9f14a	0.12204225
238	0xbd054b3c	-0.032542452
239	0xbd85ff8e	-0.06542884
240	0x3ce447b6	0.027866226
241	0xbd0ec51c	-0.034855947
242	0xbc973851	-0.018459471
243	0xbe216744	-0.15762049
244	0x3e05c72d	0.13064261
245	0x3e1c15c5	0.1524268
246	0x3e4d2f4f	0.20037578
247	0x3eadf06c	0.3397249
248	0x3e26612e	0.16248009
249	0x3dd41f53	0.10357537
250	0xbdc428c2	-0.095780864
251	0x3dd1bb18	0.102407634
252	0x3d874baf	0.066062324
253	0xbce9ddae	-0.028548088
254	0x3e2c7f5b	0.16845457
255	0x3e31ee3b	0.17376034

layer1.bias f4 [128]
0	0x3cbaa587	0.022784008
1	0x3dc7697e	0.09736918
2	0x3e59658a	0.2123014
3	0xbde286f6	-0.11060898
4	0x3d51a786	0.051185153
5	0x3da8c3a0	0.082404375
6	0x3d3e3d5f	0.046445247
7	0xbca1c766	-0.0197484
8	0xbd8b711b	-0.068086825
9	0xbdf09e93	-0.11748996
10	0xbd3f2ebf	-0.04667544
11	0x3e41e687	0.18935595
12	0x3c9fdca2	0.019514386
13	0x3e280368	0.1640755
14	0xbd7a926c	-0.061174795
15	0xbd992d2d	-0.0747932
16	0x3d1848a5	0.037178654
17	0x3ced5323	0.028970307
18	0x3e12748a	0.14302269
19	0x3d5b8c39	0.053600524
20	0x3e3d57ba	0.18490496
21	0x3dfe3029	0.124115296
22	0x3d84375b	0.06455871
23	0xbd9e04b0	-0.07715738
24	0x3e5498c6	0.20761403
25	0xbdca1149	-0.09866578
26	0xbc22ad03	-0.0099289445
27	0x3e223b1e	0.15842864
28	0xbe1286fa	-0.14309302
29	0xbd8f06f7	-0.0698375
30	0x3c8a798b	0.01690366
31	0x3dd05d39	0.10174031
32	0x3d0988b9	0.033577655
33	0xbc858f98	-0.016303822
34	0x3dc7dd89	0.09759051
35	0x3c543983	0.012953165
36	0x3c9a65a2	0.01884729
37	0x3dee260f	0.11628353
38	0x3e20c3bb	0.15699665
39	0x3cf2b301	0.029626371
40	0x3df73ebc	0.120725125
41	0x3e81d755	0.25359598
42	0x3db3b091	0.08773912
43	0x3e16a703	0.14712147
44	0xbdb5ac88	-0.08870798
45	0xbd6246cc	-0.0552433
46	0x3e0b1d25	0.13585337
47	0x3d35690d	0.044289637
48	0xbd2d00b3	-0.042236995
49	0x3da5f4ce	0.081033334
50	0x3ccf98b1	0.025341364
51	0x3e2f2be9	0.17106594
52	0x3dd0009b	0.101563655
53	0xbda25d74	-0.07927981
54	0xbd2e188b	-0.042503875
55	0xbd8f4d24	-0.06997135
56	0x3e0e1c4c	0.13877982
57	0xbe0ae421	-0.13563587
58	0x3e12bd42	0.14330009
59	0xbcb7a38c	-0.022416852
60	0x3df98ee3	0.121854566
61	0xbdfb7f72	-0.12280168
62	0x3e33d343	0.17561059
63	0xbdc0f1c0	-0.0942111
64	0xbe179f3f	-0.14806841
65	0xbd5b22cd	-0.053499985
66	0xbd48adc3	-0.048993837
67	0x3e9dc330	0.3081298
68	0x3c5d55ed	0.013509256
69	0x3e8d81e4	0.2763816
70	0xbe180188	-0.14844334
71	0xbc880079	-0.016601788
72	0xbb9187a2	-0.0044412175
73	0xbd4a1291	-0.049334113
74	0x3dbe10e7	0.092805676
75	0xbd43fc85	-0.047848243
76	0x3dd3563f	0.103191845
77	0xbe05427f	-0.13013647
78	0xbe0710bd	-0.13189979
79	0x3d053ce5	0.032528777
80	0x3dac0835	0.08400003
81	0x3e06ea4a	0.13175312
82	0x3dc449b9	0.09584374
83	0x3dc471bd	0.09592006
84	0xbd570fbf	-0.05250525
85	0xbd310bf0	-0.043224275
86	0x3df87752	0.121321335
87	0x3d9c4985	0.0763121
88	0x3d3384d5	0.04382785
89	0xbc496e8a	-0.012294421
90	0xbd80fbd8	-0.062980354
91	0x3e46ce15	0.19414552
92	0x3d8bd445	0.068275966
93	0x3d86a182	0.06573774
94	0x3e576341	0.21033956
95	0x3e48e136	0.19617161
96	0xbddc57da	-0.10758944
97	0xbd4a9bd1	-0.049465004
98	0xbe0caa4f	-0.13736843
99	0x3d3c93ff	0.046039578
100	0x3cb504aa	0.02209695
101	0x3d1098bf	0.03530192
102	0x3dad82e7	0.08472233
103	0xbc9e7837	-0.019344432
104	0x3d95095b	0.07277175
105	0x3da11fad	0.0786737
106	0x3dcb77c2	0.09934951
107	0x3d60a466	0.054844283
108	0x3dcf5723	0.10124042
109	0xbe18dcaa	-0.14927927
110	0xbd9bd403	-0.076087974
111	0xbdf685d7	-0.12037247
112	0xbdf00b12	-0.117208615
113	0x3de8138f	0.113318555
114	0x3e0c6b77	0.1371287
115	0x3dd884ca	0.105722025
116	0x3db6b432	0.08921088
117	0xbd6524b6	-0.055943213
118	0x3df5733a	0.11984868
119	0x3ce8cbf3	0.028417563
120	0xbd0ea982	-0.034829624
121	0x3ce1e234	0.027573682
122	0x3c050618	0.008119129
123	0x3c915f05	0.017745504
124	0xbc5dbf3e	-0.013534365
125	0x3d6b025e	0.057375304
126	0x3e045fff	0.12927245
127	0xbdda26c2	-0.10651924

layer2.weight f4 [128, 128]
0	0xbe3efd6e	-0.18651363
1	0x3e379ec6	0.17931661
2	0x3d13072c	0.03589551
3	0x3d140d9a	0.036145784
4	0x3e8d6eed	0.27623692
5	0x3cdfea3d	0.027333373
6	0x3e0ff5ac	0.1405856
7	0x3df3f7e7	0.11912518
8	0x3cc0d8b3	0.02354083
9	0x3c757b46	0.014983004
10	0x3e810d30	0.25205374
11	0x3c980c9e	0.018560704
12	0x3dce0ebd	0.10061405
13	0x3d750639	0.059820388
14	0x3d366067	0.04452553
15	0xbe3fbf18	-0.1872524
16	0xbcda7ce2	-0.026670877
17	0x3ca00e50	0.019538075
18	0x3e5081bd	0.20361991
19	0x3e368ebc	0.17827886
20	0x3e87df06	0.2653734
21	0x3e09d7d7	0.13461243
22	0x3d3dcf48	0.046340257
23	0x3eb8612a	0.3601163
24	0x3dfdc5d4	0.12391248
25	0xbe7c33f0	-0.24629188
26	0x3ae0b852	0.0017144775
27	0x3e66f711	0.22555186
28	0xbd442fcb	-0.04789714
29	0x3dcd3d3e	0.10021447
30	0x3e8558a0	0.26044178
31	0xbbcf1a04	-0.00632024
32	0x3e061f82	0.13097957
33	0xbced5657	-0.028971834
34	0x3dbde4f3	0.09272184
35	0x3e639474	0.22224599
36	0x39f0f6dd	0.00045960295
37	0x3e0dd055	0.13849004
38	0x3e7b399f	0.245337
39	0x3db451ca	0.088046625
40	0xbdb18666	-0.086682126
41	0x3e0ded3a	0.13860026
42	0x3e274b05	0.16337211
43	0x3e55186e	0.208101
44	0x3e7420f1	0.23840691
45	0x3d9d6926	0.07686071
46	0x3cd922f2	0.026505921
47	0x3c0a32d3	0.008434969
48	0x3e3dc60a	0.18532577
49	0x3eb0c008	0.34521508
50	0x3bb1b7b9	0.005423513
51	0x3df0f0e9	0.117647
52	0xbe5f5ebd	-0.21813484
53	0x3e6530e0	0.22381926
54	0x3ded5341	0.11588145
55	0xbe593777	-0.21212564
56	0xbe0f3790	-0.13986039
57	0xbd34cd70	-0.044141233
58	0x3db5146b	0.08841785
59	0x3d0ba7ed	0.034095693
60	0x3e9a22f4	0.30104792
61	0x3e1e72c5	0.15473469
62	0x3e3bfeea	0.18358961
63	0x3d49a950	0.049233735
64	0xbe4e0434	-0.20118791
65	0x3d8a2ecb	0.06747206
66	0x3dc6b61a	0.09702702
67	0x3c25e447	0.010125226
68	0xbe3a5195	-0.18195184
69	0x3de11f96	0.10992353
70	0xbd8354f3	-0.06412687
71	0xbc4b15f6	-0.012395373
72	0x3df06e8c	0.11739835
73	0x3b86fc81	0.0041194563
74	0x3e543063	0.20721583
75	0x3eab2075	0.334232
76	0x3e79e85c	0.24405044
77	0x3d2c229a	0.042025186
78	0xbdc25c73	-0.094902895
79	0x3d6adbe7	0.05733862
80	0xbe2f6d3c	-0.17131513
81	0x3e28e96f	0.16495298
82	0x3db64465	0.08899764
83	0xbb9f4963	-0.0048610433
84	0xbe27d2fb	-0.16389076
85	0xbc154261	-0.009110064
86	0x3e304e98	0.17217481
87	0x3e8fcbae	0.28085083
88	0x3e680f90	0.22662187
89	0xbd70402e	-0.058654957
90	0x3de24e40	0.11050081
91	0x3d8c8792	0.068617955
92	0x3e84e132	0.2595306
93	0x3e3c77c3	0.1840506
94	0x3cf8a220	0.030350745
95	0x3deb5da1	0.11492468
96	0xbd6a513d	-0.05720638
97	0xbe7e68c0	-0.24844646
98	0xbc82a05b	-0.015945604
99	0xbb6cef0c	-0.0036153225
100	0x3e3f7c0d	0.18699665
101	0x3cd85e2c	0.026412092
102	0x3e24d9d4	0.1609872
103	0x3c156737	0.009118847
104	0x3d3042c3	0.04303242
105	0xbd688275	-0.05676504
106	0x3c924258	0.0178539
107	0x3b87f00f	0.0041484903
108	0xbd8543bb	-0.06507059
109	0x3dcffe66	0.101559445
110	0xbd832968	-0.06404382
111	0xbc62ed94	-0.013850588
112	0x3d661652	0.05617363
113	0x3e2d986c	0.16952676
114	0x3e6d49fb	0.23172753
115	0x3e089574	0.13338262
116	0xbe37668b	-0.17910211
117	0x3e46dd27	0.194203
118	0xbda8f92f	-0.08250653
119	0x3e37bb28	0.17942488
120	0xbd29cc2c	-0.04145448
121	0x3c09fbc2	0.00842184
122	0x3e595245	0.2122279
123	0x3e3b31ae	0.1828067
124	0x3e5b2fa3	0.2140489
125	0xbd4dcf4f	-0.050246533
126	0xbe4648cc	-0.19363707
127	0xbc4f01ee	-0.012634737
128	0xbd074c71	-0.033031885
129	0xbd90b87c	-0.070664376
130	0xbd781f63	-0.060576808
131	0xbd145846	-0.036216997
132	0x3d69a411	0.05704123
133	0xbba10b00	-0.0049146414
134	0xbd955686	-0.07291894
135	0x3cdb687d	0.026783222
136	0xbce83f7e	-0.028350588
137	0xbd63d110	-0.0556193
138	0x3d0f48b1	0.034981433
139	0x3d12d6fd	0.03584956
140	0xbda17df6	-0.07885353
141	0xbda3d85e	-0.08000253
142	0x3d0840c2	0.033264883
143	0xbd90f739	-0.07078404
144	0x3d4430a2	0.047897942
145	0x3d7833bf	0.060596224
146	0x3c8aae37	0.016928775
147	0xbc642510	-0.013924852
148	0x3c872207	0.016495718
149	0xbc49c8f1	-0.012315975
150	0xbd4fc254	-0.050722435
151	0xbd1bc737	-0.038031783
152	0x3d295d67	0.04134884
153	0x3da7a9f4	0.08186713
154	0xbda935b2	-0.08262195
155	0xbd2284c0	-0.03967738
156	0xbd41859c	-0.04724656
157	0x3d39773a	0.04527972
158	0x3d3ba0f1	0.045807783
159	0xbcabd71c	-0.020976596
160	0xbda97aee	-0.082754
161	0x3d997564	0.074930936
162	0x3d861188	0.065463126
163	0xbd0fcc41	-0.0351069
164	0xbd6116c2	-0.054953344
165	0xb9b67faf	-0.00034808877
166	0xbcbcc004	-0.023040779
167	0x3cbb6a7b	0.022877922
168	0xbcaaa96c	-0.02083274
169	0xbd8666d5	-0.065625824
170	0x3d03afbf	0.032150026
171	0xbd9433b3	-0.07236423
172	0xbb974679	-0.0046165553
173	0xbd116ba9	-0.035503063
174	0xbd7364cb	-0.059422296
175	0xbd99fef9	-0.07519335
176	0x3d013825	0.031547684
177	0x3d0202b0	0.031740844
178	0xbc1f18ab	-0.009710471
179	0xbcec5eeb	-0.028853854
180	0xbd996150	-0.07489264
181	0xbd8d8d42	-0.069117084
182	0xbd6a9969	-0.05727521
183	0x3da4f331	0.080541976
184	0xbda6f30b	-0.081518255
185	0x3c8a3533	0.01687107
186	0x3d869675	0.06571666
187	0xbd3d501f	-0.046218988
188	0xbd62efe9	-0.055404577
189	0x3d90df1f	0.07073807
190	0xbd16b102	-0.0367899
191	0x3cc5b840	0.024135709
192	0xbd9f173d	-0.07768104
193	0x3d710998	0.05884704
194	0xbd75497a	-0.059884526
195	0xbd9407e8	-0.072280705
196	0xbcc83668	-0.024440005
197	0xbd30726b	-0.043077867
198	0x3d8d9a8c	0.06914243
199	0x3d403b3c	0.04693149
200	0xbd02da47	-0.031946447
201	0xbd959a62	-0.07304837
202	0x3d98584f	0.074387185
203	0x3d96702c	0.07345614
204	0xbd996321	-0.074896105
205	0xbcedf39e	-0.02904683
206	0x3da87e1d	0.08227179
207	0xbd267162	-0.040635474
208	0x3d14f908	0.036370307
209	0x3d5ce7b7	0.053931918
210	0xbd195af1	-0.037440244
211	0x3d7c4f5e	0.061599128
212	0x3cf5f41f	0.030023633
213	0xbc840b37	-0.016118629
214	0xbcdf304b	-0.027244708
215	0xbc4803e3	-0.012207958
216	0xbd8d0b64	-0.06886938
217	0xbd902a14	-0.07039276
218	0xbc28f809	-0.010313042
219	0xbc84ed6c	-0.016226493
220	0xbc7f9e9b	-0.015601779
221	0x3c817656	0.015803497
222	0xbd5ffb27	-0.054682877
223	0xbda8164b	-0.08207377
224	0xbc0fd230	-0.00877814
225	0x3d1bbb84	0.038020626
226	0xbb3b370b	-0.0028566744
227	0x3d8f9840	0.07011461
228	0xbd289e72	-0.04116673
229	0xbd299a53	-0.04140694
230	0xbd0eaa9e	-0.034830682
231	0x3d30d48a	0.043171443
232	0xba89041c	-0.0010453495
233	0xbce183cb	-0.027528664
234	0x3c3946b1	0.011308358
235	0xbd15f849	-0.036613736
236	0x3d09cd47	0.033643033
237	0x3da8385d	0.082138754
238	0xba8a001f	-0.00105286
239	0xbda21b3e	-0.07915352
240	0xbd488a4c	-0.048960015
241	0x3ca155f5	0.019694308
242	0x3d565f91	0.052337233
243	0xbc4f6cb4	-0.012660194
244	0xbd0266da	-0.03183637
245	0x3b1027ed	0.0021996454
246	0x3b8be457	0.0042691636
247	0x3d346846	0.044044755
248	0xbd7015eb	-0.058614653
249	0x3da5401b	0.08068868
250	0x3d78d75c	0.060752258
251	0xbd944859	-0.07240362
252	0xbd12b723	-0.035819184
253	0xbd0829c1	-0.033242945
254	0xbd1f6616	-0.038915716
255	0xbd176b94	-0.03696783

layer2.bias f4 [128]
0	0x3c204694	0.009782452
1	0x3d83b68d	0.06431303
2	0x3d352fbc	0.044234976
3	0x3c0c20f7	0.008552781
4	0x3d596345	0.053073186
5	0x3c46cb81	0.01213348
6	0xbc98871c	-0.018619113
7	0x3d8084f3	0.06275358
8	0x3d07f515	0.033192713
9	0x3d2238a8	0.039604813
10	0x3ddc8497	0.10767477
11	0xbc64058f	-0.013917341
12	0x3dc4c53c	0.09607932
13	0xbd8be22d	-0.06830249
14	0x3d12c09b	0.035828214
15	0xbc8c7a82	-0.01714826
16	0x3d1b89d1	0.03797323
17	0xbc5bc564	-0.013413761
18	0x3d1d84a2	0.038456567
19	0x3d603a21	0.054742936
20	0x3ddcc0f7	0.107789926
21	0x3d8fb8cf	0.07017671
22	0xbc915a2c	-0.017743193
23	0x3da5c7bb	0.08094736
24	0x3ce2ad7b	0.027670613
25	0xbcdd4e11	-0.027014764
26	0xbd85b292	-0.065282
27	0x3bac90db	0.0052662916
28	0x3d7099b2	0.058740325
29	0x3e1376cf	0.1440079
30	0x3d9a0f80	0.07522488
31	0x3d912c85	0.070885696
32	0x3d40f785	0.047111053
33	0x3d82a38f	0.063788526
34	0x3dd38856	0.103287384
35	0x3d9e76ff	0.077375405
36	0x3d8ec4bd	0.069711186
37	0x3c9d3619	0.019190835
38	0xbda292af	-0.07938134
39	0xbc3064e8	-0.010766245
40	0x3dac03c8	0.08399159
41	0x3e07d8f0	0.13266349
42	0x3d845e7c	0.06463334
43	0x3ce8c255	0.028412977
44	0xbd26f77c	-0.040763363
45	0x3d6b872c	0.057501957
46	0xbc80eae9	-0.015737014
47	0xbd0a31e4	-0.033738986
48	0x3d7cc2e6	0.061709307
49	0x3cb94630	0.022616476
50	0xbc3f84cd	-0.011689377
51	0x3e009677	0.12557398
52	0xbcf520a7	-0.029922796
53	0x3e2f662c	0.17128819
54	0x3d73f058	0.05955538
55	0xbd657e3a	-0.056028582
56	0x3df2ea0d	0.11861048
57	0x3ce62cb7	0.028097494
58	0x3d663977	0.056207146
59	0x3c68836f	0.014191492
60	0xbbc7b82e	-0.006094954
61	0xbd9d3c12	-0.07677473
62	0x3e7be182	0.24597743
63	0xbd61efb1	-0.05516023
64	0x3d0d8056	0.03454622
65	0x3d08f66b	0.033438127
66	0x3d0ee896	0.03488978
67	0x3c9b4c5b	0.018957308
68	0xbd2e1610	-0.04250151
69	0x3d1b948a	0.037983455
70	0x3daa283b	0.083084546
71	0xbd28c2ee	-0.041201524
72	0x3dc5f96c	0.09666714
73	0x3e158503	0.14601521
74	0x3b98309a	0.0046444656
75	0x3e0cfa16	0.13767275
76	0x3ce68bc1	0.028142812
77	0x3de0e848	0.10981804
78	0x3d9012f6	0.070348665
79	0xbd3d7492	-0.04625375
80	0xbd6dc0df	-0.058045264
81	0x3d740146	0.059571527
82	0xbd695bc4	-0.05697228
83	0x3e768bfd	0.24076839
84	0xbd4a2365	-0.04935016
85	0x3dc4532a	0.09586175
86	0x3d8e0f43	0.06936505
87	0x3d7ffd05	0.062497158
88	0xbd814077	-0.06311124
89	0xbdaedc23	-0.085380815
90	0x3dd83142	0.1055627
91	0x3dff2cf6	0.124597475
92	0x3d7ad9b3	0.06124277
93	0xbd5ff700	-0.054678917
94	0x3db6b39d	0.08920977
95	0x3bc94560	0.0061423033
96	0x3dd98ab5	0.106221594
97	0x3db0e0dc	0.086366385
98	0x3d42ecbe	0.047589056
99	0xbc759cfc	-0.014991041
100	0x3db0ced4	0.08633199
101	0x3ddbb39f	0.107276194
102	0xbd1757d7	-0.036949005
103	0x3d7f401b	0.062316995
104	0xbcf54c7f	-0.029943703
105	0x3d004f82	0.031325825
106	0x3a30bff2	0.0006742469
107	0x3dafe76d	0.08589063
108	0x3df8e3cf	0.12152826
109	0x3c0f5da6	0.008750355
110	0x3d4621da	0.048372127
111	0xbd0ce132	-0.03439445
112	0xbd6715dd	-0.056417335
113	0xbd00e57e	-0.03146886
114	0xbd73fe77	-0.05956885
115	0xbda1b15e	-0.07895158
116	0x3cb50de3	0.022101348
117	0xbce7cfae	-0.028297272
118	0xbda04175	-0.07824985
119	0x3dc8501b	0.09780904
120	0x3dc9f2cb	0.09860762
121	0x3bdc47e3	0.0067224368
122	0x3e33886b	0.17532508
123	0x3ccbe72c	0.024890505
124	0xbc71d621	-0.014760525
125	0x3d99954b	0.074991785
126	0x3d653c86	0.055965923
127	0xbd965b55	-0.07341639

layer3.weight f4 [128, 128]
0	0x3e204341	0.15650655
1	0xbd26c7fa	-0.040718056
2	0x3d0048a9	0.031319294
3	0x3df34fb8	0.118804395
4	0xbe90cd36	-0.28281564
5	0xbe79509b	-0.24347155
6	0x3d3eda10	0.04659468
7	0xbe0d1ad8	-0.13779771
8	0x3d6f64df	0.058445808
9	0x3e803d12	0.25046593
10	0x3e327cbc	0.17430395
11	0xbd2ad962	-0.04171122
12	0x3ea5c331	0.32375482
13	0x3d21d650	0.039511025
14	0xbe854757	-0.2603099
15	0xbd05ce34	-0.032667354
16	0x3e4927e6	0.19644126
17	0xbe826a41	-0.2547169
18	0x3e56a5e8	0.20961726
19	0x3d4be1c5	0.049775857
20	0xbe389a1e	-0.18027541
21	0x3e8329ce	0.25617832
22	0x3cadd2ea	0.021218736
23	0x3d9ce08e	0.07660018
24	0xbda140c4	-0.07873681
25	0x3d7d2a65	0.06180801
26	0xbcfff907	-0.031246675
27	0x3c98d602	0.018656734
28	0x3e720380	0.23634148
29	0x3e733a66	0.23752746
30	0x3e323402	0.17402652
31	0x3e5d4d52	0.21611527
32	0x3d9bea04	0.07612994
33	0xbd7a9f6a	-0.061187185
34	0x3e93df74	0.2888142
35	0x3e71303e	0.23553559
36	0x3e4c28bc	0.19937414
37	0x3d404680	0.046942234
38	0x3be8b56e	0.007101706
39	0xbe19ee4a	-0.15032306
40	0x3d44659f	0.047948476
41	0xbe705810	-0.23471093
42	0x3e9f4e03	0.31114206
43	0x3d3aa055	0.04556306
44	0x3d6a4319	0.057192896
45	0x3be07d1f	0.006850853
46	0x3e4cf0f4	0.20013791
47	0xbbf23e8b	-0.0073927096
48	0xbbdc7250	-0.0067274943
49	0x3e29fae1	0.16599609
50	0x3e8076b0	0.2509055
51	0xbe11ad3f	-0.14226244
52	0x3d532788	0.05155137
53	0x3e11d1cb	0.14240186
54	0x3d30b8de	0.043145053
55	0xbcfe3d1e	-0.031035002
56	0x3e869a78	0.26289725
57	0xbbc6efe0	-0.006071076
58	0xbe40669e	-0.18789145
59	0xbd87e9a3	-0.066363595
60	0xbd84f221	-0.06491495
61	0x3d4fa74a	0.05069665
62	0x3e0fb302	0.1403313
63	0x3c8b14be	0.016977664
64	0xbd46eb31	-0.04856414
65	0x3d6e4191	0.058167998
66	0x3e13d546	0.14436826
67	0x3e603e62	0.21898797
68	0xbd01e0e4	-0.031708613
69	0xbd981462	-0.07425763
70	0xbe958a20	-0.29206944
71	0x3d52ced3	0.051466774
72	0x3e6d997e	0.23203084
73	0x3e7d2fce	0.24725267
74	0xbe93281d	-0.28741542
75	0x3e4671f9	0.19379415
76	0xbe48e5f6	-0.19618973
77	0x3e37ccf6	0.1794928
78	0xbe86e794	-0.26348555
79	0x3d99762a	0.07493241
80	0x3c9309bf	0.017948983
81	0x3e379102	0.1792641
82	0xbd43001c	-0.047607526
83	0x3cead409	0.02866556
84	0xba9ba578	-0.0011874875
85	0x3e1ce1b6	0.15320477
86	0x3df39777	0.11894124
87	0x3da5a72b	0.080885254
88	0xbd4acb75	-0.049510438
89	0xbd930048	-0.07177788
90	0x3e98e762	0.2986403
91	0x3e3e4b93	0.18583517
92	0x3e53ed37	0.20695959
93	0xbd4feb3e	-0.050761454
94	0xbe6b5cc2	-0.22984603
95	0x3d03c0e2	0.03216637
96	0xbe0f5785	-0.1399823
97	0x3e3edfc0	0.18640041
98	0xbc8fa8f5	-0.01753662
99	0x3e92823c	0.28614986
100	0x3e62c12d	0.22144003
101	0x3e3f5f74	0.18688756
102	0x3d0f2b25	0.034953255
103	0x3e1b0ce9	0.15141644
104	0x3d8f07ac	0.06983885
105	0xbe4052d7	-0.18781601
106	0xbd69a9af	-0.05704659
107	0x3e8ac827	0.2710583
108	0x3e30df23	0.1727262
109	0xbd61ec2e	-0.05515688
110	0xbdeb819b	-0.1149933
111	0x3d3173ba	0.043323256
112	0x3ccdf935	0.025143245
113	0x3e8956ef	0.26824138
114	0xbd83ca38	-0.064350545
115	0x3d97304f	0.07382261
116	0xbe1a4244	-0.15064341
117	0x3d87d486	0.066323325
118	0xbb7f11fb	-0.003892063
119	0xbe58eac9	-0.21183313
120	0x3d7e95c7	0.062154558
121	0xbb1da0fa	-0.0024052248
122	0x3e1c4d8c	0.15263957
123	0x3e89d36c	0.26919115
124	0x3e79c17b	0.24390213
125	0x3e4c7566	0.19966659
126	0x3e232f7a	0.1593608
127	0xbd687123	-0.05674852
128	0xbc98907b	-0.018623581
129	0x3d9f83c7	0.077888064
130	0x3d128ae0	0.035776973
131	0x3cc55555	0.024088541
132	0x3bed93de	0.007250293
133	0x3c8b4801	0.017002108
134	0xbda3be74	-0.079953104
135	0x3cde1dac	0.027113758
136	0xbd98c8e2	-0.0746019
137	0x3c42abd3	0.011881786
138	0xbd572af6	-0.052531205
139	0xbd763237	-0.060106482
140	0xbda65384	-0.08121398
141	0xbd001c7c	-0.031277165
142	0xbd189d80	-0.03725958
143	0x3d0dacad	0.034588505
144	0x3ce69972	0.02814934
145	0x3d8048ed	0.062639095
146	0x3d6bb233	0.05754299
147	0xbd7659e7	-0.06014433
148	0xbd50fc37	-0.05102178
149	0xba9ae5e8	-0.0011817785
150	0xbcec5160	-0.028847396
151	0x3d83e598	0.06440276
152	0x3d0d03fb	0.034427624
153	0x3cc5537c	0.02408766
154	0x3da16a04	0.07881549
155	0xbd810dc0	-0.06301451
156	0x3c868ca1	0.016424479
157	0xba169612	-0.0005744408
158	0xb8bc28b5	-8.972121e-05
159	0x3ba899ce	0.005145288
160	0xbc9d3876	-0.019191962
161	0x3c3c7072	0.011501418
162	0xbd50d789	-0.0509868
163	0x3d416cfc	0.047223076
164	0xbd77301a	-0.060348608
165	0x3d7a5add	0.06112181
166	0x3d4b60cd	0.049652863
167	0x3d1adf92	0.03781087
168	0xbd85e8ed	-0.06538568
169	0xbd18857c	-0.037236676
170	0xbab6e9c0	-0.0013955161
171	0xbd28ff2f	-0.041258987
172	0xbba03739	-0.0048893956
173	0x3d1d721d	0.038438905
174	0x3ced94f3	0.029001689
175	0x3d9280aa	0.07153447
176	0xbca9e928	-0.02074106
177	0xbdaa3770	-0.08311355
178	0x3d64ff8e	0.05590778
179	0xbcf161fd	-0.02946567
180	0x3d9d4fb6	0.07681219
181	0xbd322ea8	-0.043501526
182	0x3da55123	0.08072116
183	0x3d244c32	0.040111728
184	0xbd091202	-0.03346444
185	0xbd25d723	-0.040488373
186	0x3daafb77	0.08348744
187	0x3cf85178	0.030312285
188	0x3a3c147a	0.0007174682
189	0x3d598e14	0.053114012
190	0xbdaa7b8a	-0.083243445
191	0xbd79e4bf	-0.061009165
192	0xbbd240e0	-0.006416425
193	0x3d715964	0.05892314
194	0x3d71cd0b	0.059033435
195	0xbd7fcd35	-0.06245156
196	0xbb6fabf0	-0.0036570989
197	0xbba12d90	-0.0049187616
198	0x3c5c4553	0.013444263
199	0x3c005cbb	0.007834609
200	0xbd7a100d	-0.061050463
201	0x3c781dba	0.015143806
202	0xbd6a30d9	-0.05717549
203	0xbd6b7fe5	-0.057495017
204	0xbd779433	-0.06044407
205	0xbda8dabb	-0.082448445
206	0x3d6eed5f	0.058331843
207	0xbd0f0da6	-0.034925126
208	0xbd248395	-0.04016455
209	0xbd5a0521	-0.053227548
210	0xbada1ddc	-0.0016640979
211	0xbd81efc4	-0.0634456
212	0x3c6b6e04	0.0143694915
213	0xbb5b5c55	-0.0033471782
214	0x3d647532	0.05577583
215	0x3d8b451a	0.068002895
216	0xbcc5b430	-0.024133772
217	0xbbf69d07	-0.0075260433
218	0xbd64e0bd	-0.05587839
219	0xbd11a547	-0.03555801
220	0x3d73401e	0.05938732
221	0x3d2b3b13	0.041804384
222	0x3b6cbcec	0.0036123348
223	0xbc3c38f2	-0.011488186
224	0xbd5a9a90	-0.05337006
225	0x3d0f07d1	0.034919564
226	0x3bfde602	0.0077483663
227	0xbcde57d5	-0.027141491
228	0xbd3be2f6	-0.045870744
229	0x3d250fe9	0.040298376
230	0xbd2e3384	-0.042529598
231	0xbd95e969	-0.0731991
232	0xbc850495	-0.016237536
233	0xbd57cdfc	-0.052686676
234	0x3bc10e32	0.005891585
235	0x3ca57377	0.02019666
236	0xbc8966a7	-0.016772581
237	0xbda75b1a	-0.08171673
238	0x3d4dcc81	0.05024386
239	0xbcbeaf58	-0.02327697
240	0xbd4a75c5	-0.04942872
241	0x3c38fe3e	0.011291085
242	0xbd9527e2	-0.07282998
243	0x3d4c0066	0.049805067
244	0x3be1a94a	0.006886636
245	0xbd02a6cd	-0.031897355
246	0xbc0c5a79	-0.008566492
247	0xbc729864	-0.014806841
248	0xbce91ffe	-0.028457638
249	0x3d223db3	0.039609622
250	0xbd927307	-0.07150846
251	0x3c8ef4ff	0.017450808
252	0xbcc8b4cd	-0.024500275
253	0x3d70141c	0.058612928
254	0xbd81d5ca	-0.06339605
255	0xbda7f959	-0.08201856

layer3.bias f4 [128]
0	0x3d6d8120	0.05798447
1	0x3bc10d0c	0.005891448
2	0x3df72e5d	0.1206939
3	0x3d82be20	0.0638392
4	0x3df9c497	0.121957
5	0x3de22724	0.11042622
6	0xbbd8a9ba	-0.00661203
7	0xbdaf0fd9	-0.085479446
8	0x3d46d51f	0.048543092
9	0x3db56226	0.08856611
10	0xbc6c22e7	-0.014412618
11	0x3d3bd263	0.045854937
12	0x3d53a70c	0.05167298
13	0x3dc7fb52	0.097647324
14	0x3c069f6f	0.008216723
15	0x3d296871	0.04135937
16	0x3d13abf2	0.03605265
17	0x3ddf710c	0.10910234
18	0xbc16fd50	-0.009215668
19	0x3de36735	0.111036696
20	0xbc316246	-0.010826653
21	0xbcbc9fff	-0.02302551
22	0x3d8577bd	0.06516979
23	0xbb8235c4	-0.0039736945
24	0x3ddc593e	0.10759209
25	0x3c5a7ad6	0.01333495
26	0x3d155b07	0.036463764
27	0x3d481f86	0.048858188
28	0xbd07fed1	-0.033201996
29	0x3ce0bda0	0.02743417
30	0xbc41de7e	-0.011832831
31	0xbda23f85	-0.07922272
32	0x3cdeed43	0.027212745
33	0x3db98812	0.090591565
34	0xbd8e208c	-0.069398016
35	0xbc138bae	-0.00900547
36	0x3c6268d5	0.013818939
37	0x3d57fb60	0.052729964
38	0x3d80ef62	0.06295659
39	0x3d5ad03d	0.053421248
40	0xbd823d06	-0.063592955
41	0x3dca5d44	0.0988107
42	0x3dd62a41	0.10457278
43	0x3c0ef2f8	0.00872492
44	0xbc5a184a	-0.013311455
45	0x3dcec110	0.100954175
46	0x3afb4a23	0.0019171875
47	0xbd722ef3	-0.059126806
48	0x3d0cfef6	0.034422837
49	0x3dc37d00	0.09545326
50	0x3d92cf0b	0.071683966
51	0xbce327f0	-0.027729005
52	0xbd78ae4a	-0.06071309
53	0x3d605db2	0.054776855
54	0xbc04519e	-0.0080761
55	0xbc011711	-0.007879035
56	0x3d3190cc	0.04335098
57	0x3d9b2b40	0.07576609
58	0x3df66584	0.12031081
59	0x3d8b38c5	0.06797937
60	0xbdac6079	-0.08416838
61	0x3e044b2c	0.12919301
62	0xbd509b8b	-0.050929587
63	0xbb139012	-0.0022516293
64	0xbd8cfa56	-0.06883685
65	0xbd8ff49b	-0.07029077
66	0x3d8af158	0.06784314
67	0xbbd1c279	-0.006401357
68	0x3e01c2ee	0.12672016
69	0x3d0a7dc6	0.033811353
70	0x3d92dcc7	0.07171016
71	0x3d59b896	0.05315455
72	0xbd238987	-0.03992608
73	0xbd103151	-0.03520328
74	0xbc772963	-0.015085551
75	0x3d8d30bd	0.06894062
76	0xbc9ada42	-0.018902902
77	0x3d387acb	0.04503898
78	0x3dcba415	0.099434055
79	0xbc4f8913	-0.012666958
80	0x3e184b09	0.14872374
81	0x3d65e48e	0.05612617
82	0x3d7f4438	0.062320918
83	0x3dbc2b9b	0.091880046
84	0x3daa2d64	0.08309439
85	0x3d7803bf	0.060550448
86	0xbca56936	-0.02019177
87	0x3cf7e3b7	0.03025995
88	0xbc29c6c5	-0.010362332
89	0xbbbcf1d2	-0.005766132
90	0x3c9a699b	0.018849185
91	0xbd76c169	-0.060243044
92	0x3daf5bf5	0.08562461
93	0x3d8929dd	0.06697438
94	0x3cbeccef	0.02329108
95	0x3b48146c	0.003052975
96	0x3d15ed9d	0.03660356
97	0x3d46a8c2	0.048500784
98	0xbd8efe58	-0.06982106
99	0x3d2e6ef2	0.042586274
100	0x3d8932b8	0.06699127
101	0xbca3ddd2	-0.020003233
102	0x3b67f169	0.0035391694
103	0x3d1fe021	0.039032105
104	0x3b51c6e2	0.0032009413
105	0xbce367c3	-0.027759438
106	0x3dc8e358	0.098089874
107	0x3e02587a	0.12729064
108	0x3dfdaeae	0.12386833
109	0x3d8e0e1c	0.06936285
110	0x3ad02d0e	0.0015882568
111	0xbb9248ee	-0.0044642603
112	0xbd4bdef3	-0.049773168
113	0xbd0c7d86	-0.034299396
114	0x3dc40d73	0.09572878
115	0xbd87363d	-0.06602142
116	0x3ccfcc9b	0.025366118
117	0x3d0c10a1	0.034195546
118	0xbc34ae57	-0.011027894
119	0x3d7dd282	0.061968334
120	0x3dee0133	0.116213225
121	0x3d81b14f	0.06332647
122	0x3e1a641f	0.15077256
123	0xbd9e0129	-0.07715065
124	0xbd8575a8	-0.06516582
125	0xbcb18094	-0.021667756
126	0x3d17a911	0.03702647
127	0x3cbb228b	0.02284362

output_layer.weight f4 [72, 128]
0	0x3e3354c5	0.17512806
1	0xbd5226a0	-0.051306367
2	0xbe2b6791	-0.16738726
3	0x3e43a6a7	0.19106542
4	0x3dfcd22a	0.12344773
5	0xbd5f1069	-0.05445901
6	0x3d5d0302	0.053957947
7	0x3cfda309	0.03096153
8	0x3d6bc009	0.057556186
9	0xbcd4f14e	-0.02599397
10	0x3c06dad4	0.008230884
11	0x3e19e25b	0.15027754
12	0x3dd19ccd	0.102349855
13	0x3d4f628c	0.05063109
14	0x3e177121	0.14789249
15	0xbb2968db	-0.0025849852
16	0x3d5e26c7	0.0542362
17	0xbdecaee0	-0.11556792
18	0x3bfe9528	0.0077692457
19	0x3cf3032c	0.029664598
20	0x3e20e8a3	0.15713744
21	0x3d810b18	0.06300944
22	0xbd6bdbaf	-0.057582553
23	0x3d91cd28	0.071192086
24	0x3dbf2c37	0.09334605
25	0xbe1eeb65	-0.15519483
26	0xbd6b6363	-0.05746783
27	0x3e33968b	0.17537896
28	0x3cd8d717	0.02646975
29	0xbd7acff5	-0.06123348
30	0x3bdc2e72	0.006719404
31	0xbc6cfc81	-0.0144644985
32	0x3d860a43	0.06544926
33	0x3df03dde	0.1173055
34	0xbbecd41e	-0.007227435
35	0xbcb50327	-0.02209623
36	0x3d042a38	0.032266825
37	0x3d3c7fc6	0.04602029
38	0x3e4049f7	0.18778215
39	0xbc96330e	-0.018334892
40	0xbd8b1621	-0.0679133
41	0x3d659286	0.05604794
42	0x3e2f0254	0.17090732
43	0xbd593d62	-0.053037055
44	0x3dadc8cd	0.08485565
45	0x3d1e5a96	0.03866061
46	0xbd9b4354	-0.07581201
47	0x3d44cd5d	0.048047412
48	0x3d7501f0	0.0598163
49	0x3db9e8bf	0.09077596
50	0x3e1838a8	0.14865363
51	0x3dea687b	0.11445709
52	0xbc6e2ed9	-0.014537537
53	0x3d4bad4f	0.049725827
54	0xbd9bb3f2	-0.07602681
55	0xbdfc907f	-0.12332248
56	0x3e3ef6c3	0.1864882
57	0x3e023ea3	0.12719207
58	0x3e057443	0.13032632
59	0x3e3c4f61	0.18389656
60	0x3ce6a896	0.02815656
61	0xbc7b0ad8	-0.01532241
62	0x3da8604c	0.08221492
63	0xbd92752d	-0.07151256
64	0xbda29e6b	-0.07940372
65	0x3cb4d4b0	0.022074074
66	0xbd005ed2	-0.031340428
67	0xbcb6a3d7	-0.022294922
68	0x3ca83231	0.020531746
69	0xbdc3d429	-0.09561951
70	0x3d58485b	0.05280338
71	0x3d99027f	0.07471179
72	0x3db47b58	0.088125885
73	0xbd89a0b8	-0.06720108
74	0x3d519454	0.051166847
75	0xbe0cd6d3	-0.13753824
76	0x3d0599c5	0.03261735
77	0x3e24c6d8	0.16091478
78	0x3caa5194	0.020790853
79	0x3d84227a	0.064518884
80	0xbe16292f	-0.14664148
81	0x3deb342b	0.114845596
82	0x3e06776b	0.13131492
83	0x3e0ed4da	0.13948384
84	0xbe2926b8	-0.16518676
85	0xbd914c65	-0.07094649
86	0xbd4b1b3c	-0.04958652
87	0xbcbefa1b	-0.023312619
88	0x3e0179ba	0.12644091
89	0x3de42bb6	0.1114115
90	0xbd6dfa8d	-0.058100272
91	0xbd773556	-0.0603536
92	0x3db897aa	0.090133026
93	0x3e097f95	0.13427575
94	0xbd23181b	-0.03981791
95	0x3dbcd1b2	0.09219684
96	0xbd7ae2d5	-0.06125148
97	0x3ca070e3	0.019585079
98	0xbd517468	-0.051136404
99	0xbc810ae6	-0.015752267
100	0x3e07da4b	0.13266866
101	0xbd3c71d9	-0.04600701
102	0xbca2e28e	-0.01988342
103	0xbbac8ff7	-0.0052661854
104	0xbac674c2	-0.0015140998
105	0x3d505776	0.05086466
106	0x3e12cd18	0.1433605
107	0xbe24b4ba	-0.16084567
108	0x3d64822e	0.05578821
109	0x3e24ce2e	0.16094276
110	0xbd7e46b0	-0.06207913
111	0x3d14edcc	0.036359593
112	0xbdb3a085	-0.08770851
113	0xba0319c8	-0.0005001095
114	0xbe1d9ecb	-0.15392606
115	0x3d8d47b2	0.068984404
116	0x3d8e2c68	0.069420636
117	0x3c725e96	0.014793059
118	0xbc96abb4	-0.018392421
119	0x3dc22722	0.0948012
120	0x3e3580ea	0.17724958
121	0x3e353134	0.17694551
122	0xbe456983	-0.19278531
123	0xbd5af2ff	-0.053454395
124	0x3d998992	0.074969426
125	0xbd1bfda7	-0.0380837
126	0x3d9f6201	0.07782365
127	0x3e008b7f	0.12553214
128	0x3da5b20d	0.08090601
129	0x3c9bf98a	0.019039888
130	0xbd0b4040	-0.03399682
131	0x3de9e9a3	0.11421516
132	0x3e3c1a7c	0.18369478
133	0xbe25cef9	-0.16192235
134	0xbd919fcc	-0.07110557
135	0x3d89ddcb	0.06731757
136	0xbc93e362	-0.01805276
137	0xbe026673	-0.12734394
138	0xbc7c59f2	-0.015402304
139	0x3e08062f	0.13283609
140	0x3e2f2ff6	0.1710814
141	0x3d4ac4c7	0.049504068
142	0x3d9582de	0.073003516
143	0x3d2c6283	0.042086136
144	0xbd90cf49	-0.070707865
145	0xbe27ac46	-0.16374311
146	0xbd320132	-0.04345817
147	0x3e23041b	0.15919535
148	0x3e09f67a	0.1347293
149	0xbd86d177	-0.06582921
150	0xbd06640b	-0.032810252
151	0x3e2f2164	0.17102581
152	0x3e24841c	0.1606602
153	0xbdce0326	-0.10059194
154	0x3da39e05	0.07989124
155	0x3e2086cd	0.15676422
156	0x3da608d0	0.081071496
157	0xbd2b246d	-0.041782785
158	0xbd8e09df	-0.069354765
159	0x3b2602a2	0.002533116
160	0xbd2b21a4	-0.04178013
161	0x3c8c0e93	0.017096793
162	0xbd1d9e2b	-0.03848092
163	0x3c8febb0	0.01756844
164	0xbd755b38	-0.059901446
165	0x3d76aebc	0.060225233
166	0x3e1451b6	0.14484295
167	0xbca2c746	-0.019870412
168	0xbcaa0118	-0.020752475
169	0x3e2f0bb1	0.17094304
170	0x3df60a84	0.120137244
171	0xbd3d2026	-0.046173237
172	0xbb9f9519	-0.0048700687
173	0x3e04628e	0.1292822
174	0xbd8059c6	-0.06267123
175	0xbd35603c	-0.04428123
176	0x3e10e122	0.14148381
177	0x3e388ef7	0.18023287
178	0x3e09cccb	0.13457029
179	0x3e3d0dfb	0.18462364
180	0x3caadd23	0.0208574
181	0xbd1e83a8	-0.038699776
182	0x3dac84ef	0.084237926
183	0xbd95f215	-0.07321564
184	0x3d8aa525	0.0676978
185	0x3d1aef6b	0.037825983
186	0x3da1ef09	0.079069205
187	0x3e24faa2	0.16111234
188	0xbda7efc8	-0.082000315
189	0x3dcce703	0.100049995
190	0xbd8cc0e2	-0.06872727
191	0x3d69b87a	0.057060696
192	0x3b650c0c	0.0034949807
193	0x3d212c98	0.03934917
194	0x3d249c0e	0.040187888
195	0xbde1e235	-0.11029474
196	0x3d49b4bc	0.049244627
197	0x3b90f956	0.0044242544
198	0x3e3a8d24	0.18217903
199	0x3e47696c	0.19473809
200	0x3d3c0add	0.045908798
201	0x3d99d43a	0.07511182
202	0x3c4dbfe3	0.012557956
203	0xbe125738	-0.14291084
204	0xbd7b177c	-0.061301693
205	0x3e0e1143	0.13873772
206	0x3d70f595	0.058827955
207	0xbd8b8dc8	-0.06814152
208	0xbe1de7ff	-0.1542053
209	0x3dd6d2a1	0.10489393
210	0x3e1dbc68	0.15403903
211	0x3d6f181f	0.058372613
212	0xbe2e3d28	-0.17015517
213	0xbdebc3f8	-0.115119874
214	0xbd0bc840	-0.03412652
215	0xbcf9f7fa	-0.030513752
216	0x3d94c5dd	0.07264302
217	0x3d72f139	0.05931208
218	0xbce6e847	-0.02818693
219	0x3d8cb5e0	0.068706274
220	0x3e130a87	0.14359485
221	0x3dc6a9a1	0.09700323
222	0x3d83ed43	0.064417385
223	0x3dd4d107	0.10391431
224	0xbdc1d83f	-0.09465074
225	0x3ddddbd1	0.10832942
226	0x3d931ae5	0.07182864
227	0xbd96100d	-0.0732728
228	0x3de73e6a	0.112912014
229	0xbc70eba2	-0.014704617
230	0x3d16c761	0.036811236
231	0xbc6b4a38	-0.014360957
232	0x3d15bf6f	0.03655952
233	0x3d7e5fa8	0.062102944
234	0x3e4058e4	0.18783909
235	0xbdf2b601	-0.11851121
236	0x3e38f839	0.1806344
237	0x3d75a739	0.05997393
238	0xbd182c13	-0.037151407
239	0xbd9733c2	-0.07382919
240	0xbcd3bd76	-0.025847178
241	0x3d6ee3f8	0.058322877
242	0xbe212db2	-0.15740088
243	0xbd1c9656	-0.03822931
244	0xbc09bda9	-0.008407035
245	0xbd9ed2ae	-0.07755028
246	0x3bf9ab63	0.007619308
247	0x3cbe2f59	0.023215936
248	0x3dcb7614	0.09934631
249	0x3d81d2ef	0.063390605
250	0xbd1e0eee	-0.038588457
251	0xbd3046cc	-0.043036267
252	0xba6d817d	-0.0009060128
253	0xbd121625	-0.03566565
254	0x3d826d63	0.0636852
255	0x3db69389	0.08914859

output_layer.bias f4 [72]
0	0x3c56d7a3	0.013112935
1	0x3b95841d	0.0045628683
2	0x3cea3166	0.028588008
3	0xbbae389c	-0.005316807
4	0x3dc681e0	0.096927404
5	0x3cd8614d	0.026413584
6	0xbd2710d7	-0.040787544
7	0x3d191c73	0.037380647
8	0xbced89c5	-0.028996358
9	0x3d25bd6e	0.040463857
10	0xbd39aa4d	-0.045328427
11	0x3d18d14f	0.037308987
12	0xbd92a192	-0.07159723
13	0x3befa39e	0.007313206
14	0x3d97c648	0.07410866
15	0x3c3e2b7e	0.011607049
16	0xbb5f5979	-0.003408043
17	0x3cf20281	0.02954221
18	0xbda5fcb2	-0.081048384
19	0xbd918832	-0.07106055
20	0xbd8b0030	-0.06787145
21	0xbd4cea65	-0.050028224
22	0x3d130edf	0.035902854
23	0x3ce0642a	0.027391512
24	0xbd00ca00	-0.031442642
25	0xbc461fcf	-0.012092545
26	0x3d66ca03	0.056344997
27	0xbd562989	-0.052285705
28	0x3cbb4347	0.022859229
29	0x3c4d232c	0.012520593
30	0x3c673dfb	0.014113898
31	0x3d810ffa	0.063018754
32	0x3d883246	0.06650214
33	0x390596e3	0.00012740078
34	0x3da83000	0.0821228
35	0x3d135d18	0.035977453
36	0xbd2c6645	-0.04208972
37	0x3d0331d3	0.032029938
38	0xbd2c0ccf	-0.042004403
39	0xbcec9284	-0.028878458
40	0x3d828239	0.06372494
41	0xbcfd0b0b	-0.030889055
42	0xbd576c0f	-0.052593287
43	0x3d074059	0.03302035
44	0x3ca19840	0.019725919
45	0xbc12a732	-0.008950995
46	0x3d996361	0.07489658
47	0x3d069f72	0.032866903
48	0xbd81887e	-0.06324862
49	0xbd7131f0	-0.058885515
50	0xbd297f4b	-0.04138116
51	0x3ce6f84d	0.02819457
52	0x3ce8091c	0.028324656
53	0x3c837045	0.016044745
54	0xbd04b012	-0.032394476
55	0xbc0a4f12	-0.008441703
56	0xbd818864	-0.063248426
57	0xbcc0a115	-0.02351431
58	0xbd123181	-0.03569174
59	0x3def145c	0.11673805
60	0xbcf6a43c	-0.03010761
61	0x3c9d1857	0.019176645
62	0xbce3f664	-0.02782745
63	0x3c51d90f	0.012808098
64	0x3b499995	0.0030761708
65	0xbc9df0df	-0.019279895
66	0x3c36aa27	0.011148966
67	0x3c1ac8cc	0.009447288
68	0x3d0ee9fd	0.034891117
69	0x3d97cd7b	0.07412239
70	0xbd2d23dc	-0.042270526
71	0xbba694a2	-0.0050836364
