results/train/models_distance_40m_slope/name_DQNMA/best_model.pt (torch, 193103 bytes, 8 tensors)

layer1.weight f4 [128, 40]
0.15435031 -0.056901347 0.06385313 0.08244932 -0.079568334 0.1906679 0.016876327 0.08309972
0.0768709 0.04227876 0.01659975 -0.08264477 0.08020779 0.031216238 -0.279596 0.07872043
-0.07376868 0.05065616 0.07531767 0.13862878 -0.0608034 0.07976788 -0.008188199 0.03351344
-0.15108363 -0.040266383 -0.014248098 -0.026382225 0.035995193 -0.080481306 0.1449859 0.1397708
-0.07502135 -0.03974539 0.055563666 -0.07805595 0.041588165 -0.028250255 -0.16087398 -0.0024984526
0.107888706 0.3427525 0.2253676 0.21631233 0.2408126 0.4194492 0.109061435 0.5290336
0.40421924 0.15234587 0.031793725 0.26656625 0.5086296 0.18097039 0.12294229 0.33371434
0.17116502 0.22071952 0.3717194 0.22261411 0.16157657 0.19522808 0.30222845 0.2703615
0.045008294 0.077795506 0.31244493 0.12590517 0.37137082 0.20904084 0.25482035 0.39457148
0.32377598 0.30832115 0.4031656 0.19606973 0.31350493 0.022706043 0.21951225 0.36218587
-0.061581913 0.01813201 0.08219337 -0.3514566 0.039481945 0.11972371 -0.017237322 0.36617854
0.23619983 -0.20153058 -0.090523526 -0.07380578 0.117760874 -0.01877777 -0.057873275 0.07304896
0.14574294 -0.1128672 0.07121332 -0.0063842195 -0.04603906 -0.14212981 -0.11183199 -0.03899398
0.15646647 -0.31689337 -0.05073442 0.02191261 0.0805694 0.033721298 0.10625122 0.12923215
0.11154873 0.04144762 0.10646148 0.059874427 -0.008927146 -0.14791144 0.029973798 -0.015810408
0.21351762 0.16890234 0.2236378 0.32658207 0.20200339 0.19388086 0.16812107 0.14088799
0.09918429 0.072127014 0.37412462 0.2403063 0.19017087 0.02979422 0.13817249 0.29538435
0.15114881 0.0758976 0.29561836 0.26913264 0.2424861 -0.08459849 0.09650713 0.24128245
0.18336369 -0.020475864 0.3268971 0.17396156 0.086771354 0.23560302 0.22615798 0.12997623
0.31259865 0.20831552 0.17032386 0.19240195 0.046255138 0.20600456 0.16127068 0.32819617
0.10063983 0.0019862326 0.028001709 -0.016561724 0.10966343 -0.026678622 0.12833133 -0.10105551
-0.042030133 -0.14009413 -0.05134203 0.0388344 0.08870089 0.032845207 -0.098626114 0.14557017
-0.09698447 0.03556682 -0.14339116 -0.075944126 -0.1123046 -0.14105588 0.0072885286 -0.07560534
0.03383046 0.04888809 -0.036679722 -0.0881275 -0.13915218 0.025759527 0.07841726 -0.13652708
-0.047067676 -0.10620406 -0.13730976 0.08617967 0.052934147 -0.018570768 -0.049306083 -0.054663684
0.06829108 0.14582248 -0.001328699 -0.0751955 0.099798754 -0.022172488 0.19910802 0.6585208
0.2996941 0.021663474 -0.1404462 0.1356619 0.30231377 0.051136054 0.022505337 0.12551181
0.1444259 -0.011145546 -0.031834505 0.09908973 0.028187461 -0.030472338 -0.07536341 0.116019
-0.05732456 0.0011994124 -0.084013395 0.17847423 -0.04424761 0.19834642 0.15957159 0.15339917
0.034724526 0.1048739 0.026299817 -0.039805494 0.1674868 -0.107192084 0.101964585 0.018688064
0.1295861 -0.0071352054 -0.065218315 0.27542803 0.01982764 -0.014432982 -0.0071709175 -0.17090337
-0.09191032 0.18273132 0.2848205 0.19061175 0.103901595 0.134002 -0.0985131 -0.03476563
00000000: 020e 1e3e 6311 69bd 6ec5 823d 30db a83d
00000010: b9f4 a2bd 723e 433e 3940 8a3c 3030 aa3d
00000020: 7e6e 9d3d 7e2c 2d3d 33fc 873c a941 a9bd
00000030: fb43 a43d 32b9 ff3c 3527 8fbe 2d38 a13d
00000040: 0914 97bd d57c 4f3d 2740 9a3d b4f4 0d3e
00000050: fc0c 79bd 585d a33d cc27 06bc 6445 093d
00000060: abb5 1abe 5dee 24bd db70 69bc 891f d8bc
00000070: b26f 133d 62d3 a4bd 2f77 143e 1420 0f3e
00000080: cba4 99bd 10cc 22bd ba96 633d ccdb 9fbd
00000090: 5a58 2a3d 146d e7bc 26bc 24be 14bd 23bb
000000a0: c1f4 dc3d 417d af3e c4c6 663e fb80 5d3e
000000b0: 9497 763e 0cc2 d63e 9a5b df3d bf6e 073f
000000c0: d3f5 ce3e 8e00 1c3e 233a 023d 5f7b 883e
000000d0: 8d35 023f 4d50 393e 2bc9 fb3d 9bdc aa3e
000000e0: e245 2f3e 4c04 623e 0152 be3e f4f4 633e
000000f0: 5474 253e dfe9 473e b0bd 9a3e d36c 8a3e
00000100: 9e5a 383d 4053 9f3d c8f8 9f3e 49ed 003e
00000110: 5124 be3e cd0e 563e d077 823e 4605 ca3e
00000120: f7c5 a53e 45dc 9d3e b96b ce3e 81c6 483e
00000130: b883 a03e 0602 ba3c d2c7 603e 6d70 b93e
00000140: 513d 7cbd 9589 943c ff54 a83d 1ff2 b3be
00000150: d2b7 213d b431 f53d 4935 8dbc c17b bb3e
00000160: 5ede 713e 085e 4ebe 6664 b9bd 7c27 97bd
00000170: 9d2c f13d d7d3 99bc 870c 6dbd b19a 953d
00000180: a33d 153e eb26 e7bd 4ad8 913d b732 d1bb
00000190: 7493 3cbd 7a8a 11be 2c08 e5bd 27b8 1fbd
000001a0: bf38 203e d93f a2be e5ce 4fbd 1382 b33c
000001b0: 9201 a53d 581f 0a3d 3d9a d93d 6f55 043e
000001c0: a973 e43d fbc4 293d 7a08 da3d e33e 753d
000001d0: 2a43 12bc 1976 17be 9c8b f53c d484 81bc
000001e0: 5da4 5a3e bcf4 2c3e 4f01 653e c435 a73e
000001f0: fad9 4e3e b488 463e ee27 2c3e f144 103e
00000200: 2221 cb3d 54b7 933d 438d bf3e db12 763e
00000210: 27bc 423e 0213 f43c 177d 0d3e 9e3c 973e
00000220: c1c6 1a3e 3370 9b3d 4a5b 973e c1cb 893e
00000230: 474e 783e f941 adbd 88a5 c53d bf12 773e
00000240: b1c3 3b3e 00bd a7bc 0f5f a73e fb22 323e
00000250: 2eb5 b13d eb41 713e f595 673e 7d18 053e
00000260: ee0c a03e aa50 553e 6169 2e3e 0405 453e
00000270: 0776 3d3d dcf2 523e 2424 253e 5409 a83e
00000280: 411c ce3d 742b 023b d763 e53c 74ac 87bc
00000290: 3897 e03d 208d dabc 4a69 033e 31f6 cebd
000002a0: ca27 2cbd d674 0fbe 054c 52bd d210 1f3d
000002b0: d0a8 b53d b288 063d 7dfc c9bd 5910 153e
000002c0: cb9f c6bd 84ae 113d 22d5 12be 9888 9bbd
000002d0: f4ff e5bd f470 10be 9cd4 ee3b f9d6 9abd
000002e0: cf91 0a3d e13e 483d 7a3d 16bd 317c b4bd
000002f0: e97d 0ebe a505 d33c 3a99 a03d c1cd 0bbe
00000300: 09ca 40bd 8481 d9bd ee9a 0cbe f87e b03d
00000310: 7ad1 583d b921 98bc 2df5 49bd 07e7 5fbd
00000320: 32dc 8b3d 7d52 153e be27 aeba 1900 9abd
00000330: 4a63 cc3d 14a3 b5bc f9e2 4b3e d294 283f
00000340: 8171 993e 9977 b13c 21d1 0fbe f4ea 0a3e
00000350: dfc8 9a3e 0a74 513d 1d5d b83c 2b86 003e
00000360: 62e4 133e cf9b 36bc e664 02bd 8eef ca3d
00000370: 64e9 e63c 20a1 f9bc 2258 9abd 5f9b ed3d
00000380: 28cd 6abd 9a35 9d3a 370f acbd f3c1 363e
00000390: fb3c 35bd 531b 4b3e bc66 233e ac14 1d3e
000003a0: 4e3b 0e3d 21c8 d63d b772 d73c 160b 23bd
000003b0: a981 2b3e 8687 dbbd cfd2 d03d b617 993c
000003c0: 38b2 043e 71ce e9bb 2e91 85bd e704 8d3e
000003d0: 936d a23c 5078 6cbc 04fa eabb 4b01 2fbe
000003e0: 7a3b bcbd eb1d 3b3e fed3 913e ba2f 433e
000003f0: 5cca d43d d237 093e 3cc1 c9bd 6866 0ebd

layer1.bias f4 [128]
0.0030452292 0.30327535 0.0031414689 0.12153707 0.040141188 0.18765509 0.14787823 0.1566939
0.035019893 0.25481012 -0.060783807 0.03184541 0.36060935 -0.12300535 -0.045085873 -0.110183515
0.15512429 0.11213699 -0.019268328 -0.074630916 -0.07573152 0.096146256 0.10069155 0.03599141
-0.14614083 -0.026611254 -0.091545925 -0.037279975 -0.13566789 0.053720888 0.113103785 0.09215112
-0.08047107 -0.053602356 0.109064326 -0.048662297 0.08432734 -0.007723099 -0.041039612 -0.093863234
-0.0074395887 -0.11008928 0.0976916 -0.12191524 -0.10217287 0.23542655 0.16190015 0.035871714
0.120979905 0.43439454 0.15380645 0.0632851 0.15725148 -0.0743313 -0.09505256 0.0046052868
0.08856131 0.047522336 0.059925184 0.022653049 -0.0823784 0.046488643 0.11047034 0.0786721
-0.052958265 0.09029821 0.05524976 0.18538631 0.07985261 0.015825078 0.07742497 -0.0857371
0.23307228 0.02737005 0.08495306 -0.026500966 0.0018721847 -0.0059245504 0.13314836 -0.029308634
0.020055208 0.005779326 -0.08851466 0.11159228 0.01621307 -0.0522207 0.061516665 0.086283006
0.021337569 0.0751944 0.04867075 -0.030821765 0.08670807 -0.0044305013 -0.0027294941 0.067170374
0.13439032 -0.0013895318 0.0028260208 0.017965032 0.057555605 0.16018687 -0.11778055 -0.10264381
-0.060419183 0.22534813 -0.11213796 0.12079587 0.06319187 0.073150836 0.08805485 0.050900895
-0.016370388 0.12072376 -0.041616283 -0.00069113343 0.1940648 0.19091359 0.123657644 -0.0039769425
0.17286703 0.07085957 0.022280399 -0.024381623 0.04757447 -0.03086668 0.12454001 0.059074543
00000000: 7892 473b e846 9b3e 1ae1 4d3b 6de8 f83d
00000010: 166b 243d a828 403e 646d 173e 5e74 203e
00000020: 0571 0f3d 7976 823e 71f8 78bd 5570 023d
00000030: caa1 b83e 3bea fbbd f7ab 38bd e5a7 e1bd
00000040: e7d8 1e3e 14a8 e53d 9dd8 9dbc 18d8 98bd
00000050: 2119 9bbd 54e8 c43d 5f37 ce3d bb6b 133d
00000060: f1a5 15be d8ff d9bc 6e7c bbbd e3b2 18bd
00000070: 86ec 0abe 6f0a 5c3d f5a2 e73d bab9 bc3d
00000080: 04ce a4bd 258e 5bbd 1e5d df3d 1e52 47bd
00000090: d0b3 ac3d 0d12 fdbb 2719 28bd 5e3b c0bd
000000a0: cbc7 f3bb 7d76 e1bd 8912 c83d b3ae f9bd
000000b0: 0240 d1bd a813 713e 27c9 253e 38ee 123d
000000c0: 50c4 f73d f668 de3e 707f 1d3e 9e9b 813d
000000d0: 8806 213e 023b 98bd ebaa c2bd f2e7 963b
000000e0: a25f b53d c8a6 423d 1c74 753d e392 b93c
000000f0: 02b6 a8bd e06a 3e3d 463e e23d d71e a13d
00000100: c4ea 58bd 45ee b83d 934d 623d e9d5 3d3e
00000110: c489 a33d 98a3 813c fc90 9e3d ef96 afbd
00000120: 80aa 6e3e 2837 e03c dffb ad3d 8e18 d9bc
00000130: 1864 f53a bb22 c2bb 0b58 083e a918 f0bc
00000140: d24a a43c 8060 bd3b 2d47 b5bd 7e8a e43d
00000150: 46d1 843c 5fe5 55bd e6f8 7b3d 25b5 b03d
00000160: 20cc ae3c 86ff 993d fb5a 473d ed7d fcbc
00000170: 0094 b13d bd2d 91bb 50e1 32bb 9f90 893d
00000180: 9e9d 093e f320 b6ba c334 393b 672b 933c
00000190: 6dbf 6b3d 0708 243e ee36 f1bd eb36 d2bd
000001a0: 1b7a 77bd a9c1 663e 96a8 e5bd d363 f73d
000001b0: bd6a 813d 1bd0 953d 1a56 b43d 757d 503d
000001c0: 311b 86bc 053e f73d d675 2abd 2e2d 35ba
000001d0: ecb8 463e da7e 433e 3840 fd3d 0351 82bb
000001e0: 0e04 313e d21e 913d 6285 b63c f8bb c7bc
000001f0: 73dd 423d 1fdc fcbc d50e ff3d 26f8 713d

layer2.weight f4 [128, 128]
-0.06876924 0.037421018 0.4628921 0.015727032 -0.064018965 0.14007363 -0.046721436 0.21643506
-0.039340578 0.09853533 -0.12577194 -0.35900313 0.0904222 0.031493235 -0.026493507 0.03150061
0.09445096 0.26068297 0.16519363 0.1868762 0.06167041 0.08504658 0.23588939 -0.1717853
-0.55510443 0.16868563 -0.45721522 -0.22382909 0.029965056 0.2862526 -0.1604092 0.20858654
0.02252893 0.017293304 -0.014533847 0.1688096 0.035285626 -0.43403417 0.39547098 -0.1739155
0.2570033 -0.13520743 -0.07871904 0.014135664 -0.501615 0.069446035 0.11984262 0.29946026
0.10914115 0.05322424 -0.1707204 0.13669193 0.25716794 0.25028422 0.5007299 0.27508244
0.33368203 -0.254737 0.27022713 0.35755563 -0.24695449 0.036477167 0.27036276 -0.23035364
0.39068907 0.013024417 -0.41380477 0.27575564 0.19358338 -0.01261915 0.18713468 -0.028971037
0.11874566 -0.059217595 -0.3233313 -0.027870953 -0.3529178 -0.23343104 0.22831054 -0.056350004
0.13425928 0.15050736 -0.09543864 0.22971657 -0.14319071 -0.06850272 0.21205798 0.19922614
0.18919222 0.1597862 -0.24240085 -0.1137682 -0.2264601 0.52047306 -0.2344738 -0.6185029
0.31444204 0.1605452 0.38565004 0.04698247 -0.13619529 0.08424259 0.27726668 -0.058194336
-0.3434746 0.04297199 -0.2604433 -0.003252871 0.24548262 -0.054856163 -0.035753187 -0.22583227
-0.0597446 0.007833206 -0.4882987 0.08417075 0.13615008 0.2571448 -0.38531595 0.13646132
0.33152345 0.2774525 0.040128276 0.002879284 -0.0019513168 -0.57498604 0.2063443 0.12365717
-0.09437917 0.014776067 0.5287979 0.09237853 0.006957366 0.14585711 0.013332949 0.22359866
-0.050849665 -0.047620576 -0.035039775 -0.4039713 0.09919891 -0.00070513686 0.0014250868 -0.011225681
0.14837354 0.11895465 0.06134364 0.192338 0.0649469 0.1500171 0.24323533 -0.09397254
-0.5568568 0.03861504 -0.47166395 -0.31618622 -0.06831064 0.45376423 -0.19254152 0.16883324
0.10092876 0.0274536 0.078280985 0.1965525 0.08000949 -0.5626682 0.4423758 -0.07584229
0.31284213 -0.16294423 -0.11786463 -0.051737323 -0.5668573 0.10065359 0.20245987 0.34999308
0.15788697 0.09936676 -0.092210345 0.16193299 0.32300362 0.19269158 0.47380885 0.32077083
0.42040747 -0.2981088 0.37300733 0.37203005 -0.26210815 0.0011014643 0.40387815 -0.15909287
0.3520621 0.05646834 -0.46296012 0.31309018 0.1471382 -0.06590894 0.21123654 -0.07628109
0.17869043 -0.1354288 -0.38707283 -0.02868083 -0.35069928 -0.26637194 0.27116588 -0.04426081
0.185124 0.18289405 -0.088175304 0.17219284 -0.11734538 -0.01979053 0.24052571 0.28943855
0.23501262 0.18736744 -0.33032903 -0.2528138 -0.19744752 0.5593058 -0.34846172 -0.6012127
0.27931833 0.23079216 0.3997619 0.16667347 -0.27039304 0.14395468 0.20886263 0.024001935
-0.4068466 0.04732516 -0.13823053 0.06710474 0.30120993 -0.07717613 0.0049809422 -0.11180753
-0.046126314 0.047315687 -0.5869901 -0.044010587 0.2772479 0.23866892 -0.27183384 0.26960775
0.26123214 0.215278 -0.029872548 0.079417296 -0.05437114 -0.600832 0.19068755 0.24492337
00000000: e3d6 8cbd c846 193d 3100 ed3e fad5 803c
00000010: 601c 83bd 766f 0f3e fa5e 3fbd 27a1 5d3e
00000020: 9623 21bd e4cc c93d 5cca 00be 42cf b7be
00000030: 462f b93d 0dff 003d e908 d9bc c906 013d
00000040: 816f c13d 3d78 853e 8528 293e 795c 3f3e
00000050: 1d9a 7c3d e72c ae3d fd8c 713e 7ce8 2fbe
00000060: 531b 0ebf edbb 2c3e 1d18 eabe 7433 65be
00000070: 4779 f53c b38f 923e 4f42 24be b697 553e
00000080: 978e b83c b0aa 8d3c 5f1f 6ebc 6cdc 2c3e
00000090: a987 103d ba39 debe 2c7b ca3e e816 32be
000000a0: f095 833e d173 0abe 7337 a1bd 4699 673c
000000b0: d769 00bf b939 8e3d 0c70 f53d db52 993e
000000c0: 6585 df3d a901 5a3d 54d1 2ebe f8f8 0b3e
000000d0: 84ab 833e 4125 803e d62f 003f 9bd7 8c3e
000000e0: 5fd8 aa3e e36c 82be 365b 8a3e 8811 b73e
000000f0: a3e1 7cbe 1569 153d fd6c 8a3e d3e1 6bbe
00000100: 6608 c83e 5d64 553c 38de d3be d82f 8d3e
00000110: b93a 463e 8dc0 4ebc 3ca0 3f3e ab54 edbc
00000120: ed30 f33d 268e 72bd ae8b a5be a051 e4bc
00000130: a4b1 b4be 8c08 6fbe 3dca 693e 43cf 66bd
00000140: 447b 093e 9a1e 1a3e 5575 c3bd d23a 6b3e
00000150: 96a0 12be 274b 8cbd ba25 593e f001 4c3e
00000160: 9bbb 413e fe9e 233e ee37 78be 4dff e8bd
00000170: 28e5 67be b93d 053f e619 70be 3556 1ebf
00000180: 8cfe a03e f665 243e ec73 c53e b170 403d
00000190: c776 0bbe 6187 ac3d e6f5 8d3e 2f5d 6ebd
000001a0: e7db afbe 6603 303d d358 85be 1f2e 55bb
000001b0: cc5f 7b3e dbb0 60bd ef71 12bd 9340 67be
000001c0: c1b6 74bd d956 003c 4a02 fabe b761 ac3d
000001d0: ed6a 0b3e 7ca8 833e 2248 c5be 84bc 0b3e
000001e0: 71bd a93e 410e 8e3e 8c5d 243d 5fb2 3c3b
000001f0: 54c3 ffba 4932 13bf ec4b 533e f83f fd3d
00000200: de49 c1bd 5117 723c 4d5f 073f f430 bd3d
00000210: 9efa e33b 915b 153e 7172 5a3c 0cf7 643e
00000220: bd47 50bd cb0d 43bd de85 0fbd 54d5 cebe
00000230: cc28 cb3d efd8 38ba fac9 ba3a ebeb 37bc
00000240: 3cef 173e 7f9e f33d 7843 7b3d 41f4 443e
00000250: e102 853d 159e 193e af12 793e ad74 c0bd
00000260: 2b8e 0ebf ce2a 1e3d f07d f1be 29e3 a1be
00000270: 73e6 8bbd c953 e83e 9b29 45be 9fe2 2c3e
00000280: bdb3 ce3d 5fe6 e03c c851 a03d 0f45 493e
00000290: 04dc a33d 060b 10bf 157f e23e 3453 9bbd
000002a0: d82c a03e dada 26be 0363 f1bd 84ea 53bd
000002b0: 8f1d 11bf 7823 ce3d a451 4f3e 4b32 b33e
000002c0: 1fad 213e cd80 cb3d c7d8 bcbd c3d1 253e
000002d0: bb60 a53e f150 453e 1397 f23e 133c a43e
000002e0: a63f d73e b7a1 98be d1fa be3e b97a be3e
000002f0: 0a33 86be 025f 903a 1ec9 ce3e 3ee9 22be
00000300: 7c41 b43e 594b 673d 1c09 edbe 5b4d a03e
00000310: 65ab 163e 44fb 86bd 644e 583e 4339 9cbd
00000320: a0fa 363e d9ad 0abe 692e c6be 0ff4 eabc
00000330: db8e b3be e761 88be 41d6 8a3e d34a 35bd
00000340: 2591 3d3e 9448 3b3e 4195 b4bd 5253 303e
00000350: c652 f0bd c01f a2bc 5f4c 763e 4a31 943e
00000360: 26a7 703e 40dd 3f3e e320 a9be cf70 81be
00000370: af2f 4abe aa2e 0f3f 9369 b2be 13e9 19bf
00000380: d002 8f3e c854 6c3e 97ad cc3e 73ac 2a3e
00000390: f570 8abe db68 133e 16e0 553e b59f c43c
000003a0: 334e d0be 07d8 413d 4e8c 0dbe 366e 893d
000003b0: 3038 9a3e 850e 9ebd 2c37 a33b 59fb e4bd
000003c0: f2ee 3cbd 18ce 413d fc44 16bf 7244 34bd
000003d0: 70f3 8d3e a065 743e ce2d 8bbe 070a 8a3e
000003e0: 38c0 853e d671 5c3e 46b7 f4bc 89a5 a23d
000003f0: 46b4 5ebd 20d0 19bf 9943 433e 31cd 7a3e

layer2.bias f4 [128]
0.073884755 0.078838065 -0.016158903 0.09078499 0.047615513 0.14964783 -0.072022036 0.1602236
0.012783323 -0.08797874 0.017555242 0.14881696 0.01896222 0.16226791 -0.049622297 -0.013490549
0.015397823 0.12170935 -0.062172916 -0.03593068 0.109576695 -0.005805853 0.055749167 0.008695023
-0.05022274 0.12679128 0.13624668 0.14509737 0.2245528 -0.050880387 -0.08126361 0.024705661
0.029704418 0.028925987 0.009465236 0.037099637 0.07831137 0.10711331 -0.030942738 0.12489658
0.036118664 0.015410004 0.041001614 0.05005221 -0.0155522255 0.038038343 0.12131146 -0.005316994
0.096509084 -0.03479242 -0.055177003 -0.07906025 -0.057147037 -0.04431958 -0.012766711 0.066138394
0.03455139 0.0242738 0.14096063 0.09822233 -0.01399703 -0.033080507 0.07702207 0.07532924
0.07153425 0.043827716 0.09722276 -0.043274373 -0.08289092 0.020118395 0.17562951 0.12919143
0.13673685 0.12902321 0.0036740173 0.13801128 0.11209621 -0.06606025 0.10949832 0.014318763
-0.012652095 0.11502175 0.011037717 0.052661907 0.12056004 0.10530561 0.03186471 0.14035171
0.02387411 0.13134274 -0.0069892504 0.053625748 -0.02411983 0.030736767 0.11630595 0.09460329
0.025594119 0.04229824 0.042741265 0.0697897 0.13566355 0.17863028 -0.01601895 -0.074841864
-0.01582158 0.23170528 0.02765674 0.14466377 -0.014284795 -0.027169451 -0.04980617 0.122992694
-0.008995617 0.012480582 0.23719625 0.021632345 -0.08119671 0.13437717 0.05271573 -0.013452706
0.08815823 0.09821477 0.063627325 0.20792387 -0.034970276 0.05827507 0.086830065 0.1251597
00000000: e450 973d da75 a13d ad5f 84bc 7bed b93d
00000010: 7c08 433d 483d 193e 4a80 93bd a811 243e
00000020: 2571 513c 332e b4bd 03d0 8f3c 7963 183e
00000030: a856 9b3c 8f29 263e c040 4bbd 7707 5dbc
00000040: 2747 7c3c c042 f93d 07a9 7ebd 0c2c 13bd
00000050: bf69 e03d 063f bebb 3d59 643d 9275 0e3c
00000060: 5cb6 4dbd 93d5 013e 4084 0b3e 6894 143e
00000070: 2bf1 653e f467 50bd 896d a6bd 8763 ca3c
00000080: ae56 f33c 31f6 ec3c 1414 1b3c caf5 173d
00000090: b661 a03d 395e db3d a07b fdbc c7c9 ff3d
000000a0: 2af1 133d 3e7a 7c3c 4ff1 273d 8c03 4d3d
000000b0: c3ce 7ebc 18ce 1b3d 2572 f83d 2e3a aebb
000000c0: 8ea6 c53d 7f82 0ebd 4801 62bd 57ea a1bd
000000d0: 0313 6abd 7388 35bd 782b 51bc 9173 873d
000000e0: c285 0d3d d9d9 c63c fc57 103e ca28 c93d
000000f0: cd53 65bc 6d7f 07bd bfbd 9d3d 3746 9a3d
00000100: 8d80 923d b184 333d ba1c c73d 7840 31bd
00000110: b7c2 a9bd 55cf a43c 39d8 333e c24a 043e
00000120: bf04 0c3e a91e 043e c8c7 703b d452 0d3e
00000130: b392 e53d 994a 87bd a840 e03d 3f99 6a3c
00000140: bc4a 4fbc 8690 eb3d 8ad7 343c 03b4 573d
00000150: 2fe8 f63d 78aa d73d 9284 023d 5cb8 0f3e
00000160: a393 c33c b67e 063e 1506 e5bb aca6 5b3d
00000170: f396 c5bc accb fb3c d031 ee3d 5fbf c13d
00000180: c2aa d13c eb40 2d3d 7711 2f3d e7ed 8e3d
00000190: 63eb 0a3e dbea 363e 2c3a 83bc b146 99bd
000001a0: 429c 81bc 2644 6d3e 6390 e23c bd22 143e
000001b0: c60a 6abc 7892 debc 8e01 4cbd 98e3 fb3d
000001c0: 5a62 13bc 5b7b 4c3c 93e3 723e 5136 b13c
000001d0: 764a a6bd 2b9a 093e 73ec 573d bd68 5cbc
000001e0: 4d8c b43d d324 c93d 0b4f 823d ffe9 543e
000001f0: fe3c 0fbd d7b1 6e3d f6d3 b13d dd29 003e

layer3.weight f4 [128, 128]
0.33928075 0.2308929 -0.055348333 0.22160086 0.29968876 0.28172788 0.077492185 0.23764797
-0.24196756 0.0038069994 -0.3396826 0.15058653 0.21345183 0.2185503 0.06479836 -0.428653
-0.35164657 0.35468146 -0.039737675 0.06416439 -0.4086994 -0.3551303 0.016618546 -0.050071027
0.39489415 -0.3894518 -0.3603014 0.23271732 0.22698453 -0.019679455 -0.04482857 0.2756059
0.30761155 -0.37297574 -0.059863452 0.29353786 0.2961662 0.35311633 0.03966601 0.3288703
0.25363415 -0.066226915 -0.020466035 0.27547148 -0.42205837 0.2068924 0.31670952 0.33369157
0.23573276 0.006498393 -0.052048314 -0.0027338967 -0.035118554 0.040611435 -0.24543428 -0.031938367
0.24965028 0.2782975 -0.38184747 0.35358652 0.26350412 0.04164924 0.29444638 0.34575585
0.19857115 0.2957892 0.20426123 0.04211668 0.034123596 0.010197455 0.30988038 0.36298624
0.30507576 0.31670117 0.3103058 -0.34985662 0.3085757 0.017969996 0.28577965 0.27513304
0.06962959 -0.17699581 -0.032853663 0.2821373 0.30306205 0.30999932 -0.3950737 0.25128844
0.051460784 -0.43889755 -0.015111557 -0.38497674 -0.36783963 -0.37557796 -0.3128816 0.28857428
0.30742848 -0.23157606 0.047113504 0.3120526 0.34271628 -0.07491097 -0.0018075964 0.04944591
0.06853142 0.2632159 -0.07563068 0.33221835 -0.310853 0.07409865 -0.05220892 -0.32802597
-0.071865425 0.3291208 0.23113309 0.1769109 0.00045862744 0.20332143 0.29026985 0.025235645
0.31892887 0.21289891 -0.04732096 0.1343084 -0.010558591 0.23190194 0.33641237 0.3049634
-0.01552417 0.050974887 -0.010366134 0.036367353 0.013437609 0.05931351 -0.014672585 -0.009659383
-0.031113416 -0.0134092765 -0.06447865 -0.041539937 0.012416567 0.05368103 -0.020148356 -0.040454634
-0.0542196 0.06897884 -0.013734229 -0.04919129 -0.08520486 -0.0056913444 -0.017299335 0.00552911
-0.013304593 -0.009948139 0.020609053 -0.059307203 0.014734001 -0.05604624 0.047803853 0.050226003
0.018732302 -0.08270238 -0.0688753 -0.08441268 -0.009233913 -0.032691415 -0.06388671 0.0550882
0.08112815 -0.022566637 -0.08065758 0.02761275 0.06918125 0.01063693 0.018768098 0.015079354
-0.075112954 -0.058150627 0.028557057 -0.032457437 0.041565876 -0.071681395 0.02385492 0.07182894
-0.026866445 -0.046176143 -0.024893057 -0.04288338 0.051601276 0.019927017 0.046249095 0.036353007
-0.07384957 0.008816048 0.005276009 -0.07926206 0.041462142 -0.048714608 -0.011812752 -0.004120667
-0.046599578 -0.074184224 0.030730017 0.04854736 0.03843699 0.048607323 -0.07743306 0.05878962
0.07796617 0.028096013 -0.0035981385 0.07284186 -0.0051156916 0.010753561 0.053480323 0.011403984
-0.08142575 0.07449252 -0.04748054 -0.013606759 -0.08454951 -0.044665568 -0.040621936 0.03655104
-0.05415885 -0.01764833 0.046318274 0.031274527 -0.07640892 -0.012917055 -0.026985208 -0.0023896336
0.067082 -0.08897299 -0.07483045 0.041682042 0.008232204 -0.022050604 -0.07710116 -0.06765399
0.023141338 -0.09404351 0.047741573 -0.04784001 0.039160546 0.064614676 0.00055124727 -0.080569476
-0.025113318 0.0023654413 -0.04723481 0.030766416 -0.07464375 0.023942327 -0.06115825 -0.04742165
00000000: 35b6 ad3e 306f 6c3e efb4 62bd 56eb 623e
00000010: ce70 993e a33e 903e 39b4 9e3d fd59 733e
00000020: 58c6 77be da7e 793b e1ea adbe 5b33 1a3e
00000030: 1e93 5a3e a6cb 5f3e 01b5 843d 6878 dbbe
00000040: 050b b4be cf98 b53e f9c3 22bd 9f68 833d
00000050: 0c41 d1be a4d3 b5be 9e23 883c 4717 4dbd
00000060: 912f ca3e 3a66 c7be 6d79 b8be 734d 6e3e
00000070: a26e 683e cf36 a1bc 2a9e 37bd 371c 8d3e
00000080: 437f 9d3e adf6 bebe 6133 75bd 984a 963e
00000090: 19a3 973e aacb b43e d378 223d b061 a83e
000000a0: 56dc 813e faa1 87bd 63a8 a7bc 990a 8d3e
000000b0: 0918 d8be 9adb 533e c027 a23e 9fd9 aa3e
000000c0: ee63 713e 79f0 d43b 9d30 55bd 2d2b 33bb
000000d0: 79d8 0fbd 2d58 263d 2053 7bbe ced1 02bd
000000e0: 53a4 7f3e 037d 8e3e 8381 c3be 4b09 b53e
000000f0: 03ea 863e 6598 2a3d adc1 963e e906 b13e
00000100: 3c56 4b3e af71 973e db29 513e 8a82 2c3d
00000110: 2fc5 0b3d 3a13 273c a4a8 9e3e 55d9 b93e
00000120: e432 9c3e a826 a23e 67e0 9e3e 6820 b3be
00000130: a2fd 9d3e d035 933c b651 923e 3dde 8c3e
00000140: f599 8e3d 643e 35be 9091 06bd 4d74 903e
00000150: f32a 9b3e 3bb8 9e3e 1a47 cabe e1a8 803e
00000160: 8bc8 523d 2eb7 e0be 7796 77bc ac1b c5be
00000170: 7a55 bcbe c14b c0be 0432 a0be 02c0 933e
00000180: 4467 9d3e 4622 6dbe 17fa 403d 5cc5 9f3e
00000190: 8278 af3e ec6a 99bd dfec ecba cb87 4a3d
000001a0: 335a 8c3d 3cc4 863e 42e4 9abd 8618 aa3e
000001b0: 2028 9fbe 08c1 973d 05d9 55bd 05f3 a7be
000001c0: 2e2e 93bd 8682 a83e 27ae 6c3e 2228 353e
000001d0: ef73 f039 7e33 503e 409e 943e fcba ce3c
000001e0: a54a a33e 2c02 5a3e 9fd3 41bd 2488 093e
000001f0: f1fd 2cbc b477 6d3e 3e3e ac3e 2a24 9c3e
00000200: 1759 7ebc 0bcb 503d b8d6 29bc eff5 143d
00000210: 6b29 5c3c b9f2 723d 4865 70bc 6442 1ebc
00000220: 90e1 febc 95b2 5bbc 620d 84bd c825 2abd
00000230: db6e 4b3c a4e0 5b3d 2a0e a5bc c2b3 25bd
00000240: 5f15 5ebd c744 8d3d 8805 61bc ce7c 49bd
00000250: e37f aebd 757e babb 56b7 8dbc 892d b53b
00000260: 82fb 59bc 85fd 22bc 51d4 a83c 1cec 72bd
00000270: e166 713c be90 65bd f9cd 433d c8b9 4d3d
00000280: 7c74 993c de5f a9bd 7e0e 8dbd 8ee0 acbd
00000290: d749 17bc 6fe7 05bd 09d7 82bd 2aa4 613d
000002a0: 8426 a63d abdd b8bc cd2f a5bd 2234 e23c
000002b0: e6ae 8d3d 8546 2e3c 8ebf 993c 650f 773c
000002c0: d2d4 99bd 5a2f 6ebd 7df0 e93c 17f2 04bd
000002d0: fb40 2a3d b2cd 92bd 656b c33c 0d1b 933d
000002e0: 0517 dcbc 3223 3dbd 86ec cbbc 7ca6 2fbd
000002f0: dc5b 533d fc3d a33c b16f 3d3d e4e6 143d
00000300: 713e 97bd 2f71 103c 5fe2 ac3b 2654 a2bd
00000310: 35d4 293d f888 47bd 468a 41bc a906 87bb
00000320: 33df 3ebd e6ed 97bd 84bd fb3c 99d9 463d
00000330: 1b70 1d3d 7918 473d 3995 9ebd 62cd 703d
00000340: baac 9f3d 9c29 e63c bfce 6bbb 1d2e 953d
00000350: 88a1 a7bb b42f 303c 2f0e 5b3d c7d7 3a3c
00000360: 8bc2 a6bd 898f 983d f47a 42bd e2ee 5ebc
00000370: 4b28 adbd 3ef3 36bd 3063 26bd 8bb6 153d
00000380: acd5 5dbd 3b93 90bc 3bb8 3d3d b819 003d
00000390: 487c 9cbd 0ea2 53bc 1510 ddbc 669b 1cbb
000003a0: 4a62 893d 7937 b6bd b540 99bd caba 2a3d
000003b0: 5ee0 063c 78a3 b4bc 37e7 9dbd 2d8e 8abd
000003c0: e792 bd3c e299 c0bd ab8c 433d e3f3 43bd
000003d0: cf66 203d b354 843d 9481 103a 9c01 a5bd
000003e0: 72ba cdbc 8505 1b3b 4a79 41bd da09 fc3c
000003f0: d3de 98bd b322 c43c 1381 7abd 343d 42bd

layer3.bias f4 [128]
0.1025461 -0.07643574 -0.04502038 -0.0544035 0.04991579 -0.06442973 0.109916516 -0.011050899
0.083736986 0.1500777 0.067003295 0.11962657 0.09544167 0.016336696 0.17838909 0.069199465
-0.036868908 -0.014543419 0.07338554 0.08498137 -0.037338227 -0.04336411 0.0043686787 0.022878924
-0.079086915 0.040033277 0.16186877 0.063086346 0.07898583 0.13358739 0.13504851 0.14916362
0.16961218 0.032086764 -0.035227492 -0.067152575 0.06405771 -0.07803067 0.048782274 -0.029557163
-0.0448865 -0.045201745 0.096645676 -0.03714948 0.04056966 0.08302572 0.10480289 0.009163748
-0.028222045 -0.057374265 0.09053957 -0.03726791 0.07268762 0.096127324 0.19652317 0.09812373
0.00196789 0.10421366 0.05916461 -0.014595007 0.07798311 -0.038578156 0.1272004 -0.05000334
0.05056036 0.06775414 0.10186711 -0.050703872 -0.059571236 0.052527487 -0.05562195 0.002583915
-0.048557434 0.14714538 0.15096974 0.17659311 0.09929563 -0.017183937 0.13892432 0.10694791
0.10520566 0.008817096 0.028766511 0.13599335 -0.014933032 0.13576904 0.044190783 0.022269
-0.030825347 0.13197036 0.0068127043 0.0657306 0.0014008709 -0.0021525999 0.09304635 0.10954822
-0.0006658236 0.00780386 -0.071851194 0.14388967 0.05336646 -0.07558284 0.018459436 0.04528347
-0.057019893 0.07169506 -0.039336633 0.031350147 0.0025635518 0.13251187 0.10308303 0.056842785
-0.067837395 0.11930351 0.0736864 0.038325496 0.16882627 -0.045404356 0.053800378 -0.08402654
0.061429277 0.18576965 0.11860622 0.040950935 0.034097172 0.025616344 0.14039019 0.15428947
00000000: b103 d23d 578a 9cbd 4a67 38bd 34d6 5ebd
00000010: 8074 4c3d bcf3 83bd e91b e13d d40e 35bc
00000020: 4c7e ab3d f8ad 193e 0639 893d c6fe f43d
00000030: ec76 c33d 89d4 853c a1ab 363e 73b8 8d3d
00000040: da03 17bd 8547 6ebc 284b 963d b60a ae3d
00000050: f8ef 18bd 919e 31bd 2227 8f3b 956c bb3c
00000060: 52f8 a1bd eff9 233d edc0 253e 6a33 813d
00000070: 53c3 a13d 22cb 083e 284a 0a3e 59be 183e
00000080: d1ae 2d3e 696d 033d b44a 10bd 4a87 89bd
00000090: b030 833d 8bce 9fbd eccf 473d dd21 f2bc
000000a0: e8da 37bd 7725 39bd 2bee c53d 0e2a 18bd
000000b0: 5f2c 263d 6409 aa3d e6a2 d63d 8b23 163c
000000c0: eb31 e7bc 4701 6bbd cf6c b93d 3ca6 18bd
000000d0: 3fdd 943d 67de c43d 5f3d 493e 18f5 c83d
000000e0: b7f7 003b f96d d53d 9756 723d e51f 6fbc
000000f0: 9cb5 9f3d 2104 1ebd d240 023e 4dd0 4cbd
00000100: 6118 4f3d afc2 8a3d b49f d03d ddae 4fbd
00000110: f800 74bd 1027 573d d8d3 63bd e656 293b
00000120: 29e4 46bd 47ad 163e d097 1a3e d3d4 343e
00000130: 825b cb3d 54c5 8cbc 2d42 0e3e 8107 db3d
00000140: 1176 d73d 9575 103c bfa7 eb3c d741 0b3e
00000150: ada9 74bc 0a07 0b3e 6501 353d 7a6d b63c
00000160: 7085 fcbc 3d23 073e 1b3d df3b c49d 863d
00000170: 6d9d b73a a212 0dbb 168f be3d d15a e03d
00000180: aa8a 2eba 86b7 ff3b b826 93bd d057 133e
00000190: ca96 5a3d 2dcb 9abd 3e38 973c 297b 393d
000001a0: b18d 69bd dcd4 923d 731f 21bd 0369 003d
000001b0: 4301 283b 31b1 073e 321d d33d fbd3 683d
000001c0: 55ee 8abd 6655 f43d e5e8 963d 32fb 1c3d
000001d0: cbe0 2c3e ebf9 39bd c95d 5c3d 1b16 acbd
000001e0: 449d 7b3d 663a 3e3e d1e7 f23d 2bbc 273d
000001f0: 7aa9 0b3d 5ed9 d13c 72c2 0f3e 0ffe 1d3e

output_layer.weight f4 [72, 128]
0.09022068 -0.012817094 -0.07181342 -0.05432443 0.073001586 -0.0374164 -0.18039529 -0.0017797019
-0.20374943 0.07787749 0.1854775 -0.20094101 0.1136372 0.08278411 0.034913957 0.10994301
-0.061395653 0.028583655 0.18221976 0.09823478 -0.062039558 0.061788067 0.12473479 0.20872912
0.053955473 0.16491412 0.10873513 0.110268384 0.15648377 -0.105399914 -0.25135702 -0.24056657
-0.20798756 0.030105911 -0.07249673 -0.05404125 0.1900361 0.0018201985 0.20957357 -0.026194142
-0.06524972 -0.030869339 0.16834234 0.26834765 0.18472207 0.08194605 0.15228638 0.013183765
-0.027077626 -0.06400652 -0.20557946 0.08023877 0.017305052 0.2104597 -0.17901148 0.118404746
-0.0013400117 0.13852288 0.18631266 0.0077488334 0.18373394 0.081361294 -0.25073406 -0.07536777
0.11264771 -0.144233 0.09380235 -0.063461706 -0.053228274 0.14443614 -0.0075625037 0.049465153
-0.075137004 0.09871396 0.11032544 -0.2008298 0.18960194 0.13827667 0.15476263 0.18525003
0.11153817 0.0028478345 0.03980276 0.18099414 0.040109795 0.2268244 -0.16247144 0.21711323
-0.0056694 -0.2356553 0.010934949 0.0520091 -0.035262827 0.01638847 -0.20032078 0.12540448
-0.070776395 0.17858207 0.0047793724 0.06658242 -0.041650813 -0.026580933 -0.10460383 -0.026395986
0.0278761 -0.052748047 -0.016025081 -0.041913107 0.043042716 0.15412878 0.20332466 0.17315567
0.015797079 -0.15540074 0.18596523 0.048002064 -0.2503227 0.077577464 0.051367223 0.011025208
0.11113803 -0.19404572 0.1834524 0.00050338666 0.18740508 0.0039568194 0.09559713 -0.2496055
0.113934435 -0.03167574 0.026659464 0.06770472 0.011739746 0.052965187 -0.18602358 0.08081704
-0.09997668 0.17101641 0.21965264 -0.15749376 0.17389056 0.17089151 0.16929927 0.049455285
0.03649169 0.06603671 0.09525384 0.17657891 -0.06789873 -0.026191883 0.07863623 0.15324906
0.04249694 0.15030369 0.16905345 0.10828583 0.09189233 -0.23722558 -0.10006124 -0.24469084
-0.12724385 -0.07522269 -0.20567699 -0.002272496 0.1728563 -0.02462621 0.23813483 0.03798037
-0.0053115953 0.049269844 0.15634018 0.12863661 0.20017391 0.1318159 0.24414898 -0.080848016
0.040261086 0.072557695 -0.231769 -0.012168084 -0.028545583 0.22777756 -0.21209794 0.06935274
-0.07305517 0.15246907 0.20955543 -0.0006825235 0.15865332 -0.02584186 -0.10240205 0.032121994
0.14858934 -0.19995853 0.08420966 -0.02451471 0.06129734 0.18293571 0.008821526 -0.08329989
-0.043441344 0.0491714 0.12438996 -0.10879848 0.0837386 0.16878283 0.1117736 0.20045607
0.09253405 0.047394015 -0.017296294 0.16716672 -0.0042158053 0.2313542 -0.14372326 0.22456224
0.0417291 -0.19098361 -0.07514591 0.007665999 -0.051682666 0.026771864 -0.10014654 0.13660158
0.025113387 0.21004234 0.032450657 0.16050988 -0.05276912 -0.060253035 -0.22474131 0.039119914
0.07893906 0.05155129 0.020927286 -0.037266463 -0.055056725 0.20674327 0.17866522 0.20173043
-0.039888274 -0.24147204 0.1084772 0.031271107 -0.14825247 -0.051596865 -0.05040557 -0.009678147
0.19459878 -0.24419601 0.08529987 -0.0077455915 0.07490819 -0.06248859 0.09717004 -0.15518118
00000000: 9fc5 b83d cafe 51bc ea12 93bd 4b83 5ebd
00000010: db81 953d f041 19bd 8bb9 38be e344 e9ba
00000020: b1a3 50be 3c7e 9f3d d0ed 3d3e 7bc3 4dbe
00000030: 9fba e83d b78a a93d f001 0f3d cd29 e13d
00000040: 027a 7bbd 4528 ea3c d197 3a3e 512f c93d
00000050: 311d 7ebd 7c15 7d3d f474 ff3d 16bd 553e
00000060: 6a00 5d3d 3fdf 283e 86b0 de3d 64d4 e13d
00000070: 483d 203e e9db d7bd deb1 80be 1557 76be
00000080: b1fa 54be aca0 f63c 2a79 94bd 5c5a 5dbd
00000090: d398 423e ba93 ee3a 749a 563e 1995 d6bc
000000a0: a5a1 85bd b2e1 fcbc ef61 2c3e dd64 893e
000000b0: c827 3d3e 55d3 a73d f6f0 1b3e b800 583c
000000c0: e6d1 ddbc da15 83bd 6c83 52be 3954 a43d
000000d0: 53c3 8d3c bf82 573e c94e 37be 307e f23d
000000e0: 55a3 afba f1d8 0d3e bfc8 3e3e ede9 fd3b
000000f0: c024 3c3e c0a0 a63d 3760 80be 6b5a 9abd
00000100: d8b3 e63d d1b1 13be 721b c03d 36f8 81bd
00000110: e405 5abd 11e7 133e e1ce f7bb f99b 4a3d
00000120: 6ee1 99bd 8b2a ca3d 4ef2 e13d 54a6 4dbe
00000130: 0327 423e 6698 0d3e 187a 1e3e 2fb2 3d3e
00000140: 206e e43d bca2 3a3b 3808 233d 8756 393e
00000150: 2b4a 243d a844 683e ea5e 26be ee52 5e3e
00000160: 60c6 b9bb 9f4f 71be 8028 333c 7e07 553d
00000170: c16f 10bd 1d41 863c e420 4dbe 086a 003e
00000180: 37f3 90bd 38de 363e 489c 9c3b 5d5c 883d
00000190: 0b9a 2abd 42c0 d9bc 883a d6bd 653c d8bc
000001a0: 6b5c e43c 560e 58bd 0847 83bc 14ad 2bbd
000001b0: 8f4d 303d efd3 1d3e 5734 503e b84f 313e
000001c0: e068 813c 5f21 1fbe ab6d 3e3e d09d 443d
000001d0: 4c2a 80be efe0 9e3d 7066 523d 13a3 343c
000001e0: 569c e33d ecb3 46be f2da 3b3e b5f5 033a
000001f0: 1ee7 3f3e 35a8 813b 6ec8 c33d 9698 7fbe
00000200: 7556 e93d 6cbe 01bd f364 da3c c6a8 8a3d
00000210: 1058 403c 06f2 583d f77c 3ebe 6783 a53d
00000220: 93c0 ccbd ed1e 2f3e 9fec 603e 0b46 21be
00000230: 5e10 323e 2ffe 2e3e ca5c 2d3e a091 4a3d
00000240: 4f78 153d 413e 873d 7214 c33d 1ad1 343e
00000250: 7d0e 8bbd 5c90 d6bc 080c a13d 52ed 1c3e
00000260: 4511 2e3d 36e9 193e 591c 2d3e f6c4 dd3d
00000270: 0c32 bc3d 43eb 72be e8ec ccbd 3c90 7abe
00000280: 364c 02be 5b0e 9abd fd9c 52be 28ee 14bb
00000290: 3e01 313e e8bc c9bc 9ed9 733e 4e91 1b3d
000002a0: e40c aebb 2dcf 493d a417 203e 51b9 033e
000002b0: 64fa 4c3e bffa 063e 3102 7a3e a593 a5bd
000002c0: cfe8 243d 2199 943d da54 6dbe a55c 47bc
000002d0: 6dd8 e9bc 853e 693e 3430 59be cf08 8e3d
000002e0: f39d 95bd da20 1c3e b395 563e 60eb 32ba
000002f0: 0476 223e 4fb2 d3bc 2ab8 d1bd 5a92 033d
00000300: ce27 183e eec1 4cbe 1d76 ac3d 13d3 c8bc
00000310: eb12 7b3d 8053 3b3e 2988 103c 2299 aabd
00000320: 8def 31bd f367 493d 2ac0 fe3d bdd1 debd
00000330: 257f ab3d 68d5 2c3e 8fe9 e43d 5b44 4d3e
00000340: 7e82 bd3d 3a20 423d f5b0 8dbc c12d 2b3e
00000350: bd24 8abb 1ee8 6c3e 312c 13be a5f3 653e
00000360: 22ec 2a3d 3591 43be 19e6 99bd 0f33 fb3b
00000370: 34b1 53bd ab50 db3c a119 cdbd 49e1 0b3e
00000380: 97ba cd3c 5715 573e fbea 043d b45c 243e
00000390: 6f24 58bd e3cb 76bd 9622 66be 343c 203d
000003a0: cdaa a13d 7227 533d b36f ab3c b8a4 18bd
000003b0: 2983 61bd 82b4 533e 04f4 363e 6c92 4e3e
000003c0: e361 23bd 7244 77be 4b29 de3d 2216 003d
000003d0: 7fcf 17be 3c57 53bd 1276 4ebd 1791 1ebc
000003e0: e744 473e 850e 7abe b3b1 ae3d bbce fdbb
000003f0: 7769 993d 09f4 7fbd 1601 c73d d1e7 1ebe

output_layer.bias f4 [72]
-0.019727549 0.059889264 0.07583345 0.03343895 0.013404104 -0.025786653 0.059074935 0.030270783
0.0074526826 -0.053141966 -0.07061919 -0.048341177 -0.0022668904 0.031602416 0.05307171 -0.0107575
-0.01473544 0.07325929 0.02350817 0.02421965 -0.038974393 -0.074503586 0.061375923 0.06859216
-0.040746067 -0.01659724 -0.049035076 -0.023262952 -3.8295207e-06 0.04214236 -0.026866194 -0.07551589
0.057013262 0.07354257 -0.07128797 0.071526095 -0.04917296 0.07223678 0.014125047 0.032393023
-0.013089642 -0.0079542305 -0.06382276 0.042024814 -0.028021337 -0.0019014307 0.042791 -0.025384527
0.03485686 0.035225473 -0.06860901 0.0112145925 -0.034597136 0.06438268 -0.07093392 -0.033843566
-0.0037742087 -0.019136887 0.039460123 -0.060524184 -0.06694201 -0.075236365 0.08246805 -0.049953617
0.043819457 0.022206884 -0.018410658 0.13946506 -0.053857416 0.067106 0.079234645 0.053952336
00000000: ab9b a1bc 724e 753d 914e 9b3d 48f7 083d
00000010: e39c 5b3c 883e d3bc 8ff8 713d 6ffa f73c
00000020: a235 f43b 64ab 59bd cba0 90bd 6601 46bd
00000030: 1c90 14bb 8971 013d b961 593d 3a40 30bc
00000040: ea6c 71bc f708 963d 3594 c03c 4a68 c63c
00000050: 9da3 1fbd 5695 98bd 5265 7b3d 0c7a 8c3d
00000060: 59e5 26bd eff6 87bc 01d9 48bd f291 bebc
00000070: 557f 80b6 789d 2c3d 7e16 dcbc 13a8 9abd
00000080: bd86 693d 7d9d 963d 6dff 91bd 467c 923d
00000090: 9669 49bd e0f0 933d be6c 673c 8cae 043d
000000a0: f075 56bc 7652 02bc 82b5 82bd 3622 2c3d
000000b0: 018d e5bc 6d39 f9ba 9e45 2f3d 36f3 cfbc
000000c0: 11c6 0e3d 9648 103d e182 8cbd 69bd 373c
000000d0: bab5 0dbd 11db 833d ce45 91bd 8d9f 0abd
000000e0: b758 77bb f6c4 9cbc f0a0 213d 35e8 77bd
000000f0: e418 89bd 8615 9abd 02e5 a83d 2a9c 4cbd
00000100: 087c 333d 36eb b53c f3d1 96bc eecf 0e3e
00000110: 9899 5cbd df6e 893d c645 a23d 20fd 5c3d
