results/train/hyperparam_DQN_learning_rate_slope_40m/learning_rate_actor_1e-05/best_model.pt (torch, 160591 bytes, 8 tensors)

layer1.weight f4 [128, 40]
000000 9e 9c 14 3e f6 bb 7b bd 6d 8b 43 bd a2 39 2e 3e
       0.1451287 -0.06145855 -0.04774039 0.17014173
000010 5c d1 27 3e 5b 97 ee bd af 4c 4c bd a1 91 07 3e
       0.16388458 -0.116499625 -0.04987782 0.13239147
000020 70 31 21 3d 43 72 cb bd f0 a7 d2 3d dc 21 60 3d
       0.039353788 -0.09933903 0.10285938 0.05471979
000030 ab a0 06 bd b1 32 b2 3b 74 b8 e0 bc 75 77 f5 3d
       -0.03286807 0.005438172 -0.027431704 0.11985675
000040 2f 1b 99 bd 17 e4 e6 3d 1d 4e 13 ba 69 f0 af bd
       -0.07475888 0.112739734 -0.0005619245 -0.085907765
000050 3d b6 91 3d 8d 2d 02 be 9a 2b 79 3d 3c 44 21 3e
       0.07114837 -0.12712689 0.060832597 0.15748686
000060 c0 e9 90 bd e8 48 31 3e 01 6f 17 3c c2 da 43 3d
       -0.07075834 0.17312968 0.009242774 0.047816046
000070 0d d0 8b bd cf eb 10 be 84 8d 03 3c f7 64 cf 3d
       -0.06826792 -0.14152454 0.008029345 0.101266794
000080 2d 34 33 3d 2b 84 02 be 4e 60 0c 3e 05 ba d6 bd
       0.04375093 -0.1274573 0.13708612 -0.10484699
000090 b4 3b 1f 3d 88 9d e3 b9 7a 31 0c 3e d2 1a f1 bd
       0.038875297 -0.00043414184 0.13690749 -0.11772694
0000a0 e8 1c ec bd 92 9c 24 3d b4 bf 3b bc 9a fd 7c bd
       -0.11528951 0.04018838 -0.01145928 -0.06176529
0000b0 dd d3 ce 3d 33 d3 d7 3d f6 02 19 bc 87 2e cf bd
       0.100990035 0.1053833 -0.009339085 -0.10116296
0000c0 0a 5b ff 3c 69 50 84 bd 2f 31 01 3e e9 29 8c bd
       0.03117134 -0.064606495 0.12616418 -0.06843931
0000d0 5b 9e af 3d 5f 59 1e bc 9f f9 eb 3b a9 6d 85 3d
       0.08575126 -0.009664862 0.007201388 0.06515057
0000e0 6a 0b 9a bb 6e 69 8d 3d 80 90 0c bd 83 7f b6 3a
       -0.0047010677 0.06904875 -0.034317493 0.00139235
0000f0 d3 d8 b2 3c ab aa 09 3e 75 d1 12 be 65 b8 d5 bc
       0.021831905 0.13444011 -0.14337714 -0.026088903
000100 10 65 83 3d de b1 f7 3d 5a bb 21 3c 07 22 04 be
       0.064157605 0.12094472 0.009871328 -0.12903605
000110 21 90 a4 bd fd 8f ce bd c2 5a 90 bc c6 59 c2 3d
       -0.08035303 -0.10086057 -0.017621402 0.09489779
000120 6d 7a a0 3d 66 19 1d be e8 f8 df 3d 41 12 90 3b
       0.07835851 -0.1534172 0.10936147 0.0043967073
000130 34 0d 84 3b ab 95 1d be bf f1 6f bd c6 0b 09 3e
       0.0040298942 -0.15389125 -0.058580156 0.13383397
000140 54 81 cd bd 76 e5 43 3a 7b 55 05 3a 7e f3 c8 bd
       -0.10034433 0.0007472852 0.0005086285 -0.098120674
000150 0f 40 92 bd e9 68 37 3e 0d 3e b8 3d 35 94 f1 3c
       -0.071411245 0.17911114 0.0899621 0.029489616
000160 ac 41 97 3c 31 c7 ab 3d 66 42 d1 3c 33 d1 ce 3d
       0.018463932 0.08387602 0.025544357 0.10098495
000170 8b 4f a9 bd 7d 8a 43 3d 4b ec 76 3d a9 c7 1b 3e
       -0.08267125 0.047739495 0.06028394 0.15212883
000180 64 01 ee bd 57 2b c6 3d ea 92 40 bd 21 bd 66 3d
       -0.11621359 0.09676235 -0.04701511 0.05633271
000190 ef ca 29 3e b1 63 1d 3e 79 20 1e 3d 77 f8 88 3d
       0.1658132 0.1537006 0.038605187 0.06688016
0001a0 e4 61 d6 3c b8 df 18 bc 5a 0b 0c 3e 0f 6d 68 3d
       0.026169725 -0.009330682 0.13676205 0.05674463
0001b0 1c be e9 bd 26 4a dd bd cd 6d 98 3c b1 78 1a 3e
       -0.114132136 -0.10805158 0.018607045 0.15085103
0001c0 60 95 88 bd f7 4f 03 3e 1f db f0 3d a7 65 ac 3d
       -0.06669116 0.12823473 0.11760544 0.08417826
0001d0 7a 1d 1b 3e 96 76 80 3c 36 ff 4c bc 0d 12 b0 3a
       0.15147963 0.015681546 -0.012512019 0.0013433114
0001e0 6c ff 77 bd 2e 3f d8 bd 10 07 1e bd 5c 0d 1b be
       -0.060546324 -0.105589256 -0.038580954 -0.15141815
0001f0 ac b5 06 be 47 a8 db 3d 49 f3 9c bd b4 20 13 3e
       -0.1315524 0.10725456 -0.076635905 0.14367944
000200 54 15 1a bc 3d 86 33 bd 58 d9 c8 bc fd 05 02 3e
       -0.009404499 -0.04382919 -0.0245177 0.12697597
000210 84 ef 6b 3d d6 3f c2 3d 2e da 9d 3c 0a 7a bc bd
       0.057601467 0.09484832 0.019269075 -0.092029646
000220 c6 bf 10 3d dc de 23 bd da c4 a0 3d 7a 7f bf bd
       0.03533914 -0.040007457 0.078500465 -0.09350486
000230 86 5b e5 bd 0e a5 b7 3b 2c cc ea 3d 1b e8 d3 bd
       -0.11199097 0.005604393 0.11464724 -0.10347005
000240 dd b0 f3 bd 7d 94 d1 bd 17 dc f0 bd d7 ac 05 be
       -0.11898968 -0.102334 -0.11760729 -0.13054214
000250 36 3a 5d 3d 7e 8c 9b bd 85 75 9d bd ac 32 fc 3d
       0.054010592 -0.07595156 -0.07688431 0.123143524
000260 83 a0 12 3e e4 10 22 3d 1d 2d ce bc bb 55 15 bd
       0.14319043 0.03956689 -0.025167996 -0.036458712
000270 19 86 9b 3d e3 42 04 be e3 5d 5d 3d e1 73 ba bd
       0.075939365 -0.1291614 0.054044615 -0.091041334
000280 e1 25 0a 3e fe 6e 4e bc c0 70 61 bd 90 bd d8 3d
       0.13491012 -0.012599705 -0.055039167 0.10583031
000290 7e c4 14 3e ae c2 0c 3d 0d 0b 79 3d f1 92 a9 bc
       0.14528081 0.03436535 0.060801554 -0.02069995
0002a0 ff 25 2c bd 0f eb cd bd 25 91 2a bd 32 e6 d3 bd
       -0.042028423 -0.100545995 -0.041642327 -0.10346641
0002b0 57 24 83 bb b4 db e8 bc ef 63 c8 3d 44 69 21 3e
       -0.004002135 -0.028425075 0.09784686 0.15762812
0002c0 a3 54 d6 bd 3a 1a 53 3d 4b 6a 30 3d 0e 55 fe bd
       -0.10465362 0.051538683 0.04307012 -0.12418567
0002d0 e3 25 9f bd e9 35 fd 3c f2 89 9b bd da 46 01 be
       -0.07770898 0.030909495 -0.0759467 -0.12624684
0002e0 34 b1 fc 3d 74 ac c8 bd 9e f0 84 bd bc d5 f0 bd
       0.12338486 -0.09798518 -0.064912066 -0.117595166
0002f0 ac 03 97 bb 8b 45 9e 3d 80 47 47 3d 70 de d5 bd
       -0.004608592 0.07728108 0.048652172 -0.10442817
000300 29 d1 96 3d 0c 3b ed bd 30 97 19 3e 5d 76 26 bd
       0.07364113 -0.11583528 0.1499908 -0.040640224
000310 15 48 88 3d 79 c2 3b bd 04 a6 d4 3d 07 4e e6 bc
       0.066543736 -0.04583976 0.103832275 -0.028113378
000320 b3 b0 9c bc 61 da 93 bd 91 66 b9 bd cf d4 11 3e
       -0.019127226 -0.07219387 -0.09052766 0.14241336
000330 a0 38 33 3d 5d 88 0a be 56 3b dc 3d ff fa 0a 3e
       0.043755174 -0.13528581 0.10753505 0.1357231
000340 79 73 4e be 76 4d d4 3d 19 e1 ad bd da d8 72 3c
       -0.20161237 0.10366337 -0.084901996 0.014822209
000350 6a ab 58 bd ad 1d f0 bc 67 37 09 3e f6 4c 13 be
       -0.05289785 -0.029311026 0.1340004 -0.14384827
000360 c7 c9 f6 bd 9a 21 b7 3d 10 5d 16 3e 78 6e 14 3e
       -0.12050205 0.08941956 0.14683938 0.14495265
000370 c2 d7 16 be c4 b8 a3 bc 7c 5f 09 3d de ec e1 3d
       -0.14730743 -0.019985564 0.033538327 0.11031507
000380 a3 35 48 bd 50 4b 94 bd bb f2 dd 3d 53 f4 67 3d
       -0.048879277 -0.07240927 0.10837313 0.05662949
000390 46 48 1d be fa 52 88 bd 7c d5 bd bd 9b 57 cf bd
       -0.15359601 -0.066564515 -0.092692345 -0.10124131
0003a0 00 62 1a be c4 91 03 be 4c 95 ce 3d 99 b8 0e be
       -0.15076447 -0.12848574 0.1008707 -0.13937606
0003b0 ad 93 16 3e fb 4f 5f ba cb dc 25 3e 7a 8f 0d 3e
       0.14704771 -0.0008518693 0.16197507 0.13824263
0003c0 11 7b f8 3c ef 21 f9 bb 7c 02 af bd e9 93 e1 be
       0.03033212 -0.007602922 -0.08545396 -0.4405816
0003d0 d0 c7 54 bd 38 69 ed 3b 6e 2d 67 be 88 b6 c6 bd
       -0.05194837 0.007245209 -0.22575924 -0.09702784
0003e0 7d 57 df 3d 38 e7 b6 bd 75 17 cb bd 52 e1 d1 3d
       0.10905359 -0.0893082 -0.099165834 0.102480546
0003f0 68 d4 bc 3d de 81 27 3e 6b a2 ac 3d 45 f1 0b 3e
       0.09220201 0.16358134 0.08429416 0.13666256

layer1.bias f4 [128]
000000 f4 26 2a bd e1 ac bb bd 74 be 42 3d 96 10 b9 bd
       -0.041541055 -0.091638334 0.04754491 -0.09036367
000010 6d 76 c0 bc 67 ba 8c 3c 73 3a 0f bc 6e 9c c6 bc
       -0.02349397 0.017178727 -0.008741963 -0.024244513
000020 43 a0 c2 bc 67 6a 09 3e bf e1 d1 3d 67 10 c3 3d
       -0.02375806 0.13419496 0.10248136 0.09524613
000030 f6 99 ca bd 91 cc d8 3d bd 3e 1f 3d 6e a8 06 be
       -0.09892647 0.10585893 0.03887819 -0.13150188
000040 13 db 2d 3c b6 b7 e9 bd af 5c a6 3d 7a d4 33 bd
       0.010611313 -0.11411993 0.08123147 -0.043903805
000050 22 2e 21 3e 0f 99 ba 3d 8e fd 3c 3d f0 d5 38 bd
       0.15740255 0.09111225 0.046140246 -0.0451259
000060 d1 b1 94 bd e6 df 77 bd f6 7f d1 3d f5 36 d2 3c
       -0.07260478 -0.06051626 0.10229485 0.025660971
000070 04 c8 6a bc b2 d2 97 3d bf 17 0e 3e 40 2d e2 3d
       -0.014329914 0.07413234 0.13876246 0.11043787
000080 9d 1d 25 3e 58 db ec bc 1e 5a ae 3c d1 2c c1 3c
       0.16124578 -0.028913185 0.021283206 0.02358094
000090 80 43 ed 3b 75 83 96 bd 2d 9b e7 bd 12 6c a0 bd
       0.0072407126 -0.07349292 -0.11308894 -0.07833113
0000a0 11 2c 22 3d 26 c0 32 3e fd 57 9d 3d 63 7b 09 3c
       0.039592806 0.17456111 0.07682798 0.008391234
0000b0 d5 fe f1 bd 2d 41 75 3c 3c e8 12 be ff 87 b2 3d
       -0.118161835 0.014969152 -0.14346403 0.087173454
0000c0 2b 75 be 3d d4 74 ba bd ef 3f 14 3e 44 ed b0 bd
       0.09299692 -0.091043144 0.14477514 -0.08639005
0000d0 61 5e cb 3d 13 5e 1d 3e a6 a1 bb bd 1a 04 15 be
       0.09930111 0.15367918 -0.09161691 -0.14552346
0000e0 f7 a5 62 3d cd d9 1c bc 6f 57 a5 3d 27 3d cb 3c
       0.055334058 -0.009573412 0.08073317 0.024809433
0000f0 b5 e6 27 3e 00 58 23 3d ac 80 d2 bd ff 08 16 be
       0.16396601 0.039878845 -0.102784485 -0.14651869
000100 0a 6a 95 bd 68 2f f0 3d e5 7c 5d bd 87 84 8a 3c
       -0.07295616 0.11727792 -0.054074187 0.016908897
000110 75 9b 0b 3e b0 60 0d 3c 66 6a 71 3d 41 e0 f1 3d
       0.13633521 0.008629009 0.05893936 0.11810351
000120 d1 d3 df bd ac 0c 77 ba fc a0 a4 3c 84 2d 0d 3c
       -0.10929073 -0.00094241905 0.020096295 0.008616809
000130 54 65 9e 3d fc 4e 28 bd fa bc 1f 3e 02 60 2c 3e
       0.077341706 -0.04109095 0.15599433 0.16833499
000140 63 0d 29 3e f2 0f 70 bd fb e3 07 3e 1d c6 a7 3d
       0.16509013 -0.058608957 0.13270561 0.08192084
000150 fe 48 87 bd 10 8c 44 3c ac 08 15 3e 30 2f fe bd
       -0.06605719 0.011996284 0.1455409 -0.12411344
000160 b9 a9 23 bd 62 8d 2d 3d 6c 12 3a bd cb 79 0b 3e
       -0.039956782 0.04237116 -0.045427725 0.13620679
000170 2e f6 34 3e f5 ea 59 bd 85 ef ae bd 76 ed cc bd
       0.17672035 -0.053202588 -0.085417785 -0.100062296
000180 97 6f fa 3d 1e 02 cd bd 39 ae b0 3c ab 40 9f bd
       0.12228315 -0.100101694 0.02156745 -0.07776006
000190 ed 3c 95 3c 2c 6f 19 3c b0 c3 d6 bd 13 89 a0 bd
       0.018217528 0.009364884 -0.10486543 -0.07838645
0001a0 fa e2 f5 bd 9a 63 66 3d 93 da ce bd fb 3a 10 3e
       -0.12006183 0.05624733 -0.101002835 0.14085
0001b0 86 15 d4 bd ab 3a 03 3e 15 91 a5 bd f0 2a 3b bc
       -0.10355668 0.12815349 -0.08084313 -0.011423811
0001c0 f0 80 f7 3d 0e 8d 84 bc 5e 8b e7 bd f8 bd f1 bd
       0.1208514 -0.016180541 -0.11305879 -0.11803812
0001d0 f4 db ae 3c 96 a9 2e 3e bb d7 e3 3c 0d 59 8c 3d
       0.021345116 0.1705688 0.02781283 0.068529226
0001e0 2f ff a3 bd 77 6b 13 3e 24 dc 73 3d e5 ca 72 bd
       -0.08007657 0.14396463 0.059536114 -0.059275527
0001f0 25 88 c7 bd 34 35 37 3c 85 21 9d 3d 2f a4 14 be
       -0.097427644 0.011182118 0.07672409 -0.14515756

layer2.weight f4 [128, 128]
000000 bb 10 42 3d 7d e2 f2 3c a0 fe ca 3d c8 07 90 3d
       0.047379237 0.029649014 0.09911847 0.07032734
000010 56 ab 23 3d a1 05 6b bc 4d 3d c1 bc ee 36 f0 3c
       0.03995832 -0.014344604 -0.0235888 0.029323068
000020 41 0e 63 bd 7e 08 01 bd 65 f6 b5 3c 46 eb 40 bd
       -0.055433515 -0.03150224 0.022212217 -0.047099374
000030 92 3e 01 3d c5 ce d3 3d f2 3e 76 bc 7e 68 21 bd
       0.031553812 0.103421725 -0.015029656 -0.039406292
000040 71 6f 87 3d 56 41 d2 3d 10 10 92 3d a4 29 03 bd
       0.06613053 0.10266368 0.0713197 -0.032022133
000050 6a 8b bb bd 34 11 10 bc 37 75 b1 3d d5 41 48 bd
       -0.091574505 -0.008793164 0.08664935 -0.048890907
000060 b0 e2 ae 3c 3a c8 47 bd c5 40 88 3d a5 f5 4a bd
       0.021348327 -0.048774935 0.06652979 -0.04955067
000070 e9 8f 5d bd c7 7b 5a bd 20 c3 63 bd 57 a0 5e 3d
       -0.05409232 -0.0533407 -0.055606008 0.05435213
000080 37 42 37 3d b3 ab 6e 3d 25 94 27 3d a3 83 30 bd
       0.04474088 0.058269214 0.040912766 -0.04309429
000090 c7 57 8e bd c2 ba 90 3d 1a b2 38 3d 87 88 61 bd
       -0.06950336 0.07066871 0.045091726 -0.055061843
0000a0 75 5e 3f bd 7c 03 15 bd a8 28 32 3d 5b 49 6e bd
       -0.04672094 -0.036380276 0.043495804 -0.058175426
0000b0 bc 2a b7 3d 6a 88 a2 3d b9 0f 8e 3d 08 cd 16 3c
       0.08943698 0.07936175 0.069365926 0.009204157
0000c0 c2 96 7a bc 6e 60 01 bc af 76 ee 3d 2a 75 1c bd
       -0.0152947325 -0.007896526 0.11643731 -0.038197674
0000d0 89 55 bf 3c e4 95 a1 3d 37 40 19 bd 16 84 9c bc
       0.023356216 0.078899175 -0.037414756 -0.019105952
0000e0 05 eb e1 bc 86 45 80 bd 5d a3 00 bd 42 e3 57 3d
       -0.027577886 -0.062632605 -0.031405795 0.052706964
0000f0 ec 0f 7d 3d ce 2a a5 bc 82 4a 38 3d 1b 31 bf 3c
       0.061782762 -0.020162012 0.04499293 0.023338845
000100 8e 02 e5 3d c4 7e 01 3d a0 2c e2 bb ec 1f b9 bd
       0.11182128 0.031615034 -0.0069022924 -0.09039292
000110 41 31 cf 3c a1 fb 93 3d 54 2e 07 bc 8b 6a a4 3c
       0.02529204 0.07225729 -0.008250792 0.020070335
000120 09 b3 d2 3d d3 e0 46 bd 76 8f de bc e2 75 6d 3d
       0.102880545 -0.048554253 -0.027168017 0.05797375
000130 27 79 37 3d 3f 90 f6 bc 63 13 f3 bb 09 19 e4 bb
       0.044793274 -0.030098079 -0.0074180826 -0.0069609922
000140 f7 fc 30 bd de 94 95 3d f1 75 96 bd a8 07 e3 bc
       -0.043209996 0.07303785 -0.07346714 -0.027713612
000150 cb 41 81 3c e8 1c 9c 3d ac 47 8d 3d 21 17 8e bd
       0.015778443 0.07622701 0.06898436 -0.06938005
000160 18 01 5c bd 34 70 eb bc 72 a7 cc 3c dd b7 33 bd
       -0.05371198 -0.028740026 0.024982188 -0.043876518
000170 2c 0f 74 3d a4 a2 88 bd 57 1f 7a 3d fb a9 a5 bc
       0.05958478 -0.06671646 0.061065044 -0.020222655
000180 9e 13 4d bc 9e b6 84 bc 76 61 19 be 78 8a 6d 3d
       -0.012516884 -0.01620036 -0.14978585 0.057993382
000190 46 77 af bd b9 c2 a8 3d db 8c 21 3b 49 91 0a bd
       -0.085676715 0.082402654 0.0024650607 -0.03382996
0001a0 07 d6 ac 3d f1 78 34 bd 48 f7 78 bd 83 f5 78 bd
       0.0843926 -0.04406065 -0.0607827 -0.060781013
0001b0 06 6f c1 bc ce 01 2a bb 84 21 61 3d 0f 55 34 bd
       -0.02361251 -0.0025941017 0.054963604 -0.04402643
0001c0 8f 18 f0 3c e0 48 79 bc d6 5a d8 3d 9e 7f ff 3c
       0.029308585 -0.015215129 0.105642006 0.031188782
0001d0 44 f0 ea bc 5e 1b 89 39 03 4c 64 bd c9 f4 d3 3d
       -0.02867902 0.00026151066 -0.055736553 0.103494234
0001e0 1e 65 5d bd 88 f0 b8 bd 5d a3 68 bc cb 57 02 be
       -0.05405151 -0.09030253 -0.014199105 -0.12728803
0001f0 6f 04 59 3c 67 8f 9a 3d cd 28 e4 3d 5b 52 53 bd
       0.013245686 0.07546883 0.11140595 -0.051592212
000200 cf d1 8e 3d 9e ea 62 3b bb 73 1f bd 84 03 a0 bd
       0.069736116 0.0034624706 -0.03892873 -0.078131706
000210 f0 14 ab 3d 37 07 bd 3d 65 36 d0 bc 75 c3 86 3d
       0.08353603 0.09229892 -0.025416562 0.06580249
000220 87 a5 c0 3c 79 ca c3 3d f3 df 0c 3a f8 b7 2f 3d
       0.02351643 0.09560103 0.0005373947 0.042900056
000230 01 13 39 bb 0a 34 b2 bb 90 58 8e 3c 05 0a 49 bd
       -0.0028240087 -0.0054383324 0.017376214 -0.04908182
000240 bc b0 d5 3c ba b3 8d bd ea f2 16 3d e9 41 2a bc
       0.02608525 -0.06919046 0.036852755 -0.010391691
000250 5e 94 b7 3c 6e 01 89 3c cb 5e 88 bd 74 dd 3e bd
       0.022409614 0.016724315 -0.06658705 -0.046597913
000260 e4 23 d4 bc 38 7b d5 b8 4a f5 17 bd af 81 45 3c
       -0.02589602 -0.00010179583 -0.03709916 0.012054845
000270 ee fd 9e 3c dc bb 77 bd c7 3c bf bd e8 f6 5e 3d
       0.019408192 -0.06048189 -0.09337764 0.054434687
000280 3d 6a 42 bd 27 05 ca bb 88 5d 1c 3d a0 e6 5e bd
       -0.047464598 -0.006165165 0.038175136 -0.05441916
000290 8e 57 19 bc 6c ae 4d 3d ff d3 54 bd 09 db 12 bd
       -0.009359254 0.05021517 -0.051959988 -0.03585342
0002a0 0f 98 21 bd 94 2e 10 bc 6c e7 c3 3d 14 3d 1b bd
       -0.039451655 -0.008800168 0.095656246 -0.037900046
0002b0 9d 36 a0 3d 7a 9d 07 bc b0 c4 9d bd 7e bf ce bc
       0.07822917 -0.008277291 -0.07703531 -0.025237795
0002c0 23 0a 5d 3d 0b 70 07 b9 23 13 33 3d 5e cb 50 bd
       0.053964745 -0.00012916343 0.043719422 -0.050975196
0002d0 21 74 81 bd 2b 82 f2 3c 0d 1e f4 3c 4f d3 11 bd
       -0.06320978 0.029603085 0.029799486 -0.03560191
0002e0 a0 8f 00 3d fc 56 46 3d 3c fb 5d 3d 0b dd b0 3c
       0.03138697 0.0484228 0.054194674 0.021589777
0002f0 b0 df 38 bd 84 7f 58 bc 71 74 82 bd ad d9 93 bd
       -0.0451352 -0.013213996 -0.06369866 -0.07219253
000300 80 4c 69 bd 47 4f 6a bd 33 f5 a7 bd ee bd 47 bd
       -0.05695772 -0.05720451 -0.08201065 -0.048765115
000310 e7 8c e0 ba 25 4a 8d 3d 94 a8 fe 3c 73 52 ab 3d
       -0.0017131836 0.068989076 0.031086244 0.08365335
000320 92 ba 9f 3b f6 1a cf bc 7e 7d 9b bd 79 7e a0 3d
       0.004874536 -0.02528141 -0.07592295 0.07836623
000330 0c 5d 86 bc 62 42 1d bd 7f 9f 33 bc a9 ec 19 3d
       -0.01640179 -0.038393386 -0.01096332 0.037579212
000340 1f d2 8d 3d ca 7e 9e bc 8e 4c e9 3c b4 3d 86 bd
       0.06924843 -0.019347567 0.028478887 -0.06554738
000350 50 cf 4b bd c0 34 81 3d 51 28 34 bd c6 24 2f 3d
       -0.049758255 0.063088894 -0.04398376 0.04275968
000360 ec b2 fa bb c4 3b 90 3d 95 69 55 3d e9 55 e1 bc
       -0.0076507237 0.070426494 0.052102644 -0.027506785
000370 78 67 49 bb ab 15 81 bd de d1 d1 bc e8 90 90 3d
       -0.0030731838 -0.06302961 -0.025612768 0.07058889
000380 03 48 9b bd ef 0d c9 bc 2b 42 4c bd c9 98 b6 bd
       -0.075820945 -0.024542777 -0.04986779 -0.0891586
000390 b4 cf 2f 3d 27 94 dc 3c 0e d1 b0 bc 99 c5 08 3d
       0.04292269 0.026926113 -0.02158406 0.03339157
0003a0 55 f4 a6 3c 80 fd bc bc 0a 5e d3 3d 4e 79 86 bd
       0.020380178 -0.023070097 0.10320671 -0.06566106
0003b0 c3 89 6f bd fb 8e 8c bd e6 29 a6 bb 07 72 0c 3c
       -0.05848099 -0.06863209 -0.0050709127 0.008572108
0003c0 98 03 81 bd 0f 3a 82 bd 46 ee 40 3d 21 fe 23 3d
       -0.062995136 -0.0635873 0.047102235 0.040037278
0003d0 5b c7 1e bd 8b fb 87 3c d9 4c 21 bd 0b ad b3 3d
       -0.03876434 0.016599437 -0.03937993 0.0877324
0003e0 19 c8 2b bd 07 82 bc 3d 4c d0 92 bc 25 a6 71 bc
       -0.041938875 0.09204488 -0.01792159 -0.014749085
0003f0 62 19 8f bd c3 e0 80 bd eb 21 3c 3d c1 27 b7 3c
       -0.06987263 -0.0629287 0.045930784 0.022357823

layer2.bias f4 [128]
000000 a7 06 c6 bb 18 e4 4b 3d ca ab 34 3d c1 47 23 3c
       -0.0060432735 0.049778074 0.044109143 0.009965838
000010 90 d9 02 3d ff 32 4c 3d 72 40 b4 bc 4d 8d c6 3c
       0.031945765 0.04985332 -0.022003386 0.0242373
000020 50 c4 9d bd b8 22 a0 3d e3 16 3b 3d c7 f8 90 3d
       -0.07703459 0.07819122 0.045676123 0.070787005
000030 c6 62 6c 3d 5e fe d2 3d e1 50 a5 3c 0c 04 96 bc
       0.057711385 0.10302423 0.020180168 -0.018312477
000040 0c 0b ef bc 30 77 4c bd b9 b0 cb bc 95 f0 3a bd
       -0.029180072 -0.049918354 -0.024864541 -0.045639593
000050 7c 59 1b 3d 67 e3 84 bd 91 7c 76 3d de f5 2e 3d
       0.037927136 -0.06488686 0.06017739 0.042714946
000060 02 9d 27 bd 6a 2f 14 3c e4 91 8c bd 48 48 8d bc
       -0.04092122 0.0090445075 -0.06863764 -0.01724638
000070 1e 1e cf 3c b8 1c a9 bd 1a 06 39 3d 34 c3 91 bd
       0.025282916 -0.08257431 0.045171835 -0.0711731
000080 f5 d3 95 3d 87 59 94 bd 06 43 a3 bd 77 34 58 3c
       0.07315818 -0.072436385 -0.07971768 0.013196102
000090 3c 93 c1 bc 0d e9 0c bc 63 a6 61 bd 58 72 20 bd
       -0.023629777 -0.0086004855 -0.05509032 -0.039171547
0000a0 e9 47 89 bd ce 9d 8c 3d e3 6c 91 bd ff 46 27 3c
       -0.06703169 0.06866036 -0.071008466 0.010209798
0000b0 37 56 82 3c a6 cf 2b 3d 03 9e 62 3d a5 5d 84 3c
       0.015910251 0.041946076 0.055326473 0.016157934
0000c0 6f fe 99 3d 12 9d 3b 3d 09 42 b7 3d fd 07 b1 3d
       0.075192325 0.04580409 0.08948142 0.08644102
0000d0 f0 3a 2c bb bb 83 b2 bd e0 b2 c2 3c 70 ed e6 bc
       -0.0026280247 -0.08716532 0.023766935 -0.02818939
0000e0 57 10 e5 3c 8f fe e8 bb 97 29 b7 3c 60 5c 62 3d
       0.027961893 -0.007110424 0.022358699 0.055263877
0000f0 ee bb 10 3d c0 f5 c4 3b c7 9a 66 3c da 6b 97 bd
       0.035335474 0.006010741 0.014074988 -0.07393618
000100 e6 97 b3 3d 3a 4a 78 3d b7 c1 d5 3d c6 be 61 3d
       0.08769207 0.060617663 0.10437339 0.055113576
000110 75 02 a3 3d 42 3d e0 bc 46 05 7c 3c c8 5d c7 bc
       0.07959453 -0.02737296 0.015382117 -0.02433671
000120 c4 8c 54 b9 d2 9b 41 bd fe 51 93 3d 2d 14 22 3d
       -0.00020270335 -0.047267742 0.07193373 0.039570022
000130 67 d0 1a 3d 22 25 6f 3b 64 1f 9e 3b d8 0b 0b 3d
       0.037796404 0.0036490639 0.0048255194 0.033946842
000140 f6 f9 b6 3d 72 8e 72 3d 34 33 58 3d 3e 8f 83 bc
       0.08934395 0.059217878 0.052783206 -0.016059514
000150 dd 6b 68 bd 15 00 48 bd 92 1b b9 3d ad 4d 58 3d
       -0.05674349 -0.048828203 0.09038462 0.052808452
000160 71 aa 1d bc a8 10 72 bd 17 c2 90 3d 8e 72 bf 3d
       -0.009623156 -0.059097916 0.0706827 0.093480214
000170 57 27 21 3d 08 71 af 3a 0e 8d a9 3d db 9c 57 bb
       0.039344158 0.0013385126 0.08278857 -0.003289989
000180 0b 8e d7 3b ad 9e 6d bd ab fc 9c bd f9 0c 3b 3d
       0.006578212 -0.058012653 -0.0766538 0.04566667
000190 34 91 d5 3d e3 1b b3 3c 2e 01 9e 3d 2c 43 85 bd
       0.10428086 0.021863883 0.07715069 -0.06506953
0001a0 24 cd 3d bb 2c 9c ad 3d 9e ed 92 bd 5a 8c 8f 3d
       -0.0028961385 0.08477053 -0.07174228 0.07009192
0001b0 f6 2f 1e 3d c0 f7 a4 3d f8 f2 94 bd e1 e1 92 3c
       0.038619958 0.08055067 -0.07272905 0.017929973
0001c0 6b 61 a3 3a 4a f0 a9 3d 7c 91 be 3d 0e 4c 38 bd
       0.0012464946 0.082977846 0.09305093 -0.044994406
0001d0 37 4e 91 3d a0 58 1e 3d 3c 8b cf 3c dc 2e 26 3d
       0.070949964 0.038658738 0.025334947 0.040572032
0001e0 50 33 d1 3d c3 3b 49 3d 5a 03 3b 3c 97 d8 64 bd
       0.10214865 0.04912926 0.011414373 -0.05587062
0001f0 6b d1 fe bc 92 9f 76 3d d9 69 ab 3c 86 eb a4 bc
       -0.031105718 0.06021077 0.020924496 -0.020131838

layer3.weight f4 [128, 128]
000000 d3 e7 c2 b7 44 71 ed b9 a5 fe 96 3b 6d a3 4c bd
       -2.3234554e-05 -0.00045288552 0.0046079927 -0.049960542
000010 4c b5 be 3c b6 79 aa bd 51 ad 60 bd 71 f1 a1 3a
       0.023279808 -0.08323996 -0.054852787 0.001235528
000020 07 00 1f 3d 08 23 38 3d 23 04 50 3d 09 b0 d6 3c
       0.038818385 0.044955283 0.050785195 0.026206987
000030 61 13 f1 bb e9 0a 46 3d 52 a7 ad bd 69 46 97 3d
       -0.0073570465 0.04835025 -0.084791794 0.073864765
000040 29 f0 10 bd 54 4c 46 bb e1 92 1a 3a da 14 3d 3d
       -0.035385285 -0.0030257897 0.00058965205 0.046162464
000050 7f 93 8c 3d 49 7a 05 bd d0 a4 a4 bd 6b a8 82 3c
       0.0686407 -0.032587323 -0.08039248 0.015949449
000060 a8 88 6b 3a be 1d 2f bd 07 bd 21 bc 83 f9 28 3d
       0.0008984902 -0.042752974 -0.009871728 0.041253578
000070 04 ae 22 3c c9 d8 9c 3d f6 10 87 bc 98 9a 44 bd
       0.009929184 0.07658536 -0.01648758 -0.047998995
000080 5b dd ac 3d 4c 5f 5b 3d 12 42 84 3d 9f e4 87 bd
       0.08440658 0.05355768 0.064579144 -0.06635403
000090 f7 9e 85 3c 34 89 92 bd bf 5f 71 3d e5 c1 13 3d
       0.016311152 -0.07155076 0.0589292 0.036073584
0000a0 33 c7 3f bd f7 1c a3 bc c3 b6 78 3d 89 6c 95 3d
       -0.04682083 -0.019911272 0.06072117 0.07296092
0000b0 65 c0 fa 3c 59 17 13 bd 8c 47 92 3d 89 02 61 bd
       0.030609319 -0.035910938 0.07142553 -0.05493406
0000c0 1e 99 9a 3d 15 8d 57 3d df 2e d7 bc 37 d5 3c 3c
       0.07548736 0.05262478 -0.026267467 0.011525444
0000d0 f0 f4 be 3c 7d 82 9d 3d 42 c8 9f bd 29 42 68 bd
       0.023310155 0.07690904 -0.07801868 -0.05670372
0000e0 21 89 28 bb f5 e8 98 3c b2 d1 8a bd 7a f8 32 bd
       -0.00257165 0.01866577 -0.067782775 -0.043693997
0000f0 51 b8 e3 3c 4f 70 94 3c 21 d6 e7 3c 00 65 15 bd
       0.02779785 0.01811996 0.028300347 -0.036473274
000100 62 60 8c bd 42 83 ac 3d eb df 1f 3d 92 d6 7c bd
       -0.06854321 0.08423473 0.039031904 -0.061728068
000110 00 74 8e 3d a0 f3 9a bd 56 ca 61 bc e5 e3 10 bd
       0.06955719 -0.07565999 -0.013781151 -0.035373587
000120 74 56 94 bd 54 d3 94 3d 25 25 af bb 3a d1 9d bd
       -0.07243052 0.0726687 -0.005345004 -0.077059224
000130 5a 72 9a 3d e7 84 66 bc 8c 2c 94 bd f0 d9 02 3d
       0.07541342 -0.014069772 -0.07235059 0.031946123
000140 2f 66 30 bd a8 8d b2 3d 03 52 a7 bd 42 5a 40 bd
       -0.0430662 0.08718425 -0.08169939 -0.046961077
000150 aa 1c aa bd 4a 51 98 3d cf 7e ab bd 3f fe 71 bd
       -0.083062485 0.0743738 -0.08373796 -0.05908036
000160 e4 7b 7f 3d bc 7c d4 bc dd db ed 3b c7 d0 a6 b9
       0.06237401 -0.025938384 0.0072588758 -0.0003181754
000170 ba 99 56 bd 05 c7 6e bd 10 52 ab bd 71 7a 91 3d
       -0.0523927 -0.05829527 -0.083652616 0.07103432
000180 91 8a b4 3c 6c 8d 51 bd 35 bf 85 bd f6 a5 99 3d
       0.02203873 -0.05116026 -0.065306105 0.07502358
000190 9e 59 a0 bb c1 3d 19 bd f4 5e e4 3b 3e ec 64 bc
       -0.0048934957 -0.03741241 0.006969327 -0.01397234
0001a0 eb 18 40 3c 21 cd c2 bb 0e 5d be bc 69 1e bb 3c
       0.011724691 -0.0059448634 -0.023237731 0.02284165
0001b0 eb 97 9b bd fb 8e a5 bd fe 68 21 bd 19 fe 42 bc
       -0.075973354 -0.08083912 -0.03940677 -0.011901402
0001c0 17 54 9a bd bf 8d 96 bd 3c 91 87 3c ff 34 1f 3d
       -0.0753557 -0.07351255 0.016548745 0.0388689
0001d0 d6 88 97 bd 9b aa 87 3d 39 67 4c 3d 37 6c 85 3d
       -0.07399146 0.06624337 0.04990313 0.06514781
0001e0 45 03 87 3d af 9f a4 3d aa 12 0b 3d 2b 6c e8 3c
       0.065924205 0.0803827 0.033953346 0.028371891
0001f0 5d 4e a1 bc 1b 3d d2 3c ad 72 8d bd 57 0b aa 3c
       -0.019690687 0.025663903 -0.06906638 0.02075736
000200 f5 1b 08 bd a4 56 89 bd 22 64 ad 3b 7b be 8d 3d
       -0.033229787 -0.067059785 0.005291478 0.06921097
000210 87 6a c7 ba cf b0 86 3d 2b 26 1a 3d 7f d3 fc bb
       -0.0015214243 0.06576692 0.037634056 -0.007715642
000220 18 23 ad bd 4d a5 84 3d 50 60 b2 bc 7d ee 7f 3d
       -0.08453959 0.06476841 -0.021774441 0.0624833
000230 e0 cf bb 3b 49 98 07 bd d7 a8 90 3d 1e c3 48 3d
       0.0057315677 -0.033104215 0.07063454 0.049014203
000240 03 4f f6 3b e2 4a 63 3d 36 20 89 bd 8d dc d5 bc
       0.007516743 0.055491336 -0.06695597 -0.026106143
000250 9b 79 6a bd dd 0f 53 3d 70 1a a5 bd 0a 47 ab bd
       -0.05724488 0.0515288 -0.08061683 -0.08363159
000260 0d 88 85 bc f4 20 8a bc 29 40 47 3c d8 e8 52 bc
       -0.016300226 -0.016861416 0.012161293 -0.012872897
000270 8f 70 5f bd 0a 30 80 3d 30 8f 96 3b 33 d7 af bd
       -0.054550704 0.06259163 0.004594706 -0.08585968
000280 71 57 08 3d dc a5 ae 3d 95 d5 a3 3c 73 91 b1 bd
       0.033286516 0.08527729 0.019999305 -0.0867032
000290 70 a0 a6 3d 87 4d 72 3d ec 84 a6 bd 3a c7 ea 3c
       0.0813607 0.059155967 -0.081308216 0.028659452
0002a0 b7 3d 47 3c 80 aa 7d 3c fb 5b 25 bd 63 b3 3e 3c
       0.01216071 0.015482545 -0.040370923 0.011639449
0002b0 cc 07 67 3d 0f c7 3b bc db d7 69 bd de 63 32 3c
       0.05640392 -0.0114610335 -0.05709062 0.010888068
0002c0 e8 c5 98 3d 19 8d c5 3c cf e4 f1 bc 36 13 48 bd
       0.074596226 0.024115132 -0.02952805 -0.048846446
0002d0 b7 e5 ad bd 88 03 30 bd 12 c7 a1 bd 20 6b 82 3c
       -0.0849108 -0.042972118 -0.07899298 0.015920222
0002e0 be a9 29 3d 8b ef 93 3d a1 f7 76 bb 58 03 66 3c
       0.041421644 0.072234236 -0.003768422 0.014038883
0002f0 4e 8b cb bc 28 51 91 bc 50 8c 8a bd fc 20 0b 3c
       -0.0248467 -0.017738894 -0.06765044 0.008491751
000300 ac 27 db 3d ad 4b 4c 3d 6c b1 00 3d 6c c7 71 bd
       0.10700926 0.049876858 0.031419203 -0.059028074
000310 65 7a ed 3c d2 e3 f4 3d 1f 79 8d bd 70 f0 1d 3d
       0.028989026 0.11957516 -0.06907868 0.038559377
000320 3d 31 c3 3c 83 b6 81 bd 96 c1 75 bd f8 b1 83 bc
       0.02382719 -0.063336395 -0.05999907 -0.016076073
000330 3a 55 6f b9 ad fd 13 3d 79 87 dc bd d0 61 b1 3d
       -0.00022824566 0.036130596 -0.10768027 0.086612344
000340 d9 0d ae bd d1 38 3e 3d 1c 26 be 3d a1 ce 31 3d
       -0.08498735 0.046440903 0.092846125 0.043409947
000350 ef 9a 93 39 24 b8 ae bd 16 44 09 3d 5c ea 04 3d
       0.0002815346 -0.08531216 0.033512197 0.032450065
000360 4b f6 4d 3d b8 b8 97 bd b7 f1 ca 3c 68 60 c2 3c
       0.05028371 -0.07408279 0.024773462 0.02372761
000370 80 56 ef 3c 73 bd 4e bd 85 94 c1 bd 35 61 67 3d
       0.029216051 -0.05047364 -0.09452156 0.05648919
000380 cd a7 a7 3d 81 57 dd 3d ba 95 27 3d 75 ea b3 bd
       0.08186302 0.10807706 0.040914275 -0.087849535
000390 d8 0e 32 bd e8 37 80 3d 20 fb 59 3d 12 e7 33 bd
       -0.043471187 0.06260663 0.053218007 -0.043921538
0003a0 b5 70 de 3b 2a 36 02 3d f4 43 2a bd da 32 83 3c
       0.006788338 0.031789936 -0.04156871 0.016015459
0003b0 ed 75 0a bd c5 52 02 bd 78 e5 46 bd 4b 9e 61 bd
       -0.03380387 -0.031817216 -0.048558682 -0.0550826
0003c0 dd 72 5e 3d a8 9b 86 3d 32 23 81 3d 49 ad 1e 3c
       0.05430876 0.06572658 0.06305541 0.009684869
0003d0 8c 74 c1 3c 20 95 fe 3d e1 21 74 bc 58 4c 23 bd
       0.023615144 0.12430787 -0.0149006555 -0.03986773
0003e0 38 48 0a 3d 93 16 3f 3d 1d f9 cf bc 0c 90 05 bc
       0.03376028 0.046652388 -0.025387341 -0.008152019
0003f0 dc b4 48 3d b1 f1 be 3c c2 7a e8 3b c7 2a 9f 3d
       0.049000606 0.023308607 0.007094712 0.07771831

layer3.bias f4 [128]
000000 7d df 18 bd b4 99 09 bd cb d7 8c bd 59 0a ae 3d
       -0.03732251 -0.03359385 -0.06877097 0.084980674
000010 9e 39 3c bd 6b 6b 89 bd 96 28 50 bd 12 f1 80 3c
       -0.045953386 -0.067099415 -0.050819956 0.015739951
000020 a1 d2 1c bd 23 d5 4b bd 45 a3 97 3d 14 ce 6d 3c
       -0.03828681 -0.04976381 0.07404188 0.014514465
000030 98 a3 5a bc a5 63 45 bd 8c b1 c6 3d 79 58 33 bd
       -0.013344668 -0.04819073 0.09701833 -0.043785546
000040 ae 10 9e bd fa 30 ba 3d 18 75 7c bd 7f a0 2e bd
       -0.07718025 0.09091373 -0.061635107 -0.04263353
000050 3d a0 99 3d f2 af cc bc 52 6e 24 3d df 45 97 bc
       0.07501266 -0.024986241 0.040144272 -0.018465934
000060 0f a8 c9 3c 77 25 a6 ba 79 0d 2a bd 4a e8 b1 bc
       0.02461627 -0.001267596 -0.041516755 -0.02171721
000070 6d 1b c6 bc c6 56 58 3c 72 81 80 bd 09 0a 00 3d
       -0.024183 0.013204282 -0.0627469 0.03125957
000080 15 00 0d ba 00 4f b5 3d c4 9b 82 bd b6 33 87 3d
       -0.00053787354 0.08852959 -0.06377366 0.0660166
000090 eb a2 31 bd 71 ca 59 3d 7e 9d f0 bc 72 d8 4e bd
       -0.04336826 0.05317158 -0.029371973 -0.050499387
0000a0 a8 1c 45 bd ed 01 ad 3d b7 67 71 3d 25 cd 5a 3d
       -0.04812303 0.08447633 0.0589368 0.053418297
0000b0 a0 d7 14 bd c7 d2 4f 3d 9d 5b 79 bd 70 3f 7e bd
       -0.03633845 0.050738122 -0.060878385 -0.062072217
0000c0 dc 2d 14 3d c0 ec b0 3d 2d b6 ef 3c 78 bd 98 3d
       0.036176547 0.086389065 0.029261673 0.07458013
0000d0 a5 1d 66 3d 16 18 6c 3d b5 c1 6e bd 7a 28 ab 3c
       0.056180615 0.057640158 -0.058290202 0.020893324
0000e0 d8 a5 ba 3d a5 8d 11 bd 63 ea 06 3d cd 34 02 3d
       0.091136634 -0.035535473 0.032938372 0.031788636
0000f0 5e 4f ea bb ef e8 01 bc 0a cf 7e bd aa 07 01 bd
       -0.0071505746 -0.007929071 -0.062209167 -0.03150145
000100 d0 5e 55 3d 9c 08 59 bd d3 57 87 bd c0 41 0a bc
       0.052092373 -0.052986726 -0.06608548 -0.008438528
000110 14 c8 45 bc 54 bd 05 bd 15 af 62 bc bf ea a8 3d
       -0.012071628 -0.03265126 -0.013835688 0.08247899
000120 32 4c 62 bd 9b 78 98 bd 72 48 ef bc 2e 5d a2 bd
       -0.055248447 -0.07444879 -0.02920935 -0.07927929
000130 87 28 b4 3d 25 31 e7 bc 4f 08 c4 3c 14 93 01 3c
       0.087967925 -0.028221676 0.023929743 0.007908601
000140 4b 89 b1 3d 1e 7c 88 3c c4 b0 22 3c b0 61 52 bd
       0.08668765 0.016660746 0.0099298395 -0.051362693
000150 f9 4b aa bd a6 a2 14 3d f2 9d 94 bd 09 73 58 bc
       -0.08315272 0.036287926 -0.07256688 -0.01321102
000160 1f e6 ca 3c 8a bb 60 bb 39 0f 8f bd ff fc 9d 3d
       0.024767933 -0.003429147 -0.06985325 0.07714271
000170 6a b0 9f 3d f0 c3 42 bc 7c 7f 32 bb ab 3e c4 3d
       0.0779732 -0.011887535 -0.002723663 0.095822655
000180 2d e8 a8 3d cd 67 08 3d ab 0a 15 bd ba e0 ae 3d
       0.08247409 0.033302117 -0.036387127 0.08538957
000190 49 d3 4c bd 07 a7 0c 3d 49 36 a9 3d 50 02 e7 ba
       -0.050006185 0.034338977 0.08262307 -0.001762459
0001a0 8d 21 99 3d c9 1a db 3a 5d 38 61 bd 82 3a 7a bd
       0.074771024 0.0016716357 -0.054985393 -0.061090954
0001b0 e6 23 9c 3d bd 3f 12 bd cc 45 aa 3d 04 5e 17 3c
       0.076240346 -0.035705317 0.08314094 0.009238724
0001c0 c5 1e 2c 3b 91 1f 77 bd 2c c9 e8 3b 4c 31 63 3d
       0.0026263457 -0.06033284 0.0071040597 0.055466935
0001d0 57 86 a9 3d 4d 60 6c 3d 2f d5 c1 bc f6 97 b5 bb
       0.082775764 0.057709027 -0.023661224 -0.005541797
0001e0 2e 5e 7b bd 44 bf bc 3d 36 1a d2 3b 82 47 e8 3c
       -0.061369114 0.092161685 0.006411816 0.02835441
0001f0 b4 7d aa 3d 0a 5d 9f 3d 2f ef 21 bd 58 b9 3b bd
       0.08324757 0.07781418 -0.039534744 -0.045831054

output_layer.weight f4 [9, 128]
000000 ee 33 89 bc 7b f8 18 bd bd 85 cb 3d b3 61 85 bb
       -0.016748395 -0.037346344 0.09937618 -0.0040704845
000010 a9 5d 29 bc 8d f6 24 3d 5e e1 e4 3c 5e 80 3c 3d
       -0.010337272 0.04027419 0.027939495 0.046020858
000020 c2 07 a0 bd 61 85 33 bc e8 e8 c6 3d 3a 7c b7 3c
       -0.0781398 -0.010957093 0.09712392 0.022398103
000030 9f a8 ac bd 12 62 90 3d 8d 2e 3f bd 42 a7 a1 bd
       -0.084305994 0.070499554 -0.046675254 -0.0789323
000040 69 ec 97 bc 7d 35 40 bd 64 ba d8 3c 30 78 42 3d
       -0.018545346 -0.04692601 0.026456065 0.0474779
000050 89 c5 9a 3b 35 fc 6b bc cb 0f bb 3d 20 82 c2 3d
       0.004723255 -0.014403393 0.09133872 0.094974756
000060 ae 4c 76 3d 89 90 01 bd e5 04 64 bc 99 8e ea 3c
       0.06013172 -0.03163198 -0.013917183 0.028632449
000070 df d6 b8 3c ef 2d da bc 69 83 78 bd b5 94 a3 bc
       0.022563396 -0.026633231 -0.060672197 -0.01996837
000080 21 f1 43 bc ca a2 8b bc 8d 85 ae 3c 16 28 bd 3c
       -0.011959345 -0.017045397 0.021303916 0.023090404
000090 68 21 4a 3d ae 8c 94 bd 21 ef 55 bd a1 04 f3 3c
       0.049348265 -0.07253395 -0.052230004 0.029665293
0000a0 ae 57 d8 ba e9 21 c0 3c bf 12 62 3d 99 e9 d1 bd
       -0.0016505623 0.02345367 0.05519366 -0.10249633
0000b0 1b 59 c7 3c 0c bc 41 3d de 14 33 bb 26 10 69 bc
       0.024334481 0.047298476 -0.002732567 -0.0142250415
0000c0 cf 77 50 bd e2 c2 25 3d 3f bd 43 bd 9f 2f 45 bd
       -0.05089551 0.040469058 -0.0477879 -0.04814112
0000d0 7e 1d ac 3d e0 18 25 3d 81 e4 8e 3c 31 77 04 3d
       0.08404063 0.040306926 0.017442944 0.032340232
0000e0 f6 a2 a0 3c dc 95 c4 bb de 41 13 3c 63 ee 31 bb
       0.019608956 -0.00599931 0.008987872 -0.0027150146
0000f0 83 15 82 bd 25 0b 34 3d d8 0b 92 3d 51 22 8b 3d
       -0.06351759 0.04395594 0.07131165 0.06793655
000100 95 77 55 bc 3f 7e 84 bc 2d e8 d7 3c 97 52 67 bd
       -0.013028999 -0.01617348 0.026355827 -0.05647525
000110 ca f6 06 bd cb cc a3 bc b2 49 b3 3c a5 81 4b bc
       -0.0329502 -0.019995114 0.021885727 -0.012421046
000120 ad cc 5b bd c0 fc 9b 3c 75 01 af 3d 36 0e 93 bd
       -0.05366199 0.019041419 0.085452 -0.07180445
000130 33 ab 22 3d 6d c1 56 bd c3 f1 47 3d c9 27 4d bd
       0.03971405 -0.05243056 0.048814546 -0.05008677
000140 53 99 49 3d 26 41 ad bd b7 ca c8 3d 3b e5 4c 3d
       0.049218487 -0.08459692 0.0980429 0.0500233
000150 7d 60 8e 3d 0e a8 84 3d fc 16 13 3d 46 0e 87 bd
       0.069519974 0.064773664 0.03591059 -0.06594519
000160 cd 2b 66 bd f6 f0 4d 3c aa bf 1b bd c2 3c 75 bc
       -0.056194115 0.012569657 -0.038024582 -0.014968099
000170 3f b2 5f 3d df f9 d8 3c 80 f3 a2 3d ed c6 99 3d
       0.054613348 0.026486335 0.079566 0.07508645
000180 cf 5d a6 3d df 8a 94 3d df 21 12 3d 13 b0 91 3d
       0.08123361 0.0725305 0.035676833 0.071136616
000190 d3 e6 74 bd 8d 88 57 3b 89 2e be 3d 50 da 5b 3d
       -0.059790444 0.0032887787 0.092862196 0.053674996
0001a0 e8 cf 68 bc 8e 64 d1 3c ab 9d b2 bd c9 72 1e 3d
       -0.014209725 0.025560644 -0.08721479 0.038683686
0001b0 51 4c eb 3c 35 9b 47 3d d3 16 a7 3d c1 4d 26 bd
       0.028722914 0.048732 0.0815865 -0.040601496
0001c0 c1 1c 07 3d 46 bb e4 bc 76 f5 d2 3c 0b 40 57 3c
       0.032986406 -0.02792133 0.02575181 0.013137828
0001d0 f6 f9 ab 3d 65 ef 07 bd f7 fe af 3c 28 0e 28 3d
       0.08397286 -0.03318729 0.021483881 0.041029125
0001e0 b3 6f 16 3d dc 10 54 bc 22 30 71 3d 4b 40 27 bc
       0.03672762 -0.012943473 0.058883794 -0.0102082
0001f0 5d 32 a4 bd 41 d1 23 3d e9 37 35 3d 23 65 24 bd
       -0.080174185 0.039994482 0.044242773 -0.040135514
000200 e7 28 4d bd 16 d7 b0 bc 72 a6 04 bd f8 68 b1 3d
       -0.050087836 -0.021586936 -0.032385297 0.08662599
000210 32 8c 20 bc fc 09 a1 3b 8e 1b 96 bc 0a 88 64 3d
       -0.00979905 0.0049145203 -0.018323686 0.0557938
000220 10 54 7b bd f1 48 dc bc 86 ce 5b bd c3 87 af bd
       -0.061359465 -0.02689025 -0.053663753 -0.08570816
000230 7a 28 85 3d c6 11 69 bd b2 a9 a1 3d 3c c3 bf 3c
       0.06501861 -0.056901716 0.07893695 0.023408525
000240 e9 ef 1a bd 7e 33 0f bd 9f 96 87 3d d0 28 90 bd
       -0.037826452 -0.034961216 0.066205256 -0.07039034
000250 10 4e 82 bb 75 4c 36 bd 1e 2d 68 3d 25 40 e2 3d
       -0.003976591 -0.04450651 0.056683652 0.11047391
000260 ff b8 5e bc cb d8 04 3d 3b e6 0c bc 15 f6 0a 3d
       -0.013593911 0.032433312 -0.008599813 0.03392609
000270 9d 1f cc 3c e9 b7 aa bc 8b f7 d5 bb 42 03 2a 3d
       0.024917418 -0.020839648 -0.0065297536 0.041507013
000280 25 54 16 3d a6 b1 9f bb 08 84 6f 3d 00 59 08 bc
       0.03670134 -0.0048734723 0.058475524 -0.0083220005
000290 bf 09 75 3d 51 79 6a 3d ba 7e 0c bc e2 a6 d2 3c
       0.059823748 0.057244603 -0.008575136 0.025714342
0002a0 93 44 a0 bd d8 44 0c 3d c6 73 51 3d 06 05 c5 3c
       -0.078255795 0.034245342 0.0511358 0.024050247
0002b0 ef 93 95 3b 52 2a 52 bd d1 f4 62 bd 7b 7d 88 3d
       0.004564754 -0.05130989 -0.055409256 0.066645585
0002c0 f0 4b 2f 3d f2 02 ae 3c 14 43 26 bd 8f 44 74 3d
       0.04279703 0.021241639 -0.040591314 0.059635695
0002d0 16 9a 91 bc 18 11 17 3d 5d 59 00 bd a1 b0 92 bd
       -0.01777367 0.036881536 -0.031335223 -0.071625955
0002e0 fc b7 4a 3c be e6 a9 bd da 1d 9c 3d 7d 1c 2a bc
       0.012372967 -0.08295964 0.07622881 -0.010382769
0002f0 b2 ca 88 3c 66 d7 3e 3d ec 9c 62 3c 3a 11 83 3d
       0.016698215 0.04659214 0.013831358 0.0639977
000300 8c 50 39 bd cd 89 e8 bc 66 1e 7f 3b 14 25 1a bc
       -0.04524283 -0.028386021 0.003892803 -0.009408254
000310 af 5b b2 bd 25 03 9b bd 50 44 59 3d e5 6a 96 3d
       -0.087088935 -0.07568959 0.053043664 0.07344607
000320 27 79 fc bc 92 9e 09 bd 8b d3 12 bd b7 27 8c 3d
       -0.030819489 -0.03359849 -0.035846274 0.068435125
000330 14 15 c3 3d e5 43 6b bd 0c 4a 9b 3d 82 b1 be bc
       0.09525505 -0.057437796 0.07582483 -0.023278002
000340 98 00 9b 3d 75 db 8d bd e2 a4 bc 3d e9 1c 1d 3d
       0.075684726 -0.06926624 0.092111364 0.03835765
000350 f6 18 8f 3c 50 f0 a2 bd ac 35 4f 3d 3e 16 b5 3c
       0.017467957 -0.07955992 0.050588295 0.022105332
000360 43 5a 28 3d 37 05 78 bb 1d 66 22 bc 1d 56 5f 3d
       0.041101705 -0.0037844905 -0.009912041 0.054525483
000370 1c 93 ee bc bb b6 87 bd 5e b7 fd bc 10 47 bd 3d
       -0.029122882 -0.0662665 -0.030971225 0.0924207
000380 ec 72 2d 3d da 99 c1 3d 6d 9e af 3d 6a 5b 81 3d
       0.042345926 0.09453173 0.08575139 0.06316264
000390 97 ae 90 bd 46 d2 af bd 71 ee 3b bd 70 47 0e bc
       -0.0706455 -0.08585028 -0.045881692 -0.008684024
0003a0 3b 85 8e bd c8 a3 58 bd e1 72 54 3c 4c d0 a4 3d
       -0.069590054 -0.05289057 0.012966842 0.08047542
0003b0 e8 1f 9b bb 3e fc c2 3d 6a b2 23 bd 53 87 51 3d
       -0.004734028 0.09520768 -0.03996507 0.051154446
0003c0 4c a5 a9 3c e6 4d 15 bc 9e 84 59 bd bc 8b 3e 3d
       0.020708703 -0.009112811 -0.05310499 0.04651998
0003d0 76 4b c7 3d 62 85 46 bd 76 07 8f bb a5 6c 07 bd
       0.0973119 -0.048467048 -0.004364903 -0.033062596
0003e0 37 59 56 3d 56 e4 c0 3c 2a fc 72 bd 2d 8c 8d bd
       0.052331176 0.023546379 -0.059322514 -0.06911502
0003f0 42 88 ad bd dc f1 b5 3d f6 f8 95 3d bc d7 c1 bb
       -0.08473255 0.08884022 0.07322876 -0.00591561

output_layer.bias f4 [9]
000000 05 82 8b 3d e2 ca 0f 3d f9 fc c2 3c 0c 7c a9 3d
       0.06811909 0.035105594 0.023802267 0.08275613
000010 d0 cd a8 bb 8a 3a a0 bd df 8a 27 3d e2 3b 07 3d
       -0.005151488 -0.078236654 0.040903922 0.033016093
000020 97 d6 8a 3d
       0.06779211
