results/train/models_distance_30m_flat/name_DQNMA/best_model.pt (torch, 193103 bytes, 8 tensors)

layer1.weight f4 [128, 40]
0	0xbdc64a56	-0.09682147
1	0x3da00f7d	0.07815454
2	0x3d9e30c2	0.077241436
3	0x3e4da77f	0.20083426
4	0xbcaa01e4	-0.020752855
5	0xbd3b548a	-0.04573492
6	0x3d548c00	0.051891327
7	0xbe43f87f	-0.19137762
8	0xbe05a428	-0.13050902
9	0xbd2a7d81	-0.041623596
10	0x3dbb37c2	0.09141494
11	0xbd92baca	-0.071645334
12	0x3c967d78	0.018370375
13	0xbdd7307e	-0.10507296
14	0xbab7ab3f	-0.0014012827
15	0xbdd87e59	-0.10570974
16	0xbc50a077	-0.01273357
17	0xbe117ab7	-0.14206968
18	0xbb9dcf9a	-0.004816008
19	0xbdbcd1a0	-0.0921967
20	0xbd3d23f3	-0.046176862
21	0xbd5986eb	-0.053107183
22	0x3c8eb670	0.017420977
23	0x3dcff301	0.10153771
24	0xbd695b40	-0.05697179
25	0x3dec6471	0.11542595
26	0x3bb4e3fd	0.0055203424
27	0xbdfed38f	-0.12442695
28	0x3c2fc85a	0.01072892
29	0x3daa665d	0.083203055
30	0x3de3f4b6	0.11130659
31	0x3d972cdb	0.073816024
32	0x3cdb2b7d	0.026754135
33	0xbe063594	-0.13106376
34	0x3cbb2e14	0.02284912
35	0x3d8469d3	0.06465497
36	0xba298cf0	-0.00064678397
37	0x3dd67958	0.10472363
38	0xbb11f200	-0.0022269487
39	0x3db22d2b	0.08700021
40	0xbd4a8631	-0.04944438
41	0xbd515ac1	-0.05111194
42	0xbd4db83e	-0.050224535
43	0x3dfc53f0	0.12320697
44	0xbd383dbc	-0.04498075
45	0xbe159ef0	-0.14611411
46	0xbddc89a7	-0.107684426
47	0xbe3d2368	-0.18470538
48	0xbe481509	-0.19539274
49	0xbd1a87dd	-0.037727226
50	0x3cec452a	0.028841574
51	0x3de63f72	0.1124257
52	0xbded6cd1	-0.11593021
53	0x3d72d6bc	0.059286818
54	0x3de6cf5b	0.11270019
55	0x3e1a38c0	0.15060711
56	0x3ca273b9	0.019830571
57	0xbd29b4f7	-0.041432347
58	0x3d943a26	0.072376534
59	0x3b548427	0.0032427402
60	0xbe06a3a9	-0.13148369
61	0xbde7f3b1	-0.11325777
62	0x3db4f78a	0.08836277
63	0xbe0228ad	-0.12710829
64	0x3defb37e	0.11704157
65	0xbc0cfb20	-0.008604795
66	0x3e23c094	0.15991431
67	0xbdda555a	-0.10660811
68	0x3d97c6fa	0.07410999
69	0xbda47881	-0.08030797
70	0x3cfd0dd2	0.03089038
71	0xbce1fb32	-0.0275856
72	0x3d15a3d8	0.036533207
73	0xbd6b7057	-0.057480182
74	0xba09797e	-0.0005244239
75	0xbd849a5c	-0.06474754
76	0x3daae70f	0.08344852
77	0x3d9ade2b	0.075619064
78	0x3daa967b	0.08329483
79	0x3d84a3ef	0.0647658
80	0xbcfd256f	-0.030901639
81	0xbd29aea4	-0.041426316
82	0x3dffca32	0.124897376
83	0xbd133d02	-0.035946853
84	0xbddddcf8	-0.10833162
85	0xbd95b5d4	-0.073100716
86	0xbd8ba695	-0.068188824
87	0xbe1d288b	-0.15347497
88	0xbdd3a2ad	-0.10333762
89	0xbd7296ac	-0.059225723
90	0x3d68a7af	0.05680054
91	0x3e353ebc	0.17699713
92	0x3e56154f	0.20906566
93	0xbd3745df	-0.04474437
94	0x3dc457d9	0.09587068
95	0xbd918ef2	-0.07107343
96	0x3c9713f4	0.018442132
97	0x3d3eef9b	0.046615224
98	0x3dc07d33	0.0939888
99	0xbde80030	-0.11328161
100	0xbccb8d84	-0.024847753
101	0x3e4dc261	0.20093681
102	0x3d87e0ac	0.0663465
103	0xbcd71268	-0.026253894
104	0x3db11a13	0.086475514
105	0x3e1783e2	0.14796403
106	0xbd8874b0	-0.066628814
107	0x3ba887b3	0.0051431297
108	0xbc308494	-0.010773797
109	0x3e2b6d78	0.16740978
110	0x3e1b226d	0.15149851
111	0xbcf721d6	-0.030167501
112	0xbcc66633	-0.024218654
113	0xbcbe2be9	-0.023214297
114	0x3e1d009f	0.15332268
115	0x3dc8d8f0	0.098070025
116	0x3de64a23	0.11244609
117	0x3dd431b3	0.10361042
118	0xbdaebf95	-0.08532635
119	0x3e2d733c	0.1693849
120	0x3e069853	0.13144045
121	0xbc130d12	-0.008975284
122	0x3cafa1a8	0.021439388
123	0xbd1f92a7	-0.038958218
124	0xbc98822c	-0.018616758
125	0x3d02d02a	0.031936802
126	0xbd1c1d25	-0.038113732
127	0x3e3ac750	0.18240094
128	0x3e4b3bb5	0.19846995
129	0xbe0b636e	-0.13612148
130	0x3dd4ba3c	0.10387084
131	0x3db1491d	0.086565234
132	0x3dc30050	0.09521544
133	0xbdb78ff5	-0.089630045
134	0xbc7cb44f	-0.015423848
135	0xbde17ab9	-0.110097356
136	0xbdebdfb3	-0.115172766
137	0x3cbc7d6b	0.023009023
138	0xbdec7267	-0.11545258
139	0xbdeaf571	-0.114725955
140	0x3d5e998a	0.054345645
141	0xbe06a00b	-0.13146989
142	0x3d22b3ae	0.039722137
143	0x3dec8b1f	0.11549973
144	0x3caabdd8	0.020842478
145	0x3c149bce	0.00907035
146	0xbdedcf2c	-0.116117805
147	0x3d6aeee0	0.057356715
148	0xbdeaf8d3	-0.11473241
149	0xbde8e03d	-0.11370895
150	0xbda9d289	-0.082921095
151	0xbde4f48d	-0.11179457
152	0x3d6cd66e	0.057821684
153	0x3cfc41c0	0.03079307
154	0x3df11757	0.1177203
155	0x3e034ae8	0.12821543
156	0x3dfde8d8	0.12397927
157	0x3d94cec5	0.07266001
158	0x3d833027	0.06405669
159	0xbda86a2d	-0.082233764
160	0xbd1cde4f	-0.038297947
161	0x3c004a46	0.007830208
162	0x3cd5d004	0.026100166
163	0xbe55252c	-0.20814961
164	0xbd8b5286	-0.068028495
165	0xbd064253	-0.032778095
166	0x3e28b644	0.16475779
167	0x3df03017	0.117279224
168	0x3daf29b8	0.08552879
169	0xbda68d71	-0.081324466
170	0x3d82878c	0.0637351
171	0x3da47005	0.080291785
172	0x3c7eb4d4	0.0155460425
173	0xbdeaf2ef	-0.11472117
174	0xbcfdcfe6	-0.030982923
175	0x3dd61d6b	0.1045483
176	0x3d210d9b	0.039319616
177	0xbde74777	-0.11292928
178	0xbc193b9e	-0.009352593
179	0xbdf2ca25	-0.11854962
180	0x3ddcb611	0.10776914
181	0x3dae7969	0.08519251
182	0x3e3391d3	0.17536096
183	0x3c856f73	0.016288495
184	0xbdb20f91	-0.08694375
185	0xbde664ff	-0.11249732
186	0xbc1c2166	-0.009529447
187	0x3d88f7a3	0.06687858
188	0x3dc79725	0.097456254
189	0xbe0985ab	-0.13429897
190	0x3db8219b	0.08990785
191	0xbcbb55fb	-0.022868147
192	0x3e099dcd	0.13439102
193	0x3dd197e1	0.10234047
194	0x3e1d309e	0.15350577
195	0xbde8d093	-0.113679074
196	0x3ded21c4	0.11578706
197	0xbdd0c226	-0.10193281
198	0xbdb65201	-0.0890236
199	0xbd621a51	-0.05520088
200	0xbce32115	-0.027725736
201	0xbe04b3cc	-0.12959212
202	0x3df48fbb	0.11941477
203	0xbc528c08	-0.012850769
204	0xbdd7bf22	-0.105345026
205	0x3e04eb0e	0.12980291
206	0x3d8f52f1	0.06998242
207	0x3d419478	0.04726073
208	0x3d6f36a8	0.058401734
209	0x3da487c6	0.08033709
210	0x3d064bb8	0.032787055
211	0x3d94b3aa	0.07260831
212	0x3e3ebb6f	0.18626188
213	0xbd57c312	-0.052676268
214	0xbe12eba2	-0.143477
215	0x3d20c9bb	0.039254885
216	0xbc3cf0b2	-0.011531996
217	0x3d3d4df5	0.046216924
218	0xbe0e7165	-0.13910444
219	0xbc1d43ad	-0.009598655
220	0x3e11a04c	0.14221305
221	0x3c52c892	0.0128652025
222	0xbd9b4281	-0.07581044
223	0x3ddffb88	0.10936648
224	0xbd3d945e	-0.046284072
225	0x3ddf856b	0.10914119
226	0x3cff79d0	0.031186014
227	0xbdfdb0a6	-0.12387209
228	0xbd71bcea	-0.059018053
229	0x3de73cea	0.11290915
230	0x3d56fb37	0.05248567
231	0xbd343d75	-0.044003922
232	0xbe0bc1c2	-0.13648131
233	0x3d32b5bf	0.043630358
234	0xbca453dc	-0.020059519
235	0x3cfb6dea	0.03069206
236	0x3d42641d	0.047458757
237	0xbd96404d	-0.07336483
238	0x3cf90787	0.030399097
239	0xbc7fa365	-0.015602921
240	0xbda32437	-0.07965892
241	0xbcc25cb8	-0.023725852
242	0x39035df6	0.00012528137
243	0xbe86029b	-0.26173863
244	0xbc601246	-0.013676232
245	0x3db307e7	0.087417416
246	0x3de535e8	0.111919224
247	0xbd78a1e3	-0.060701262
248	0xbe04abe2	-0.12956193
249	0x3e190096	0.1494163
250	0x3d32822d	0.043581177
251	0x3e0f5724	0.13998085
252	0xbe43326b	-0.19062202
253	0xbb1097d8	-0.0022063162
254	0xbd0e776a	-0.03478185
255	0x3d238219	0.039918993

layer1.bias f4 [128]
0	0x3d18c1e5	0.037294287
1	0x3e0230ca	0.12713924
2	0xbb8b0c80	-0.0042434335
3	0x3d3cef71	0.046126787
4	0x3ddcc318	0.10779399
5	0x3e17a619	0.14809455
6	0xbd897e64	-0.0671356
7	0xbd004df8	-0.031324357
8	0x3db1c9e8	0.08681089
9	0xbc004ba8	-0.007830538
10	0xbc929bbd	-0.017896527
11	0xbd7e0e42	-0.062025316
12	0xbd89a57e	-0.06721018
13	0xbce01d6e	-0.027357783
14	0x3dcd0b84	0.10011962
15	0xbd5cf8e3	-0.053948294
16	0x3d05588b	0.032555144
17	0x3cce719a	0.025200654
18	0x3c710b6b	0.014712195
19	0xbdf86192	-0.12127985
20	0xbe181e44	-0.14855295
21	0x3b8c2a9a	0.0042775394
22	0x3cc491af	0.023995249
23	0x3d139b62	0.036036856
24	0x3c0cd9e8	0.008596875
25	0xbd068bc5	-0.03284814
26	0x3da7ecb7	0.08199447
27	0x3dee94c9	0.11649472
28	0xbd992067	-0.074768834
29	0xbdca77f8	-0.098861635
30	0x3d72a500	0.059239388
31	0x3d706c77	0.05869719
32	0x3d48ec3c	0.049053416
33	0xbd8b4a9b	-0.06801339
34	0x3e1c12f7	0.1524161
35	0x3d039c5c	0.032131538
36	0x3d3ca215	0.04605301
37	0xbd306b7c	-0.043071255
38	0xbde180af	-0.110108726
39	0x3e1d9aa5	0.15391023
40	0x3d863be2	0.065543905
41	0xbe0c2d78	-0.1368922
42	0x3e1c11a3	0.15241103
43	0x3e04412c	0.12915486
44	0xbcaa0009	-0.02075197
45	0xbd37460b	-0.044744533
46	0x3d03af0f	0.03214937
47	0xbdd62758	-0.10456723
48	0x3db7d53e	0.089762196
49	0xbcab8d84	-0.020941503
50	0x3dfbc580	0.122935295
51	0xbdcf5261	-0.101231344
52	0x3dbd503e	0.092438206
53	0xbdced821	-0.10099817
54	0x3dd1a0cc	0.10235748
55	0x3c9db60e	0.01925185
56	0xbdd66aba	-0.10469575
57	0xbd943ab9	-0.07237763
58	0x3cad339a	0.02114277
59	0xbdf4557b	-0.119303666
60	0xbd6178c9	-0.05504683
61	0x3d886c07	0.066612296
62	0x3d9976ba	0.074933484
63	0xbe10eb67	-0.14152299
64	0x3dd0c7bc	0.10194346
65	0x3d3fbb10	0.046809256
66	0x3da5e73a	0.081007436
67	0x3bdcb74d	0.0067357183
68	0x3d9bf83f	0.076157086
69	0xbe23c498	-0.15992963
70	0x3c31155c	0.010808315
71	0xbd1966b0	-0.037451446
72	0xbe02f279	-0.12787808
73	0xbda9cbc1	-0.08290816
74	0xbd701b5c	-0.058619842
75	0xbbe4c399	-0.006981325
76	0x3defae1c	0.117031306
77	0xbd93a8b0	-0.07209909
78	0xbdc94524	-0.09827641
79	0x3caaf5be	0.020869132
80	0xbdba0222	-0.09082438
81	0x3c476ecd	0.012172413
82	0xbc463348	-0.012097187
83	0x3dc70cf6	0.09719269
84	0xbd453868	-0.048149496
85	0x3e0d464c	0.13796347
86	0xbdb7ca87	-0.08974176
87	0x3c9ac276	0.018891554
88	0xbdba8484	-0.091073066
89	0xbd881531	-0.06644667
90	0x3d411e11	0.047147814
91	0x3db2cdad	0.08730636
92	0xbdaab7a2	-0.083358064
93	0x3de88a34	0.11354485
94	0xbdb7e84f	-0.08979856
95	0x3dc9e327	0.09857779
96	0xbd9ea291	-0.07745851
97	0x3e027c0e	0.12742636
98	0x3d1bfe45	0.038084287
99	0x3dd2b66a	0.10288699
100	0xbcefc03d	-0.029266471
101	0xbae1b5ee	-0.0017220357
102	0x3d10b987	0.035333183
103	0x3e0f0e73	0.13970356
104	0x3d8d18f6	0.068895265
105	0xbc8cdca6	-0.017195057
106	0xbd355e9e	-0.044279687
107	0x3e0a76c5	0.1352187
108	0x3dc5297b	0.096270524
109	0x3ce25464	0.027628131
110	0x3e166f05	0.14690788
111	0xbdecde7e	-0.115658745
112	0xbcc0776e	-0.023494449
113	0xbd94255a	-0.07233687
114	0xbd411642	-0.047140367
115	0xbda2921a	-0.07938023
116	0x3cd33ebd	0.025786752
117	0x3e1d3b32	0.15354612
118	0xbbde692c	-0.00678744
119	0xbd6aabe0	-0.05729282
120	0x3dc61a15	0.096729435
121	0xbdbf826c	-0.09351048
122	0x3d8b9911	0.068163045
123	0x3dec989e	0.11552547
124	0xbdadaf55	-0.084807076
125	0x3c951815	0.01819996
126	0xbdd7e879	-0.105423875
127	0xbbb6ae7a	-0.0055749984

layer2.weight f4 [128, 128]
0	0xba1c7ecc	-0.0005969822
1	0xbb18a5fc	-0.0023292294
2	0x3bcab4a5	0.0061860853
3	0x3dff0b5e	0.1245334
4	0x3dc15f04	0.09441951
5	0x3d70e363	0.058810603
6	0x3d3a685e	0.04550969
7	0x3d652c63	0.055950534
8	0x3d014f59	0.031569812
9	0x3de0eb5f	0.109823935
10	0x3d37de59	0.04488978
11	0xbbbdf9ac	-0.0057975855
12	0xbdab0d25	-0.083521165
13	0x3c91cc88	0.017797723
14	0x3cebf5e0	0.028803766
15	0xbdad194a	-0.08452089
16	0x3e026e03	0.12737279
17	0x3d05b233	0.032640647
18	0xbd6fdec3	-0.05856205
19	0x3d4343e5	0.04767217
20	0xbd2ff1a8	-0.04295507
21	0xbd47326c	-0.04863207
22	0x3d49eaf5	0.049296338
23	0x3d90943b	0.07059523
24	0xbd67ea6b	-0.056620043
25	0x3d839706	0.0642529
26	0x3d85e17b	0.065371476
27	0x3dee7cbc	0.11644885
28	0xbd8bb54e	-0.068216905
29	0xbc06f65f	-0.00823745
30	0x3d849651	0.06473983
31	0x3acb7501	0.0015522541
32	0xbd637993	-0.055535864
33	0x3d9d39d7	0.07677048
34	0x3c9ed753	0.019389784
35	0x3dd15930	0.10222089
36	0x3cb34748	0.021884575
37	0xbd8528be	-0.065019116
38	0x3d2e0519	0.04248533
39	0x3c419b68	0.011816837
40	0x3db7323b	0.089451276
41	0x3ccca3ed	0.02498051
42	0x3d70a1cd	0.058748055
43	0x3cfda460	0.03096217
44	0x3cc537c8	0.02407445
45	0x3dad44d3	0.08460393
46	0x3dd71fd7	0.1050412
47	0x3c31b157	0.010845504
48	0xbdbe7ad8	-0.09300774
49	0x3da5c3a5	0.08093957
50	0x3d258a9a	0.040415384
51	0x3d93b192	0.07211603
52	0x3d1b3ac7	0.03789785
53	0xbd381e8c	-0.044951007
54	0x3ca737b6	0.020412307
55	0x3d370008	0.044677764
56	0x3c8daaed	0.017293418
57	0xbc235e3c	-0.009971198
58	0x3d6df6d7	0.058096733
59	0x3d4a6218	0.049409956
60	0x3cd6c9d9	0.026219295
61	0x3d2a957d	0.04164647
62	0x3da22da3	0.07918861
63	0x3d3c2afd	0.045939434
64	0x3d12adac	0.035810158
65	0x3d6ec631	0.05829448
66	0xbdb39c3b	-0.08770033
67	0xbd8c58d7	-0.06852882
68	0xbca521e2	-0.020157758
69	0x3d8eb900	0.0696888
70	0xbc0564cd	-0.008141709
71	0x3d15691a	0.036477186
72	0xbc9c2fce	-0.019065764
73	0x3db8f7b9	0.09031624
74	0xbc27bf50	-0.010238484
75	0xbc15346a	-0.009106735
76	0xbd2a9d07	-0.04165366
77	0x3dc55bb3	0.09636631
78	0x3d05464c	0.032537743
79	0x3980f5df	0.0002459725
80	0xbd3e50e9	-0.04646388
81	0x3ccf3b32	0.025296781
82	0xbd4d56b1	-0.050131503
83	0x3d371da8	0.044706017
84	0x3d704158	0.058656067
85	0xbbfad761	-0.0076550697
86	0x3cc35740	0.023845315
87	0x3d8a4143	0.06750729
88	0xbd57c701	-0.05268002
89	0x3cdbdead	0.026839579
90	0x3d48ae90	0.0489946
91	0x3d868635	0.06568567
92	0x3bf32238	0.0074198507
93	0xbd1d3241	-0.038378004
94	0x3c58c89f	0.013231426
95	0x3dab5aff	0.083669655
96	0xbd51471c	-0.051093206
97	0xbbd4ebf9	-0.0064978567
98	0x3ca89af2	0.020581696
99	0xbd8d9556	-0.06913249
100	0xbd608d1b	-0.05482207
101	0xba9ec5e1	-0.0012113416
102	0x3ced9d40	0.029005647
103	0xbd93664d	-0.07197247
104	0x3d876270	0.06610572
105	0x3db578c9	0.088609286
106	0x3bcc5a81	0.006236375
107	0xbd2790ba	-0.040909506
108	0xbbcd0457	-0.006256621
109	0x3e471a41	0.19443609
110	0x3dcf80e6	0.10132007
111	0x3d8ba1d9	0.06817979
112	0xbce821c5	-0.028336415
113	0x3d7939f1	0.060846273
114	0x3dae6ae7	0.08516484
115	0x3b8f5203	0.00437379
116	0x3dbe4a5d	0.092915274
117	0xbd741823	-0.05959333
118	0x3d25ea45	0.04050662
119	0xbcc21e4c	-0.023696087
120	0x3d73cd9f	0.059522267
121	0xbccb9fca	-0.024856467
122	0x3c98916e	0.018624034
123	0x3db7865e	0.089611754
124	0xbd5f619f	-0.054536458
125	0xbc9cc6b3	-0.019137716
126	0xbbce5e87	-0.0062978896
127	0x3d06ef6e	0.03294318
128	0x3d12691c	0.03574477
129	0xbdba8bb9	-0.09108681
130	0x3d99334f	0.074804895
131	0x3c708dce	0.014682246
132	0x3de53da5	0.111933984
133	0xbd311a52	-0.04323799
134	0xbddd537d	-0.1080694
135	0xbbf20b1d	-0.0073865787
136	0x3d6f0251	0.05835182
137	0x3d3cb714	0.046073034
138	0x3d26a990	0.04068905
139	0xbd5f1574	-0.05446382
140	0xbdc8fa9f	-0.09813427
141	0x3daef2b8	0.08542389
142	0x3d363e95	0.044493277
143	0x3ca594ae	0.020212498
144	0x3e08c663	0.13356929
145	0x3d126b30	0.035746753
146	0x3d8e77e3	0.0695646
147	0x3e0bdd6f	0.13658689
148	0x3d4ae8b4	0.04953833
149	0xbccbe51c	-0.024889521
150	0x3bee52d5	0.007273058
151	0x3d8ed0a3	0.06973388
152	0xbc96779b	-0.01836758
153	0xbd59ac42	-0.053142793
154	0xbd855554	-0.06510416
155	0x3d437e2b	0.047727745
156	0x3c31e400	0.010857582
157	0xbd18f337	-0.037341323
158	0xb8fd34a8	-0.00012073788
159	0x3d4e0220	0.050294995
160	0x3df84a84	0.12123588
161	0x3daf03a4	0.08545616
162	0xbd0ebc7b	-0.034847718
163	0x3d7151ad	0.058915783
164	0x3ce6198c	0.028088354
165	0x3b273258	0.0025512185
166	0x3d88642f	0.066597335
167	0x3d824a2c	0.063618034
168	0xbc4da609	-0.012551793
169	0xbc4c6abe	-0.012476621
170	0xbbe95d7d	-0.0071217404
171	0x3e23f7a0	0.1601243
172	0xbd2297cf	-0.039695557
173	0x3bdfd7d2	0.0068311477
174	0xbd3412f1	-0.043963376
175	0xbce144e5	-0.027498672
176	0xbdb2483d	-0.087051846
177	0x3dcb37cb	0.09922751
178	0x3ce2b38d	0.027673507
179	0x3e0eb19d	0.13934942
180	0x3c3b3255	0.011425574
181	0xbb96b849	-0.004599605
182	0x3d7d68b6	0.06186744
183	0xbc80525b	-0.01566427
184	0x3cc75f8d	0.024337554
185	0x3e02be60	0.12767935
186	0x3d5be497	0.053684797
187	0xbc8d62a2	-0.017258946
188	0x3db9a529	0.09064705
189	0xbc0ecfd4	-0.008716542
190	0xbdcd812e	-0.10034405
191	0xbda53ed0	-0.08068621
192	0x3d906a70	0.07051551
193	0x3d250432	0.040287204
194	0xbdac2ba4	-0.08406761
195	0xbd3e4179	-0.04644916
196	0x3d39be25	0.04534735
197	0x3d4a9b7e	0.049464695
198	0x3d8a7663	0.06760862
199	0x3dd0b55f	0.10190844
200	0x3c7211dc	0.014774766
201	0x3c2b61c7	0.010460324
202	0xbdec2b92	-0.11531748
203	0x3e0e7cd0	0.139148
204	0xbcaa02a6	-0.020753216
205	0xbdc9a79c	-0.09846422
206	0x3d44e900	0.04807377
207	0xbcd628d5	-0.026142517
208	0xbd8205a4	-0.06348732
209	0x3d4dd5c4	0.05025269
210	0xbc9c2fd3	-0.019065773
211	0xbde38ced	-0.11110864
212	0xbcbc7557	-0.02300517
213	0x3d0b92fd	0.034075726
214	0x3da3129f	0.07962536
215	0xbcd0f1b4	-0.025505878
216	0xbdc13952	-0.09434761
217	0x3e26444e	0.16236994
218	0xbd45bba3	-0.048274647
219	0x3b83cfc6	0.0040225713
220	0xbdc27502	-0.09494974
221	0xbb2d7ddb	-0.002647272
222	0x3d6c8772	0.05774636
223	0xbc90d59b	-0.01767998
224	0xbd6c050a	-0.057621993
225	0x3dd873e5	0.1056898
226	0x3cc10a5b	0.023564508
227	0xbd75b421	-0.059986237
228	0xbdc24701	-0.09486199
229	0xbda663f6	-0.08124535
230	0xbd1da992	-0.038491793
231	0x3d09a7ac	0.03360717
232	0xbd4687bd	-0.048469294
233	0x3d849a15	0.06474701
234	0x3d9bcf44	0.07607892
235	0xbd48b89d	-0.049004186
236	0xbb6873a6	-0.0035469322
237	0x3e599d69	0.21251453
238	0xbdb1af9b	-0.08676072
239	0x3dbcb5e5	0.09214381
240	0xbd14e4b6	-0.03635093
241	0xbda9fe7a	-0.08300491
242	0xbd801f2b	-0.06255945
243	0xbcef8c8d	-0.029241825
244	0xbc50d743	-0.012746635
245	0x3d1d2be8	0.03837195
246	0x3d62ceb0	0.055372894
247	0x3df3701c	0.118866175
248	0xbc78d3e4	-0.015187237
249	0xbd84a5a1	-0.06476904
250	0x3d85491f	0.06508087
251	0x3cf1a24f	0.02949634
252	0x3ce317cf	0.027721314
253	0x3c7c07ec	0.015382748
254	0x3df49449	0.11942346
255	0xbd8c878d	-0.06861792

layer2.bias f4 [128]
0	0x3d30663f	0.04306626
1	0x3d7b4e76	0.061354123
2	0x3d5415c5	0.051778574
3	0x3db082fe	0.08618735
4	0xbd8e83c1	-0.06958724
5	0x3c3e7d1a	0.011626506
6	0x3d9e496a	0.07728846
7	0xbd194f46	-0.037429117
8	0x3da1d0f0	0.0790118
9	0xbda3e0de	-0.080018744
10	0xbd9c22ce	-0.07623826
11	0xbd919761	-0.07108951
12	0x3daa4219	0.083133884
13	0x3d5f669b	0.05454121
14	0xbc275998	-0.010214232
15	0xbd7446da	-0.05963788
16	0x3d4e6fbc	0.050399527
17	0xbd310639	-0.043218825
18	0x3da86518	0.08222407
19	0xbbcde7c4	-0.006283732
20	0xbb7bc909	-0.0038419387
21	0x3d6669c2	0.056253202
22	0x3c3a3116	0.011364242
23	0xbcdfb076	-0.027305823
24	0x3b1768e4	0.0023103291
25	0x3d666c07	0.056255367
26	0xbb1d4f17	-0.002400344
27	0x3d63bff5	0.055602986
28	0xbd2176ab	-0.03941981
29	0x3d9847e1	0.07435585
30	0x3da498e1	0.08036972
31	0x3d157238	0.03648588
32	0xbd126c5f	-0.035747882
33	0xbdacdd16	-0.08440606
34	0xbd113207	-0.0354481
35	0xbd17edeb	-0.03709213
36	0xbda4fa65	-0.080555715
37	0xbd958309	-0.073003836
38	0x3d8cbf27	0.06872397
39	0x3cee31f7	0.02907656
40	0x3d855dcc	0.06512031
41	0x3d81b070	0.06332481
42	0x3cb66f1c	0.022269778
43	0x3daa55e9	0.08317167
44	0x3c026b7b	0.007960196
45	0xbd14ffef	-0.03637689
46	0xbc399a38	-0.0113282725
47	0x3c9cf275	0.019158581
48	0xbc6d65ad	-0.014489573
49	0x3c9d77fe	0.019222256
50	0x3b116aa8	0.0022188816
51	0x3d340dc7	0.04395845
52	0xbd3dfbba	-0.046382643
53	0xbda2af19	-0.079435535
54	0xbd7c8806	-0.06165316
55	0xbd9d39a7	-0.07677012
56	0xbd226cce	-0.039654545
57	0xbd660940	-0.056161165
58	0x3d6f6a10	0.05845076
59	0x3ce8e870	0.028431147
60	0xbd087959	-0.03331885
61	0x3d8e1c7a	0.06939025
62	0x3d7bc5b1	0.06146783
63	0xbd046633	-0.032324027
64	0x3d7e0888	0.062019855
65	0x3b3d8145	0.0028916162
66	0x3d2f6d93	0.042829107
67	0x3cb90ff3	0.022590613
68	0x3d014d8b	0.03156809
69	0xbcaaca5d	-0.020848447
70	0xbd339e9f	-0.043852445
71	0x3da67aa6	0.08128862
72	0xbd355d8a	-0.04427866
73	0x3d928ebf	0.07156133
74	0xbcff0391	-0.03112963
75	0xbd5edece	-0.0544117
76	0x3d5200e3	0.051270377
77	0xbd1cfa0c	-0.0383244
78	0x3b85ffac	0.0040893164
79	0xbd253f05	-0.040343303
80	0x3da17727	0.07884055
81	0x3d241989	0.040063415
82	0xbd47eeec	-0.048811838
83	0x3d1934fc	0.037404045
84	0xbc935604	-0.017985351
85	0x3be66720	0.0070313364
86	0x3c24285a	0.010019386
87	0xbcb38d22	-0.021917883
88	0x3ce95b9d	0.028486067
89	0xbd898f78	-0.067168176
90	0x3c9593c7	0.018258942
91	0x3d9bac2a	0.07601197
92	0x3c8cfbbe	0.017209884
93	0xbd8df9e3	-0.06932428
94	0xbd62c671	-0.05536503
95	0xbcaf6327	-0.021409584
96	0x3d6be8b3	0.057594966
97	0x3d822313	0.06354346
98	0x3c60cb1f	0.013720303
99	0xbda1b5ce	-0.078960046
100	0x3d492831	0.049110595
101	0x3d459cfa	0.048245408
102	0x3d8ab1f8	0.06772226
103	0x3cdbd277	0.026833756
104	0xbc8a2860	-0.016864955
105	0xbd772ad6	-0.060343586
106	0xbcae6350	-0.02128759
107	0xbc64427d	-0.013931868
108	0x3dbbe2c9	0.09174115
109	0x3c9a6c2e	0.018850412
110	0x3d3d1f12	0.04617221
111	0xbd59a8f1	-0.05313963
112	0xbd22ab39	-0.039714072
113	0xbda8c3cd	-0.08240471
114	0xbb8fc886	-0.004387918
115	0x3da0913a	0.078402
116	0x3df3deb4	0.119077116
117	0x3d11d9d9	0.035608146
118	0x3ddf63fe	0.10907744
119	0x3c494646	0.012284821
120	0x3d35087c	0.044197544
121	0x3d7f1177	0.062272515
122	0xbcc034ee	-0.023462739
123	0x3d137b89	0.036006484
124	0xbd53ef97	-0.051742163
125	0x3cfd44d5	0.03091661
126	0x3d22f574	0.039784864
127	0xbd3d6fae	-0.046249084

layer3.weight f4 [128, 128]
0	0xbd78f45a	-0.060779907
1	0x3d8db710	0.06919682
2	0x3d945830	0.07243383
3	0xbb07373f	-0.0020632294
4	0x3d35aa2b	0.044351738
5	0x3db456df	0.08805632
6	0xbd39261a	-0.045202352
7	0xbd17d3b4	-0.03706713
8	0x3db05c86	0.086113974
9	0xbd55e32c	-0.0522186
10	0x3cfe5d31	0.031050297
11	0x3d33c2e4	0.043887034
12	0xbcfc8ffb	-0.030830374
13	0x3da232c8	0.07919842
14	0xbc26daf1	-0.010184036
15	0xbd3616ff	-0.044455525
16	0x3d963a53	0.07335343
17	0xbbeb8a25	-0.007188099
18	0xbd177d10	-0.036984503
19	0xbd23aa02	-0.039957054
20	0x3d123cf7	0.03570267
21	0x3dbd4c13	0.09243026
22	0xbda583fa	-0.08081813
23	0x3d274f20	0.040846944
24	0x3db63044	0.08895925
25	0x3d7a938f	0.06117588
26	0xbd0f0e75	-0.034925897
27	0x3d8ed66a	0.0697449
28	0xbda9b853	-0.0828711
29	0xbd772588	-0.060338527
30	0xbd1cbd4c	-0.038266465
31	0x3c3eb5f1	0.011640058
32	0x3d5432c0	0.05180621
33	0x3d6f9ac1	0.058497194
34	0xbd4decf4	-0.050274804
35	0x3d15ae4a	0.036543168
36	0xbc975d5d	-0.018477136
37	0xbd9875b0	-0.07444322
38	0xbd98acf8	-0.07454866
39	0x3daa01fd	0.083011605
40	0xbcd8d098	-0.026466653
41	0xbd4f922f	-0.05067652
42	0xbbac91eb	-0.005266418
43	0x3d3bc543	0.04584242
44	0x3b792ed2	0.0038022292
45	0x3c69395f	0.01423487
46	0x3d611a40	0.054956675
47	0x3d115ea8	0.03549066
48	0x3d359926	0.044335507
49	0x3d4605a3	0.04834522
50	0x3caab6bf	0.020839093
51	0xbc1be019	-0.009513878
52	0xbcd981b4	-0.026551105
53	0x3d55d01f	0.052200433
54	0x3cf88aad	0.030339563
55	0x3d808380	0.06275082
56	0x3d89cae9	0.06728155
57	0x3cd5e969	0.026112275
58	0xbd8540b0	-0.06506479
59	0x3d257b4e	0.040400796
60	0x3d2991e0	0.041398883
61	0xbd9e972b	-0.07743677
62	0xbd46a142	-0.04849363
63	0x3d7435d9	0.059621666
64	0x3d8e95ae	0.06962143
65	0x3c8e0b64	0.017339416
66	0x3d3de5e9	0.046361838
67	0x3d3481a7	0.04406896
68	0x3d52aa48	0.051431924
69	0xbd33ca94	-0.043894365
70	0x3a4ab93a	0.00077332894
71	0xbd0e181b	-0.034690958
72	0x3cbc8f1f	0.023017464
73	0xbc7531e9	-0.014965513
74	0x3dba5a2f	0.090992324
75	0x3bd537ca	0.0065068947
76	0x3d984430	0.07434881
77	0xbc836ad0	-0.016042143
78	0xbd942559	-0.07233686
79	0x3b3076b4	0.0026926221
80	0x3d375cb1	0.04476613
81	0xbd2be235	-0.041963775
82	0x3d90f182	0.07077314
83	0x3d76e0c0	0.060272932
84	0xbd16c4ce	-0.03680878
85	0x3bbcb8f7	0.005759354
86	0x3d92ff8c	0.07177648
87	0xbd2878c2	-0.04113079
88	0xbda7cc60	-0.08193278
89	0x3d4df092	0.050278254
90	0xbd0d1b4c	-0.03444986
91	0xbc468ba6	-0.012118256
92	0xbda6c778	-0.081435144
93	0x3b740e08	0.0037239809
94	0xbd15ddb9	-0.036588404
95	0xba2bb568	-0.0006550164
96	0xbd4d5f42	-0.050139673
97	0xbd41928c	-0.0472589
98	0x3c93949a	0.018015195
99	0xbde9ca68	-0.11415559
100	0x3cea426a	0.028596122
101	0x3daf7d98	0.08568877
102	0x3bf71439	0.0075402525
103	0x3d3e6e67	0.046492007
104	0xbcb7f8db	-0.02245753
105	0xbd7607d7	-0.06006607
106	0xbcbef0f0	-0.023308247
107	0xbced8e0f	-0.028998403
108	0xbd3f06a3	-0.04663719
109	0xbda3c3ab	-0.07996305
110	0x3ce8f117	0.028435273
111	0x3d2a70af	0.04161137
112	0xbbf5049f	-0.0074773575
113	0xbd9168cf	-0.07100069
114	0xbc263f43	-0.010146919
115	0xbd4ebf61	-0.050475482
116	0xbce2fabd	-0.027707452
117	0x3d3f9ae5	0.04677858
118	0x3db412e4	0.087926656
119	0xbc2f4d09	-0.010699519
120	0x3cdd3a61	0.027005376
121	0xbd6fe173	-0.058564615
122	0xbd2d9cc1	-0.04238582
123	0x3dc40568	0.09571344
124	0x3c903dc9	0.017607586
125	0xbaffc9dd	-0.0019515116
126	0x3c0c7fa2	0.008575352
127	0x3d93404e	0.071899995
128	0xbc924dd3	-0.017859375
129	0xbb97e82e	-0.0046358323
130	0x3ce4b5da	0.027918745
131	0xbdb1dfe1	-0.0868528
132	0x3d28627b	0.041109543
133	0xbda55ce9	-0.08074362
134	0x3cdf129c	0.027230553
135	0xbd01a22a	-0.031648792
136	0xba13cad3	-0.0005637828
137	0xbbe7256c	-0.0070540216
138	0x3d1fa8ff	0.038979527
139	0xbc1c6765	-0.009546136
140	0xbd485551	-0.04890949
141	0xbbabc427	-0.005241889
142	0xbba48d74	-0.0050217453
143	0x3d91440a	0.070930555
144	0x3b86517b	0.0040990687
145	0xbcb49e2e	-0.022048082
146	0xbd887679	-0.06663222
147	0x3cdc7f0a	0.026916046
148	0xbc949a55	-0.018139997
149	0xbca53ed5	-0.020171562
150	0xbd8c308b	-0.06845196
151	0xbd12ee57	-0.03587183
152	0xbd548700	-0.05188656
153	0xbd58959c	-0.052877054
154	0xbb058f09	-0.0020379445
155	0x3d6f9e2c	0.058500454
156	0x3d847e18	0.06469363
157	0x3b908eb3	0.0044115423
158	0xbd389482	-0.045063503
159	0xbd7710a7	-0.060318615
160	0x3cb09584	0.02155567
161	0x3d999d30	0.07500684
162	0x3d8605a1	0.065440424
163	0x3d71dd2b	0.059048813
164	0xbd1c0f36	-0.038100444
165	0x3d0badd2	0.034101315
166	0xbb86b665	-0.0041110986
167	0x3d0e91b4	0.034806922
168	0xbd7b07de	-0.0612868
169	0xbcc74efd	-0.024329657
170	0x3d862508	0.06550032
171	0xbc2d8885	-0.010591631
172	0xbda8d8e2	-0.08244492
173	0x3c3ef044	0.0116539635
174	0x3c61f63b	0.013791616
175	0x3cc4fc25	0.024046013
176	0xbd2f0538	-0.042729586
177	0xbdafa08b	-0.08575543
178	0xbdb956ef	-0.090497844
179	0x3c7eb02f	0.015544935
180	0xbd999a45	-0.07500128
181	0x3d2ee491	0.042698447
182	0xbd3db896	-0.046318613
183	0xbd7f909a	-0.062393762
184	0xba694419	-0.0008898392
185	0xbc808bc3	-0.015691644
186	0x3c498e8f	0.012302055
187	0xbcd52590	-0.026018888
188	0xbd950967	-0.07277184
189	0x3d0f71b6	0.035020553
190	0x3bc300b0	0.0059510097
191	0xbd785688	-0.060629398
192	0xbd0d1ff3	-0.034454297
193	0xbd972f72	-0.07382096
194	0x3d74bca8	0.05975023
195	0x3d48f9c2	0.049066313
196	0x3d920eae	0.07131706
197	0x3d3e1e65	0.046415705
198	0x3c26cee6	0.010181164
199	0x3d532814	0.051551893
200	0x3d1561c7	0.0364702
201	0x3b5aceb8	0.0033387374
202	0x3c055eb8	0.0081402585
203	0x3c6a408a	0.014297614
204	0x3d886d59	0.066614814
205	0x3d0abf42	0.033873804
206	0xbb7fc039	-0.0039024486
207	0xbc4ddb6e	-0.012564523
208	0x3d02d2ef	0.031939443
209	0xbc8c5e56	-0.017134827
210	0x3be04a9d	0.006844832
211	0x3d368266	0.04455795
212	0xbcecd633	-0.028910732
213	0xbc5f73a7	-0.0136384135
214	0x3c979cac	0.018507324
215	0xbd6640cd	-0.056214143
216	0x3d8ac13a	0.06775136
217	0x3d2c3451	0.04204208
218	0xbcb080d0	-0.021545798
219	0xbc9d7885	-0.019222507
220	0xbd15a339	-0.036532614
221	0xbd4b653b	-0.049657088
222	0xbd841090	-0.064484715
223	0x3d0eeca8	0.03489366
224	0xbc1ff064	-0.009761903
225	0x3ce84002	0.028350834
226	0xbc3d4e79	-0.011554354
227	0xbd552e2e	-0.052045994
228	0xbd8d038a	-0.06885441
229	0xbd2d145a	-0.042255737
230	0x3d24ccb0	0.040234268
231	0x3d8f403e	0.06994675
232	0xbc7acf71	-0.015308247
233	0xbc77ab22	-0.015116485
234	0xbbc759f6	-0.006083722
235	0x3d0cc0db	0.03436361
236	0x3d9da7ad	0.07697997
237	0x3c245d44	0.010032002
238	0xbdbad60a	-0.09122856
239	0xbce768d0	-0.02824822
240	0x3c3121b5	0.010811259
241	0x3d35e9ad	0.044412304
242	0x3d6a9a7b	0.05727623
243	0xbcf140ec	-0.029449902
244	0x3d45bfb8	0.04827854
245	0xbc557b54	-0.013029892
246	0xbd2e4b94	-0.042552546
247	0xbcbfa13b	-0.02339231
248	0xbda8e6a8	-0.08247119
249	0x3d5e377d	0.054252136
250	0x3c5d36f9	0.013501876
251	0x3d91b929	0.071153946
252	0x3d81937a	0.06326957
253	0x3d099cca	0.03359679
254	0x3c3d57b5	0.0115565555
255	0xbd365595	-0.04451521

layer3.bias f4 [128]
0	0x3d998224	0.074955255
1	0x3bbd191f	0.005770817
2	0xbda982f4	-0.082769305
3	0xbd0b4dd5	-0.034009773
4	0x3daab22e	0.08334766
5	0xbd95b0db	-0.07309123
6	0x3cf5bb00	0.029996395
7	0x3da6ef14	0.08151069
8	0x3dec9467	0.11551743
9	0x3d7e07bd	0.0620191
10	0x3c73260b	0.014840613
11	0xbd334d70	-0.043775022
12	0xbd6e9c84	-0.058254734
13	0xbd7a3c21	-0.0610925
14	0x3d110428	0.035404354
15	0x3ccef8af	0.025265066
16	0xbd44afd2	-0.048019238
17	0xbcc12d58	-0.023581192
18	0x3d3dd115	0.046341974
19	0xbd107a00	-0.0352726
20	0x3da99aa2	0.08281447
21	0x3cfe75b8	0.031061992
22	0xbd704caf	-0.05866688
23	0x3d997588	0.074931204
24	0x3d2f1fb0	0.04275483
25	0xbd20f9f6	-0.03930088
26	0xbda492e4	-0.0803583
27	0x3d4f91b7	0.050676074
28	0x3dccd121	0.10000826
29	0xbda21bc9	-0.07915456
30	0x3dbcf433	0.09226265
31	0xbd9ff1ad	-0.07809768
32	0x3d9e86fe	0.077405915
33	0x3d9fe36b	0.078070484
34	0xbbabf45c	-0.0052476358
35	0xbcde82d8	-0.027162
36	0x3d305270	0.04304737
37	0xbd6aaef1	-0.057295743
38	0x3d544c80	0.05183077
39	0x3cec8169	0.028870301
40	0xbd1a9c03	-0.03774644
41	0x3c52c36e	0.012863977
42	0x3c4dbac2	0.012556734
43	0xbdacb23d	-0.08432434
44	0xbdafd9a7	-0.08586436
45	0x3d38df65	0.04513492
46	0xbd27b0b3	-0.040939998
47	0x3d584749	0.052802358
48	0x3da48e1a	0.08034916
49	0xbc5a883c	-0.013338145
50	0xbcc1647f	-0.02360749
51	0x3d296e1d	0.041364778
52	0xbc2029c1	-0.00977558
53	0x3c1ecce7	0.009692407
54	0x3d1900da	0.037354328
55	0xbcd6b4c6	-0.026209246
56	0xbd403cde	-0.046933047
57	0xbcfef741	-0.03112376
58	0x3d32625a	0.043550827
59	0x3b9be6fd	0.0047577606
60	0x3b525784	0.003209562
61	0xbd815bf4	-0.06316367
62	0x3c83ef46	0.016105305
63	0x3cae7fa1	0.021301093
64	0xbd7a8733	-0.061164092
65	0x3d675c14	0.056484297
66	0xbdaa8747	-0.08326583
67	0xbd935484	-0.071938545
68	0xbd08625e	-0.033296935
69	0x3d6d96a5	0.058004994
70	0xbd9f5b03	-0.07781031
71	0xbda12629	-0.078686066
72	0x3cdea9e3	0.027180618
73	0x3d85bcd3	0.06530156
74	0x3d0f2125	0.03494372
75	0xbd3ff146	-0.046860956
76	0xbc654698	-0.013993882
77	0x3da0fb0a	0.07860382
78	0x3bdf1f4b	0.0068091503
79	0xbd9b13d0	-0.07572138
80	0xbd1b6799	-0.037940595
81	0x3d042035	0.032257278
82	0xbd29f216	-0.041490637
83	0x3cf73e93	0.030181205
84	0x3ccacbd8	0.024755403
85	0x3d78339e	0.0605961
86	0x3d889c13	0.06670394
87	0x3d6bc7b2	0.05756349
88	0x3d80b235	0.0628399
89	0xbd3efa1d	-0.046625245
90	0x3beb88f0	0.007187955
91	0xba3d463b	-0.0007220243
92	0x3df66e2a	0.12032731
93	0xbd1d4ebd	-0.03840517
94	0x3ca3da32	0.020001505
95	0xb7229478	-9.6905205e-06
96	0xbd323d08	-0.043515235
97	0xbd1f09f1	-0.03882784
98	0x3db4994c	0.088183016
99	0xbd4c534a	-0.04988412
100	0x3deb1141	0.114779
101	0x3d6f151d	0.058369745
102	0xbd6f3b95	-0.05840643
103	0x3d86e970	0.065874934
104	0xbd259c31	-0.04043216
105	0xbd8dca6d	-0.06923375
106	0x3d645f92	0.055755205
107	0x3da2c9fb	0.07948681
108	0x3d95a553	0.07306924
109	0xbcd54341	-0.026033046
110	0xbca10714	-0.019656695
111	0xbd8e62ea	-0.0695246
112	0xbd9dd848	-0.07707268
113	0x3cf46f32	0.029838178
114	0x3c75067d	0.01495516
115	0xbcb4478a	-0.022006769
116	0xb9c47143	-0.0003746842
117	0xbd1c6466	-0.038181685
118	0x3da076a6	0.078351304
119	0x3d29c156	0.041444145
120	0x3d8900ee	0.066896304
121	0xbda86455	-0.08222262
122	0xbd1e7109	-0.038682017
123	0x3dbfe824	0.09370449
124	0x3cc3bdf4	0.023894288
125	0xbce4b540	-0.027918458
126	0xbcb353f1	-0.021890612
127	0xbceb5829	-0.028728561

output_layer.weight f4 [72, 128]
0	0xbd0c64e3	-0.0342759
1	0xbd9e9629	-0.077434845
2	0xbbac14ef	-0.005251519
3	0x3c1dfd25	0.009642874
4	0xbdd795ff	-0.10526656
5	0xbdac2230	-0.08404958
6	0x3d9241ca	0.071414545
7	0x3d7885ec	0.060674593
8	0xbd50d5c2	-0.050985105
9	0xbd8b5598	-0.06803435
10	0x3b862e83	0.0040949
11	0x3d540c22	0.051769383
12	0xbc8c1d1e	-0.017103728
13	0xbdacf907	-0.08445936
14	0x3cec6740	0.028857827
15	0xbd20580d	-0.03914647
16	0x3d632d4b	0.055463117
17	0xbcd44f16	-0.025916617
18	0xbd195727	-0.03743663
19	0x3d146433	0.03622837
20	0xbddc466d	-0.1075562
21	0x3d3fd040	0.046829462
22	0xbcc824ed	-0.02443167
23	0x3c0bd45a	0.008534515
24	0x3d9b4153	0.07580819
25	0xbc9b483d	-0.018955344
26	0x3d545fd6	0.05184921
27	0xbcdc9b84	-0.026929624
28	0xbda59477	-0.08084958
29	0xbd3fe785	-0.046851654
30	0x3cd6675e	0.026172336
31	0xbd533c53	-0.0515712
32	0xbce20cfe	-0.027594086
33	0x3cb276cd	0.021785164
34	0xbb40f482	-0.0029442613
35	0x3d702813	0.058631968
36	0x3d0fa91d	0.03507339
37	0x3d5d0071	0.0539555
38	0xbde7d7a5	-0.11320428
39	0x3d4ca3cb	0.049960893
40	0x3da23326	0.07919912
41	0xbd6f8de6	-0.058484934
42	0x3d6acb90	0.05732304
43	0x3cdde364	0.027085967
44	0xbcfe4bf5	-0.031042079
45	0x3cf6b158	0.030113861
46	0xbd29da47	-0.04146793
47	0xbd90dad7	-0.070729904
48	0x3d232305	0.03982832
49	0x3d7cf261	0.061754588
50	0xbd3fb738	-0.04680559
51	0xbd2e8d0b	-0.042614978
52	0x3d934d8a	0.07192524
53	0xbd8e327d	-0.069432236
54	0x3db63326	0.088964745
55	0xbd72addb	-0.059247833
56	0xbd918e1b	-0.071071826
57	0x3d06a977	0.032876458
58	0x3c51025c	0.01275691
59	0xbc012ef2	-0.007884728
60	0x3db5ad7e	0.08870982
61	0x3c08185a	0.008306587
62	0x3c8f9417	0.01752667
63	0xbda93e78	-0.08263868
64	0x3c017edb	0.00790378
65	0xbd5be32b	-0.05368344
66	0xbca4bec7	-0.020110501
67	0xbcb04855	-0.021518866
68	0x3cfea35b	0.031083753
69	0x3c354d90	0.011065856
70	0xbda9a67b	-0.08283707
71	0x3d4314a0	0.04762709
72	0xbb9c9621	-0.004778639
73	0xbdcd7847	-0.10032707
74	0x3dc237d5	0.09483305
75	0x3db71ea5	0.08941392
76	0x3c46b88c	0.01212896
77	0x3d4ef23f	0.050523993
78	0x3da92def	0.08260714
79	0x3d993cf8	0.07482332
80	0xbc48b7fe	-0.012250898
81	0x3da30d24	0.07961491
82	0xbd25076c	-0.04029028
83	0x3cf5949f	0.029978095
84	0xbe02e0eb	-0.12781112
85	0x3ca9558b	0.020670673
86	0x3d8abbe2	0.06774117
87	0xbd4eef69	-0.050521288
88	0x3d93f62e	0.072246894
89	0x3cb997f0	0.022655457
90	0x3d06b20f	0.032884654
91	0xbda407b7	-0.08009284
92	0x3c10d512	0.008839862
93	0x3c60d6ac	0.013723057
94	0xbdc03ab3	-0.09386196
95	0xbcecda5f	-0.028912721
96	0xbcc28b35	-0.02374802
97	0x3c9787f2	0.018497441
98	0xbd92413a	-0.07141347
99	0x3d945bdc	0.07244083
100	0xbde3ba37	-0.11119502
101	0x3dc4fdf6	0.09618752
102	0x3d195477	0.037434068
103	0xbb667ead	-0.003517072
104	0x3c4626be	0.012094198
105	0xbc7a73ab	-0.015286366
106	0xbd61aaa3	-0.055094372
107	0xbc4d099b	-0.012514497
108	0x3d0ed542	0.034871347
109	0x3c01a4c3	0.007912817
110	0x3da54161	0.08069111
111	0x3d955b8a	0.0729285
112	0xbc857478	-0.016290888
113	0xbcb4cc5a	-0.022070099
114	0xbdeaa295	-0.11456791
115	0x3d81dd19	0.06340999
116	0x3c0892a5	0.008335744
117	0x3d8b717d	0.068087555
118	0x3caa2914	0.02077154
119	0xbdeab66c	-0.114605755
120	0x3db35ca1	0.08757902
121	0xbbea37af	-0.0071477513
122	0x3dd719df	0.105029814
123	0xbddb72aa	-0.1071523
124	0xbd397be9	-0.045284186
125	0x3d1a4e4b	0.037672322
126	0x3c21175a	0.009832228
127	0x3c7f59c6	0.0155853685
128	0x3d4002fc	0.046877846
129	0xbd5ead95	-0.05436476
130	0x3d8e3012	0.069427624
131	0x3d4a13d3	0.049335312
132	0xbde90754	-0.11378351
133	0xbd6a7eb1	-0.05724973
134	0xbd9a6a97	-0.07539862
135	0xbd9e4a2e	-0.077289924
136	0xbdb47dc4	-0.088130504
137	0xbd9fd2b9	-0.07803864
138	0xbda9388a	-0.08262737
139	0xbd9da807	-0.07698064
140	0x3d550987	0.05201104
141	0xbd9066a6	-0.07050829
142	0x3ab0131f	0.0013433433
143	0x3bfad998	0.0076553337
144	0x3bb8570e	0.005625612
145	0xbd8e7e1c	-0.06957647
146	0xbcb7cd12	-0.022436652
147	0x3d2c784e	0.04210692
148	0xbd41b9e8	-0.047296435
149	0x3d303fe0	0.043029666
150	0x3d8b5183	0.068026565
151	0xbd91f568	-0.07126886
152	0xbd2799ed	-0.04091828
153	0xbd202062	-0.039093383
154	0x3d0d8277	0.03454825
155	0x3d493e78	0.04913184
156	0xbd4f5687	-0.05061963
157	0xbd88f4a5	-0.06687287
158	0xbd43bab5	-0.04778548
159	0xbda05bdc	-0.07830021
160	0xbd2396b1	-0.039938632
161	0x3c927273	0.01787684
162	0xbb0be4cc	-0.002134609
163	0xbd3a0d91	-0.045423094
164	0x3db10087	0.08642679
165	0xbd99e747	-0.07514816
166	0xbcd1913c	-0.025581948
167	0x3d5bd293	0.053667616
168	0x3d88fa44	0.066883594
169	0xbd5950d9	-0.053055618
170	0xbda32eb8	-0.07967895
171	0x3dacc354	0.084356934
172	0x3cb4087f	0.021976708
173	0xbc7489c9	-0.014925429
174	0xbd218acf	-0.03943902
175	0xbd903db8	-0.07043022
176	0x3d409e40	0.04702592
177	0x3d1ae878	0.037819356
178	0x3d1eb7f2	0.038749643
179	0x3d3447c6	0.04401376
180	0xbd9b5ffa	-0.075866655
181	0xbdc6f8bf	-0.09715413
182	0x3d110a76	0.035410367
183	0x3d548c9a	0.0518919
184	0x3d95e59a	0.07319184
185	0xbbd5afb7	-0.006521191
186	0xbd55a566	-0.05215969
187	0xbd964691	-0.07337678
188	0x3dcfb117	0.10141199
189	0x3d0a8ee0	0.033827662
190	0xbd8edd2e	-0.069757804
191	0x3924ee4f	0.00015729036
192	0xbd302738	-0.043006152
193	0xbd8332d9	-0.06406183
194	0xbbf50d9e	-0.00747843
195	0x3d51d536	0.051228724
196	0xbd3a5ba0	-0.045497537
197	0x3d0d905a	0.034561493
198	0x3c3e0342	0.011597456
199	0xbd6e8ac5	-0.05823781
200	0xbd599970	-0.053124845
201	0xbd2d9ad3	-0.04238398
202	0xbd0e0001	-0.034667972
203	0x3db523b6	0.08844702
204	0xbd06ab5b	-0.03287826
205	0x3d5dc2fb	0.054141026
206	0xbc16bb10	-0.009199873
207	0x3d03d0e9	0.032181654
208	0x3c90b104	0.017662533
209	0xbd38a85f	-0.045082446
210	0xbd11ccd7	-0.03559574
211	0x3da3fb18	0.08006877
212	0xbdbebd2d	-0.09313426
213	0x3d23f063	0.040024173
214	0x3cc343fd	0.02383613
215	0x3d188976	0.037240468
216	0x3dad53ed	0.08463273
217	0xbb1c7eb2	-0.0023879227
218	0x3dcd61a2	0.100283876
219	0xbdd9b97b	-0.10631081
220	0x3d0f1403	0.034931194
221	0x3d997a45	0.07494024
222	0xbd015235	-0.03157254
223	0x3da78e6e	0.08181463
224	0xbc87f3f5	-0.01659582
225	0xbd9f76d1	-0.07786334
226	0xbcb94c12	-0.022619281
227	0xbcda6d8b	-0.026663562
228	0xbd8e1c8e	-0.0693904
229	0x3d919aa8	0.071095765
230	0x3d8f8a9b	0.07008859
231	0xbda17ae2	-0.07884766
232	0x3d4a5dab	0.049405735
233	0xbc8cb8b3	-0.017177915
234	0x3cddebce	0.02708998
235	0xbd80e895	-0.062943615
236	0x3da2de4c	0.07952556
237	0xba9b74aa	-0.001186033
238	0x3d55e39a	0.05221901
239	0xbd214959	-0.03937659
240	0xb9ce7575	-0.00039378894
241	0xbd936318	-0.07196635
242	0xbdfa2474	-0.12213984
243	0x3cf20891	0.0295451
244	0x3b52949a	0.003213203
245	0xbd17d1cb	-0.03706531
246	0xbd812d7b	-0.06307503
247	0xbda4419c	-0.080203265
248	0x3d840ba0	0.0644753
249	0xbd7c6e15	-0.06162842
250	0x3d998424	0.07495907
251	0xbc465a26	-0.012106454
252	0xbd00c9cb	-0.031442445
253	0xbd0db7d9	-0.03459916
254	0x3d8c2d07	0.06844526
255	0xbd9a4237	-0.07532161

output_layer.bias f4 [72]
0	0xbd0b0e78	-0.033949345
1	0x3bc0f416	0.0058884723
2	0xbd0b9ff4	-0.03408809
3	0xbd256212	-0.04037673
4	0xbd3d1e48	-0.046171457
5	0x3d5c128a	0.053728618
6	0xbd7295a1	-0.05922473
7	0xbd3aa9f8	-0.04557225
8	0x3c5a0dfa	0.013308996
9	0xbd06f268	-0.03294602
10	0x3ca0a607	0.019610418
11	0x3d219b84	0.039454952
12	0xbd38b34a	-0.04509286
13	0xbdcb31ad	-0.09921584
14	0xbc0364f6	-0.008019676
15	0x3d81b385	0.06333069
16	0xbd97bd80	-0.07409191
17	0xbccc2001	-0.024917604
18	0x3c54417d	0.012955067
19	0xbce36883	-0.027759796
20	0x3d1f440b	0.03888325
21	0xbd3888ff	-0.045052525
22	0xbd245139	-0.040116522
23	0x3c7f57ef	0.01558493
24	0xbcd7e498	-0.02635412
25	0x3d1687e6	0.036750697
26	0xbdb484a8	-0.08814365
27	0x3d4db8b1	0.050224964
28	0x3b34607d	0.0027523332
29	0xbcf8bb87	-0.030362858
30	0xbba08432	-0.0048985714
31	0xbd68f9c7	-0.05687883
32	0x3c92d31f	0.017922936
33	0xbb256726	-0.0025238483
34	0xbdc78e02	-0.09743883
35	0x3b9340be	0.004493802
36	0xbd2a6234	-0.04159756
37	0x3d51a073	0.051178407
38	0xbd6c2d3a	-0.05766032
39	0xbd3cb303	-0.046069156
40	0xbda86ff8	-0.08224481
41	0x3d7c6859	0.06162295
42	0x3c3887c4	0.011262838
43	0xbdcf6227	-0.10126143
44	0xbcb5802c	-0.022155844
45	0xbcd03c22	-0.025419299
46	0x3d094d2e	0.03352087
47	0x3d6e4338	0.058169574
48	0xbc0020cd	-0.00782032
49	0x3caa133f	0.02076113
50	0xb9b45d94	-0.00034401997
51	0x3d1c6ad8	0.03818783
52	0x3a5e3a3b	0.0008477305
53	0xbd8e4189	-0.069460936
54	0xbd804e4d	-0.06264935
55	0xbd063d36	-0.03277322
56	0xbcb29461	-0.021799268
57	0x3d877191	0.06613458
58	0x3c573f41	0.0131376395
59	0xbd203d32	-0.03912086
60	0xbba0e669	-0.0049102795
61	0xbd46a454	-0.04849656
62	0xbcafcc73	-0.021459794
63	0x3be081ff	0.0068514342
64	0xbd903f59	-0.070433326
65	0xbd3b9d43	-0.045804273
66	0xbcb557c4	-0.022136576
67	0xbcd01142	-0.025398854
68	0x3c57f065	0.013179873
69	0xbdc89424	-0.097938806
70	0x3d7afb5f	0.061274882
71	0xbdbb5f54	-0.09149042
