results/train/hyperparam_DQN_learning_rate_slope_40m/learning_rate_actor_0.1/best_model.pt (torch, 160589 bytes, 8 tensors)

layer1.weight f4 [128, 40]
0	0x8044bedb	-6.31328e-39
1	0x80492517	-6.717297e-39
2	0x8041071e	-5.97186e-39
3	0x804d7d28	-7.116231e-39
4	0x80438a21	-6.20253e-39
5	0x803d41ad	-5.625525e-39
6	0x8049d125	-6.779018e-39
7	0x805310b9	-7.628345e-39
8	0x80508bae	-7.396947e-39
9	0x804e4881	-7.189178e-39
10	0x8053173d	-7.630683e-39
11	0x80550d94	-7.810888e-39
12	0x80415b63	-6.00209e-39
13	0x80506ab1	-7.385113e-39
14	0x806d38c0	-1.0030427e-38
15	0x803e75cb	-5.736057e-39
16	0x804f5127	-7.284116e-39
17	0x803bef1f	-5.504075e-39
18	0x80502071	-7.358477e-39
19	0x8044927e	-6.297365e-39
20	0x8046baf4	-6.495551e-39
21	0x8042be14	-6.12933e-39
22	0x80458a1a	-6.386191e-39
23	0x804f935b	-7.307865e-39
24	0x803e77c7	-5.736769e-39
25	0x803d161f	-5.609901e-39
26	0x8051be7e	-7.507011e-39
27	0x805a88de	-8.314293e-39
28	0x80456091	-6.371291e-39
29	0x80533493	-7.641206e-39
30	0x8038f760	-5.231529e-39
31	0x804618e4	-6.437414e-39
32	0x8040f342	-5.964736e-39
33	0x803afb60	-5.416635e-39
34	0x8041b26e	-6.033316e-39
35	0x80442397	-6.257581e-39
36	0x80533ed1	-7.64488e-39
37	0x8052c8ef	-7.602592e-39
38	0x8051ab24	-7.500069e-39
39	0x8043630b	-6.188508e-39
40	0x802a2129	-3.868986e-39
41	0x803c935f	-5.562997e-39
42	0x802f85c3	-4.364253e-39
43	0x80372980	-5.06584e-39
44	0x8029d357	-3.84107e-39
45	0x8036d672	-5.036045e-39
46	0x802571c7	-3.438729e-39
47	0x803791f0	-5.103305e-39
48	0x80398b68	-5.284633e-39
49	0x8029fd0d	-3.856033e-39
50	0x803bc885	-5.490227e-39
51	0x8027e674	-3.664255e-39
52	0x803ea2f2	-5.752255e-39
53	0x8028c722	-3.744855e-39
54	0x8029b8cc	-3.831548e-39
55	0x8027606f	-3.616178e-39
56	0x8023639e	-3.249978e-39
57	0x8024385b	-3.326294e-39
58	0x8038f4a4	-5.230548e-39
59	0x803ac998	-5.398777e-39
60	0x8035f11c	-4.953775e-39
61	0x802bb7b8	-4.014832e-39
62	0x8038a35d	-5.201391e-39
63	0x80385b13	-5.175459e-39
64	0x802478e3	-3.349444e-39
65	0x803159da	-4.532172e-39
66	0x8029823d	-3.811976e-39
67	0x80295807	-3.796834e-39
68	0x8039eb3e	-5.319012e-39
69	0x80362cdc	-4.97521e-39
70	0x80344d07	-4.803078e-39
71	0x802480bc	-3.352259e-39
72	0x8039faad	-5.324549e-39
73	0x803f3a75	-5.806607e-39
74	0x80313645	-4.519408e-39
75	0x8028ab07	-3.734773e-39
76	0x802e8c65	-4.274797e-39
77	0x803b2373	-5.431011e-39
78	0x802acef8	-3.931337e-39
79	0x802ab16d	-3.920739e-39
80	0x8036308a	-4.97653e-39
81	0x802f83c4	-4.363537e-39
82	0x802cb377	-4.105142e-39
83	0x8029696a	-3.803071e-39
84	0x802d8543	-4.180403e-39
85	0x803bfea0	-5.509637e-39
86	0x8034979a	-4.82983e-39
87	0x803bec8d	-5.503153e-39
88	0x802fda82	-4.394654e-39
89	0x802d9056	-4.184375e-39
90	0x8032c48b	-4.662281e-39
91	0x803eb3cd	-5.758301e-39
92	0x802d3c3c	-4.154205e-39
93	0x803cc9d8	-5.582538e-39
94	0x803b4f78	-5.446802e-39
95	0x802988ec	-3.814374e-39
96	0x804189fc	-6.018807e-39
97	0x80338ecd	-4.734838e-39
98	0x80384963	-5.169114e-39
99	0x80432635	-6.166684e-39
100	0x803bd350	-5.494099e-39
101	0x804462e6	-6.280292e-39
102	0x8039fa5a	-5.324432e-39
103	0x803cd66f	-5.587054e-39
104	0x8033abfc	-4.745307e-39
105	0x80328612	-4.63987e-39
106	0x803327c1	-4.697871e-39
107	0x80386db0	-5.182136e-39
108	0x8043f791	-6.241788e-39
109	0x802f5d03	-4.349635e-39
110	0x804212ed	-6.067932e-39
111	0x802b9a90	-4.004373e-39
112	0x802b8c3a	-3.99923e-39
113	0x80389472	-5.19604e-39
114	0x802ad2df	-3.932737e-39
115	0x803d1960	-5.611068e-39
116	0x803f8156	-5.832033e-39
117	0x80416e30	-6.008835e-39
118	0x8033be46	-4.751868e-39
119	0x802b70f8	-3.989452e-39
120	0x80386fda	-5.182913e-39
121	0x802e9240	-4.276897e-39
122	0x8031b9eb	-4.566634e-39
123	0x8028a371	-3.732052e-39
124	0x802968c0	-3.802833e-39
125	0x8024c9bb	-3.378445e-39
126	0x8030a8f2	-4.46871e-39
127	0x803d34e1	-5.620935e-39
128	0x802ee4e8	-4.306549e-39
129	0x803d0183	-5.602508e-39
130	0x8033d494	-4.759869e-39
131	0x80355781	-4.898672e-39
132	0x8031c616	-4.570999e-39
133	0x802c8345	-4.087852e-39
134	0x8030aba4	-4.469677e-39
135	0x80294def	-3.793213e-39
136	0x8038a33e	-5.201348e-39
137	0x8028a0fb	-3.731169e-39
138	0x80271758	-3.589959e-39
139	0x8032467e	-4.617063e-39
140	0x8038f6c4	-5.23131e-39
141	0x802a9d10	-3.913434e-39
142	0x8027ccbe	-3.655032e-39
143	0x8038508f	-5.171687e-39
144	0x803ab913	-5.392851e-39
145	0x8028183e	-3.682116e-39
146	0x8038f977	-5.232279e-39
147	0x802e95a9	-4.278121e-39
148	0x80351925	-4.876301e-39
149	0x802663bd	-3.525528e-39
150	0x802883e3	-3.720732e-39
151	0x80337ab7	-4.727632e-39
152	0x802daf93	-4.195581e-39
153	0x802892bf	-3.726062e-39
154	0x802a1e8d	-3.86805e-39
155	0x803406c5	-4.777874e-39
156	0x8022e5b2	-3.204806e-39
157	0x8022a88e	-3.182873e-39
158	0x802b8eee	-4.0002e-39
159	0x80398ff6	-5.286267e-39
160	0x802c639e	-4.076498e-39
161	0x80249c49	-3.362142e-39
162	0x802d1866	-4.14135e-39
163	0x80358281	-4.914097e-39
164	0x8034546b	-4.805729e-39
165	0x80280435	-3.674929e-39
166	0x8037da5f	-5.129289e-39
167	0x802a6418	-3.892998e-39
168	0x802ea59b	-4.283841e-39
169	0x8026b73f	-3.555485e-39
170	0x8023b1ff	-3.278095e-39
171	0x802c31ea	-4.058668e-39
172	0x803d863f	-5.650124e-39
173	0x803c90e0	-5.562101e-39
174	0x80330035	-4.683685e-39
175	0x80247fbc	-3.3519e-39
176	0x803b8c6b	-5.468667e-39
177	0x803cbb5e	-5.577344e-39
178	0x8036e1b3	-5.040082e-39
179	0x8021b374	-3.094947e-39
180	0x8023114d	-3.220449e-39
181	0x8025e874	-3.481302e-39
182	0x802ad02c	-3.931769e-39
183	0x80237425	-3.255907e-39
184	0x802278e6	-3.165777e-39
185	0x803d1a27	-5.611347e-39
186	0x80339bf6	-4.739559e-39
187	0x80300bed	-4.412382e-39
188	0x802bafd1	-4.011997e-39
189	0x802a082c	-3.860022e-39
190	0x80215c71	-3.063733e-39
191	0x802c58f4	-4.072672e-39
192	0x803268b8	-4.629341e-39
193	0x80254e41	-3.425986e-39
194	0x802b294c	-3.963741e-39
195	0x8035913d	-4.919383e-39
196	0x8020e47b	-3.020699e-39
197	0x802d6069	-4.167183e-39
198	0x802fcb04	-4.389097e-39
199	0x8025dda5	-3.477424e-39
200	0x80293759	-3.78511e-39
201	0x802f0b40	-4.320304e-39
202	0x803b2e51	-5.43491e-39
203	0x803c8c23	-5.560401e-39
204	0x802f770d	-4.358976e-39
205	0x8036c6ad	-5.030388e-39
206	0x802509a3	-3.40137e-39
207	0x803371a2	-4.724374e-39
208	0x80347599	-4.817632e-39
209	0x80247cb7	-3.350817e-39
210	0x80359cfe	-4.9236e-39
211	0x8031c91e	-4.572087e-39
212	0x803046c1	-4.433486e-39
213	0x80394fc6	-5.26324e-39
214	0x803569fa	-4.905299e-39
215	0x803dd9ab	-5.68005e-39
216	0x80263a0b	-3.510571e-39
217	0x803d99c4	-5.657126e-39
218	0x802a4941	-3.88337e-39
219	0x802b0be0	-3.953186e-39
220	0x802d7852	-4.17576e-39
221	0x80260453	-3.4913e-39
222	0x803252f5	-4.621534e-39
223	0x80279c2d	-3.63761e-39
224	0x80277ae3	-3.625668e-39
225	0x802fea9f	-4.400435e-39
226	0x802fc6a0	-4.387522e-39
227	0x80351094	-4.873228e-39
228	0x803e11fb	-5.700251e-39
229	0x8030f2a2	-4.495144e-39
230	0x8028da98	-3.751837e-39
231	0x80283cd6	-3.695244e-39
232	0x8039cef7	-5.308868e-39
233	0x8026951f	-3.543243e-39
234	0x8036ddde	-5.038708e-39
235	0x8026c97c	-3.562028e-39
236	0x8027565f	-3.612568e-39
237	0x8029601c	-3.799733e-39
238	0x802e13a0	-4.231473e-39
239	0x803d18fa	-5.610925e-39
240	0x8040e69e	-5.960202e-39
241	0x804150dc	-5.998314e-39
242	0x8044d935	-6.322733e-39
243	0x8043ddeb	-6.232587e-39
244	0x80383f90	-5.16559e-39
245	0x8034845e	-4.82293e-39
246	0x803bfa92	-5.508182e-39
247	0x8032f1c1	-4.6785e-39
248	0x803fb582	-5.850749e-39
249	0x802b7da4	-3.993998e-39
250	0x80337c3f	-4.728181e-39
251	0x803f963a	-5.839527e-39
252	0x8035a6c1	-4.927101e-39
253	0x803a37b5	-5.346443e-39
254	0x8032a517	-4.650998e-39
255	0x802a431a	-3.881162e-39

layer1.bias f4 [128]
0	0x8047ce20	-6.594264e-39
1	0x80272810	-3.595956e-39
2	0x80442bdf	-6.260552e-39
3	0x8032fd66	-4.682677e-39
4	0x80232fb8	-3.23136e-39
5	0x80241127	-3.312231e-39
6	0x803d1a27	-5.611347e-39
7	0x8025197e	-3.407058e-39
8	0x802ed4b7	-4.30074e-39
9	0x802e1ecb	-4.235479e-39
10	0x0007ad99	7.05124e-40
11	0x802a7ae3	-3.901174e-39
12	0x8055dcc5	-7.885214e-39
13	0x80021df6	-1.94419e-40
14	0x80540ccc	-7.718772e-39
15	0x80285ceb	-3.706753e-39
16	0x800cf995	-1.191559e-39
17	0x8006508b	-5.79906e-40
18	0x800085a4	-4.7941e-41
19	0x0004be3c	4.35585e-40
20	0x8051be7e	-7.507011e-39
21	0x80367b6d	-5.003394e-39
22	0x80248a18	-3.355617e-39
23	0x8007cc3e	-7.16117e-40
24	0x804189fc	-6.018807e-39
25	0x802e672b	-4.261443e-39
26	0x80304e7d	-4.43626e-39
27	0x800c5889	-1.133786e-39
28	0x8028cf2c	-3.747739e-39
29	0x803021d6	-4.420242e-39
30	0x8048c557	-6.682948e-39
31	0x804e4239	-7.186925e-39
32	0x802fb816	-4.382306e-39
33	0x802dbcee	-4.200373e-39
34	0x803aaa29	-5.387501e-39
35	0x800032f7	-1.8283e-41
36	0x000467cf	4.04581e-40
37	0x800d38b3	-1.214201e-39
38	0x0000e82f	8.3292e-41
39	0x804ddb99	-7.15011e-39
40	0x802f76dd	-4.358908e-39
41	0x8003c7fe	-3.4725e-40
42	0x80275a7a	-3.614041e-39
43	0x00094367	8.50699e-40
44	0x80520964	-7.53388e-39
45	0x805b8211	-8.403689e-39
46	0x803a5d6a	-5.35997e-39
47	0x80245f4a	-3.340261e-39
48	0x804e7faf	-7.208973e-39
49	0x8023a815	-3.274539e-39
50	0x8036c4a5	-5.02966e-39
51	0x8043a910	-6.213626e-39
52	0x8039a465	-5.293597e-39
53	0x8005e0ac	-5.39775e-40
54	0x8035b6af	-4.932816e-39
55	0x8037fc87	-5.141542e-39
56	0x8057f9a7	-8.079247e-39
57	0x803e03e8	-5.695202e-39
58	0x00081371	7.41658e-40
59	0x80236ec0	-3.253972e-39
60	0x80356afd	-4.905661e-39
61	0x802f865d	-4.364469e-39
62	0x8032e399	-4.673421e-39
63	0x8041820a	-6.015956e-39
64	0x80362fab	-4.976217e-39
65	0x800806a5	-7.37068e-40
66	0x8034ce89	-4.849537e-39
67	0x804020d6	-5.889251e-39
68	0x8023b8a3	-3.280478e-39
69	0x8022f518	-3.21033e-39
70	0x00070de8	6.47837e-40
71	0x803e0460	-5.69537e-39
72	0x800d4cb6	-1.22138e-39
73	0x8001e2ef	-1.73244e-40
74	0x80352de6	-4.883747e-39
75	0x80355ef6	-4.901347e-39
76	0x80299fd7	-3.822595e-39
77	0x803b035f	-5.419504e-39
78	0x800b5121	-1.039294e-39
79	0x802f7f0b	-4.361843e-39
80	0x8002fbed	-2.74045e-40
81	0x80251c73	-3.408119e-39
82	0x00083f73	7.57445e-40
83	0x8030b48c	-4.472872e-39
84	0x8035d8c7	-4.945046e-39
85	0x8028d70a	-3.750561e-39
86	0x802da602	-4.19215e-39
87	0x80317c42	-4.544515e-39
88	0x8029f4dd	-3.853096e-39
89	0x800c8f30	-1.153392e-39
90	0x8022f789	-3.211206e-39
91	0x8031025b	-4.500784e-39
92	0x0000160e	7.912e-42
93	0x00013833	1.11996e-40
94	0x8031e299	-4.581227e-39
95	0x0007b606	7.08146e-40
96	0x8029c37d	-3.835383e-39
97	0x802d6759	-4.169671e-39
98	0x0002faae	2.73598e-40
99	0x80321ef4	-4.602879e-39
100	0x802962e7	-3.800735e-39
101	0x8028f793	-3.762233e-39
102	0x80278d9e	-3.632387e-39
103	0x802b49e4	-3.975433e-39
104	0x00015c7d	1.25014e-40
105	0x00022b32	1.99167e-40
106	0x80339f85	-4.740835e-39
107	0x000183b4	1.39082e-40
108	0x804397be	-6.207413e-39
109	0x8021274d	-3.04467e-39
110	0x802f4192	-4.33979e-39
111	0x805c8a29	-8.498428e-39
112	0x80558e45	-7.857054e-39
113	0x802df1be	-4.219318e-39
114	0x800c0c4a	-1.106434e-39
115	0x800d7a77	-1.237794e-39
116	0x803af68b	-5.414902e-39
117	0x8005f19a	-5.45848e-40
118	0x803b7a78	-5.462228e-39
119	0x802c16fa	-4.049004e-39
120	0x8037cabd	-5.123681e-39
121	0x800298fd	-2.38553e-40
122	0x00042c2d	3.83189e-40
123	0x803f89de	-5.835094e-39
124	0x800cf549	-1.190018e-39
125	0x803a3c87	-5.348172e-39
126	0x804277ae	-6.104076e-39
127	0x803eca46	-5.766363e-39

layer2.weight f4 [128, 128]
0	0x00066670	5.8776e-40
1	0x803aaa0b	-5.387459e-39
2	0x8033ffc1	-4.775358e-39
3	0x803a47aa	-5.352167e-39
4	0x802fa116	-4.374055e-39
5	0x803b1bf3	-5.42832e-39
6	0x80311459	-4.507239e-39
7	0x802ee8dd	-4.307968e-39
8	0x8035253c	-4.880638e-39
9	0x803997e2	-5.289109e-39
10	0x80024eae	-2.11896e-40
11	0x803bc2a1	-5.488114e-39
12	0x000151d0	1.21184e-40
13	0x800296cc	-2.37767e-40
14	0x80066617	-5.87636e-40
15	0x80384176	-5.166271e-39
16	0x80054fee	-4.87851e-40
17	0x8002f709	-2.7229e-40
18	0x800791b8	-6.95123e-40
19	0x800183e7	-1.39153e-40
20	0x00070224	6.43616e-40
21	0x803b731c	-5.459588e-39
22	0x803e4c6e	-5.721219e-39
23	0x8004393d	-3.87875e-40
24	0x8000ef48	-8.5838e-41
25	0x0005bb72	5.2642e-40
26	0x803e0cba	-5.698366e-39
27	0x000557a4	4.90617e-40
28	0x803b9ecc	-5.47526e-39
29	0x8032bf5c	-4.660422e-39
30	0x8001bc86	-1.59465e-40
31	0x80067095	-5.914e-40
32	0x803b9370	-5.471185e-39
33	0x803021cc	-4.420228e-39
34	0x80342071	-4.787084e-39
35	0x0003e148	3.56322e-40
36	0x0005beaa	5.27575e-40
37	0x00008b37	4.9941e-41
38	0x80005610	-3.0873e-41
39	0x800001f4	-7e-43
40	0x0030ba04	4.474834e-39
41	0x8003fbb1	-3.65796e-40
42	0x8037a8db	-5.111526e-39
43	0x8006ecd2	-6.35968e-40
44	0x0007d545	7.19355e-40
45	0x0000f5c8	8.817e-41
46	0x80317e92	-4.545344e-39
47	0x80366a29	-4.9972e-39
48	0x00044262	3.91156e-40
49	0x803dd555	-5.678494e-39
50	0x803ccd41	-5.583761e-39
51	0x0002d181	2.58827e-40
52	0x8006a958	-6.11762e-40
53	0x80029f54	-2.40827e-40
54	0x8037a799	-5.111075e-39
55	0x802fbbdb	-4.383658e-39
56	0x0001fb22	1.81925e-40
57	0x80380c62	-5.14723e-39
58	0x00079893	6.97582e-40
59	0x803517d9	-4.875836e-39
60	0x803122f8	-4.512484e-39
61	0x803dce51	-5.675978e-39
62	0x802c9583	-4.094397e-39
63	0x800213a9	-1.90724e-40
64	0x8035de61	-4.947056e-39
65	0x80041b26	-3.77081e-40
66	0x803d5d54	-5.635445e-39
67	0x000582e1	5.06128e-40
68	0x803d2a4e	-5.617141e-39
69	0x80363c6a	-4.980789e-39
70	0x8001c18a	-1.61264e-40
71	0x803116a1	-4.508057e-39
72	0x000270bd	2.24114e-40
73	0x8005e557	-5.41449e-40
74	0x00353eb2	4.889772e-39
75	0x8032a8ae	-4.652286e-39
76	0x80237c26	-3.258778e-39
77	0x8032da08	-4.66999e-39
78	0x0002491f	2.09902e-40
79	0x803296d6	-4.645885e-39
80	0x8001d68b	-1.68799e-40
81	0x803c2a82	-5.525379e-39
82	0x00016bd7	1.30521e-40
83	0x80362d06	-4.975268e-39
84	0x80080069	-7.34831e-40
85	0x803300b5	-4.683864e-39
86	0x803614cf	-4.966582e-39
87	0x803ce1a0	-5.591069e-39
88	0x0007fe44	7.34062e-40
89	0x000660f9	5.858e-40
90	0x80324f21	-4.620161e-39
91	0x8030874e	-4.456642e-39
92	0x00002fd8	1.7163e-41
93	0x8007fa8d	-7.32729e-40
94	0x802f779a	-4.359173e-39
95	0x80054eba	-4.87419e-40
96	0x80387e50	-5.1881e-39
97	0x8032bb4d	-4.658966e-39
98	0x0000f05e	8.6227e-41
99	0x8038770d	-5.185495e-39
100	0x803dcbbe	-5.675054e-39
101	0x8039b765	-5.300413e-39
102	0x80380234	-5.143578e-39
103	0x80350f13	-4.872689e-39
104	0x00012e5b	1.08465e-40
105	0x0002b90c	2.50053e-40
106	0x802fd3c3	-4.392234e-39
107	0x8006306d	-5.68385e-40
108	0x8000cdc8	-7.382e-41
109	0x802b4644	-3.974133e-39
110	0x8038129c	-5.149464e-39
111	0x00073d00	6.64731e-40
112	0x0003fafb	3.65541e-40
113	0x803763ce	-5.086755e-39
114	0x0000cc3a	7.3263e-41
115	0x8002bad6	-2.50695e-40
116	0x80332f8f	-4.700671e-39
117	0x80021965	-1.92781e-40
118	0x8036824c	-5.005859e-39
119	0x803385f3	-4.731662e-39
120	0x80320258	-4.592616e-39
121	0x00060dba	5.55937e-40
122	0x00027df0	2.28849e-40
123	0x8004b0fe	-4.30835e-40
124	0x8006996d	-6.06052e-40
125	0x8033c196	-4.753056e-39
126	0x0002f5c6	2.71838e-40
127	0x80327282	-4.632852e-39
128	0x00037ace	3.1956e-40
129	0x800ac45d	-9.88797e-40
130	0x0005a714	5.19114e-40
131	0x8013c310	-1.81485e-39
132	0x80159027	-1.980258e-39
133	0x80132712	-1.75889e-39
134	0x00047c91	4.12028e-40
135	0x80107806	-1.512424e-39
136	0x0007be40	7.11097e-40
137	0x8010d121	-1.544389e-39
138	0x8007b400	-7.0742e-40
139	0x801307ba	-1.747646e-39
140	0x0006ce92	6.25116e-40
141	0x80012f15	-1.08725e-40
142	0x80047f5d	-4.13031e-40
143	0x800e67a3	-1.322875e-39
144	0x0006686f	5.88477e-40
145	0x0004ddc1	4.46892e-40
146	0x80030897	-2.78588e-40
147	0x80025013	-2.12396e-40
148	0x000167cc	1.29071e-40
149	0x80067a05	-5.94785e-40
150	0x80195ee6	-2.32993e-39
151	0x000704a4	6.44513e-40
152	0x00041b3c	3.77112e-40
153	0x00050eba	4.6446e-40
154	0x80007555	-4.2091e-41
155	0x0005fb90	5.49421e-40
156	0x8009007d	-8.26695e-40
157	0x00074d8a	6.70664e-40
158	0x00059267	5.11697e-40
159	0x80068a14	-6.00546e-40
160	0x00074940	6.69126e-40
161	0x8006450a	-5.7578e-40
162	0x800acf39	-9.92692e-40
163	0x00018088	1.37944e-40
164	0x0003da37	3.53787e-40
165	0x80027027	-2.23904e-40
166	0x0004a063	4.24878e-40
167	0x000518be	4.68053e-40
168	0x000565f1	4.95747e-40
169	0x00006f95	4.0028e-41
170	0x800ffced	-1.468265e-39
171	0x80062871	-5.6552e-40
172	0x80035752	-3.06831e-40
173	0x0002d2bd	2.5927e-40
174	0x8000c7d5	-7.1686e-41
175	0x800acc0e	-9.91556e-40
176	0x80074f3c	-6.71272e-40
177	0x80100cc8	-1.473953e-39
178	0x8002950c	-2.37139e-40
179	0x80023a84	-2.04662e-40
180	0x80003baa	-2.1403e-41
181	0x8002e200	-2.64745e-40
182	0x800266ef	-2.20597e-40
183	0x8001f48b	-1.79561e-40
184	0x80007359	-4.1379e-41
185	0x800272c5	-2.24843e-40
186	0x0000189c	8.828e-42
187	0x80066ca9	-5.89993e-40
188	0x80079b3b	-6.98535e-40
189	0x800a5dbf	-9.51985e-40
190	0x8002b055	-2.46927e-40
191	0x8006b7f9	-6.1701e-40
192	0x800372c2	-3.16674e-40
193	0x80037935	-3.18987e-40
194	0x80023864	-2.039e-40
195	0x000131cc	1.09699e-40
196	0x80131c24	-1.75497e-39
197	0x8017610a	-2.147027e-39
198	0x000132bb	1.10034e-40
199	0x000513b6	4.66248e-40
200	0x00059ef4	5.16199e-40
201	0x0003ca8b	3.48165e-40
202	0x00039cb0	3.31715e-40
203	0x800ee5c4	-1.368121e-39
204	0x800377e3	-3.18514e-40
205	0x8004af14	-4.30148e-40
206	0x8002e454	-2.6558e-40
207	0x800f2012	-1.389037e-39
208	0x00076cdf	6.81904e-40
209	0x8015f3e3	-2.016035e-39
210	0x8002f02c	-2.69828e-40
211	0x00003e83	2.2425e-41
212	0x800470d5	-4.07818e-40
213	0x80100d91	-1.474235e-39
214	0x8002723f	-2.24655e-40
215	0x801444dc	-1.861412e-39
216	0x8006c2eb	-6.20936e-40
217	0x8002fbb4	-2.73965e-40
218	0x801112ca	-1.567944e-39
219	0x0006b5cd	6.16231e-40
220	0x000049b9	2.6447e-41
221	0x00037184	3.16228e-40
222	0x801b5425	-2.509744e-39
223	0x800658e6	-5.82904e-40
224	0x8000624a	-3.526e-41
225	0x801b352b	-2.498631e-39
226	0x000598ca	5.13988e-40
227	0x80055d95	-4.92748e-40
228	0x0004dcc5	4.46539e-40
229	0x80025aca	-2.1624e-40
230	0x800f3dcf	-1.399705e-39
231	0x801c0bb2	-2.57559e-39
232	0x8007ae17	-7.053e-40
233	0x8004e745	-4.50306e-40
234	0x0000a170	5.7913e-41
235	0x0003bc51	3.43062e-40
236	0x0000746c	4.1764e-41
237	0x80047c53	-4.11941e-40
238	0x8000aa3c	-6.1069e-41
239	0x000336d2	2.95172e-40
240	0x000680e2	5.97247e-40
241	0x8004fca0	-4.57967e-40
242	0x0004590c	3.99286e-40
243	0x8007cf65	-7.17248e-40
244	0x800df41e	-1.281434e-39
245	0x8003ba23	-3.4228e-40
246	0x8008438f	-7.5892e-40
247	0x8006e89a	-6.34455e-40
248	0x80046e48	-4.06903e-40
249	0x80019fe3	-1.49192e-40
250	0x0001a214	1.49978e-40
251	0x8007ab94	-7.04399e-40
252	0x00013068	1.092e-40
253	0x800082ac	-4.6876e-41
254	0x00030fd3	2.81183e-40
255	0x80072b3b	-6.58357e-40

layer2.bias f4 [128]
0	0x8048ec71	-6.696975e-39
1	0x8026fad1	-3.579725e-39
2	0x8037c12b	-5.120248e-39
3	0x803442fc	-4.799475e-39
4	0x80670e76	-9.464244e-39
5	0x80377d78	-5.095962e-39
6	0x80efebaf	-2.2033231e-38
7	0x80385c39	-5.175871e-39
8	0x8030edd5	-4.493422e-39
9	0x802cf726	-4.129422e-39
10	0x803a7127	-5.36705e-39
11	0x80361e86	-4.970067e-39
12	0x801afd86	-2.47867e-39
13	0x802bf97a	-4.038422e-39
14	0x80305b82	-4.44093e-39
15	0x802e1263	-4.231029e-39
16	0x0095690b	1.3721171e-38
17	0x80303b21	-4.429315e-39
18	0x8032b6f6	-4.657409e-39
19	0x801f6edc	-2.886669e-39
20	0x803938b6	-5.254967e-39
21	0x803e6645	-5.730488e-39
22	0x80968daf	-1.3826151e-38
23	0x80639e86	-9.148582e-39
24	0x800c4518	-1.126812e-39
25	0x802df8a9	-4.2218e-39
26	0x804310e5	-6.159039e-39
27	0x8088f965	-1.2579093e-38
28	0x005641c1	7.921441e-39
29	0x802c850b	-4.088489e-39
30	0x80366cac	-4.998101e-39
31	0x00404183	5.900973e-39
32	0x802c78d0	-4.084101e-39
33	0x804130e1	-5.986842e-39
34	0x804896e8	-6.66629e-39
35	0x8039b3f1	-5.299174e-39
36	0x80334f34	-4.712023e-39
37	0x80490835	-6.706935e-39
38	0x803e27ba	-5.708052e-39
39	0x804245a6	-6.086128e-39
40	0x8037b579	-5.116052e-39
41	0x804338e5	-6.173388e-39
42	0x802d59fd	-4.164879e-39
43	0x80365e72	-4.992997e-39
44	0x8058e191	-8.162442e-39
45	0x801a88e5	-2.436831e-39
46	0x80602c22	-8.83204e-39
47	0x803a0612	-5.328636e-39
48	0x802fee1b	-4.401684e-39
49	0x8030517e	-4.437338e-39
50	0x8075babc	-1.0811741e-38
51	0x81240eb4	-3.0132592e-38
52	0x8036fc85	-5.049704e-39
53	0x808f4857	-1.3158427e-38
54	0x801c5521	-2.601932e-39
55	0x802e5bbb	-4.25734e-39
56	0x80131e4a	-1.75574e-39
57	0x801d95ac	-2.716922e-39
58	0x802998c9	-3.820064e-39
59	0x8041a01c	-6.026744e-39
60	0x80280563	-3.675352e-39
61	0x802788d6	-3.630672e-39
62	0x8037e745	-5.133916e-39
63	0x8043a21f	-6.211136e-39
64	0x8049e66d	-6.786652e-39
65	0x803b9866	-5.472965e-39
66	0x833ca3b0	-5.543614e-37
67	0x80662d29	-9.383421e-39
68	0x80388c1e	-5.193052e-39
69	0x81121631	-2.6831886e-38
70	0x808a1bca	-1.2683267e-38
71	0x803a1099	-5.332413e-39
72	0x8033c4ec	-4.754253e-39
73	0x003cbd31	5.577999e-39
74	0x803dba25	-5.668741e-39
75	0x801122e2	-1.573717e-39
76	0x804c8909	-7.028657e-39
77	0x8032ef41	-4.677603e-39
78	0x801c21c4	-2.583507e-39
79	0x80387297	-5.183895e-39
80	0x803cf8ea	-5.599423e-39
81	0x8055e0fd	-7.886728e-39
82	0x8032a7da	-4.651989e-39
83	0x8028ad4e	-3.73559e-39
84	0x8031255a	-4.513339e-39
85	0x803f36ff	-5.805365e-39
86	0x8047d749	-6.59755e-39
87	0x803e225f	-5.706131e-39
88	0x808cdf7d	-1.2937142e-38
89	0x803bb938	-5.484738e-39
90	0x8044b06a	-6.308099e-39
91	0x001cf4e4	2.659244e-39
92	0x80605ae1	-8.848809e-39
93	0x8037a229	-5.109124e-39
94	0x0022a444	3.181334e-39
95	0x8069cbcc	-9.715836e-39
96	0x8044d632	-6.321653e-39
97	0x8059ee8b	-8.258932e-39
98	0x8048d65e	-6.689056e-39
99	0x8037ce61	-5.124987e-39
100	0x8036f039	-5.045292e-39
101	0x8090ce3f	-1.3298299e-38
102	0x802af30a	-3.944277e-39
103	0x805fa8e9	-8.784966e-39
104	0x80707f9c	-1.0331353e-38
105	0x80291ec4	-3.776292e-39
106	0x80370249	-5.051772e-39
107	0x803e908d	-5.745656e-39
108	0x8051c671	-7.509863e-39
109	0x80709dc6	-1.0342174e-38
110	0x80325e3a	-4.625577e-39
111	0x8035e67f	-4.949968e-39
112	0x80295e1b	-3.799014e-39
113	0x80334d1f	-4.711276e-39
114	0x803c5aab	-5.542655e-39
115	0x803b9791	-5.472666e-39
116	0x80885bfe	-1.2522628e-38
117	0x801f3099	-2.864334e-39
118	0x802d92ce	-4.185261e-39
119	0x803f9e39	-5.842396e-39
120	0x801e27eb	-2.769385e-39
121	0x806b48e8	-9.852552e-39
122	0x8035ad93	-4.929548e-39
123	0x8022ab20	-3.183795e-39
124	0x80385e08	-5.17652e-39
125	0x8030bdd2	-4.476199e-39
126	0x804be6de	-6.970482e-39
127	0x803e8a11	-5.74333e-39

layer3.weight f4 [128, 128]
0	0x00048766	4.15914e-40
1	0x80080f04	-7.4007e-40
2	0x80010692	-9.4192e-41
3	0x802a144b	-3.86437e-39
4	0x8030cf15	-4.482391e-39
5	0x8031c7a4	-4.571557e-39
6	0x803327d6	-4.697901e-39
7	0x0000112a	6.157e-42
8	0x00048b4f	4.17316e-40
9	0x0000576d	3.1362e-41
10	0x0005922a	5.11611e-40
11	0x0003688f	3.13015e-40
12	0x0007157d	6.50557e-40
13	0x80069cb0	-6.07222e-40
14	0x00067ff9	5.96921e-40
15	0x0005c4f0	5.29825e-40
16	0x0002d7df	2.61111e-40
17	0x00040eaf	3.7261e-40
18	0x80305c86	-4.441295e-39
19	0x00060fb2	5.56643e-40
20	0x80353f52	-4.889996e-39
21	0x00003756	1.9851e-41
22	0x80075b02	-6.75496e-40
23	0x80047f53	-4.13017e-40
24	0x00031bcc	2.85478e-40
25	0x8004ce8f	-4.41441e-40
26	0x802fa327	-4.374796e-39
27	0x8002c45f	-2.54116e-40
28	0x8000a123	-5.7805e-41
29	0x00034a24	3.02103e-40
30	0x8006878f	-5.99642e-40
31	0x8003769b	-3.18054e-40
32	0x0003e0b8	3.5612e-40
33	0x0005a0bf	5.16842e-40
34	0x0001db0f	1.70419e-40
35	0x00051011	4.64941e-40
36	0x0005aead	5.2184e-40
37	0x0001254c	1.05215e-40
38	0x000755e9	6.73667e-40
39	0x80008ab0	-4.9752e-41
40	0x8003c659	-3.4666e-40
41	0x00074210	6.66547e-40
42	0x000033df	1.8608e-41
43	0x8007a032	-7.00316e-40
44	0x80305051	-4.436916e-39
45	0x80004471	-2.4552e-41
46	0x0002a19e	2.41648e-40
47	0x80020a7a	-1.87429e-40
48	0x80074dc3	-6.70744e-40
49	0x00022675	1.97467e-40
50	0x8000dedc	-7.9947e-41
51	0x80041bad	-3.7727e-40
52	0x8001ed10	-1.76877e-40
53	0x80019d78	-1.48325e-40
54	0x00028522	2.3143e-40
55	0x8000bf55	-6.8637e-41
56	0x80003ae9	-2.1133e-41
57	0x00004042	2.3051e-41
58	0x802c2f6b	-4.057772e-39
59	0x802f8877	-4.365223e-39
60	0x802ed454	-4.300602e-39
61	0x00016fbd	1.3192e-40
62	0x00070f28	6.48286e-40
63	0x8004b715	-4.3302e-40
64	0x0006692c	5.88742e-40
65	0x80055f36	-4.93333e-40
66	0x00026cac	2.22655e-40
67	0x80070203	-6.4357e-40
68	0x80033929	-2.96012e-40
69	0x00020a3e	1.87345e-40
70	0x0002fa9b	2.73571e-40
71	0x802adecf	-3.93702e-39
72	0x00048f1a	4.18677e-40
73	0x000129b5	1.06797e-40
74	0x8002e74b	-2.66643e-40
75	0x800104db	-9.3577e-41
76	0x8005b7cf	-5.25116e-40
77	0x8006da1e	-6.29259e-40
78	0x800515f4	-4.67053e-40
79	0x00059c44	5.15235e-40
80	0x0001a002	1.49235e-40
81	0x000606b0	5.53412e-40
82	0x80047b54	-4.11584e-40
83	0x80058024	-5.05146e-40
84	0x8006bb5c	-6.18225e-40
85	0x8028c337	-3.74345e-39
86	0x80350d73	-4.872106e-39
87	0x00040166	3.67844e-40
88	0x8007a575	-7.02203e-40
89	0x80020e7f	-1.88871e-40
90	0x800046e0	-2.5425e-41
91	0x800438e1	-3.87746e-40
92	0x0006125f	5.57603e-40
93	0x8029a80b	-3.825538e-39
94	0x8003ead6	-3.5975e-40
95	0x0005bb75	5.26424e-40
96	0x802f9b05	-4.371879e-39
97	0x0001dca9	1.70993e-40
98	0x8003753a	-3.1756e-40
99	0x0006c359	6.2109e-40
100	0x0006edfc	6.36386e-40
101	0x000588d0	5.08257e-40
102	0x80045b8b	-4.00181e-40
103	0x802fb3fd	-4.380836e-39
104	0x0002e8c6	2.67174e-40
105	0x802bb7e4	-4.014894e-39
106	0x0006c3bb	6.21228e-40
107	0x80359022	-4.918986e-39
108	0x0001cf49	1.66195e-40
109	0x0003dead	3.55388e-40
110	0x80007097	-4.039e-41
111	0x800767c4	-6.80073e-40
112	0x00060872	5.54043e-40
113	0x8005d556	-5.35708e-40
114	0x8003b409	-3.40091e-40
115	0x80065064	-5.79852e-40
116	0x00061f37	5.62211e-40
117	0x00074191	6.66369e-40
118	0x80324022	-4.614781e-39
119	0x802e4804	-4.250267e-39
120	0x800580cf	-5.05385e-40
121	0x8002132e	-1.90551e-40
122	0x000159ee	1.24096e-40
123	0x80024af4	-2.10559e-40
124	0x0005d4f3	5.35569e-40
125	0x8002b9a2	-2.50263e-40
126	0x0001d0a4	1.66682e-40
127	0x800712a2	-6.49533e-40
128	0x00008302	4.6997e-41
129	0x00045ca9	4.00582e-40
130	0x000710cb	6.48873e-40
131	0x80354013	-4.890267e-39
132	0x802ba751	-4.008948e-39
133	0x8033ef57	-4.769469e-39
134	0x8029a3cc	-3.824015e-39
135	0x8007c79f	-7.14459e-40
136	0x8001a8ca	-1.52386e-40
137	0x0006af24	6.13842e-40
138	0x800161b3	-1.26883e-40
139	0x8005f8f6	-5.48488e-40
140	0x00005c46	3.3101e-41
141	0x8007db3c	-7.21495e-40
142	0x0000a5fa	5.9541e-41
143	0x80042117	-3.79212e-40
144	0x00027d1a	2.28549e-40
145	0x0006fafb	6.41048e-40
146	0x802967a7	-3.802439e-39
147	0x80011c02	-1.01883e-40
148	0x8029e3d2	-3.846982e-39
149	0x000380a5	3.21655e-40
150	0x800001f4	-7e-43
151	0x000459e8	3.99594e-40
152	0x0000a4db	5.9139e-41
153	0x80074bd1	-6.70046e-40
154	0x8029c6d4	-3.836581e-39
155	0x80064b77	-5.78085e-40
156	0x80036fe7	-3.1565e-40
157	0x8003a7fe	-3.35771e-40
158	0x00014fe8	1.205e-40
159	0x00032c11	2.91315e-40
160	0x8004c955	-4.39566e-40
161	0x8001618c	-1.26829e-40
162	0x8003f8fb	-3.64824e-40
163	0x8006146b	-5.58338e-40
164	0x0003d282	3.51022e-40
165	0x00006fdc	4.0128e-41
166	0x800430ca	-3.84844e-40
167	0x8002b639	-2.4904e-40
168	0x00002b89	1.5617e-41
169	0x8001242c	-1.04812e-40
170	0x80066ff4	-5.91174e-40
171	0x00022da9	2.00051e-40
172	0x802cec72	-4.125582e-39
173	0x80060ea6	-5.56268e-40
174	0x80003162	-1.7715e-41
175	0x8000d568	-7.6556e-41
176	0x80079dba	-6.9943e-40
177	0x8007fa84	-7.32717e-40
178	0x8007260c	-6.56497e-40
179	0x0002e9d8	2.67558e-40
180	0x8000fa16	-8.9714e-41
181	0x8005b1da	-5.22979e-40
182	0x8000b280	-6.4034e-41
183	0x80046fb7	-4.07418e-40
184	0x0002cafb	2.56487e-40
185	0x80068842	-5.99893e-40
186	0x802f63ff	-4.35214e-39
187	0x802ace9e	-3.931211e-39
188	0x8032f75c	-4.68051e-39
189	0x80030348	-2.76684e-40
190	0x80020561	-1.856e-40
191	0x80013bad	-1.13243e-40
192	0x0000b4c1	6.4842e-41
193	0x8001881a	-1.4066e-40
194	0x8000888c	-4.8984e-41
195	0x80037c04	-3.19995e-40
196	0x00010c76	9.6306e-41
197	0x0004b5a5	4.32504e-40
198	0x800761f5	-6.77989e-40
199	0x802ce4ce	-4.122841e-39
200	0x00055f27	4.93312e-40
201	0x0003f5fc	3.63749e-40
202	0x800019b0	-9.215e-42
203	0x00060499	5.52662e-40
204	0x00012a76	1.07068e-40
205	0x000557bc	4.9065e-40
206	0x8005e58a	-5.4152e-40
207	0x8006b88f	-6.1722e-40
208	0x0003ea3d	3.59535e-40
209	0x80018d99	-1.42631e-40
210	0x00014d83	1.19641e-40
211	0x0000e2c2	8.1345e-41
212	0x80035465	-3.05782e-40
213	0x803282ef	-4.638745e-39
214	0x802798d3	-3.636407e-39
215	0x000168d6	1.29444e-40
216	0x0005edef	5.44532e-40
217	0x0007e179	7.23733e-40
218	0x00021e52	1.94548e-40
219	0x00072880	6.57377e-40
220	0x8007e4de	-7.2495e-40
221	0x80332cfb	-4.699746e-39
222	0x80001222	-6.505e-42
223	0x000048a6	2.6061e-41
224	0x802cb26d	-4.104769e-39
225	0x8005c2bd	-5.29036e-40
226	0x8007ce04	-7.16753e-40
227	0x0001c9d7	1.64242e-40
228	0x00026c51	2.22528e-40
229	0x000136b7	1.11463e-40
230	0x8001d18f	-1.67011e-40
231	0x802e8921	-4.273625e-39
232	0x0002ceb6	2.57825e-40
233	0x802e5637	-4.255361e-39
234	0x80050c61	-4.63618e-40
235	0x803039f6	-4.428896e-39
236	0x00041329	3.74215e-40
237	0x8006571a	-5.82259e-40
238	0x0001dc8c	1.70953e-40
239	0x8005f06b	-5.45423e-40
240	0x000487ed	4.16103e-40
241	0x8004d7e2	-4.44786e-40
242	0x80062b55	-5.66558e-40
243	0x8002f4b4	-2.71454e-40
244	0x80037906	-3.18922e-40
245	0x80038683	-3.2376e-40
246	0x802acc96	-3.930482e-39
247	0x802bdeb5	-4.028819e-39
248	0x000117a4	1.00316e-40
249	0x80064c38	-5.78355e-40
250	0x80031af8	-2.85181e-40
251	0x8002a5eb	-2.43191e-40
252	0x0007bf3a	7.11448e-40
253	0x00004fc5	2.8616e-41
254	0x80034463	-3.00039e-40
255	0x00060e63	5.56174e-40

layer3.bias f4 [128]
0	0x8033b6e1	-4.749215e-39
1	0x803441b2	-4.799013e-39
2	0x8031020e	-4.500676e-39
3	0x8031ee1f	-4.585361e-39
4	0x8037f0d1	-5.137341e-39
5	0x80374bdd	-5.078167e-39
6	0x802f8141	-4.362636e-39
7	0x80045869	-3.99058e-40
8	0x803406c5	-4.777874e-39
9	0x8039f71f	-5.323274e-39
10	0x8034ea62	-4.859527e-39
11	0x801b80c6	-2.525754e-39
12	0x8053d8a9	-7.700069e-39
13	0x803e2ac0	-5.709137e-39
14	0x80248a74	-3.355745e-39
15	0x802d6938	-4.170343e-39
16	0x805a8011	-8.311136e-39
17	0x8038f131	-5.229311e-39
18	0x8034fa8d	-4.865326e-39
19	0x803ad123	-5.401483e-39
20	0x80323162	-4.60949e-39
21	0x8038bc32	-5.2103e-39
22	0x802f32f0	-4.334541e-39
23	0x80014e86	-1.20004e-40
24	0x805703a2	-7.990991e-39
25	0x801c4b7f	-2.598477e-39
26	0x803fe1e5	-5.866672e-39
27	0x8057bf7a	-8.058377e-39
28	0x802a8bdf	-3.907267e-39
29	0x80332e4a	-4.700216e-39
30	0x8017ff0c	-2.20371e-39
31	0x8035a606	-4.926839e-39
32	0x8031427c	-4.52379e-39
33	0x8033a1a3	-4.741595e-39
34	0x80310be9	-4.504212e-39
35	0x820c9ee8	-1.0331179e-37
36	0x802f64f3	-4.352482e-39
37	0x80393752	-5.254468e-39
38	0x80312fba	-4.51706e-39
39	0x803e6fd1	-5.733913e-39
40	0x80991cb3	-1.4061126e-38
41	0x8040187f	-5.886259e-39
42	0x803a83d7	-5.373754e-39
43	0x8032358b	-4.610982e-39
44	0x8033928d	-4.736183e-39
45	0x802fb3fd	-4.380836e-39
46	0x800f3cfe	-1.399412e-39
47	0x8037b897	-5.11717e-39
48	0x801e6c5b	-2.793936e-39
49	0x8029c481	-3.835748e-39
50	0x8036f384	-5.046474e-39
51	0x8035bf3f	-4.935887e-39
52	0x8083e342	-1.2111975e-38
53	0x803424a7	-4.788594e-39
54	0x8031fafc	-4.589976e-39
55	0x8022d713	-3.199561e-39
56	0x804e8d46	-7.213848e-39
57	0x802d86ed	-4.181e-39
58	0x803d29cf	-5.616963e-39
59	0x80361b01	-4.968804e-39
60	0x80356253	-4.902553e-39
61	0x803be9e4	-5.502198e-39
62	0x80377a26	-5.094771e-39
63	0x801b089f	-2.482651e-39
64	0x80395c1e	-5.267669e-39
65	0x803246e3	-4.617204e-39
66	0x802ee57d	-4.306758e-39
67	0x80414752	-5.994892e-39
68	0x8025f7cd	-3.486808e-39
69	0x8038921f	-5.195206e-39
70	0x80322d08	-4.607929e-39
71	0x803650dd	-4.988125e-39
72	0x800416c1	-3.75505e-40
73	0x802acabd	-3.92982e-39
74	0x802f41ef	-4.339921e-39
75	0x802743d4	-3.605916e-39
76	0x8049ac11	-6.765717e-39
77	0x802dd765	-4.209866e-39
78	0x80079df5	-6.99513e-40
79	0x8031d01f	-4.574599e-39
80	0x803229cf	-4.606773e-39
81	0x802fc0be	-4.385411e-39
82	0x80381674	-5.150842e-39
83	0x803892d3	-5.195458e-39
84	0x80274706	-3.607063e-39
85	0x80214da8	-3.058429e-39
86	0x802cc1d2	-4.110291e-39
87	0x80424bfb	-6.0884e-39
88	0x803cc00f	-5.579027e-39
89	0x80361025	-4.964908e-39
90	0x8072e31a	-1.0550715e-38
91	0x80285413	-3.70358e-39
92	0x803684f1	-5.006807e-39
93	0x80395b87	-5.267457e-39
94	0x80357417	-4.908926e-39
95	0x80464bb1	-6.455638e-39
96	0x803f1b63	-5.795461e-39
97	0x80383883	-5.16306e-39
98	0x80535efd	-7.656422e-39
99	0x804a73de	-6.837392e-39
100	0x804083ca	-5.924749e-39
101	0x805f1779	-8.732793e-39
102	0x803c65bb	-5.546624e-39
103	0x8045b718	-6.402331e-39
104	0x804116f9	-5.977548e-39
105	0x80313022	-4.517206e-39
106	0x8032e689	-4.674475e-39
107	0x803d3d35	-5.623922e-39
108	0x804d6967	-7.109144e-39
109	0x803e67c9	-5.731032e-39
110	0x80339bc2	-4.739486e-39
111	0x802e81d1	-4.271002e-39
112	0x802a009e	-3.857312e-39
113	0x80306301	-4.44362e-39
114	0x803e4dec	-5.721754e-39
115	0x80342c45	-4.791327e-39
116	0x80495e2a	-6.737771e-39
117	0x80344096	-4.798615e-39
118	0x804c367b	-6.999042e-39
119	0x8037f5ea	-5.13917e-39
120	0x803bbeb9	-5.486713e-39
121	0x802f623a	-4.351505e-39
122	0x80331419	-4.69082e-39
123	0x803ab502	-5.391392e-39
124	0x80494dfb	-6.731965e-39
125	0x8031c27e	-4.56971e-39
126	0x805bb9ed	-8.423728e-39
127	0x80282ff0	-3.690617e-39

output_layer.weight f4 [9, 128]
0	0x00003459	1.8779e-41
1	0x00053b1f	4.80386e-40
2	0x0006e971	6.34756e-40
3	0x00059326	5.11964e-40
4	0x8004d6f3	-4.44451e-40
5	0x00066f9e	5.91054e-40
6	0x80042bcb	-3.83052e-40
7	0x8003282b	-2.89916e-40
8	0x0000a3b5	5.8727e-41
9	0x8002b55c	-2.4873e-40
10	0x0006746f	5.92781e-40
11	0x80043f5e	-3.90074e-40
12	0x0003d553	3.52033e-40
13	0x00051f94	4.70506e-40
14	0x8002743e	-2.25371e-40
15	0x8003c955	-3.47731e-40
16	0x800565a6	-4.95642e-40
17	0x8005d102	-5.34155e-40
18	0x8001e69e	-1.74565e-40
19	0x00056c1c	4.9796e-40
20	0x80071973	-6.51978e-40
21	0x8002299a	-1.98595e-40
22	0x8002e4ec	-2.65793e-40
23	0x0003296d	2.90367e-40
24	0x8007a8bd	-7.0338e-40
25	0x00055236	4.88669e-40
26	0x8007c11b	-7.12122e-40
27	0x0001afda	1.54919e-40
28	0x0001b354	1.56166e-40
29	0x0000e368	8.1578e-41
30	0x00013b5c	1.1313e-40
31	0x0005fd0e	5.49956e-40
32	0x0006fd91	6.41975e-40
33	0x800794a1	-6.96166e-40
34	0x0001126c	9.8444e-41
35	0x0038e1ed	5.223835e-39
36	0x0006f400	6.38544e-40
37	0x0003d517	3.51949e-40
38	0x8001f115	-1.7832e-40
39	0x00033b14	2.967e-40
40	0x8000a583	-5.9374e-41
41	0x0005cf9f	5.33658e-40
42	0x0007a6e9	7.02725e-40
43	0x80062f8b	-5.68068e-40
44	0x800704fe	-6.4464e-40
45	0x80079fc6	-7.00164e-40
46	0x0006bb6b	6.18246e-40
47	0x0001b74d	1.57591e-40
48	0x0006e241	6.32178e-40
49	0x8007197e	-6.51993e-40
50	0x0003caf6	3.48315e-40
51	0x8004b930	-4.33775e-40
52	0x00022549	1.97046e-40
53	0x8005a811	-5.19468e-40
54	0x000233ec	2.02297e-40
55	0x0000c539	7.075e-41
56	0x0000c4b2	7.0561e-41
57	0x00013ec4	1.14352e-40
58	0x0004f7c3	4.56222e-40
59	0x8001b1c5	-1.55607e-40
60	0x80019348	-1.4467e-40
61	0x8006fdec	-6.42103e-40
62	0x00051f42	4.7039e-40
63	0x8006e199	-6.31942e-40
64	0x800491f2	-4.19697e-40
65	0x000020df	1.1792e-41
66	0x00079b66	6.98595e-40
67	0x80018489	-1.3938e-40
68	0x00043f2e	3.90007e-40
69	0x80067990	-5.94621e-40
70	0x8001cd24	-1.65426e-40
71	0x0002d6ec	2.6077e-40
72	0x00013634	1.1128e-40
73	0x8005b1d5	-5.22972e-40
74	0x0001ce90	1.65936e-40
75	0x0003b332	3.3979e-40
76	0x80076b29	-6.8129e-40
77	0x0000beaf	6.8404e-41
78	0x0007f0a0	7.29168e-40
79	0x8005386e	-4.7942e-40
80	0x8000e221	-8.112e-41
81	0x800089e3	-4.9464e-41
82	0x00077d4c	6.87797e-40
83	0x800102a9	-9.279e-41
84	0x800403c7	-3.68697e-40
85	0x00044987	3.93719e-40
86	0x00036751	3.1257e-40
87	0x00053f94	4.81985e-40
88	0x0001a404	1.50673e-40
89	0x00076aa4	6.81104e-40
90	0x0006cc85	6.24381e-40
91	0x80046ee1	-4.07118e-40
92	0x8005f14b	-5.45737e-40
93	0x0007fbe4	7.3321e-40
94	0x00051784	4.67613e-40
95	0x8007e0f9	-7.23553e-40
96	0x00041329	3.74215e-40
97	0x0002562b	2.14582e-40
98	0x8004b6e5	-4.32952e-40
99	0x80029065	-2.3547e-40
100	0x80059eab	-5.16097e-40
101	0x8004191e	-3.76352e-40
102	0x00059dc6	5.15776e-40
103	0x8000f13c	-8.6539e-41
104	0x8006491e	-5.77242e-40
105	0x0002402f	2.06696e-40
106	0x0001e6f5	1.74687e-40
107	0x0003434c	2.99648e-40
108	0x8002b474	-2.48405e-40
109	0x0007e4b8	7.24897e-40
110	0x80079513	-6.96326e-40
111	0x8003870c	-3.23952e-40
112	0x00046062	4.01918e-40
113	0x8004f5b6	-4.55486e-40
114	0x80011530	-9.9436e-41
115	0x0007c6b8	7.14135e-40
116	0x8003fc98	-3.6612e-40
117	0x0000e15c	8.0844e-41
118	0x00000b9c	4.165e-42
119	0x00079e82	6.9971e-40
120	0x800159a2	-1.2399e-40
121	0x800753f8	-6.72971e-40
122	0x0006da12	6.29242e-40
123	0x8005a367	-5.17795e-40
124	0x00027f89	2.29422e-40
125	0x00024973	2.1002e-40
126	0x0007f361	7.30156e-40
127	0x80016312	-1.27375e-40
128	0x00035bba	3.08412e-40
129	0x8000504a	-2.8802e-41
130	0x801f56f5	-2.878095e-39
131	0x801e0550	-2.75697e-39
132	0x0003dd3e	3.54873e-40
133	0x8005eeae	-5.448e-40
134	0x8002edb6	-2.68946e-40
135	0x0008065b	7.36964e-40
136	0x00066814	5.88349e-40
137	0x8007a86f	-7.03271e-40
138	0x8052fc84	-7.621096e-39
139	0x8022da04	-3.200616e-39
140	0x80220306	-3.123491e-39
141	0x0006d70d	6.28159e-40
142	0x801e9044	-2.806818e-39
143	0x80000796	-2.721e-42
144	0x8021ff25	-3.1221e-39
145	0x00071222	6.49353e-40
146	0x8007f3a1	-7.30246e-40
147	0x80014ed2	-1.20111e-40
148	0x8007ca27	-7.15367e-40
149	0x800506b5	-4.61584e-40
150	0x0001974a	1.46108e-40
151	0x8002aebf	-2.46358e-40
152	0x0005c2ea	5.291e-40
153	0x8026ba4d	-3.556581e-39
154	0x8033dc24	-4.762582e-39
155	0x801ceaf0	-2.655674e-39
156	0x80011571	-9.9527e-41
157	0x80000534	-1.867e-42
158	0x802507b4	-3.400677e-39
159	0x801d7c83	-2.707896e-39
160	0x800385e6	-3.2354e-40
161	0x8001e7fa	-1.75053e-40
162	0x8022113d	-3.128591e-39
163	0x05c87e24	1.8854246e-35
164	0x8000b606	-6.5298e-41
165	0x8007b493	-7.07626e-40
166	0x8000b6bc	-6.5553e-41
167	0x801fd937	-2.924822e-39
168	0x002b3f6d	3.971679e-39
169	0x802121cb	-3.042694e-39
170	0x80036c9d	-3.1447e-40
171	0x8004a747	-4.2735e-40
172	0x8006fb61	-6.41191e-40
173	0x0006425a	5.74815e-40
174	0x8024c431	-3.376458e-39
175	0x80061f6e	-5.62288e-40
176	0x000246ed	2.09114e-40
177	0x8023b23c	-3.278181e-39
178	0x80063477	-5.69834e-40
179	0x80025a48	-2.16058e-40
180	0x8004835a	-4.14462e-40
181	0x00072ecc	6.59636e-40
182	0x801d5f3a	-2.69739e-39
183	0x80059ca9	-5.15377e-40
184	0x801ceee7	-2.657096e-39
185	0x80049969	-4.22375e-40
186	0x00065fe6	5.85415e-40
187	0x800390a4	-3.27394e-40
188	0x800106cf	-9.4278e-41
189	0x8021d609	-3.107353e-39
190	0x0005f9d3	5.48798e-40
191	0x801ee6c7	-2.837852e-39
192	0x8005436c	-4.83364e-40
193	0x80053f07	-4.81787e-40
194	0x0006cd18	6.24587e-40
195	0x801ec393	-2.825224e-39
196	0x0028deaf	3.753304e-39
197	0x8002fb8f	-2.73913e-40
198	0x801f65e8	-2.883457e-39
199	0x00019676	1.45811e-40
200	0x80048474	-4.14857e-40
201	0x00072cbb	6.58895e-40
202	0x80036047	-3.10044e-40
203	0x80206a3b	-2.976844e-39
204	0x80123cc0	-1.674832e-39
205	0x8002d27f	-2.59183e-40
206	0x00059b36	5.14857e-40
207	0x80220d18	-3.127104e-39
208	0x00025c7b	2.16847e-40
209	0x80075db7	-6.76467e-40
210	0x802fb4de	-4.381151e-39
211	0x0001e487	1.73816e-40
212	0x8021ae8f	-3.093191e-39
213	0x002e0d2e	4.229161e-39
214	0x80060ed6	-5.56335e-40
215	0x8021d1a1	-3.105772e-39
216	0x801d75d5	-2.7055e-39
217	0x00303932	4.428622e-39
218	0x002a9d84	3.913597e-39
219	0x801ee2c5	-2.836414e-39
220	0x0000d271	7.5492e-41
221	0x0006939f	6.0397e-40
222	0x8003fb96	-3.65759e-40
223	0x801e1ac6	-2.76467e-39
224	0x801e32a5	-2.773233e-39
225	0x002f2c86	4.33224e-39
226	0x80200082	-2.938918e-39
227	0x000251d0	2.1302e-40
228	0x8003184a	-2.8422e-40
229	0x8006fe8f	-6.42331e-40
230	0x00157bde	1.97298e-39
231	0x005ac8eb	8.33727e-39
232	0x801df683	-2.751661e-39
233	0x8001703c	-1.32098e-40
234	0x0003b39a	3.39935e-40
235	0x0003bc7f	3.43126e-40
236	0x801c7b68	-2.615664e-39
237	0x801d07b0	-2.665987e-39
238	0x0005fd3a	5.50018e-40
239	0x0004a7e0	4.27564e-40
240	0x801e36a4	-2.774666e-39
241	0x00025b6c	2.16467e-40
242	0x801f17c6	-2.855429e-39
243	0x00007b57	4.4246e-41
244	0x00404811	5.903324e-39
245	0x800361f7	-3.1065e-40
246	0x8021844f	-3.078035e-39
247	0x801e75e8	-2.797362e-39
248	0x80001169	-6.246e-42
249	0x8014e0bb	-1.917328e-39
250	0x0001d60e	1.68624e-40
251	0x801f4fb8	-2.875498e-39
252	0x80038d78	-3.26256e-40
253	0x00006df7	3.9448e-41
254	0x00370da1	5.055841e-39
255	0x002b969d	4.002956e-39

output_layer.bias f4 [9]
0	0x3fcc0eef	1.5942057
1	0x3fce2f6c	1.6108222
2	0x3fd5d048	1.6704187
3	0x3fdf313c	1.74369
4	0x3fdf9b6b	1.7469305
5	0x3fde5874	1.7370744
6	0x3fde5be2	1.737179
7	0x3fe425c1	1.7824022
8	0x3fdc4313	1.720797
