results/train/SAC_robot_weight_15kg_force25/best_model.pt (torch, 90959 bytes, 6 tensors)

linear1.weight f4 [128, 40]
0	0xbd0dddca	-0.034635343
1	0x3de20f07	0.110380225
2	0x3dc523cf	0.096259706
3	0x3f37d994	0.7181637
4	0xbe3c0d05	-0.18364342
5	0x3e0a8a87	0.13529406
6	0x3f09323b	0.5359227
7	0xbd9e041c	-0.077156276
8	0xbe36cb2a	-0.17850938
9	0x3e1b825b	0.15186445
10	0x3e94d198	0.29066157
11	0xbbc3c1b1	-0.0059740175
12	0x3d26d000	0.040725708
13	0xbd6d404c	-0.057922646
14	0x3e9464f1	0.28983262
15	0xbd861d9d	-0.06548617
16	0x39d60fef	0.00040829132
17	0xbde572ee	-0.11203562
18	0xbe1ee3e8	-0.15516627
19	0xbce90a51	-0.028447302
20	0x3e068c62	0.1313949
21	0xbb77eeaa	-0.0037831464
22	0xbdc17d90	-0.09447777
23	0x3e2e2809	0.1700746
24	0xbe272afd	-0.16324992
25	0x3d30e4ec	0.043187067
26	0xbd89026d	-0.06689916
27	0xbd5d4c58	-0.054027885
28	0xbd4321dc	-0.047639713
29	0xbdedb9b0	-0.11607683
30	0x3db5a224	0.088688165
31	0x3df817f5	0.121139444
32	0xbcf6590f	-0.030071763
33	0xbcd0bea9	-0.025481539
34	0xbd1cfb6c	-0.038325712
35	0xbd3a59f6	-0.04549595
36	0xbe1a7cfa	-0.15086737
37	0xbce74feb	-0.02823635
38	0x3e27049c	0.16310352
39	0x3dfb718d	0.122775175
40	0x3da83d04	0.08214763
41	0xbe2b3932	-0.16721037
42	0xbab8c641	-0.001409717
43	0xbcaceaae	-0.021107998
44	0xbdab97fa	-0.083785966
45	0xbb8f73c9	-0.0043778163
46	0x3deb0c1c	0.11476919
47	0x3dd53a81	0.10411549
48	0xbdf0ff24	-0.11767414
49	0x3d83d1a3	0.064364694
50	0xbe33d20a	-0.17560592
51	0x3e2815a1	0.16414501
52	0xbdfff562	-0.12497975
53	0x3dc19d45	0.09453825
54	0xbd81c60a	-0.06336601
55	0xbda479c3	-0.08031037
56	0xbe27608a	-0.1634542
57	0xbe29cd36	-0.16582188
58	0xbd4acf71	-0.049514238
59	0xbd465eb1	-0.04843015
60	0xbe3d4979	-0.18485059
61	0xbd3c1c25	-0.04592528
62	0x3d552bff	0.05204391
63	0x3da8ffbd	0.08251903
64	0xbdb95c5d	-0.0905082
65	0xbdfed698	-0.12443274
66	0xbe201d7b	-0.15636246
67	0xbd91bd9b	-0.071162425
68	0x3e3bdebe	0.18346688
69	0x3db3bcbc	0.087762326
70	0xbdb9dda1	-0.090754755
71	0xbd2d14cc	-0.04225616
72	0x3c77540a	0.01509572
73	0xbe2ba77d	-0.1676311
74	0x3e29f4c4	0.16597277
75	0xbbeb47da	-0.0071801962
76	0x3dcf4dd3	0.10122266
77	0xbe06d646	-0.13167676
78	0xbe229121	-0.15875675
79	0x3d9df276	0.077122614
80	0x3df3ec9c	0.11910364
81	0xbdd6ce71	-0.10488594
82	0x3e238310	0.15967965
83	0x3df1d92e	0.11809002
84	0x3c9a8ec9	0.018866913
85	0xbd849242	-0.06473209
86	0xbd8f1468	-0.06986314
87	0xba3d5c36	-0.00072235183
88	0xbd3062fd	-0.043063153
89	0x3dcc0aea	0.09963019
90	0xbe28c8d5	-0.16482861
91	0xbe3c20b0	-0.18371844
92	0xbe1ec90b	-0.1550638
93	0xbd9a5482	-0.0753565
94	0x3dc3a96f	0.09553801
95	0x3c4e8869	0.012605765
96	0xbe147bf2	-0.14500406
97	0x3dc7a54d	0.097483255
98	0xbdfd174f	-0.123579614
99	0xbc35eedc	-0.011104312
100	0xbe22d01d	-0.15899701
101	0xbdc4e7d2	-0.09614529
102	0xbde0aaf3	-0.10970106
103	0x3b85a405	0.0040783905
104	0xbb43ff29	-0.0029906726
105	0xbde172f0	-0.11008251
106	0xbc4d75d2	-0.012540298
107	0xbdb3791d	-0.08763335
108	0xbc2cf567	-0.010556555
109	0x3d77e57c	0.060521588
110	0xbcf93d2c	-0.030424677
111	0xbdf6c002	-0.12048341
112	0x3df91e6e	0.12164007
113	0xbdae84ad	-0.085214
114	0xbd86f70e	-0.06590091
115	0xbe3106c9	-0.17287745
116	0xbd4c53bb	-0.04988454
117	0xbd81bd8b	-0.063349806
118	0x3dbee503	0.09321024
119	0x3e1895e8	0.14900935
120	0x3e1e441a	0.15455666
121	0xbd0a2010	-0.033721983
122	0xbe2a8348	-0.16651642
123	0x3e1740a0	0.14770746
124	0xbe54a93e	-0.20767686
125	0x3e09a4a1	0.13441707
126	0xbcb416f8	-0.021983609
127	0x3bfb09dc	0.0076610874
128	0x3d8ffccb	0.07030638
129	0x3e16f413	0.14741544
130	0xbdb463f2	-0.088081256
131	0x3e244c4e	0.16044733
132	0x3d4ebf95	0.050475676
133	0x3db3656a	0.087595776
134	0xbe35916e	-0.17731258
135	0x3d262a90	0.040567935
136	0x3dca95dd	0.098918654
137	0xbc307439	-0.010769897
138	0xbe20138e	-0.1563246
139	0xbe4feb24	-0.20304543
140	0x3d881533	0.066446684
141	0xbd15de8d	-0.036589194
142	0xbe1794d0	-0.14802861
143	0x3c17a2a9	0.00925509
144	0xbda186d6	-0.07887046
145	0xbde087e0	-0.10963416
146	0xbe0ea84e	-0.1393139
147	0xbd3a6700	-0.045508385
148	0x3e10d770	0.14144683
149	0xbe10e242	-0.1414881
150	0xbe4a64c2	-0.19764999
151	0x3d9f968f	0.07792389
152	0x3e101aaa	0.14072672
153	0x3d8f5b01	0.069997795
154	0x3df12b68	0.11775857
155	0xbc0a52b2	-0.008442568
156	0xbdeac4e1	-0.11463333
157	0xbb548c82	-0.0032432382
158	0xbdb3f505	-0.08786968
159	0xbd2e1cbe	-0.04250788
160	0xbcc635d3	-0.024195587
161	0xbdaf2c72	-0.08553399
162	0xbe2313f8	-0.15925586
163	0x3db1bf1e	0.08679031
164	0x3d75e712	0.06003482
165	0xbdf83e9d	-0.121213175
166	0xbd4fda07	-0.050745036
167	0x3e3dd05c	0.18536514
168	0x3dfd7f1e	0.12377761
169	0xbe3af2d3	-0.18256693
170	0xbe39abf6	-0.18132004
171	0xbdb245ce	-0.087047204
172	0xbe27f434	-0.1640175
173	0xbe38ae6f	-0.18035291
174	0xbdd83117	-0.10556238
175	0x3d805751	0.06266654
176	0xbdfed1d5	-0.12442366
177	0xbc7835e0	-0.015149564
178	0xbd8a12ee	-0.06741892
179	0x3ded2661	0.11579586
180	0x3d3afb43	0.045649778
181	0xbe2aae81	-0.1666813
182	0xbd426058	-0.04745516
183	0xbe034e91	-0.1282294
184	0xbd9c2583	-0.07624342
185	0x3e2c7601	0.1684189
186	0x3d52114e	0.051286034
187	0xbdeea3f5	-0.11652366
188	0xbd85a3a5	-0.06525353
189	0x3d4189fe	0.04725074
190	0xbdf5bf28	-0.11999351
191	0xbd7dd3c5	-0.061969537
192	0x3e23693d	0.15958114
193	0xbe046725	-0.12929972
194	0x3e00e901	0.12588884
195	0xbdba0856	-0.09083621
196	0xbde94c48	-0.113915026
197	0xbe26b933	-0.16281585
198	0xbe00f8e9	-0.12594952
199	0x3d062a39	0.03275511
200	0x3e1bd769	0.15218891
201	0x3d84a7e5	0.06477336
202	0xbd343f0f	-0.04400545
203	0x3f3f5092	0.74732316
204	0x3ddc9f1b	0.107725345
205	0x3d9bff4d	0.07617054
206	0x3eee2080	0.4650917
207	0xbe58547d	-0.2112598
208	0xbe1edae5	-0.15513189
209	0xbe31aeac	-0.17351788
210	0x3e061a03	0.1309586
211	0xbe349259	-0.17633952
212	0x3d84e25d	0.06488488
213	0xbd4727d1	-0.048621956
214	0x3ea1996d	0.31562367
215	0x3e01f7c2	0.12692168
216	0x3e06c8cc	0.13162535
217	0x3e1b1810	0.15145898
218	0xbdfc605e	-0.12323068
219	0xbe303a10	-0.17209649
220	0xbd7485f5	-0.059698064
221	0x3e6bd725	0.2303129
222	0x3cbb872c	0.022891603
223	0xbe5873e6	-0.21137962
224	0xbdae4c61	-0.08510662
225	0xbcb005f5	-0.021487216
226	0xbe45a4d5	-0.1930116
227	0xbe2f7978	-0.1713618
228	0x3dcd5114	0.1002523
229	0x3cc8519d	0.024452979
230	0x3ccd3c8d	0.025053287
231	0x3db60150	0.08886969
232	0x3b73a5b6	0.003717763
233	0xbd75910d	-0.059952784
234	0xbd5985a1	-0.053105954
235	0x3e20d2c6	0.15705404
236	0xbd9d729d	-0.076878764
237	0xbd746082	-0.05966235
238	0x3e69feb8	0.22851074
239	0xbe4adc21	-0.19810535
240	0xbddcf97f	-0.10789775
241	0xbd8c8e99	-0.06863136
242	0x3cd799b2	0.026318405
243	0x3e0dddc7	0.13854133
244	0xbdb55deb	-0.08855804
245	0x3d3abf62	0.045592673
246	0x3e194d99	0.14971007
247	0x3d21a270	0.039461553
248	0x3d08df6f	0.033416208
249	0x3dd39485	0.10331062
250	0xbdcf4380	-0.101202965
251	0xbe476341	-0.19471456
252	0x3d237e28	0.039915234
253	0xbe2e2900	-0.17007828
254	0x3e1afc4c	0.15135306
255	0xbcb10d47	-0.021612776

linear1.bias f4 [128]
0	0xbc7e9329	-0.015538015
1	0x00000000	0.0
2	0x00000000	0.0
3	0xbc9f7e04	-0.019469269
4	0x00000000	0.0
5	0xbcd829fc	-0.026387207
6	0xbc1a01b7	-0.009399823
7	0xbcc3de16	-0.02390961
8	0x3d35690a	0.044289626
9	0x00000000	0.0
10	0x00000000	0.0
11	0xbc967140	-0.018364549
12	0xbbc64ae3	-0.0060514077
13	0x3d80da53	0.06291642
14	0xbc1c1c13	-0.009528178
15	0xbc5cf6ab	-0.013486545
16	0xbce4cd36	-0.027929883
17	0xbc5c1d66	-0.0134347435
18	0x3d952c8a	0.07283886
19	0x00000000	0.0
20	0xbc030f32	-0.007999228
21	0xbd21ba0b	-0.039484065
22	0xbc1c21fa	-0.009529585
23	0xbc9ed880	-0.019390345
24	0x3c380fde	0.011234252
25	0xbc8c80b8	-0.017151222
26	0x3d9d4d15	0.07680718
27	0xbc3893d9	-0.011265718
28	0x3d42f50b	0.047596972
29	0x3d43a1da	0.047761776
30	0x00000000	0.0
31	0xbc8d6dc8	-0.017264262
32	0x00000000	0.0
33	0x3d927978	0.071520746
34	0x00000000	0.0
35	0xbc5e436a	-0.013565877
36	0x3d46f9a4	0.04857792
37	0x3d4205ef	0.04736894
38	0x00000000	0.0
39	0xbca1fe74	-0.019774653
40	0xbcc54334	-0.024079897
41	0xbcc6b9bb	-0.024258485
42	0xbc1c2222	-0.009529622
43	0xbd18a118	-0.037263006
44	0xbccaa89e	-0.024738606
45	0x00000000	0.0
46	0xbc92f6f2	-0.017940018
47	0x3d7e720b	0.06212048
48	0x3d9aa5d2	0.07551159
49	0xbb39020e	-0.0028229984
50	0x3d501ce7	0.050808813
51	0x3d688384	0.056766048
52	0xbcd745b8	-0.026278362
53	0xbba2ad73	-0.0049645244
54	0x00000000	0.0
55	0x00000000	0.0
56	0x3d68b368	0.05681172
57	0x00000000	0.0
58	0x00000000	0.0
59	0xbc7e26e0	-0.015512198
60	0xbd28e707	-0.04123595
61	0x00000000	0.0
62	0xbce78f4f	-0.028266577
63	0x3d8a1921	0.06743074
64	0xbcef3438	-0.029199705
65	0xbbd7667f	-0.006573498
66	0xbd505b4a	-0.05086831
67	0x3d2e9682	0.042624004
68	0xbd74d6c8	-0.059775144
69	0xbc309bb1	-0.010779307
70	0xbce3d207	-0.02781011
71	0x3c8796b8	0.01655136
72	0x3d691871	0.056908075
73	0xbc2dcb5e	-0.010607569
74	0xbc273296	-0.010204932
75	0xbc63e939	-0.013910585
76	0xbbe84e5c	-0.0070894193
77	0x3d8b422d	0.067997314
78	0xbd37babf	-0.04485583
79	0xbd081ffb	-0.033233624
80	0x3da04bb3	0.078269385
81	0x00000000	0.0
82	0xbb528280	-0.003212124
83	0x00000000	0.0
84	0xbc3cdd78	-0.011527412
85	0xbd072271	-0.03299183
86	0x3d6f13ef	0.05836862
87	0x3d8e0a3e	0.06935547
88	0x3d9514c6	0.07279353
89	0x00000000	0.0
90	0x3befd98d	0.0073196352
91	0x3daef251	0.08542312
92	0x3cd48d65	0.025946328
93	0x3d9cc00f	0.0765382
94	0xbc1c1e2c	-0.009528678
95	0x3a1f46b1	0.00060759025
96	0x3d936c09	0.071983404
97	0xbc9e9476	-0.019357901
98	0xbc8bb299	-0.017052935
99	0x00000000	0.0
100	0xbbd2e93b	-0.0064364946
101	0xbcec691d	-0.028858716
102	0xbd0a1d7f	-0.033719536
103	0x3d54421c	0.05182086
104	0x3d8282f8	0.063726366
105	0x3d429c6a	0.04751245
106	0xbd59c915	-0.053170282
107	0x3d8ddf73	0.06927385
108	0x3d93614c	0.07196292
109	0x3d694e78	0.0569596
110	0x3d793360	0.06084001
111	0xbd2bf536	-0.0419819
112	0x3d804c1c	0.06264517
113	0xba69d1ce	-0.0008919508
114	0x00000000	0.0
115	0x3d7f8875	0.062385995
116	0xbb8faa53	-0.004384318
117	0x00000000	0.0
118	0xbd05c441	-0.032657865
119	0x3d5e9a2b	0.054346245
120	0xbd6f405a	-0.05841098
121	0xbc4552d9	-0.012043678
122	0xbd80aa26	-0.06282453
123	0xbd15c411	-0.036563937
124	0xbc851427	-0.016244961
125	0x00000000	0.0
126	0x3db62308	0.088934004
127	0xbc7bd040	-0.015369475

linear2.weight f4 [128, 128]
0	0xbe39fda6	-0.18163165
1	0x3d913a60	0.07091212
2	0x3e0c62ff	0.13709639
3	0x3ca6b100	0.020348072
4	0xbda34bf8	-0.07973474
5	0x3bf78623	0.007553832
6	0x3e0ac6ac	0.1355235
7	0xbd0d548a	-0.03450445
8	0x3e9c914f	0.30579612
9	0xbc7c9c99	-0.015418195
10	0xbdfc1f61	-0.123106726
11	0xbde40eb6	-0.111356184
12	0xbdb624ba	-0.08893724
13	0x3e493323	0.19648413
14	0xbdb029d0	-0.08601725
15	0xbdb8506e	-0.08999716
16	0xbdc517c5	-0.09623674
17	0x3e2774fb	0.16353218
18	0x3ed2ebf5	0.41195646
19	0xbe13de63	-0.14440303
20	0xbcb632b3	-0.022240972
21	0xbe47ef18	-0.19524801
22	0x3e0811df	0.13288067
23	0x3db4c6b7	0.08826964
24	0x3ebd315e	0.36951727
25	0xbe4ac0ca	-0.19800106
26	0x3eb55edd	0.35423937
27	0xbde03777	-0.10948079
28	0x3f046acf	0.51725477
29	0x3e5508fb	0.20804207
30	0x3e133ad5	0.14377911
31	0xbe604673	-0.21901874
32	0xbdac8367	-0.084235005
33	0x3ebd0e1c	0.36924827
34	0xbe12de25	-0.14342554
35	0xbe6016c3	-0.21883683
36	0x3f0464e6	0.5171646
37	0x3e85231f	0.26003358
38	0x3dceda67	0.10100251
39	0x3e1dc9eb	0.15409057
40	0xbd852609	-0.06501395
41	0xbe0d22a4	-0.13782746
42	0x3dd438aa	0.1036237
43	0xbde5e71a	-0.1122572
44	0x3ce51c21	0.027967514
45	0xbe19853b	-0.1499223
46	0xbe1d04d1	-0.15333869
47	0x3e69859f	0.22804879
48	0x3f11d349	0.5696302
49	0x3b13f7a6	0.002257803
50	0x3f1f1ace	0.62150276
51	0x3ea6eb24	0.32601273
52	0x3e129f28	0.14318526
53	0x3dd60d62	0.10451771
54	0x3d41d252	0.047319718
55	0x3df8e50f	0.121530645
56	0x3e98698d	0.2976803
57	0x3dac3a2d	0.08409534
58	0xbd8e656c	-0.069529384
59	0x3e1aa4e5	0.15101965
60	0x3ce167a5	0.027515242
61	0xbda32147	-0.079653315
62	0xbe6e8634	-0.23293382
63	0x3e1b3031	0.15155102
64	0xbe0ebfbc	-0.13940328
65	0xbe09ebc9	-0.13468851
66	0xbe41df8f	-0.18932937
67	0x3ee585d7	0.44828674
68	0x3d69e733	0.057105254
69	0x3d99a6d8	0.07502526
70	0xbdac0e69	-0.08401186
71	0x3e5cd6a4	0.21566254
72	0x3eb3a72a	0.35088474
73	0x3db14d18	0.086572826
74	0xbe17d660	-0.14827871
75	0xbd8d043b	-0.068855725
76	0x3d9e53b4	0.07730809
77	0x3e466d56	0.19377646
78	0x3ddcf1a9	0.107882805
79	0xbe119f9c	-0.14221042
80	0x3e2974ad	0.16548415
81	0x3d1535e6	0.036428355
82	0xbdb162d8	-0.08661431
83	0xbcab59cf	-0.020916848
84	0x3e101d1a	0.14073601
85	0xbd1c43ba	-0.038150527
86	0x3e3afefe	0.18261334
87	0x3ecf40e9	0.4047921
88	0x3f0009a4	0.5001471
89	0xbd42e1d5	-0.04757865
90	0x3e22bca6	0.15892276
91	0x3ec4f580	0.38468552
92	0x3e38efe6	0.18060264
93	0xbd9652f4	-0.07340041
94	0x3d528e09	0.051404987
95	0x3e34f745	0.17672451
96	0x3f033677	0.5125498
97	0xbd111c66	-0.035427473
98	0x3c2ca864	0.010538194
99	0x3ce19e83	0.027541405
100	0xbe02d1c8	-0.12775338
101	0xbdf7d92b	-0.121019684
102	0xbb22a28f	-0.002481613
103	0x3e3cf7de	0.18453929
104	0x3d6e295b	0.05814491
105	0x3e85995a	0.2609356
106	0x3e0b715d	0.13617463
107	0x3e9c4af6	0.3052594
108	0x3ee27d21	0.4423609
109	0x3eaf5d9f	0.34251115
110	0x3ecc710a	0.39929992
111	0xbe3b209a	-0.18274155
112	0x3ea92756	0.33037823
113	0x3e91258a	0.28348953
114	0x3d8c8271	0.06860817
115	0x3f006e20	0.5016804
116	0xbe9af235	-0.30262914
117	0x3e162b6d	0.14665003
118	0x3d12ed0e	0.035870604
119	0x3e82c605	0.25541702
120	0x3b75c22d	0.003749977
121	0x3eae7ff8	0.34082007
122	0x3e486606	0.19570169
123	0x3eb50726	0.35357016
124	0xbd7ba555	-0.06143697
125	0x3d99cba8	0.075095475
126	0x3e1bb8d9	0.15207233
127	0xbe5407f8	-0.20706165
128	0x3db59e0d	0.088680364
129	0x3dd5220d	0.10406885
130	0x3dfa6491	0.12226213
131	0x3d760f7d	0.060073365
132	0xbd3ad397	-0.045611944
133	0x3dc85592	0.09781946
134	0xbd9f2350	-0.07770407
135	0x3dd7d985	0.105395354
136	0xbd9f30f0	-0.07773006
137	0x3ace0dc3	0.0015720654
138	0x3da535b0	0.08066881
139	0x3d9256ff	0.071454994
140	0xbd4a5a98	-0.049402803
141	0xbd96842c	-0.073494285
142	0x3e1af165	0.15131147
143	0x3d6abb4e	0.057307534
144	0xbe13d726	-0.14437541
145	0xbdc63d70	-0.09679687
146	0xbca93413	-0.020654714
147	0x3e1562cc	0.1458847
148	0x3e14e95d	0.14542146
149	0xbd867c84	-0.06566718
150	0x3d12cb0e	0.03583818
151	0xbdcd7d63	-0.10033681
152	0x3dfbcbd9	0.1229474
153	0x3da44d9d	0.08022616
154	0xbd4a61cd	-0.049409676
155	0xbd9b0149	-0.075686045
156	0xbd40c8a2	-0.04706634
157	0x3cd91f65	0.026504228
158	0x3d145dca	0.036222257
159	0x3d498362	0.049197562
160	0x3dc701b9	0.097171254
161	0x3c6d56cb	0.014486025
162	0xbddf7e7a	-0.10912795
163	0x3c52403f	0.0128327
164	0xbde0663a	-0.10956998
165	0x3cf50442	0.029909257
166	0x3e05bdcb	0.13060682
167	0xbc793d03	-0.0152123
168	0xbdecabde	-0.115562186
169	0xbd99a803	-0.07502749
170	0xbe1e8eab	-0.15484111
171	0x3cdcbcc4	0.02694548
172	0xbdc4e333	-0.09613647
173	0x3c9f64f1	0.019457312
174	0x3c2820e9	0.010261753
175	0xbdff61bb	-0.124698125
176	0xbdc412bb	-0.09573885
177	0x3ca7b5ee	0.020472493
178	0xbe07d3c5	-0.13264377
179	0x3d9ab584	0.075541526
180	0x3bfb7e32	0.0076749558
181	0xbd9ff544	-0.078104526
182	0xbd9a71e5	-0.07541255
183	0x3d5dcc0e	0.05414968
184	0x3d50f7fc	0.051017746
185	0x3cbb6767	0.022876455
186	0xbd430910	-0.047616065
187	0x3e176462	0.14784387
188	0xbd04198f	-0.032250937
189	0x3dfa945c	0.122353286
190	0xbd414cec	-0.0471925
191	0xbd3e1b01	-0.04641247
192	0xbdeb63d7	-0.11493652
193	0x3d8acdfc	0.0677757
194	0xbde480d9	-0.11157388
195	0xbd9ec015	-0.077514805
196	0xbc746af6	-0.01491808
197	0x3e17b14f	0.14813732
198	0x3cef0077	0.029175026
199	0x3cefc36a	0.029267985
200	0xbd76c80d	-0.060249377
201	0xbe08ac40	-0.13346958
202	0xbe0fea6c	-0.14054269
203	0x3d73aed4	0.0594929
204	0x3dd24da0	0.10268712
205	0xbe197bbf	-0.14988612
206	0x3d594d9f	0.05305254
207	0xbdb5b354	-0.08872095
208	0xbd7fbfc6	-0.06243875
209	0x3d9442fd	0.072393395
210	0xbe1568f1	-0.14590813
211	0xbdcaa8ea	-0.09895499
212	0xbd1b933e	-0.037982218
213	0xbd649c61	-0.055813197
214	0xbb2ede5e	-0.0026682834
215	0xbd09eada	-0.033671238
216	0x3d9aef6b	0.075651966
217	0x3d7d811c	0.061890706
218	0x3b935b8c	0.004496997
219	0xbcd8e1db	-0.026474884
220	0x3da681e9	0.08130247
221	0x3dfd9b58	0.12383145
222	0x3d44556b	0.047933023
223	0xbd711283	-0.058855545
224	0x3df87888	0.121323645
225	0xbaac6f7b	-0.0013155782
226	0x3dbacd73	0.091212176
227	0xbd6b5762	-0.05745638
228	0xbd59a997	-0.05314025
229	0x3c3497f9	0.011022561
230	0xbd4d086c	-0.05005686
231	0xbcd73578	-0.026270613
232	0x3c8d0e24	0.017218657
233	0x3d3c7ef1	0.0460195
234	0x3dcbd009	0.09951789
235	0xbe009fdf	-0.12560986
236	0xbe01603d	-0.12634368
237	0x3d713742	0.05889059
238	0x3cc784f0	0.024355382
239	0xbdfebcca	-0.124383524
240	0xbd3ea73a	-0.0465462
241	0x3d997907	0.07493787
242	0xbdfd6cf3	-0.12374296
243	0xbc8c7bf7	-0.017148955
244	0x3d809805	0.062789954
245	0x3c9e5cdb	0.019331386
246	0xbd74449c	-0.059635743
247	0xbdb11f87	-0.086485915
248	0xbd39f75d	-0.04540192
249	0xbd0b9a41	-0.034082655
250	0xbd8ae2e5	-0.06781558
251	0x3c60efd8	0.013729058
252	0x3d94b82c	0.072616905
253	0xbe19ee38	-0.1503228
254	0xbd27c6bf	-0.040961023
255	0xbe1bd7d0	-0.15219045

linear2.bias f4 [128]
0	0x3db481f7	0.08813851
1	0xbccf7d90	-0.025328428
2	0xbb562b4f	-0.0032679623
3	0x3d277648	0.040884286
4	0xbcc77bc7	-0.024351014
5	0xbc4903fa	-0.0122690145
6	0x3d95bf6b	0.07311901
7	0xbc0dded4	-0.008659083
8	0xbd1e6ca1	-0.038677815
9	0xbcad403d	-0.021148795
10	0x3d4cfeaa	0.050047554
11	0xbc235e93	-0.009971279
12	0xbd05df6f	-0.032683786
13	0xbcbf4f7e	-0.023353335
14	0xbc8ddcb3	-0.017317152
15	0x3dd71f92	0.105040684
16	0xbc88580f	-0.016643552
17	0x3ce5ae95	0.028037349
18	0xb9d04241	-0.00039722215
19	0xbbe5e5da	-0.007015926
20	0x3d19a24e	0.0375083
21	0xbc610c4f	-0.013735845
22	0x3d9f021e	0.07764076
23	0xbc1bf6f4	-0.009519327
24	0xbace0d8b	-0.0015720589
25	0xbc9489d7	-0.018132133
26	0xbb513baf	-0.0031926443
27	0xbcdcc250	-0.026948124
28	0xbc0ed9bb	-0.008718903
29	0xbcd2144d	-0.025644446
30	0x3d61c938	0.055123538
31	0xbcf20b3c	-0.029546373
32	0x00000000	0.0
33	0x00000000	0.0
34	0xbc780a29	-0.015139141
35	0xbc1c2274	-0.009529699
36	0x00000000	0.0
37	0x3deca2e5	0.11554507
38	0x3d6b57d5	0.05745681
39	0xbca65259	-0.020302938
40	0x3d8b576f	0.06803786
41	0x3bcdaa2f	0.006276391
42	0xbc9c38f1	-0.01907012
43	0x3cfa6298	0.030564591
44	0xbcfd965c	-0.030955486
45	0x3d9bb796	0.076033756
46	0x3db8a414	0.090156704
47	0x3daeb493	0.085305355
48	0x3db7e9c1	0.08980132
49	0xbc9a9dd4	-0.018874086
50	0xbc409238	-0.011753611
51	0x3b8a51bd	0.0042211697
52	0x3d5dc857	0.054146137
53	0xbc18a8c0	-0.009317577
54	0xbd60b351	-0.05485851
55	0xbd25310e	-0.040329985
56	0xbca5dba7	-0.02024634
57	0xbc9c192f	-0.019054977
58	0x3cf4fc13	0.029905355
59	0x3d51066a	0.051031508
60	0x00000000	0.0
61	0x3d8052de	0.06265806
62	0xbd064643	-0.03278185
63	0xbd39bda6	-0.04534688
64	0x3d92dc65	0.07170943
65	0x3da89774	0.082320124
66	0xbd627e8d	-0.05529647
67	0x3ccced23	0.02501542
68	0xbbfadc2b	-0.0076556406
69	0xbc9cd178	-0.019142851
70	0xbd09266c	-0.033483908
71	0x3d86d322	0.06583239
72	0xbd159458	-0.036518425
73	0xbd111b42	-0.035426386
74	0xbd1da3a0	-0.038486123
75	0x3d4ed446	0.05049541
76	0x3cb86f46	0.022513997
77	0xbcff3983	-0.031155353
78	0xbc8408fb	-0.016117563
79	0x3d81544d	0.06314907
80	0xbc34b66a	-0.011029819
81	0x3db21d2b	0.086969696
82	0xbd567f8c	-0.052367732
83	0xbc428475	-0.0118724005
84	0x3d92feee	0.0717753
85	0xbc5d7f7e	-0.013519166
86	0x00000000	0.0
87	0xbc01ab4d	-0.007914376
88	0x3db455ee	0.08805452
89	0xbd6b172f	-0.057395156
90	0x3dc6b5f2	0.09702672
91	0x3de33599	0.11094207
92	0x3d15568f	0.0364595
93	0xbc74261b	-0.014901663
94	0x3b39126f	0.0028239747
95	0xbd2d79cf	-0.042352494
96	0xbc997b14	-0.018735446
97	0x3d984d03	0.07436564
98	0x3b827ae3	0.0039819344
99	0x00000000	0.0
100	0x3c182b06	0.009287601
101	0xbbdf3f67	-0.006812978
102	0xbc51d39a	-0.012806797
103	0x3befd3dc	0.007318957
104	0xbb09c0c7	-0.0021019445
105	0xbc6fd1d4	-0.014637429
106	0xbd2236c3	-0.039603006
107	0xbce8354d	-0.028345728
108	0x3dd0d684	0.101971656
109	0xbd3b7ce7	-0.045773413
110	0x3d4d3bad	0.05010574
111	0xbc360845	-0.01111037
112	0x3d9bc9b5	0.07606832
113	0xbd3faf57	-0.046798076
114	0xbc0fdf3a	-0.008781249
115	0xbbc36f43	-0.005964191
116	0xbccb50bc	-0.02481877
117	0xbc4cddd5	-0.012504061
118	0x00000000	0.0
119	0xbc98e23b	-0.018662563
120	0xbc2a08dd	-0.01037809
121	0x3ca8de57	0.020613832
122	0xbd0fc1a2	-0.035096772
123	0xbcdc5e67	-0.026900483
124	0xbcaffd7e	-0.02148318
125	0xbc924c09	-0.017858522
126	0x00000000	0.0
127	0x3c7c35f5	0.015393724

mean_linear.weight f4 [1, 128]
0	0xbeeb4f0b	-0.45958742
1	0x3b3e2243	0.002901212
2	0x3e354880	0.17703438
3	0xbea96cd2	-0.33090836
4	0x3e1cad75	0.15300544
5	0xbd347039	-0.044052336
6	0xbefd3f66	-0.49462432
7	0x3d4d825c	0.05017315
8	0x3e342f79	0.17596234
9	0x3db22188	0.08697802
10	0x3eee2899	0.4651535
11	0x3e3c7711	0.18404795
12	0xbe29d6d0	-0.1658585
13	0xbe0214ef	-0.12703298
14	0xbd27b3a2	-0.040942796
15	0xbee46fce	-0.4461655
16	0x3c45482c	0.012041133
17	0x3ed7a900	0.42121124
18	0x3dc6bf71	0.09704483
19	0xbe2ff544	-0.17183405
20	0x3f16edb7	0.58956474
21	0x39380bd1	0.0001755201
22	0xbf11c832	-0.569461
23	0x3de6bf32	0.11266936
24	0x3ecccd2c	0.40000284
25	0x3ddb9cd3	0.10723271
26	0x3e098037	0.13427816
27	0xbd9b0c0a	-0.07570656
28	0xbd928ccb	-0.071557604
29	0xbe4e3474	-0.20137197
30	0x3f0281f9	0.5097957
31	0x3c99f812	0.018795047
32	0xbdb02bb6	-0.08602087
33	0x3dcd914b	0.10037478
34	0xbe19d069	-0.15020908
35	0xbdfd84af	-0.12378823
36	0xbe36cdef	-0.17851995
37	0xbf12094d	-0.5704544
38	0x3f1f8b88	0.6232228
39	0x3bb1ae11	0.0054223617
40	0xbec5cf76	-0.38634843
41	0xbe3dceee	-0.18535969
42	0xbdc0c369	-0.094122715
43	0x3ee196e7	0.44060442
44	0xbd6ce5a8	-0.057836205
45	0xbed10856	-0.40826672
46	0xbec57e4f	-0.38572928
47	0xbf1ac9e4	-0.6046431
48	0x3ef1e61e	0.47245878
49	0x3e582dd3	0.2111123
50	0xbd60818d	-0.05481105
51	0x3ee22a8e	0.44173092
52	0x3f035ca8	0.5131326
53	0xbe167f81	-0.14697076
54	0xbcabe9e4	-0.020985551
55	0xbcd2e620	-0.025744498
56	0xbde1a0d4	-0.11017004
57	0x3e303f81	0.17211725
58	0x3ef60eee	0.48058265
59	0x3eed3eba	0.4633692
60	0x3d0d1d0f	0.03445154
61	0xbf02a36b	-0.51030606
62	0x3e0e0121	0.13867618
63	0xbcd3615d	-0.025803262
64	0xbeae16f8	-0.340019
65	0xbf0d02b9	-0.5508228
66	0x3e2f1051	0.17096068
67	0x3f12606a	0.57178366
68	0x3d7b89e9	0.06141082
69	0x3e2e552f	0.17024682
70	0x3e0e9f2a	0.13927904
71	0xbeba7f9a	-0.36425477
72	0x3e465df5	0.1937178
73	0x3dc83b4f	0.09776937
74	0x3e1195e3	0.14217333
75	0x3ed8d3ac	0.42348993
76	0xbe17a5b1	-0.148093
77	0x3e3a0270	0.18164992
78	0x3e4a0233	0.19727401
79	0xbec0069c	-0.37505043
80	0xbdc71ff6	-0.09722893
81	0xbef4d463	-0.47818288
82	0xbdd1eb4a	-0.10249956
83	0xbdc2c693	-0.09510531
84	0x3f0b377a	0.54381526
85	0xbd1d9957	-0.038476314
86	0xbe38b4ec	-0.18037766
87	0x3e52fe29	0.20604767
88	0xbee3937c	-0.4444846
89	0x3e109d53	0.14122514
90	0xbf0d90c6	-0.5529903
91	0xbeefd3fb	-0.46841416
92	0x3f00fe9a	0.5038849
93	0x3dcfb142	0.10141231
94	0x3ef50354	0.47854102
95	0x3b08044b	0.0020754512
96	0x3bfdcab3	0.007745111
97	0xbee190f8	-0.44055915
98	0xbe1760b1	-0.14782979
99	0x3e0c63b8	0.13709915
100	0xbe9c575f	-0.3053541
101	0x3dfc6d8a	0.123255804
102	0x3e0a7421	0.13520862
103	0xbe57d2df	-0.21076535
104	0x3ee11f8e	0.43969387
105	0xbddc9473	-0.10770502
106	0x3e0b194a	0.13583866
107	0x3d1b1fe3	0.037872206
108	0xbf1ded5e	-0.6169032
109	0x3da09a47	0.07841926
110	0x3f1b5644	0.60678506
111	0xbde65d0e	-0.112482175
112	0xbf105535	-0.56380016
113	0xbc829c8b	-0.015943786
114	0xbe14d413	-0.14534025
115	0xbcdaa090	-0.02668789
116	0xbe088732	-0.13332823
117	0xbc54f823	-0.0129986135
118	0x3c974877	0.018467171
119	0x3c80915e	0.015694316
120	0x3dfa5aed	0.12224374
121	0x3d73ffc4	0.05957009
122	0xbc4eab98	-0.012614153
123	0x3d855388	0.06510073
124	0x3e114faf	0.14190553
125	0x3e064aca	0.13114467
126	0x3d0f8cd8	0.03504643
127	0x3edffe89	0.43748882

log_std_linear.weight f4 [1, 128]
0	0x3e8838e9	0.2660592
1	0xbd8cb660	-0.06870723
2	0xbdc6a4de	-0.09699415
3	0x3e883171	0.2660022
4	0xbe336f64	-0.17522961
5	0xbe315a48	-0.17319596
6	0x3d921759	0.071333595
7	0x3e0e7805	0.13912971
8	0x3da86284	0.08221915
9	0xbe2cc08a	-0.16870323
10	0x3e00bcf7	0.12572084
11	0xbe0e5b8e	-0.13902113
12	0xbe409849	-0.18808092
13	0xbd02f6f0	-0.03197378
14	0xbde0cecb	-0.10976943
15	0x3c5ee3c8	0.013604112
16	0xbe4a858a	-0.19777504
17	0xbdda1f05	-0.10650448
18	0x3d2a7832	0.041618533
19	0xbdd0e2fc	-0.10199544
20	0xbdf1e2c1	-0.11810828
21	0xbd369b93	-0.04458196
22	0x3e294e4a	0.16533771
23	0x3e256156	0.16150412
24	0x3e3944b6	0.18092617
25	0xbe33c4a2	-0.17555478
26	0x3c8ff662	0.01757354
27	0x3dcdb6fd	0.10044668
28	0x3deeffa2	0.11669852
29	0xbe3a24e0	-0.18178129
30	0xbe1f66f8	-0.15566623
31	0xbe37c4e3	-0.179462
32	0x3e4fb0e9	0.2028233
33	0x3e266e59	0.16253032
34	0x3e2e7d25	0.17039926
35	0x3e509166	0.20367965
36	0xbe1a9ae7	-0.15098153
37	0xbdb6f419	-0.08933277
38	0xbe4491ce	-0.19196245
39	0xbd90445c	-0.070442885
40	0x3d80712c	0.06271586
41	0xbe1b047a	-0.15138426
42	0xbcf65a12	-0.030072246
43	0x3e4f551e	0.20247313
44	0xbd8a49fc	-0.06752393
45	0x3db3cab1	0.08778895
46	0x3d7cb4d6	0.061695896
47	0xbc1956e2	-0.009359093
48	0x3db4ff9b	0.088378154
49	0x3dadebe4	0.08492258
50	0xbe5282ae	-0.20557663
51	0x3e7fc63b	0.24977963
52	0xbe2daa1f	-0.16959427
53	0x3e334eea	0.17510572
54	0xbe393419	-0.1808628
55	0x3d9a6680	0.075390816
56	0x3e3f7daa	0.18700281
57	0xbe008d97	-0.12554012
58	0x3e7f2543	0.24916558
59	0x3bc22abf	0.005925506
60	0x3e49a05d	0.1969008
61	0xbcea51ef	-0.028603522
62	0xbe0bed8b	-0.13664834
63	0x3db7ed4d	0.089808084
64	0x3e8157d1	0.2526231
65	0xbde2eeb5	-0.11080686
66	0x3d4b0870	0.049568594
67	0x3e0f2ddc	0.13982338
68	0x3cdc2e28	0.026877478
69	0xbbc0d65d	-0.005884929
70	0x3d818088	0.063233435
71	0x3e003daf	0.1252353
72	0xbd834cf7	-0.06411164
73	0x3daffd92	0.085932866
74	0x3db2ff95	0.08740155
75	0xbc1d1fe2	-0.009590121
76	0x3db99e89	0.09063441
77	0xbda89a6c	-0.08232579
78	0x3dbc12cf	0.09183275
79	0xbd575271	-0.052568857
80	0x3db4eb2d	0.08833919
81	0x3e1898ba	0.1490201
82	0xbd02e59a	-0.031957246
83	0xbe3ad91e	-0.18246886
84	0x3e45b237	0.19306265
85	0x3dbb9e06	0.09161
86	0x3e1c358b	0.152548
87	0xbddcf7e7	-0.10789471
88	0xbd588191	-0.05285794
89	0x3de777eb	0.113021694
90	0xbdbbc813	-0.091690205
91	0x3e896335	0.268335
92	0x3caf758e	0.02141836
93	0x3e098ef4	0.13433439
94	0x3e0a6f90	0.1351912
95	0x3e2a7cc9	0.16649164
96	0xbe43dc43	-0.19126992
97	0x3e2bf4b1	0.16792561
98	0xbe1bd213	-0.15216856
99	0x3d191985	0.037377853
100	0xbdc809b0	-0.09767473
101	0xbd0b21ba	-0.03396771
102	0xbd98cbb1	-0.07460726
103	0x3e80413b	0.25049767
104	0x3e50492c	0.20340413
105	0x3e47946a	0.19490209
106	0xbcebe576	-0.028795939
107	0xbe03bddf	-0.12865399
108	0xbe0c0471	-0.1367357
109	0xbe373d6a	-0.17894521
110	0x3e350666	0.17678222
111	0xbe32900c	-0.17437762
112	0xbc1b9711	-0.009496466
113	0x3dd1a3fa	0.10236354
114	0xbe48dfc0	-0.19616604
115	0xbc8453f0	-0.016153306
116	0xbe31f48f	-0.17378448
117	0x3df5b8de	0.11998151
118	0x3e4bcaad	0.19901533
119	0xbdbf248a	-0.09333141
120	0x3c3c0c52	0.011477547
121	0x3c3bac5b	0.011454667
122	0xbd80788d	-0.06272993
123	0x3e638dfc	0.22222131
124	0xbdb4f646	-0.088360354
125	0x3df037a5	0.11729363
126	0x3e591f59	0.21203364
127	0x3ca0b585	0.019617805
