results/train/models_time_400steps/name_DQN/best_model.pt (torch, 160519 bytes, 8 tensors)

layer1.weight f4 [128, 40]
0	0xbe27ccd0	-0.16386724
1	0x3e1b27eb	0.15151946
2	0x3c848862	0.016178314
3	0x3bf9554e	0.007609046
4	0xbd8f4774	-0.069960505
5	0x3dd465d3	0.10370984
6	0xbd88db37	-0.06682437
7	0x3dfeec16	0.124473736
8	0x3ea1247a	0.31473142
9	0xbd8923be	-0.066962704
10	0x3d4a4c72	0.04938931
11	0x3b05d5e0	0.002042167
12	0x3dd161c4	0.102237254
13	0x3d3f9e72	0.046781965
14	0xbd836642	-0.064159885
15	0x3e029d77	0.1275538
16	0x3e04e857	0.12979256
17	0xbd7f62ff	-0.06235027
18	0x3c61e5c5	0.0137876915
19	0xbd864e35	-0.065578856
20	0x3c258f63	0.010104987
21	0xbd57ab35	-0.05265351
22	0x3dee9ced	0.11651025
23	0x3e15911a	0.14606133
24	0x3b40b6c0	0.0029405802
25	0x3b86d7ab	0.004115065
26	0x3cd04911	0.025425466
27	0x3dd9249a	0.10602684
28	0x3d8ccc1f	0.068748705
29	0x3e00fc21	0.1259618
30	0x3d5d9d86	0.054105304
31	0xbd9b6897	-0.07588308
32	0xbd5b86a0	-0.053595185
33	0x3d2c49ae	0.042062454
34	0xbdc13abf	-0.09435033
35	0x3e14f277	0.14545618
36	0x3de1ad0c	0.11019334
37	0x3e1a9b6e	0.15098354
38	0x3d9e2ddb	0.0772359
39	0x3dd34792	0.10316385
40	0xbecac1f1	-0.3960109
41	0xbd0e720d	-0.034776736
42	0x3d898b01	0.06715966
43	0xbd703486	-0.05864384
44	0x3d2e15e5	0.04250135
45	0x3ddc1d57	0.10747784
46	0x3cb7c607	0.022433294
47	0x3dd8278d	0.10554419
48	0x3e83462b	0.2563947
49	0x3d582688	0.05277112
50	0xbd4543f0	-0.048160493
51	0x3d955444	0.07291463
52	0x3d8c9a79	0.06865401
53	0x3de79761	0.1130817
54	0x3df73a75	0.12071697
55	0xbd8d228d	-0.06891356
56	0x3d20f1fc	0.039293274
57	0x3e0a2e09	0.13494124
58	0x3d152b9b	0.03641854
59	0x3d99d9e4	0.075122625
60	0xbc827c15	-0.015928308
61	0x3a2fc0a1	0.0006704424
62	0x3db707a6	0.08937006
63	0xbd7f1f30	-0.062285602
64	0xbd9a99e1	-0.07548881
65	0x3d8948e4	0.06703356
66	0xbd18dd7c	-0.0373206
67	0xbd6433ba	-0.055713393
68	0x3da60fbd	0.081084706
69	0xbdb7ac78	-0.08968443
70	0xbca36dd3	-0.01994983
71	0x3dd8b808	0.10581976
72	0x3da00fc9	0.07815511
73	0x3dd2c728	0.10291892
74	0x3cc00b05	0.023442755
75	0x3dcca4b6	0.099923536
76	0x3db6c124	0.089235574
77	0xbc1fb72c	-0.009748261
78	0xbddbc3be	-0.10730694
79	0x3d542af2	0.05179877
80	0x3de4d8f4	0.11174193
81	0x3dbefaeb	0.093252026
82	0xbda925c4	-0.08259156
83	0xbd8dc93c	-0.06923148
84	0xbd751bda	-0.059841014
85	0x3d86f00f	0.06588756
86	0xbc80740f	-0.015680341
87	0xbbaf7c0a	-0.005355363
88	0x3d2c68aa	0.042092003
89	0xbceb9a58	-0.02876012
90	0x3c885a26	0.016644549
91	0x3d6db631	0.05803508
92	0xbd0f690c	-0.03501229
93	0xbd59fd38	-0.053220004
94	0xbda41be2	-0.08013131
95	0xbda14b41	-0.07875682
96	0xbdcebe4e	-0.100948915
97	0xbcfbb478	-0.030725703
98	0x3d1afd57	0.03783926
99	0x3d6d7ae5	0.05797853
100	0xbda3b358	-0.079931915
101	0xbdbf71ea	-0.09347899
102	0xbda9538c	-0.082678884
103	0x3d112c16	0.035442434
104	0xbd473b6d	-0.048640657
105	0x3dac7eef	0.08422648
106	0x3ddaedd5	0.10689894
107	0xbceefe05	-0.02917386
108	0x3d661133	0.056168746
109	0xbb0c07e1	-0.0021367
110	0xbaedd9a7	-0.001814653
111	0x3d2f7877	0.042839494
112	0xbc1466da	-0.009057725
113	0xbd3e2d01	-0.046429638
114	0xbdbc7a4e	-0.09203015
115	0xbd745fe8	-0.059661776
116	0xbce0707c	-0.027397387
117	0x3d90b203	0.07065203
118	0xbdec7d58	-0.11547345
119	0xbcbaae00	-0.022788048
120	0xbcebc723	-0.02878148
121	0xbda47fb3	-0.08032169
122	0x3d9e9db2	0.07744922
123	0x3d4961ea	0.049165644
124	0xbbd9f2b6	-0.006651248
125	0xbdbd83ec	-0.09253678
126	0x3dc9791f	0.09837555
127	0x3b0c3532	0.0021394012
128	0xbd30297c	-0.043008313
129	0xbc7a71eb	-0.015285949
130	0xbdc18483	-0.09449103
131	0xb9738973	-0.0002322549
132	0xbdd9e35b	-0.10639068
133	0xbc53fc70	-0.012938604
134	0x3a420f8c	0.00074028294
135	0xbd8445e4	-0.06458643
136	0x3d5493d6	0.0518988
137	0x3d887c75	0.06664363
138	0x3d81c1dc	0.06335804
139	0xbde026f0	-0.10944927
140	0xbd7f8222	-0.062379964
141	0xbdb5bbcc	-0.0887371
142	0xbd1dd3b1	-0.038531963
143	0x3d6cc115	0.057801325
144	0xbdac9714	-0.08427253
145	0x3db636e4	0.08897188
146	0xbd9bead1	-0.07613147
147	0xbd9094c3	-0.07059624
148	0xbd29a080	-0.04141283
149	0xbb96a269	-0.0045969975
150	0xbb97a4ed	-0.004627815
151	0x3d0172e3	0.031603705
152	0xbde15c65	-0.11003951
153	0xbd951428	-0.07279235
154	0xbd3a939d	-0.04555093
155	0xbd5086f2	-0.050909944
156	0xbd26020c	-0.040529296
157	0xbd2b344c	-0.04179792
158	0x3da428fc	0.0801563
159	0x3d552572	0.052037664
160	0xbda1898c	-0.07887563
161	0x3d16f7ce	0.03685742
162	0x3d006499	0.031345937
163	0xbd50b794	-0.050956324
164	0xbdb4a85f	-0.08821177
165	0xbd803a68	-0.0626114
166	0x3db539fa	0.08848949
167	0xbc973e20	-0.01846224
168	0xbdda32e4	-0.10654238
169	0xbd61861b	-0.055059534
170	0xbd5e7207	-0.054307964
171	0xbd8cc78a	-0.068739966
172	0x3de5a180	0.11212444
173	0x3c0063d0	0.007836297
174	0xbd0346c3	-0.032049906
175	0x3d145a4c	0.036218926
176	0x3d1e260e	0.03861051
177	0xbd9e8b9d	-0.07741473
178	0xbd5f19d5	-0.054467995
179	0xbdc49fbe	-0.09600781
180	0x3da3fc97	0.08007162
181	0x3c3f371a	0.011670852
182	0xbdeaba05	-0.11461262
183	0x3dbc80b2	0.09204234
184	0xbdbb6b30	-0.09151304
185	0x3dc41292	0.095738545
186	0xbdd6a2be	-0.10480259
187	0xbd516118	-0.051117986
188	0xbd996b9d	-0.07491229
189	0x3d07a636	0.033117495
190	0xbd733e85	-0.059385795
191	0x3d64b048	0.055832177
192	0xbccf2496	-0.025286
193	0x3dac2ba6	0.08406763
194	0xbc392d79	-0.011302345
195	0xbcf959bb	-0.030438295
196	0x3db9a811	0.09065259
197	0xbdcde93f	-0.10054254
198	0xbd56629a	-0.052340128
199	0x3db5c4e9	0.08875448
200	0x3ecd3c13	0.40084895
201	0xbd986296	-0.07440679
202	0x3cbaa2e3	0.022782749
203	0xbf006f4f	-0.50169843
204	0x3e092269	0.13392033
205	0x3cbc43ef	0.022981612
206	0xbeabf621	-0.3358622
207	0x3d1760ec	0.036957666
208	0xbdf59b25	-0.11992482
209	0x3c60e790	0.013727084
210	0xbcde8f74	-0.027168013
211	0x3c178a70	0.009249315
212	0xbd813aeb	-0.06310066
213	0x3dda3d47	0.10656219
214	0xbbfd6cad	-0.0077339024
215	0x3df0ae64	0.11752012
216	0x3e1867ed	0.14883395
217	0x3af13664	0.001840305
218	0x3e163ac7	0.1467086
219	0x3dfb3f13	0.1226789
220	0x3d6c2a31	0.057657424
221	0xbb1cc83b	-0.0023923058
222	0x3d894dfa	0.06704326
223	0x3dd70448	0.104988635
224	0x3d9a93ac	0.075476974
225	0xbe283d76	-0.16429695
226	0x3cc2b533	0.023768043
227	0x3dc9457d	0.09827707
228	0x3e08736a	0.13325277
229	0xbda1fbeb	-0.07909378
230	0x3b0ddeae	0.002164762
231	0x3e08775f	0.13326786
232	0xbc902cf5	-0.017599562
233	0x3d693d0b	0.05694298
234	0xbe150d45	-0.14555843
235	0x3bb1842a	0.0054173665
236	0x3ccb89fa	0.024846066
237	0x3dcd59a2	0.10026862
238	0xbdbfd9d9	-0.09367723
239	0xbd123817	-0.035698023
240	0xbea80753	-0.32818088
241	0xbd89cab7	-0.06728118
242	0x3b360525	0.0027774062
243	0xbe1198bc	-0.1421842
244	0x3db648b6	0.08900587
245	0x3c2515eb	0.010076026
246	0xbdab74de	-0.083719
247	0xbcb242c4	-0.021760352
248	0x3e6caf08	0.23113644
249	0x3de756ca	0.112958506
250	0x3d41fdde	0.047361247
251	0x3d9a72e1	0.07541443
252	0x3da99ea9	0.08282215
253	0xbd64b671	-0.055838052
254	0x3d969b13	0.07353797
255	0x3cef3aa9	0.029202776

layer1.bias f4 [128]
0	0x3bf19201	0.0073721414
1	0xbd9155b0	-0.07096422
2	0x3d081464	0.03322257
3	0xbdb7fcd4	-0.0898377
4	0xbc95f0fd	-0.018303389
5	0xbd81d4db	-0.06339427
6	0x3e018f3a	0.12652293
7	0x3ce489e8	0.02789779
8	0xbd824e2e	-0.06362568
9	0xbd63eb09	-0.05564407
10	0x3c1dbf44	0.009628121
11	0x3e103ecc	0.14086455
12	0x3ca12b97	0.019674106
13	0xbced5703	-0.028972154
14	0xbde15e18	-0.11004275
15	0xba34bcad	-0.000689457
16	0xbd1313d9	-0.0359076
17	0x3dcf0697	0.10108679
18	0x3dd3407a	0.10315032
19	0x3d81fdda	0.063472465
20	0xbde3f0a7	-0.11129885
21	0xbc066022	-0.008201631
22	0xbd908ded	-0.0705832
23	0x3de3e48e	0.11127578
24	0x3dbb3a5c	0.091419905
25	0x3ce07a67	0.027402116
26	0x3dcb86ba	0.099378064
27	0xbdb347f7	-0.087539606
28	0x3d8a7bd6	0.06761901
29	0xbda4f2f3	-0.080541514
30	0x3de05fad	0.10955749
31	0xbda6fccd	-0.08153687
32	0xbd3390de	-0.043839328
33	0x3d0f671b	0.03501044
34	0x3dddb115	0.10824791
35	0x3c164698	0.009172104
36	0x3d6abd8f	0.057309683
37	0x3b537599	0.0032266139
38	0x3dbbbfbd	0.091674305
39	0xbc8f1a3b	-0.017468562
40	0x3d4b3768	0.049613386
41	0xbc5c2191	-0.013435737
42	0x3dc83f69	0.097777195
43	0x3cf43481	0.029810192
44	0x3dd07777	0.10179036
45	0xb9b8fff3	-0.00035285912
46	0xbd1af19a	-0.037828065
47	0xbc899b6f	-0.01679775
48	0x3ae2bc4a	0.0017298546
49	0x3cf2fc52	0.029661331
50	0xbde60226	-0.112308785
51	0x3c3d19a6	0.01154176
52	0x3d9b94e2	0.075967565
53	0xbd14bce3	-0.03631295
54	0xbd4bd152	-0.04976017
55	0xbd94d145	-0.072664775
56	0x3d8018c4	0.06254724
57	0xbd909c96	-0.070611164
58	0xbdd9f388	-0.10642153
59	0xbd443ad6	-0.047907673
60	0x3d9d7276	0.07687847
61	0xbd6cf613	-0.057851862
62	0xbdd27f15	-0.10278145
63	0x3dd7e3f5	0.10541526
64	0xbcea5518	-0.028605029
65	0xbde8375f	-0.11338686
66	0x3bab53ba	0.005228487
67	0xbd8b1355	-0.06790797
68	0xbd54a9e2	-0.051919825
69	0x3c3da5b7	0.011575154
70	0xbd85f0e8	-0.0654009
71	0x3dbf3d96	0.093379185
72	0xbc147363	-0.009060713
73	0xbc3823ef	-0.011239036
74	0xbdbd79ae	-0.09251724
75	0x3db2ae6a	0.08724673
76	0xbcba4198	-0.022736356
77	0x3d5c557c	0.05379246
78	0x3d21b908	0.0394831
79	0xbd0382a7	-0.03210702
80	0xbdb3bdd2	-0.0877644
81	0x3d57c961	0.052682284
82	0x3e1707ea	0.14749113
83	0x3d9cc359	0.07654447
84	0x3dcf2fc5	0.10116533
85	0x3ca29eaa	0.019851048
86	0xbd874854	-0.06605592
87	0xbdbacd31	-0.091211684
88	0xbc4cb593	-0.012494463
89	0x3d340c14	0.04395683
90	0xbd8565cc	-0.06513557
91	0xbc730175	-0.01483189
92	0x3b1c23b3	0.002382499
93	0x3e003809	0.12521376
94	0x3dac109a	0.08401604
95	0xbdc4d221	-0.096103914
96	0xbdab1e2f	-0.083553664
97	0x3dd1a899	0.102372356
98	0x3dcad506	0.09903912
99	0xbd7e2cf9	-0.062054608
100	0xbdb128a2	-0.08650328
101	0x3db82a88	0.08992487
102	0xbc9c3dc3	-0.019072419
103	0x3cb356d8	0.021891996
104	0xbdc309c2	-0.095233455
105	0xbd164218	-0.036684126
106	0xbd8fee6d	-0.07027898
107	0x3de44962	0.11146809
108	0x3b17aae2	0.0023142626
109	0xbd58182b	-0.052757423
110	0xbde78718	-0.11305064
111	0xbcf64113	-0.030060327
112	0xbce21ea6	-0.027602505
113	0xbdc1dbb0	-0.0946573
114	0x3d951284	0.07278922
115	0xbd8e77e2	-0.069564596
116	0x3dbe8358	0.093023956
117	0x3dc58e78	0.096463144
118	0x3d6ea557	0.05826315
119	0xbdb1476b	-0.086562
120	0x3dd195f3	0.10233679
121	0x3dcde40a	0.100532606
122	0x3d113d65	0.03545894
123	0x3d6097b1	0.054832164
124	0xbd73be9d	-0.059507955
125	0x3dacafac	0.08431944
126	0xbdc911da	-0.09817858
127	0xbd17282c	-0.036903545

layer2.weight f4 [128, 128]
0	0x39cd0a1f	0.00039108188
1	0xbc79657f	-0.015221952
2	0xbaeb2253	-0.0017939307
3	0xbd824d2c	-0.063623756
4	0x3d7501e7	0.059816267
5	0x3d792ec7	0.060835626
6	0xbce574d2	-0.028009806
7	0x3c3bbad1	0.011458115
8	0xbbcc8717	-0.00624169
9	0xbca8591a	-0.0205503
10	0xbd6f1bbd	-0.058376063
11	0xbc7fdcd4	-0.015616614
12	0xbcdbf761	-0.026851358
13	0xbd14e254	-0.036348656
14	0x3c0d8d93	0.008639711
15	0x3d5825d2	0.052770443
16	0x3cc9ed3b	0.024649253
17	0x3d4274b4	0.047474578
18	0xbd71e333	-0.059054565
19	0xbd7da78e	-0.06192737
20	0x3d604c91	0.05476052
21	0xbd028cd0	-0.03187257
22	0x3bf40db3	0.007447922
23	0xbd2652f7	-0.040606465
24	0xbb9b2d43	-0.00473562
25	0x3ca79332	0.02045593
26	0x3cb7de2a	0.022444803
27	0x3cebc8fd	0.028782362
28	0x3d708985	0.0587249
29	0x3c9e3397	0.01931171
30	0xbd43ae66	-0.04777374
31	0x3d09b690	0.03362137
32	0x3c046ab1	0.008082078
33	0xbd3a2054	-0.045440987
34	0x3aa111e8	0.0012288662
35	0xbd322a14	-0.04349716
36	0x3cb4a3d0	0.022050768
37	0xbd79fd44	-0.06103255
38	0xbccaae8e	-0.024741437
39	0xbce7b0f6	-0.028282624
40	0x3c1b9a6c	0.009497266
41	0x3c5444f8	0.012955897
42	0x3bbaaa00	0.005696535
43	0xbc531cd3	-0.01288529
44	0xbd7c6d21	-0.06162751
45	0x3d5a8e33	0.053358268
46	0xbd04fd6f	-0.032468256
47	0x3d4dce49	0.050245557
48	0x3cde6ecc	0.027152441
49	0x3d7ad505	0.061238308
50	0x3d3d7b4b	0.04626016
51	0xbd71affd	-0.059005726
52	0xbcba34ec	-0.022730313
53	0x3c6c710c	0.014431249
54	0x3befaa8d	0.0073140324
55	0x3d574276	0.052553616
56	0xbd102f41	-0.035201315
57	0xbd27be34	-0.040952876
58	0xbb828de3	-0.0039841994
59	0x3d60f0fc	0.05491732
60	0x3d7ee526	0.06223025
61	0xbc1a7c8c	-0.009429108
62	0xbd28da3a	-0.041223742
63	0x3baa5c26	0.005198973
64	0x3aa78c7a	0.0012782954
65	0xbcefc60d	-0.029269243
66	0x3b0babb0	0.002131205
67	0x3cde11ae	0.02710804
68	0x3cad6aef	0.021169154
69	0xbd83fa21	-0.06444193
70	0x3d296877	0.04135939
71	0x3d7dba4c	0.061945245
72	0xbcb943a3	-0.02261526
73	0xbb5c774a	-0.0033640438
74	0x3d4beac9	0.049784455
75	0x3d291654	0.04128106
76	0xbd0db913	-0.03460033
77	0xbcee2798	-0.029071614
78	0xbca2f2a5	-0.019891093
79	0xbd5812f2	-0.052752443
80	0xbd229690	-0.03969437
81	0xbad38146	-0.0016136549
82	0xbd2097b0	-0.03920716
83	0xbd1cebd8	-0.038310856
84	0xbd4c1b88	-0.049830943
85	0xbd734363	-0.059390437
86	0x3c7acc50	0.015307501
87	0xbc43d72f	-0.011953159
88	0xbc885d8c	-0.01664617
89	0x3bf4f4fd	0.007475494
90	0x3ccc1e84	0.024916895
91	0xbd1270f2	-0.035752244
92	0xbd17886c	-0.036995336
93	0xbcdf85ad	-0.027285421
94	0x3d0a38ab	0.03374545
95	0xbd2ca645	-0.042150754
96	0xbd4b6db4	-0.049665168
97	0x3cb278e8	0.021786168
98	0x3d33fda1	0.04394305
99	0x3d4b288f	0.049599227
100	0xbc62f711	-0.0138528505
101	0xbd2bcf86	-0.041945957
102	0x3cf73ef5	0.030181387
103	0xbd442e49	-0.047895703
104	0xbd074ffe	-0.03303527
105	0xbd77f795	-0.060538847
106	0x3d687f68	0.05676213
107	0xbd6daf58	-0.05802855
108	0x3cd57eea	0.026061494
109	0x3d498b23	0.049204957
110	0xbc5e9200	-0.013584614
111	0xbd770d7f	-0.060315605
112	0x3d61fa6a	0.055170454
113	0x3d5bc496	0.053654276
114	0x3d1602bb	0.036623698
115	0xbcbdee28	-0.02318485
116	0xbd3db0e4	-0.046311274
117	0x3d242237	0.040071692
118	0xbcd5f383	-0.026117092
119	0x3d63c5ea	0.055608667
120	0x3d3fb36f	0.04680198
121	0xbccb972c	-0.024852358
122	0x3ca460b8	0.02006565
123	0xbd0ae129	-0.033906136
124	0xbd4aae1d	-0.049482454
125	0x3d843b5f	0.06456637
126	0xbd3ad2d4	-0.045611218
127	0xbd669138	-0.056290835
128	0x3d778090	0.06042534
129	0x3dc5c7d7	0.09657257
130	0xbb4e55a0	-0.0031484142
131	0xbb34c12a	-0.0027580955
132	0x3d623632	0.055227466
133	0xbebbd115	-0.36682954
134	0x3dbf5479	0.09342284
135	0x3d8f38fb	0.0699329
136	0xbc6324c6	-0.013863748
137	0xbd811692	-0.06303133
138	0x3d2476b7	0.040152278
139	0x3dfcde00	0.12347031
140	0x3dfb3e04	0.12267688
141	0xbf07ede7	-0.53097385
142	0xbf061f7f	-0.5239181
143	0x3d75e1a3	0.060029637
144	0xbf201393	-0.6252987
145	0xbf58298c	-0.84438396
146	0x3dbb37c4	0.09141496
147	0x3b7093ba	0.0036709146
148	0x3c6d6bc1	0.014491023
149	0x3da42e19	0.08016605
150	0xbf606ea9	-0.87668854
151	0x3df1d0e2	0.11807419
152	0x3c5d7477	0.013516537
153	0x3de70d35	0.11281816
154	0xbcb1dc07	-0.021711363
155	0xbca30af8	-0.019902691
156	0x3dc4de89	0.09612758
157	0x3df7e9ba	0.12105127
158	0x3de19f1e	0.11016677
159	0x3e66f8f9	0.22555913
160	0x3df7b3ff	0.120948784
161	0x3db4f49a	0.088357165
162	0x3bcc1f5b	0.006229324
163	0x3d1562c6	0.03647115
164	0xbc7dbb8b	-0.015486608
165	0x3df81507	0.12113386
166	0xbd71ec13	-0.05906303
167	0xbd9f9a80	-0.077931404
168	0x3cac1a92	0.021008763
169	0xbf118614	-0.5684521
170	0x3e104181	0.14087488
171	0x3d652714	0.05594547
172	0x3ddaf4bf	0.10691213
173	0x3d0a4491	0.033756796
174	0xbe4562dc	-0.19275993
175	0x3dd7bbc4	0.1053386
176	0xbf52adaf	-0.8229627
177	0x3ddb52c7	0.10709148
178	0xbcfd58e3	-0.030926174
179	0x3d6d81d3	0.05798514
180	0x3d8f7585	0.07004837
181	0xbd89167e	-0.06693743
182	0xbe51aada	-0.20475331
183	0xbe03f0d0	-0.12884831
184	0x3d6c8258	0.057741493
185	0xbb45d7f2	-0.0030188528
186	0xbc080b8a	-0.008303532
187	0x3e1f5748	0.15560639
188	0xbd2e9c74	-0.042629674
189	0x3d7419d3	0.05959494
190	0x3ddfcbee	0.109275684
191	0x3dff15fe	0.124553666
192	0x3dc2b899	0.095078655
193	0xbd6decdd	-0.05808722
194	0xbc53dafc	-0.012930628
195	0x3d8261d0	0.063663125
196	0x3debeb9e	0.1151955
197	0x3d4e5ed0	0.05038339
198	0xbd27632b	-0.04086606
199	0x3cd5edf6	0.026114445
200	0x3d9729be	0.073810086
201	0xbe54f63a	-0.20797053
202	0x3d0895de	0.03334605
203	0x3c9782d1	0.018494995
204	0xbc1d1a90	-0.0095888525
205	0x3de5d252	0.11221756
206	0xbf022b9c	-0.5084779
207	0x3c5d65c6	0.013513034
208	0xbd4227d1	-0.047401253
209	0x3d6ffc2e	0.058590107
210	0x3df34916	0.118791744
211	0x3d5274ac	0.0513808
212	0x3dbdd4e8	0.09269124
213	0x3db1eedc	0.08688137
214	0x3ca8d37f	0.020608662
215	0xbf42b969	-0.76064163
216	0xbf060cb4	-0.52363133
217	0x3d03067e	0.031988613
218	0x3d5172cf	0.05113488
219	0x3e02b223	0.12763266
220	0x3dd74b58	0.105124176
221	0x3d09b9e5	0.03362455
222	0x3db060fc	0.08612248
223	0x3d720241	0.05908418
224	0x3d98d623	0.07462718
225	0x3dbedcd3	0.093194626
226	0xbc75990c	-0.0149901025
227	0x3c9e8224	0.019349165
228	0x3d44ed66	0.048077963
229	0xbce782f5	-0.028260687
230	0x3dafdc27	0.085869126
231	0x3dcd95b1	0.10038317
232	0xbc24c72b	-0.010057251
233	0x3d7f6cf4	0.062359765
234	0xbd039cfb	-0.03213213
235	0x3df8cc48	0.121483386
236	0x3db874c3	0.090066455
237	0xbea8c7da	-0.32964975
238	0xbcccf4a4	-0.025018997
239	0xbde877a5	-0.113509454
240	0x3b9f00d2	0.0048523927
241	0xbc4c51e6	-0.012470698
242	0xbcef8065	-0.029236028
243	0x3c123fb6	0.008926323
244	0x3d8e167e	0.06937884
245	0xbbb03958	-0.0053779297
246	0x3d99656d	0.074900486
247	0xbce7d37b	-0.028299084
248	0x3e1c77bf	0.15280055
249	0xbab3d296	-0.0013719376
250	0x3e4d08a3	0.20022826
251	0x3db28c04	0.08718112
252	0x3cd646f9	0.02615689
253	0xbccee3aa	-0.025255043
254	0x3d1cd2c8	0.038286954
255	0xbf3e9277	-0.7444224

layer2.bias f4 [128]
0	0xbd0aa1ca	-0.0338457
1	0x3d824e80	0.06362629
2	0xbd329234	-0.04359646
3	0x3da3aca2	0.079919115
4	0xbd55d9d4	-0.05220969
5	0x3d48bb06	0.049006484
6	0x3d688e31	0.05677623
7	0x3d8fd8a7	0.07023745
8	0xbc607f2e	-0.013702197
9	0xbc9c1c11	-0.019056352
10	0x3bffdfed	0.0078086765
11	0x3d82ff76	0.063963816
12	0xbd219aeb	-0.039454382
13	0xbd70d1dd	-0.05879389
14	0x3d23343e	0.039844744
15	0x3b52d09e	0.0032167803
16	0xbcb1df10	-0.02171281
17	0x3d6a91a1	0.05726779
18	0x3da4be3f	0.08044099
19	0xbd43f0c5	-0.047837038
20	0x3d3c3e10	0.045957625
21	0x3c8adb48	0.016950265
22	0x3ce57534	0.028009988
23	0x3d577694	0.05260332
24	0xbd56adf8	-0.052412003
25	0x3dac4171	0.084109195
26	0xbc0999e3	-0.008398506
27	0x3d808ff6	0.06277458
28	0x3d43e23b	0.047823172
29	0x3d3b7fb6	0.04577609
30	0xbc601bc5	-0.013678496
31	0x3db180fb	0.08667179
32	0x3d5df663	0.05419005
33	0x3d9f8367	0.07788735
34	0xbc0af9c0	-0.008482397
35	0x3dbb0fe0	0.09133887
36	0x3bcbd2d6	0.006220202
37	0x3ca42533	0.02003727
38	0x3d983f8b	0.07433995
39	0x3d1a4f28	0.037673146
40	0x3c61fa72	0.013792621
41	0x3c31dbbb	0.0108556105
42	0x3dafe17a	0.08587928
43	0xbd1a5a7c	-0.03768395
44	0xbd36bc57	-0.04461321
45	0x3d08f1d7	0.03343376
46	0x3c32c570	0.010911331
47	0xbc8b8fc0	-0.017036319
48	0x3bc70fa3	0.006074862
49	0xbd87abd3	-0.0662457
50	0x3d66e8a1	0.056374196
51	0xbd912484	-0.07087043
52	0x3db44c09	0.08803565
53	0xbc5b0477	-0.013367764
54	0xbd1a0838	-0.037605494
55	0x3c54cc51	0.012988166
56	0x3d698978	0.057015866
57	0xbcabc517	-0.020968003
58	0x3d6e29f4	0.05814548
59	0x3daf3560	0.08555102
60	0xbd8056d6	-0.06266563
61	0x3dabb42f	0.08383977
62	0x3c185815	0.009298344
63	0x3ccd8ba5	0.025091002
64	0x3dd4a840	0.10383654
65	0xbd85d001	-0.06533814
66	0x3c33d82e	0.010976834
67	0x3ab78cf1	0.0014003796
68	0x3c8d45dc	0.017245226
69	0x3d6bbac6	0.057551168
70	0xbd6e0473	-0.05810971
71	0x3d09c76b	0.033637445
72	0x3c190e16	0.009341737
73	0x3d9983b1	0.07495821
74	0x3d870e2f	0.06594502
75	0xbbf30031	-0.0074157943
76	0x3c170fb2	0.009220051
77	0x3de01014	0.10940567
78	0x3d860edc	0.06545803
79	0x3d534bf8	0.05158612
80	0xbc86b266	-0.016442489
81	0x3d5d0549	0.05396012
82	0x3dce1928	0.10063392
83	0xbc33ee5a	-0.01098212
84	0x3d215fc9	0.03939799
85	0xbce8ffb7	-0.028442247
86	0x3d180c58	0.037121147
87	0x3cf55743	0.029948836
88	0x3d7e1f02	0.06204129
89	0x3d28165c	0.04103695
90	0x3da703a3	0.081549905
91	0x3daaf948	0.08348328
92	0xbcafd821	-0.021465363
93	0x3c5f579f	0.01363173
94	0x3d042222	0.032259114
95	0x3db4f795	0.08836285
96	0x3c92f5f2	0.017939541
97	0x3dd53461	0.10410381
98	0x3c4364a8	0.011925854
99	0xbc714485	-0.014725809
100	0xbc893d8b	-0.016752979
101	0xbd692ac0	-0.056925535
102	0x3dc3a1d1	0.095523484
103	0x3e04a6e4	0.12954289
104	0x3db85105	0.08999828
105	0xbc03830f	-0.008026852
106	0xbd04e5f7	-0.032445874
107	0xbd7e085f	-0.062019702
108	0x3d1ce139	0.038300727
109	0xbd4be27a	-0.04977653
110	0xbc81a03c	-0.015823476
111	0x3dcf6f1a	0.10128613
112	0x3cc1ec54	0.02367226
113	0x3d08baf0	0.033381402
114	0xbcad0451	-0.021120222
115	0x3d8d827b	0.06909653
116	0x3d678a93	0.05652864
117	0x3dbbca0f	0.09169399
118	0x3bbb6e1a	0.0057199122
119	0x3d187ad1	0.0372265
120	0xbd213a32	-0.03936214
121	0x3c78dc84	0.015189294
122	0x3d4c6e49	0.049909864
123	0x3d45b89d	0.048271764
124	0xbbe0090b	-0.0068370155
125	0x3da6ccf5	0.08144561
126	0x3c4dde27	0.012565172
127	0x3d0d03b9	0.03442738

layer3.weight f4 [128, 128]
0	0xbd08f59c	-0.033437356
1	0x3ce1110b	0.027473947
2	0xbd12068f	-0.035650786
3	0xbdf97c1d	-0.12181876
4	0x3ea8eb01	0.32991794
5	0x3d38a5c2	0.045079954
6	0x393d2a43	0.00018040188
7	0x3d1a2e7a	0.03764198
8	0xbe1b83ba	-0.15186968
9	0xbd603942	-0.054742105
10	0x3d428e34	0.047498897
11	0xbd849457	-0.06473606
12	0x3d16749f	0.036732312
13	0xbbdef0ae	-0.0068035936
14	0xbe4ef61e	-0.20211074
15	0x3e9d5f1e	0.3073663
16	0xbcf2e5df	-0.029650627
17	0xbe347ed7	-0.1762651
18	0xbd31d224	-0.043413296
19	0x3a6cb74d	0.00090299995
20	0x3ec104e2	0.37699038
21	0xbd83c39a	-0.064337924
22	0xbe2a7e1f	-0.16649674
23	0x392bc86f	0.00016382498
24	0x3d0a468c	0.033758685
25	0xbdd2b77a	-0.102889016
26	0xbd0ce873	-0.03440137
27	0xbcb6dec6	-0.022323024
28	0xbe344a85	-0.17606552
29	0x3e971eef	0.29515788
30	0xbe3d3569	-0.18477406
31	0xbdeac46e	-0.11463247
32	0x3caa402e	0.020782556
33	0xbe1299db	-0.14316504
34	0xbe06432a	-0.13111559
35	0xbdc7942f	-0.09745061
36	0xbd9da281	-0.07697011
37	0xbd1630ec	-0.03666775
38	0x3b817fcc	0.003952002
39	0x3f08de7c	0.53464484
40	0xbe20e454	-0.157121
41	0x3e9cf9fd	0.30659476
42	0xbe1e7817	-0.15475498
43	0x3e6849a8	0.22684348
44	0xbd7c152a	-0.06154362
45	0xbe0b2b13	-0.1359065
46	0x3d259906	0.040429138
47	0xbd57ae4c	-0.052656457
48	0x3c0fdd2d	0.00878076
49	0xbd6183f0	-0.055057466
50	0x3c6fd38a	0.014637837
51	0x3d5ab3c2	0.053394087
52	0x3ecde6e3	0.40215215
53	0xbe0192d5	-0.12653668
54	0xbd4c065b	-0.04981075
55	0x3c91aeab	0.017783483
56	0x3c02692f	0.007959648
57	0x3c5ef97c	0.013609286
58	0xbdfd6255	-0.12372271
59	0xbd9742fd	-0.07385824
60	0xbd52a3cf	-0.05142575
61	0xbddc8373	-0.107672594
62	0xbdb5b895	-0.08873097
63	0xbc770e52	-0.015079098
64	0xbdcbfb8b	-0.099600874
65	0x3d21e6e3	0.03952683
66	0xbe12f1e4	-0.14350086
67	0xbba20a6c	-0.00494509
68	0x3cc7c333	0.02438507
69	0xbe492dcf	-0.19646381
70	0x3cfc4223	0.030793255
71	0x3eaf8fe5	0.3428947
72	0x3bc353f8	0.0059609376
73	0x3e3f7907	0.18698512
74	0xbd4bf9a5	-0.049798626
75	0x3d7d8ee4	0.06190385
76	0x3c51b7b0	0.012800142
77	0xbc1d232f	-0.009590908
78	0x3da9ff7c	0.08300683
79	0x3e7ec5f2	0.24880198
80	0x3c0a11cc	0.008427095
81	0x3ea0d9d5	0.31416193
82	0x3eabd606	0.33561724
83	0xbdac9fa3	-0.08428886
84	0x3d27d451	0.040973965
85	0xbda7a168	-0.08185083
86	0xbd5d8c25	-0.05408873
87	0x3ebe6081	0.37183002
88	0xbd5c68e0	-0.053810954
89	0x3d8300e7	0.063966565
90	0x3eec8178	0.46192527
91	0x3b48ec86	0.0030658557
92	0xbdc14168	-0.094363034
93	0x3d023f44	0.031798616
94	0xbdd0ca92	-0.10194887
95	0x3cadac26	0.02120025
96	0xbe1306f0	-0.14358115
97	0xbdbf4f86	-0.0934134
98	0xbd1cf8b3	-0.038323116
99	0x3ca85dee	0.020552602
100	0x3c65c0d3	0.014023024
101	0xbd6a428d	-0.057192374
102	0xbdba4a47	-0.090961985
103	0x3eae9c2b	0.34103522
104	0xbd669957	-0.05629858
105	0xbd3ef8bb	-0.046623927
106	0xbcc34106	-0.023834717
107	0x3d3df89c	0.04637967
108	0xbd2465bc	-0.040136084
109	0x3c1b3f35	0.009475519
110	0x3eea4e37	0.45762798
111	0xbd9c83c0	-0.07642317
112	0x3e5bd287	0.21467029
113	0x3c5dc613	0.013535994
114	0x3ce39fad	0.0277861
115	0xbdc9137e	-0.09818171
116	0xbe00e9af	-0.12589143
117	0xbda6e691	-0.08149446
118	0xbcb6ec51	-0.022329481
119	0xbe2b3da8	-0.16722739
120	0xbc85b372	-0.016320918
121	0xbd87d0f1	-0.06631649
122	0xbcf1aa20	-0.029500067
123	0x3ee612ed	0.44936314
124	0xbdee3709	-0.11631591
125	0xbe1d4b3d	-0.15360732
126	0xbe4ded4f	-0.20110057
127	0xbe079914	-0.13241988
128	0x3c12a6d7	0.0089509105
129	0xbd4f6254	-0.050630882
130	0x3b24a140	0.0025120527
131	0xbd7c578c	-0.06160693
132	0x3d976b6c	0.07393536
133	0x3cfbfc85	0.03076006
134	0x3cf92667	0.03041382
135	0xbcd23c5e	-0.025663551
136	0xbd866733	-0.065626524
137	0xbd16be9d	-0.036802877
138	0x3c981490	0.018564492
139	0xbc37dff5	-0.011222829
140	0x3d118d81	0.03553534
141	0x3d2773b4	0.040881827
142	0xbdcb67cb	-0.09931906
143	0x3e3fff41	0.18749715
144	0x3bbe744b	0.005812203
145	0xbdfff0a8	-0.124970734
146	0xbd706e11	-0.058698718
147	0x3d4910a4	0.049088135
148	0x3e62b468	0.22139132
149	0x3c9a1be7	0.018812133
150	0xbdad1595	-0.08451382
151	0x3cb97b5a	0.022641826
152	0x3d6a5747	0.05721214
153	0xbc93944a	-0.018015046
154	0x3d0da455	0.034580547
155	0xbda79aff	-0.0818386
156	0xbd141d60	-0.036160827
157	0x3de0212b	0.10943826
158	0xbda01d13	-0.078180455
159	0xbd7bea12	-0.061502524
160	0xbbdc9232	-0.006731295
161	0xbd8e8cf9	-0.06960482
162	0xbd83586e	-0.06413351
163	0xbdbef8c7	-0.09324794
164	0x3a75a5cb	0.00093707134
165	0xbc9ff56c	-0.019526206
166	0xbdac9af8	-0.084279954
167	0x3e9bffe6	0.30468673
168	0xbde0a4f4	-0.10968962
169	0x3d8652c7	0.06558757
170	0xbcc67d77	-0.024229748
171	0x3e2a51f8	0.16632831
172	0x3ce0de35	0.027449707
173	0xbdcf9e12	-0.101375714
174	0xbc0fd3f5	-0.008778562
175	0xbba7f3e6	-0.0051255105
176	0xbbbf6158	-0.0058404617
177	0x3abc71f8	0.0014377227
178	0xbd5611dc	-0.052263126
179	0x3d2fbdbc	0.042905554
180	0x3e2f3b55	0.17112477
181	0xbdad704a	-0.08468683
182	0xbd01e775	-0.031714875
183	0x3d22267e	0.03958749
184	0xbb1ca7e0	-0.0023903772
185	0xbd15ca06	-0.036569618
186	0xbdc2c124	-0.09509495
187	0xbd5bcef0	-0.053664148
188	0x3c1cd51e	0.0095722955
189	0xbdc7e5d9	-0.09760637
190	0xbd162776	-0.036658727
191	0xbd163f0d	-0.036681224
192	0xbc6a101e	-0.014286069
193	0x3c8dd2dd	0.017312462
194	0xbd91d41f	-0.07120537
195	0x3c9d11e9	0.01917358
196	0x3c030243	0.007996145
197	0xbce2a65e	-0.02766722
198	0xbd72001d	-0.05908214
199	0x3e5b3e46	0.21410474
200	0x3cdbccac	0.026830994
201	0x3c2e709b	0.010646964
202	0xbd97d774	-0.07414141
203	0x3d0333bd	0.032031763
204	0xbb63c1b9	-0.003475292
205	0x3d0e1bb0	0.034694374
206	0x3da16050	0.07879698
207	0x3e1f59c5	0.15561588
208	0x3d23d6e9	0.039999876
209	0x3e0ee1cf	0.13953327
210	0x3e573178	0.21014965
211	0xbcb9efb2	-0.022697303
212	0x3d4e3314	0.05034168
213	0xbe0c695c	-0.13712066
214	0x3cc6cb15	0.024266759
215	0x3e95d0af	0.29260775
216	0xbd22dcc3	-0.039761316
217	0xbc529484	-0.012852792
218	0x3e732454	0.23744327
219	0xbd73f3e0	-0.05955875
220	0xbe0dcf1f	-0.13848542
221	0x3ca7d5ff	0.020487783
222	0x3c01478f	0.007890596
223	0xbcae4949	-0.02127518
224	0xbcb0e07d	-0.02159142
225	0xbd5870d4	-0.052841976
226	0x3c733115	0.014843245
227	0xbd1339a2	-0.035943635
228	0xbbdf3eec	-0.006812921
229	0xbd653780	-0.055961132
230	0xbdb302d7	-0.08740776
231	0x3e43fe8c	0.1914007
232	0xbd99c513	-0.07508292
233	0x3c7ec450	0.015549734
234	0x3d03e31b	0.032199007
235	0x3bafa175	0.0053598233
236	0xbdc44cb2	-0.09584941
237	0xbc852cb8	-0.016256675
238	0x3e81ac3c	0.25326717
239	0xbdd384ee	-0.10328089
240	0x3e206e3f	0.15667056
241	0x3d8e12b0	0.06937158
242	0x3d116d5e	0.03550469
243	0x3c670eb9	0.014102631
244	0xbd874809	-0.066055365
245	0x3cfba449	0.030717986
246	0x3ce92067	0.028457833
247	0xbdd34a52	-0.1031691
248	0x3d59e906	0.053200744
249	0x3d274d7f	0.04084539
250	0xbb8c3e88	-0.0042799152
251	0x3e54d60d	0.20784779
252	0xbd987055	-0.07443301
253	0xbdf16f93	-0.11788859
254	0xbd8dc043	-0.06921437
255	0xbc05f128	-0.008175172

layer3.bias f4 [128]
0	0x3e2cc224	0.16870934
1	0x3d8c4e0c	0.06850824
2	0x3dac4d2d	0.084131576
3	0x3e498baa	0.19682184
4	0xbcc8750d	-0.024469877
5	0x3d80bef2	0.0628642
6	0x3d525e7e	0.051359646
7	0x3dbdaae3	0.0926111
8	0xbbb37917	-0.0054770815
9	0x3d8a79d6	0.067615196
10	0x3db9a586	0.09064774
11	0xbd8f79bf	-0.07005643
12	0x3e1d12b9	0.15339173
13	0x3d8e7c2d	0.069572784
14	0x3c8c4417	0.017122312
15	0xbc0f3dab	-0.00874273
16	0x3e101273	0.14069538
17	0xbb56bdbe	-0.0032766904
18	0xbc311d3e	-0.010810195
19	0xbcb2454c	-0.021761559
20	0x3dc646e9	0.09681494
21	0x3d0146c1	0.031561617
22	0x3dc39bf0	0.09551227
23	0x3db448b2	0.08802928
24	0x3cdf1996	0.02723388
25	0x3d2d8efa	0.04237268
26	0xbc0a1d15	-0.008429785
27	0xbc2c57d0	-0.010518983
28	0x3cce4062	0.025177184
29	0x3dbe5f83	0.09295561
30	0x3d4615e5	0.048360724
31	0xbd8fe892	-0.07026781
32	0xbbb6abaf	-0.0055746655
33	0x3cea6253	0.028611338
34	0x3d15ae07	0.03654292
35	0x3cc807cc	0.02441778
36	0x3d025d7f	0.031827446
37	0x3dabb093	0.08383288
38	0x3e20aadd	0.15690179
39	0x3af042f8	0.0018330505
40	0x3de7a892	0.11311449
41	0x3d622188	0.05520776
42	0x3dedd370	0.11612594
43	0x3d64041a	0.055667974
44	0x3deef2aa	0.11667378
45	0x3dea15eb	0.11429962
46	0xbcf01b91	-0.02931002
47	0xbd5734bc	-0.052540526
48	0xbd44f2bb	-0.04808305
49	0x3d6ca500	0.057774544
50	0xbc460942	-0.012087168
51	0x3d046840	0.032325983
52	0x3c49dcbe	0.012320695
53	0x3dbf820f	0.093509786
54	0x3b334d55	0.0027359326
55	0x3d248368	0.04016438
56	0x3e0f6c6f	0.14006208
57	0x3dfbc871	0.122940905
58	0x3d80abc1	0.062827595
59	0x3c9dd175	0.019264916
60	0x3c5c1f68	0.013435222
61	0x3d7c8bcf	0.06165677
62	0x3d9685d3	0.07349744
63	0x3d448abe	0.047983877
64	0xbd79f370	-0.061023176
65	0x3dc94c71	0.09829033
66	0x3db2aed4	0.08724752
67	0x3dbc329b	0.0918934
68	0x3d280843	0.041023504
69	0x3dcffe97	0.10155981
70	0x3d977f6a	0.07397349
71	0xbcce8288	-0.025208727
72	0xbbfaf477	-0.007658537
73	0xbc67f59f	-0.014157682
74	0x3c65b7a2	0.014020832
75	0x3d05b37f	0.032641884
76	0x3de63da7	0.11242228
77	0x3d9c8958	0.07643384
78	0xbc93e4d4	-0.01805345
79	0xbd86493f	-0.06556939
80	0x3b528625	0.0032123413
81	0x3de04994	0.10951534
82	0x3d8c8de2	0.068629995
83	0x3d2a1771	0.04152626
84	0x3c8c0ea2	0.017096821
85	0xbd1202d1	-0.035647217
86	0x3c29f411	0.010373131
87	0x3d198002	0.037475593
88	0x3da0542a	0.07828553
89	0x3cee51de	0.029091772
90	0xbca8b12a	-0.02059229
91	0x3dd594e5	0.1042879
92	0x3ae2792d	0.0017278545
93	0xbd41b32c	-0.047290012
94	0x3d4f7d90	0.050656855
95	0xbd3ead0c	-0.04655175
96	0x3d369db7	0.044584002
97	0x3e284632	0.16433027
98	0x3dd07f2b	0.10180505
99	0x3c8e1624	0.017344542
100	0xbc660c9f	-0.014041095
101	0x3cd2b190	0.025719434
102	0x3d6267ae	0.055274658
103	0xbc691605	-0.014226441
104	0xbc05171e	-0.008123187
105	0x3e120e27	0.14263211
106	0xbd527bc4	-0.051387563
107	0x3e0fbaf6	0.14036164
108	0xbc4351ff	-0.011921405
109	0x3c677e5b	0.014129247
110	0x3de3b1bd	0.11117885
111	0xbd73af68	-0.059493452
112	0x3cb1ff72	0.021728251
113	0x3d50ceb1	0.050978366
114	0x3c973897	0.018459601
115	0x3c3a0e39	0.01135593
116	0x3d69672a	0.05698315
117	0x3d8b1498	0.06791037
118	0x3d8c93a6	0.06864099
119	0xbcee6d27	-0.029104782
120	0x3b58aeb5	0.0033063118
121	0x3dac5308	0.084142745
122	0x3d362ce0	0.04447639
123	0xbc9110e7	-0.017708255
124	0x3d9473e1	0.07248665
125	0x3cd0c8a8	0.025486305
126	0x3aee17f7	0.0018165101
127	0x3dde273c	0.10847327

output_layer.weight f4 [9, 128]
0	0xbe8cb8e1	-0.274848
1	0xbe0976db	-0.13424246
2	0x3e3f2aee	0.1866872
3	0xbe693564	-0.22774273
4	0x3dbea0ff	0.09308051
5	0x3e1e3b46	0.15452299
6	0x3e947128	0.2899258
7	0xbea04838	-0.313051
8	0xbbac1b74	-0.005252296
9	0x3e2ac64e	0.1667721
10	0x3e0c6317	0.13709675
11	0x3b163dca	0.0022925013
12	0xbe9003ef	-0.28128
13	0x3dd09368	0.101843655
14	0xbd120d35	-0.035657126
15	0xbd611b8c	-0.05495791
16	0xbea2520d	-0.31703225
17	0x3d51346b	0.05107538
18	0xbdd5faea	-0.10448249
19	0x3d60ded2	0.054899998
20	0xbe708809	-0.23489393
21	0x3e0bb1ec	0.1364209
22	0x3e249cdb	0.1607546
23	0xbe8fd260	-0.2809019
24	0xbd77373c	-0.06035541
25	0xbd828f6e	-0.06375013
26	0x3e083e32	0.13304976
27	0x3df5a972	0.1199521
28	0x3e32f7db	0.17477362
29	0x3d606460	0.054783225
30	0x3c288659	0.010285937
31	0x3c4b2805	0.012399678
32	0x3e50e3e1	0.20399429
33	0xbcf5af8c	-0.029990934
34	0x3d523e6b	0.051329058
35	0x3e0e21a5	0.13880022
36	0x3e13d7a4	0.14437729
37	0x3b7d1de3	0.003862255
38	0xbe266a93	-0.16251592
39	0xbcf7da7d	-0.03025555
40	0x3dd6551b	0.10465451
41	0xbe05bae3	-0.13059573
42	0x3dcb14a4	0.09916046
43	0x3e262fc5	0.1622916
44	0xbdf2de2d	-0.11858783
45	0xbea88975	-0.3291737
46	0xbad3c7ff	-0.0016157626
47	0x3cf7bda5	0.030241797
48	0x3d506446	0.05087688
49	0x3db07214	0.08615509
50	0xbd3d3000	-0.046188354
51	0xba31e32b	-0.0006785865
52	0x3dcceb06	0.10005765
53	0x3e168bb7	0.14701734
54	0x3de15e3d	0.11004303
55	0xbe58b8cd	-0.21164246
56	0xbeb1ec1e	-0.34750456
57	0xbe132d37	-0.14372717
58	0x3d6afc3d	0.05736946
59	0xbcc4f58d	-0.024042869
60	0x3e159476	0.14607415
61	0x3dd49c6e	0.10381399
62	0x3e2d731e	0.16938445
63	0x3dd382bf	0.10327672
64	0xbd450107	-0.048096683
65	0xbe97e324	-0.29665482
66	0x3c9c876f	0.019107549
67	0x3e057d34	0.13036042
68	0xbc3972ee	-0.011318905
69	0xbe6e86c2	-0.23293594
70	0xbead3405	-0.3382875
71	0xbb416d27	-0.0029514523
72	0xbc7bcf10	-0.015369192
73	0x3e2e6553	0.1703084
74	0xbd3f4e81	-0.046705727
75	0xbc2c986c	-0.010534387
76	0xbe8cd8fc	-0.27509296
77	0xbddb3b45	-0.10704664
78	0x3c203269	0.009777644
79	0x3be7daf9	0.007075664
80	0x3e1b8dbc	0.15190786
81	0xbe0c2e2c	-0.13689488
82	0x3cd7f53e	0.026362058
83	0xbe50f7a0	-0.20406961
84	0xbe132151	-0.14368178
85	0x398f6a95	0.00027354495
86	0x3da49ac2	0.0803733
87	0x3d044ed9	0.032301757
88	0xbda41062	-0.08010937
89	0x3e1f2ec6	0.15545186
90	0x3d716aa8	0.058939606
91	0x3dcedaeb	0.10100349
92	0x3b6c0415	0.0036013175
93	0x3d794a49	0.06086186
94	0x3d50425a	0.050844528
95	0xbd088e28	-0.033338696
96	0x3e03acf3	0.12858944
97	0xbe7485c6	-0.23879156
98	0x3d9ff5a3	0.07810523
99	0x3a6ca9ed	0.00090280065
100	0xbd0cbad9	-0.03435788
101	0x3dfbd4a1	0.12296415
102	0x3e360fa0	0.17779398
103	0x3e01a07c	0.12658876
104	0xbd9fbc3a	-0.07799573
105	0xbe9bfa0f	-0.30464217
106	0xbcd89591	-0.026438506
107	0xbe6d6777	-0.23184
108	0x3e055777	0.13021646
109	0x3ded4535	0.11585466
110	0x3e17aadc	0.14811271
111	0x3ca8bff0	0.020599335
112	0xbd1ffa3e	-0.03905701
113	0xbeac80cd	-0.33692017
114	0xbe727af8	-0.23679721
115	0x3d2e382a	0.04253403
116	0xbe1dc667	-0.15407716
117	0x3d085df5	0.03329273
118	0x3e1e27ae	0.15444824
119	0xbcb04475	-0.021517018
120	0xbc6b8719	-0.0143754715
121	0x3d7a741d	0.06114589
122	0xbea5e16e	-0.32398552
123	0xbb027f1b	-0.0019912187
124	0x3e411bf2	0.18858317
125	0x3da2f50a	0.07956894
126	0x3d8e7212	0.06955351
127	0xbe8870cc	-0.26648557
128	0xbe813e0b	-0.25242648
129	0xbe2dbd31	-0.16966702
130	0x3e2be28e	0.16785643
131	0xbe861ab6	-0.26192254
132	0x3d204d3d	0.03913616
133	0x3df1dbf1	0.118095286
134	0x3e34efc6	0.17669591
135	0xbe79ecb4	-0.24406701
136	0x3bc004bc	0.0058599394
137	0x3da9d7fc	0.08293149
138	0x3df3d22e	0.11905323
139	0xbb981425	-0.0046410733
140	0xbe59b5d7	-0.21260773
141	0x3d7f3850	0.062309563
142	0x3c83af07	0.01607467
143	0x3ca57d4e	0.020201351
144	0xbe457fcf	-0.19287036
145	0x3c93d364	0.018045135
146	0xba363537	-0.00069506787
147	0xbd211d97	-0.03933486
148	0xbe81f81e	-0.2538461
149	0x3e0def69	0.13860859
150	0x3dd088a1	0.1018231
151	0xbe7cc3dc	-0.2468409
152	0xbd324cd0	-0.043530285
153	0xbcc390a0	-0.023872674
154	0x3e146ab7	0.14493833
155	0x3da791a9	0.08182079
156	0x3da3a7d6	0.079909965
157	0x3e2620d0	0.16223454
158	0xbbeec41c	-0.0072865617
159	0x3b7627d3	0.0037560358
160	0x3e42cf2c	0.19024342
161	0x3d4f0b34	0.050547794
162	0x3e2369d4	0.15958339
163	0x3e2b91aa	0.16754785
164	0x3dedde50	0.11614668
165	0x3da61e78	0.0811128
166	0xbe2df4b3	-0.16987877
167	0x3ce43dc5	0.027861485
168	0x3de1a4ba	0.11017747
169	0xbe408a3b	-0.1880273
170	0x3e1f3eff	0.15551375
171	0x3e0c996f	0.13730405
172	0xbe7b3db9	-0.24535264
173	0xbe6ad906	-0.2293435
174	0xbd6e1c9a	-0.058132745
175	0x3d4851ac	0.048906013
176	0x3d2cf681	0.042227272
177	0x3dcb4748	0.09925705
178	0x3c0f5dd6	0.0087504
179	0x3d441e74	0.047880605
180	0x3ddef234	0.1088604
181	0x3e248fc0	0.16070461
182	0x3e022291	0.12708499
183	0xbd52568e	-0.051352076
184	0xbe96aa84	-0.29426968
185	0xbe68eb75	-0.2274607
186	0x3e03ae9c	0.12859577
187	0xbd59764f	-0.053091343
188	0x3e2c2a24	0.1681295
189	0x3e0c4117	0.13696705
190	0x3df4079e	0.11915515
191	0x3dea1ca5	0.11431245
192	0xbca79b28	-0.020459726
193	0xbe906449	-0.28201512
194	0xbdf107fb	-0.117691
195	0x3d988921	0.0744803
196	0xbcb8b0f9	-0.022545325
197	0xbe51bd0b	-0.2048227
198	0xbe8cd8c4	-0.2750913
199	0xbc06a55b	-0.008218135
200	0x3ca15d63	0.01969785
201	0x3de074c3	0.109597705
202	0x3ce96d25	0.028494427
203	0xbdd4bc47	-0.103874736
204	0xbe8c8931	-0.2744842
205	0xbe054ac9	-0.1301681
206	0xbd7ba76b	-0.06143896
207	0xbcda093b	-0.02661573
208	0x3dbdabfa	0.092613176
209	0xbddb1866	-0.10698013
210	0xbda2338f	-0.0791999
211	0xbe0ce917	-0.13760792
212	0xbcd2d8fd	-0.025738234
213	0xbbfb83b8	-0.007675614
214	0x3cf8ce8d	0.030371929
215	0x3d0aabd1	0.033855263
216	0xbe38b7cf	-0.18038867
217	0x3e11f2d1	0.14252783
218	0xbd76c3ba	-0.060245253
219	0x3d97a8d5	0.07405249
220	0xbd7ea3ff	-0.062168118
221	0xba6b797d	-0.0008982642
222	0xbd540e29	-0.051771317
223	0x3d1d0b8c	0.03834109
224	0x3e1dea3b	0.15421383
225	0xbe9e8077	-0.30957386
226	0x3e1f34e1	0.15547515
227	0xbd325926	-0.04354205
228	0x3cbe8d61	0.023260774
229	0x3e1dd731	0.1541412
230	0x3da1845f	0.07886576
231	0x3e127d86	0.14305696
232	0x3ceab046	0.028648507
233	0xbe9b1c2c	-0.3029493
234	0xbcbbc888	-0.02292277
235	0xbe70bcce	-0.23509523
236	0x3e15df84	0.14636046
237	0x3d95167f	0.072796814
238	0x3dcd871a	0.10035534
239	0x3d80ed56	0.06295268
240	0x3d0723b2	0.032993026
241	0xbe63662f	-0.22206949
242	0xbe1c2e43	-0.15252022
243	0x3df002c0	0.117192745
244	0xbe84b904	-0.25922406
245	0x3d09fd6c	0.033688948
246	0x3d84edc1	0.064906605
247	0x3d54020e	0.051759772
248	0x3ddfae53	0.109219216
249	0x3e04b22a	0.12958589
250	0xbe87d384	-0.2652856
251	0x3cca364c	0.024684094
252	0x3e257fa9	0.1616198
253	0x3df1f124	0.11813572
254	0x3df9431e	0.12171005
255	0xbe7917d8	-0.24325502

output_layer.bias f4 [9]
0	0x3d7cafa0	0.061690927
1	0x3ce07d95	0.027403632
2	0x3d621434	0.05519505
3	0x3b24c916	0.002514427
4	0x3c97b0e9	0.018516975
5	0xbc746e7d	-0.014918921
6	0x3d02447c	0.031803593
7	0xbd07b803	-0.03313447
8	0x3d93de68	0.07220155
