results/train/hyperparam_DQN_learning_rate_slope_40m/learning_rate_actor_0.01/best_model.pt (torch, 160591 bytes, 8 tensors)

layer1.weight f4 [128, 40]
-1.3952963e-05 -1.8899664e-05 5.853738e-06 -9.1981055e-06 6.903503e-06 1.7330343e-07 7.1747404e-06 -2.0465583e-05
-1.7703327e-05 7.388301e-06 -1.7279914e-05 -1.9804316e-05 -2.4254201e-05 -1.0650623e-05 -5.714575e-07 -1.774928e-05
1.1491077e-06 -1.9268009e-05 -1.0086202e-05 -2.4502759e-05 -1.4440084e-05 -2.369194e-05 2.2960637e-06 -5.249094e-06
-1.1861661e-05 -6.355905e-06 -9.121731e-06 1.49518555e-05 -7.825737e-06 3.20918e-06 5.062858e-06 -2.5359263e-06
-1.2632623e-05 -1.4402581e-05 7.91344e-06 5.817547e-07 -7.03822e-06 -1.9513493e-05 -2.4222772e-05 -1.4597585e-05
-1.2485864e-05 -1.731434e-05 1.0633393e-05 -8.097115e-06 -3.961815e-06 -1.345823e-05 1.5810194e-06 -1.960047e-05
7.927884e-06 3.1608547e-06 1.0562299e-05 -1.2846213e-05 2.700058e-06 1.3440428e-05 2.8809193e-06 1.4236782e-05
-8.5319164e-07 2.7586407e-06 -1.12028865e-05 -1.1711709e-05 -3.1432874e-06 1.2666463e-05 -1.06575235e-05 -1.4372165e-05
-1.630424e-05 -5.3426716e-06 9.08956e-06 -3.8448075e-06 7.900274e-06 -3.3111344e-06 7.575073e-06 5.3170315e-06
1.0521387e-05 -1.7282084e-05 -1.3199824e-05 -3.195335e-06 -9.298088e-06 1.4775992e-06 9.605549e-06 1.2991141e-05
1.3527118e-06 7.3532847e-06 -1.5295112e-05 4.322144e-06 -1.390881e-05 5.2549813e-06 -1.5451782e-05 -1.4754224e-05
-1.4067444e-05 1.4737125e-05 1.4320918e-05 8.723927e-06 -1.7080174e-05 1.5883295e-05 -5.814e-06 -9.526271e-06
9.622942e-06 -1.0570601e-05 7.922883e-06 -4.3613168e-06 1.5441918e-07 -1.2949345e-05 -1.1584584e-05 -1.0231319e-05
-7.315603e-06 9.297421e-08 -1.5069298e-05 -7.439036e-06 5.9194776e-06 1.1775137e-05 -4.787204e-06 5.0846347e-06
-1.8516089e-06 5.187162e-06 -1.7928164e-07 -1.7125432e-06 7.6133338e-06 1.7317747e-05 2.4485865e-07 6.3436078e-06
1.0926795e-05 -1.4734083e-05 4.5710585e-06 -1.200469e-05 -1.3808665e-05 -1.3670019e-05 1.2773234e-05 1.9055187e-06
-4.732059e-06 -3.8077994e-07 -1.1887068e-05 3.2407459e-06 1.2050535e-05 6.9266234e-06 -3.993651e-06 -1.6527722e-05
-4.9738996e-06 3.5387707e-06 -2.4270976e-06 -1.4228516e-05 -1.4436125e-05 -6.5564814e-06 -1.766034e-05 1.5265568e-05
1.7901501e-06 -3.340487e-06 -1.3437593e-05 -1.1325363e-05 1.1377864e-05 -7.4224004e-06 1.6549751e-05 -1.5432848e-05
1.0020224e-05 1.07598e-05 1.2365809e-05 -1.1853826e-05 4.7726107e-06 1.7070079e-05 9.809967e-06 -4.6193104e-06
6.643418e-06 4.179015e-06 2.039358e-06 9.015466e-06 8.092886e-06 -8.731e-06 -1.0050927e-05 -1.6188033e-05
7.340632e-06 -6.2156764e-06 3.3169945e-06 -1.0040671e-05 -2.004483e-05 3.9668785e-06 -1.3260854e-05 -1.7365604e-05
-1.6736803e-05 -1.084028e-05 -2.2934973e-05 8.682628e-06 7.833011e-06 -2.399823e-05 -8.108251e-06 5.749299e-06
-8.521227e-06 1.0246234e-05 -1.8693652e-05 -4.7864187e-06 -2.2461274e-05 -4.1217395e-06 7.2044377e-06 3.2735525e-06
-2.0986383e-05 -1.1528416e-06 -1.6989261e-05 -1.3532842e-05 7.2524244e-06 -5.5574083e-06 -1.5233788e-06 -1.0719561e-05
4.4534568e-06 4.3412697e-06 -1.9280303e-06 -1.560735e-05 -5.1717466e-06 -7.422074e-06 -1.3572628e-05 -1.6520258e-05
1.2535931e-05 -4.2997754e-06 -7.125799e-06 3.8241765e-06 -1.758716e-05 -6.187369e-07 -1.0703474e-05 -5.571035e-06
5.831127e-06 -3.843332e-06 1.0774317e-05 -1.7225511e-05 -5.019519e-07 5.308079e-06 5.177258e-06 -4.214403e-06
2.3177065e-06 -1.5912763e-05 1.9511435e-06 -1.3120387e-05 -1.0507796e-05 -6.1904103e-07 -6.114969e-06 9.305331e-06
8.075682e-06 9.3565e-06 -1.4015107e-05 -2.2289578e-06 9.817679e-06 1.1072319e-05 1.0651263e-05 -1.793479e-07
6.559876e-06 -1.3471854e-06 9.28157e-06 -2.542905e-06 -2.364255e-05 -2.2988036e-06 -9.745018e-06 -9.491011e-06
1.0841943e-05 2.0295738e-06 1.0337228e-05 2.3750151e-06 3.1678837e-06 -1.7470524e-05 -1.757179e-05 -1.3727497e-05
00000000: 8517 6ab7 b88a 9eb7 3a6b c436 9051 1ab7
00000010: a4a4 e736 4915 3a34 8dbe f036 81ad abb7
00000020: 9b81 94b7 06e9 f736 55f4 90b7 7221 a6b7
00000030: 8075 cbb7 14b0 32b7 4366 19b5 4ae4 94b7
00000040: 0a3b 9a35 bca1 a1b7 e837 29b7 468b cdb7
00000050: b043 72b7 0ebe c6b7 1316 1a36 6021 b0b6
00000060: 7201 47b7 cf44 d5b6 8909 19b7 bbd9 7a37
00000070: 494b 03b7 4b5d 5736 9ee1 a936 e22e 2ab6
00000080: b4f0 53b7 9da2 71b7 f7c3 0437 e129 1c35
00000090: d929 ecb6 e8b0 a3b7 0232 cbb7 26e8 74b7
000000a0: 617a 51b7 433e 91b7 1366 3237 d8d8 07b7
000000b0: bbef 84b6 a8ca 61b7 6a33 d435 b06b a4b7
000000c0: 0102 0537 121f 5436 bb34 3137 1186 57b7
000000d0: a532 3536 337e 6137 d155 4136 83da 6e37
000000e0: e206 65b5 1621 3936 08f4 3bb7 687d 44b7
000000f0: 44f1 52b6 0b82 5437 b7cd 32b7 fb1f 71b7
00000100: 17c5 88b7 3345 b3b6 5d7f 1837 a502 81b6
00000110: 6b8b 0437 db34 5eb6 622d fe36 f468 b236
00000120: 0385 3037 fef8 90b7 d074 5db7 706f 56b6
00000130: fcfe 1bb7 ec51 c635 8527 2137 87f4 5937
00000140: d38e b535 3cbc f636 014e 80b7 ef06 9136
00000150: e259 69b7 f253 b036 739e 81b7 e988 77b7
00000160: 3603 6cb7 783f 7737 e043 7037 fb5c 1237
00000170: 6547 8fb7 1e3d 8537 e115 c3b6 06d3 1fb7
00000180: 3972 2137 6358 31b7 86ec 0437 6d57 92b6
00000190: 6cce 2534 0341 59b7 695b 42b7 2ea7 2bb7
000001a0: 8d78 f5b6 1da9 c733 24d2 7cb7 d59c f9b6
000001b0: ed9f c636 d48d 4537 c5a1 a0b6 ae9c aa36
000001c0: cc84 f8b5 620d ae36 9080 40b4 89da e5b5
000001d0: 0a76 ff36 9445 9137 1e75 8334 2ddb d436
000001e0: 3a52 3737 6832 77b7 1861 9936 c067 49b7
000001f0: c4ab 67b7 4958 65b7 9f4c 5637 20c1 ff35
00000200: 14c8 9eb6 ff6d ccb4 916e 47b7 977b 5936
00000210: a72c 4a37 3e6b e836 3301 86b6 03a5 8ab7
00000220: 79e5 a6b6 9e7b 6d36 38e1 22b6 03b7 6eb7
00000230: af32 72b7 bfff dbb6 4b25 94b7 8f0e 8037
00000240: 1745 f035 212d 60b6 0672 61b7 1002 3eb7
00000250: 8ee3 3e37 ef0d f9b6 52d4 8a37 ca75 81b7
00000260: 891c 2837 fd84 3437 bf76 4f37 ccdf 46b7
00000270: 6a24 a036 b731 8f37 7d95 2437 93ff 9ab6
00000280: 87ea de36 7739 8c36 e7db 0836 2241 1737
00000290: aec6 0737 5c7b 12b7 67a0 28b7 89cb 87b7
000002a0: 8c4f f636 4190 d0b6 8899 5e36 5b74 28b7
000002b0: f225 a8b7 3a1b 8536 ef7a 5eb7 5aac 91b7
000002c0: 0366 8cb7 a6de 35b7 7b64 c0b7 9aab 1137
000002d0: 876a 0337 ce4f c9b7 ac08 08b7 1aea c036
000002e0: 64f6 0eb7 3de7 2b37 50d0 9cb7 069b a0b6
000002f0: 386b bcb7 794d 8ab6 a6bd f136 34af 5b36
00000300: ea0b b0b7 56bb 9ab5 2984 8eb7 1d0b 63b7
00000310: da59 f336 c679 bab6 e676 ccb5 2ad8 33b7
00000320: e76e 9536 39ab 9136 4f63 01b6 87ec 82b7
00000330: f788 adb6 210b f9b6 feb5 63b7 fc94 8ab7
00000340: 6a51 5237 ca46 90b6 261a efb6 6d51 8036
00000350: 2388 93b7 4717 26b5 1293 33b7 d4ee bab6
00000360: 00a9 c336 f8f5 80b6 57c3 3437 817f 90b7
00000370: dfbd 06b5 0d1c b236 4fb8 ad36 7269 8db6
00000380: e589 1b36 667c 85b7 64f0 0236 a21f 5cb7
00000390: a44a 30b7 2d2c 26b5 2f2f cdb6 181e 1c37
000003a0: ca7c 0737 ddf9 1c37 6d22 6bb7 3495 15b6
000003b0: 9cb6 2437 3fc3 3937 d4b2 3237 c692 40b4
000003c0: e81c dc36 f0d0 b4b5 0ab8 1b37 c6a6 2ab6
000003d0: fd53 c6b7 2545 1ab6 897e 23b7 953b 1fb7
000003e0: cae5 3537 d033 0836 0e6e 2d37 7362 1f36
000003f0: d497 5436 aa8d 92b7 2267 93b7 274f 66b7

layer1.bias f4 [128]
-2.2203238e-05 -1.1439513e-05 2.8544764e-06 -7.2658086e-06 -1.6568643e-05 -6.093664e-08 -1.0705115e-05 4.1168237e-06
2.3307837e-06 4.085854e-06 1.1348368e-05 -1.0169367e-05 -5.797823e-06 8.635255e-06 -5.0941185e-06 -1.7596374e-05
-2.1589964e-05 4.361609e-06 -9.966762e-06 -1.2094264e-06 -1.7389184e-05 -2.136864e-05 2.8071277e-06 -5.705083e-06
4.3187797e-06 -8.8129955e-06 -1.6631633e-05 -1.7364506e-05 -1.276828e-06 4.4880846e-07 -7.2730068e-06 -1.3673005e-05
1.4045904e-06 -7.88599e-06 -1.679288e-05 1.2297519e-05 -1.6510643e-05 -1.7289978e-05 -6.6570783e-06 1.2991107e-08
-2.017972e-05 1.0324454e-06 1.0702035e-05 -4.3582813e-06 -1.2027905e-05 -2.2371743e-05 7.3938663e-06 -1.5819238e-05
-1.43781845e-05 9.817361e-06 -1.7397355e-05 5.3072326e-06 -1.3339197e-05 2.0384753e-06 1.1971344e-05 9.521426e-06
-1.2120433e-05 7.961504e-06 -1.2348047e-05 1.2028344e-05 -1.7811126e-05 -1.61861e-05 -1.80649e-05 -9.187293e-06
-2.1644048e-06 -9.790222e-06 -2.705414e-06 -1.6885513e-05 -5.3488725e-06 9.007236e-06 -1.4248318e-05 -4.9266378e-06
6.6313487e-06 7.0369924e-06 -1.0466867e-05 -1.6210054e-06 -1.8210227e-05 2.503576e-06 4.130026e-06 9.13794e-06
-1.2015372e-05 -9.521346e-06 -1.2536016e-05 1.7429622e-05 -3.807378e-06 1.120459e-05 1.0224784e-06 5.446755e-06
-7.2404396e-06 -3.415608e-06 -4.9668993e-06 -1.6029111e-05 -2.4919398e-06 5.6621825e-06 -9.114289e-06 1.4136954e-06
-2.120708e-05 -1.3849118e-05 -1.9087354e-05 5.0274684e-06 6.0283014e-06 -8.068181e-06 1.5831373e-06 -1.7807564e-05
-2.4512825e-05 1.4860561e-06 1.7185367e-06 -8.762832e-09 -1.1101983e-05 -8.250907e-06 -2.3057702e-05 2.0447217e-06
-7.095976e-06 7.2321127e-06 -1.3991093e-05 -1.987091e-05 -1.6863112e-05 1.6229768e-06 -7.2634425e-06 5.756304e-06
7.276751e-06 -1.5768435e-05 -8.430262e-06 7.6209035e-06 -1.4206353e-05 6.872486e-06 -1.1260774e-05 -1.4076627e-05
00000000: 1741 bab7 56ec 3fb7 888f 3f36 d2cc f3b6
00000010: e4fc 8ab7 46dc 82b3 1e9a 33b7 3f23 8a36
00000020: 8f6a 1c36 3819 8936 df64 3e37 199d 2ab7
00000030: ec8a c2b6 23e0 1037 25ee aab6 ed9b 93b7
00000040: 181c b5b7 f059 9236 eb36 27b7 9353 a2b5
00000050: fdde 91b7 ce40 b3b7 1662 3c36 4a6e bfb6
00000060: 09ea 9036 87db 13b7 2984 8bb7 fea9 91b7
00000070: 7a5f abb5 c4f3 f034 a70a f4b6 1c65 65b7
00000080: 5c85 bc35 124e 04b7 6fde 8cb7 7151 4e37
00000090: 5680 8ab7 f209 91b7 de5f dfb6 7e2f 5f32
000000a0: 9e47 a9b7 8e92 8a35 e48c 3337 5a3d 92b6
000000b0: 75cb 49b7 f4aa bbb7 d418 f836 8eb3 84b7
000000c0: d539 71b7 3fb5 2437 89f0 91b7 c814 b236
000000d0: 6acb 5fb7 bdcc 0836 88d8 4837 37be 1f37
000000e0: dd58 4bb7 6692 0537 752a 4fb7 58cd 4937
000000f0: 1a69 95b7 63c7 87b7 148a 97b7 1f23 1ab7
00000100: 3140 11b6 af40 24b7 a98e 35b6 5da5 8db7
00000110: 777a b3b6 c91d 1737 0f0c 6fb7 7f4f a5b6
00000120: da82 de36 4e1f ec36 da9a 2fb7 5291 d9b5
00000130: 2ac2 98b7 1c03 2836 a794 8a36 274f 1937
00000140: a195 49b7 dfbd 1fb7 c751 52b7 d435 9237
00000150: 4282 7fb6 59fb 3b37 173c 8935 45c3 b636
00000160: e7f2 f2b6 b337 65b6 57a9 a6b6 4176 86b7
00000170: 333b 27b6 c7fd bd36 93e9 18b7 34be bd35
00000180: dce5 b1b7 8259 68b7 c81d a0b7 a0b1 a836
00000190: b746 ca36 935c 07b7 2f7c d435 7461 95b7
000001a0: e4a0 cdb7 8074 c735 79a8 e635 588b 16b2
000001b0: a742 3ab7 606d 0ab7 0a6c c1b7 0d38 0936
000001c0: f819 eeb6 60ab f236 49bb 6ab7 74b0 a6b7
000001d0: 4275 8db7 0fd5 d935 7fb8 f3b6 4626 c136
000001e0: d12a f436 7546 84b7 b36f 0db7 10b7 ff36
000001f0: d257 6eb7 359a e636 a8ec 3cb7 a72a 6cb7

layer2.weight f4 [128, 128]
8.372096e-06 -1.9227366e-06 6.6197035e-06 -4.600179e-06 -5.636038e-06 4.1623057e-06 2.7266426e-06 1.02862205e-05
-6.1816104e-06 -8.097939e-06 -1.0666057e-05 -9.713671e-06 3.8145527e-06 -7.5299595e-06 1.3630876e-05 1.1941763e-07
-8.559822e-06 -2.5673917e-06 -7.472607e-06 -4.8651646e-06 1.6938499e-06 -4.941142e-06 8.514171e-07 1.3930094e-05
-1.0243853e-07 -1.36670815e-05 -8.216389e-06 -5.046097e-06 -5.592398e-06 1.2573066e-07 -5.4045086e-06 -6.931498e-06
-2.594564e-06 1.5038528e-06 -6.3050156e-06 3.6343813e-06 3.1039945e-06 4.4794194e-07 9.577959e-06 3.1975057e-06
2.537238e-06 4.641028e-06 -4.2886245e-06 3.9422307e-06 -4.4349435e-06 -6.851485e-06 -5.798741e-06 -6.133608e-06
-7.148975e-06 1.3921461e-06 3.6782305e-06 3.0813599e-06 -2.0804105e-06 2.897631e-06 -1.5133022e-05 -1.2362359e-05
-2.8466782e-06 3.3765184e-06 -5.866665e-06 -6.898987e-06 -5.2036617e-06 -8.701493e-06 5.2994943e-07 9.5219116e-07
-6.3597113e-06 5.6468307e-06 -1.3619402e-05 -5.7063295e-07 -9.4133554e-07 -4.762163e-06 4.4255057e-06 -4.89283e-06
-3.581175e-07 1.1694094e-06 -1.5711465e-06 2.6854989e-06 8.471243e-06 -3.5927433e-06 2.4958217e-06 4.5201514e-06
1.3927719e-06 3.0077765e-06 -9.801082e-06 2.8098805e-06 -5.482646e-06 -1.0900973e-05 4.5719175e-06 -3.2380965e-06
9.231994e-06 4.955677e-06 -5.2118667e-06 1.7794544e-07 -9.779093e-06 -7.156001e-06 -9.443214e-06 6.570662e-06
9.35524e-07 3.3537394e-06 1.8766408e-06 -6.0804036e-06 -7.758723e-07 -8.647208e-06 -1.0197632e-05 -4.3558002e-06
-3.6041325e-07 7.4364393e-06 -6.38224e-06 5.263301e-06 9.990598e-07 3.1350887e-06 -4.771142e-06 -1.0385571e-05
3.5713697e-06 1.4744479e-06 8.352138e-06 -1.2282322e-06 -6.63845e-06 -1.425807e-06 -2.4920998e-06 7.5023195e-07
4.2016154e-06 -8.309649e-06 -9.115432e-06 -5.5710716e-06 -1.455943e-05 3.6600116e-07 -6.350228e-06 -9.451648e-06
2.3466648e-06 -7.788582e-06 1.6927827e-07 7.4966338e-06 -9.585521e-06 6.0401944e-06 2.4707304e-06 1.2782588e-05
9.161038e-06 7.4236805e-06 -1.3906166e-05 9.813031e-07 8.032036e-06 -1.7333239e-06 4.807581e-06 -3.710683e-06
1.9092263e-06 -9.400914e-06 5.6620166e-07 2.0713062e-06 -2.3738473e-06 -5.0600315e-06 9.531938e-06 1.9004162e-06
-1.0924633e-05 4.3576097e-07 8.647026e-07 4.5332754e-06 -1.5327907e-05 5.9954264e-06 -2.367928e-06 -3.7101904e-06
-8.549893e-06 -1.2164714e-05 1.8677878e-07 -1.170274e-05 7.240398e-08 2.810014e-06 4.5774927e-06 -8.8536046e-07
-4.633037e-06 -8.97104e-06 -4.9446026e-06 -3.4687482e-06 -2.855124e-07 -1.1523111e-05 -4.920508e-06 -7.624222e-06
6.532392e-06 -7.2747066e-06 -2.2817565e-06 -1.0115357e-05 -7.8499315e-06 -1.2928066e-05 -1.2154321e-05 -6.4819124e-06
1.3955669e-05 -3.906837e-06 -2.1666253e-08 -1.21581e-05 -1.0806798e-05 -2.0186374e-06 -5.4032685e-06 1.0242193e-05
-7.977069e-06 1.0259054e-06 -1.4925293e-05 -2.8564657e-06 -5.4164157e-06 -9.632502e-07 1.863701e-06 3.8130946e-07
-4.0595287e-06 7.815123e-07 7.4424065e-06 -6.039172e-06 8.590257e-06 9.70514e-07 -1.7065626e-06 -5.78712e-06
-3.374418e-06 1.0909488e-05 -8.585142e-06 8.964101e-07 -1.27032e-06 -4.375723e-06 2.8049765e-06 4.0425903e-06
5.6308913e-06 2.9216949e-06 9.385272e-07 -9.549566e-06 -1.1442669e-05 -1.2559812e-05 -1.3431397e-05 1.1656321e-05
-8.483786e-06 1.4319542e-05 -3.9497168e-06 -8.6599075e-06 -2.4408973e-06 5.8412297e-06 -1.4299491e-05 2.2397457e-07
1.512095e-07 4.2285665e-06 -7.4256254e-06 -4.2049587e-06 -7.749195e-06 2.8549905e-06 -2.747096e-06 -1.3387301e-05
-9.364173e-06 -1.47020155e-05 -9.327501e-06 3.3938665e-07 -7.883001e-06 -4.401709e-07 -7.182661e-07 7.170498e-06
-1.2105068e-05 -8.059946e-06 9.479041e-06 1.3589836e-06 -7.594548e-06 -1.0899857e-05 -4.5399573e-09 -2.4004498e-06
00000000: e175 0c37 5d08 01b6 d21e de36 3d5b 9ab6
00000010: 331d bdb6 efa9 8b36 5dfb 3636 fb92 2c37
00000020: a16b cfb6 62dc 07b7 5ef2 32b7 e6f7 22b7
00000030: 84fd 7f36 dca9 fcb6 2bb0 6437 4539 0034
00000040: 289c 0fb7 744b 2cb6 35bd fab6 723f a3b6
00000050: 3d58 e335 16cc a5b6 f08c 6435 4cb5 6937
00000060: 2dfc dbb3 ab4b 65b7 1fd9 09b7 a551 a9b6
00000070: 55a6 bbb6 9500 0734 6058 b5b6 1d95 e8b6
00000080: 451e 2eb6 fdd7 c935 ac8f d3b6 32e6 7336
00000090: 384e 5036 ac7c f034 05b1 2037 bb94 5636
000000a0: 6b45 2a36 21ba 9b36 01e7 8fb6 8147 8436
000000b0: e0cf 94b6 cfe5 e5b6 ce92 c2b6 4bcf cdb6
000000c0: 3ae1 efb6 c7d9 ba35 85d7 7636 5cc9 4e36
000000d0: 2e9d 0bb6 ec74 4236 d6e3 7db7 ed67 4fb7
000000e0: 8f09 3fb6 2598 6236 45da c4b6 d97d e7b6
000000f0: 1d9b aeb6 a1fc 11b7 d941 0e35 149a 7f35
00000100: 8165 d5b6 e879 bd36 e37e 64b7 992d 19b5
00000110: 16b0 7cb5 abca 9fb6 ce7e 9436 172d a4b6
00000120: 4b43 c0b4 9af4 9c35 2fe0 d2b5 8538 3436
00000130: b61f 0e37 dc1a 71b6 e47d 2736 ceab 9736
00000140: 47ef ba35 35d9 4936 546f 24b7 6191 3c36
00000150: 92f7 b7b6 53e3 36b7 7968 9936 134e 59b6
00000160: 1de3 1a37 f148 a636 98e1 aeb6 4511 3f34
00000170: e210 24b7 951d f0b6 4c6e 1eb7 8f79 dc36
00000180: b820 7b35 ce10 6136 e3e0 fb35 4506 ccb6
00000190: 8a45 50b5 7a13 11b7 7f16 2bb7 0a28 92b6
000001a0: d27e c1b4 8786 f936 0627 d6b6 699b b036
000001b0: 6f17 8635 6a64 5236 cc17 a0b6 b03d 2eb7
000001c0: aaab 6f36 a5e5 c535 2920 0c37 bdd9 a4b5
000001d0: dabf deb6 5b5e bfb5 f33d 27b6 8c63 4935
000001e0: 9afb 8c36 ac69 0bb7 7bee 18b7 24ef bab6
000001f0: 4744 74b7 d17e c434 0b14 d5b6 8592 1eb7
00000200: 657b 1d36 b4ab 02b7 dbc2 3534 988b fb36
00000210: 80d1 20b7 e0ac ca36 d3ce 2536 cc74 5637
00000220: 5cb2 1937 ee18 f936 874e 69b7 51b5 8335
00000230: 55c1 0637 8ea4 e8b5 ce50 a136 0c05 79b6
00000240: 4220 0036 9eb8 1db7 15fd 1735 c500 0b36
00000250: 634e 1fb6 57c9 a9b6 5deb 1f37 ce11 ff35
00000260: f148 37b7 88f2 e934 e91d 6835 8a1c 9836
00000270: 6e94 80b7 522c c936 b1e8 1eb6 96fc 78b6
00000280: 8371 0fb7 0c17 4cb7 5c8d 4834 e356 44b7
00000290: 827c 9b33 ac93 3c36 5d98 9936 82a9 6db5
000002a0: 7c75 9bb6 5382 16b7 d0e9 a5b6 a4c8 68b6
000002b0: 8748 99b4 6353 41b7 d81a a5b6 91d3 ffb6
000002c0: d230 db36 4119 f4b6 4720 19b6 21b5 29b7
000002d0: 33b3 03b7 9fe5 58b7 69ea 4bb7 347f d9b6
000002e0: 2423 6a37 7917 83b6 981c bab2 a4fa 4bb7
000002f0: d84e 35b7 ed77 07b6 b94d b5b6 e2d5 2b37
00000300: 40d5 05b7 d7b1 8935 a567 7ab7 b5b1 3fb6
00000310: a8be b5b6 0649 81b5 4724 fa35 c6b6 cc34
00000320: 1637 88b6 1ec9 5135 c9b9 f936 18a4 cab6
00000330: df1e 1037 9b42 8235 0b0d e5b5 fb2e c2b6
00000340: 0f74 62b6 e507 3737 e708 10b7 d5a0 7035
00000350: dd7f aab5 2dd3 92b6 213d 3c36 96a5 8736
00000360: fdf0 bc36 5612 4436 19ef 7b35 1337 20b7
00000370: e4f9 3fb7 fbb7 52b7 6957 61b7 848f 4337
00000380: 9555 0eb7 f73d 7037 cf87 84b6 054a 11b7
00000390: 4cce 23b6 c8ff c336 d9e7 6fb7 a97d 7034
000003a0: 275c 2234 1ce3 8d36 a329 f9b6 5218 8db6
000003b0: 8a02 02b7 5d98 3f36 c05a 38b6 059a 60b7
000003c0: d11a 1db7 ada8 76b7 507d 1cb7 f234 b634
000003d0: 3b41 04b7 a150 ecb4 dfce 40b5 1c9a f036
000003e0: df16 4bb7 3439 07b7 2c08 1f37 5266 b635
000003f0: acd4 feb6 88de 36b7 e3fd 9bb1 6a17 21b6

layer2.bias f4 [128]
-4.8261268e-06 -1.0508322e-05 -6.689036e-06 -9.83467e-06 -8.698745e-06 -1.8281646e-05 -8.7510725e-06 -2.4445224e-06
-1.0970765e-05 -1.31771485e-05 -8.169314e-06 -9.846281e-06 -1.1600962e-05 -8.585928e-06 -1.6267531e-05 -1.2823759e-05
-7.3845167e-06 -1.201609e-05 -9.834909e-06 -5.8004603e-06 -7.191272e-06 -5.536877e-06 -8.307411e-06 -7.3854862e-06
-5.2425885e-06 -7.6448905e-06 -6.321292e-06 -7.742426e-06 -7.0821716e-06 -1.2914572e-05 -7.5336817e-07 -9.190703e-06
-7.992881e-06 -7.875856e-06 -2.7839926e-06 -1.1642857e-05 -4.6827604e-06 -1.945574e-06 -1.5571117e-05 -3.5508667e-06
-9.173106e-06 -5.923291e-06 -2.2748589e-05 -7.551946e-06 -8.40485e-06 -1.0877789e-05 -2.8949923e-06 -8.808308e-06
-5.7580337e-07 -1.1522211e-05 -6.12486e-06 -2.9669825e-06 -1.0891988e-05 -9.326928e-06 -2.4833205e-06 -9.252593e-06
-4.6862424e-06 -4.3574714e-06 -8.985248e-06 -7.556846e-06 -8.407918e-06 -1.0150372e-05 -8.56018e-06 -9.188688e-07
-1.2862979e-05 -3.2846997e-06 -1.0052287e-05 -9.525209e-06 -1.7862956e-06 -7.579311e-06 -4.709948e-06 -5.803993e-06
-5.1159377e-06 -5.631697e-06 -9.830267e-06 -8.1094895e-06 -1.2559183e-05 -7.902479e-06 -1.2761812e-05 -8.736566e-06
-5.979644e-06 -3.556966e-06 -4.245969e-06 -1.4892413e-05 -6.5752506e-06 -1.3248217e-06 -9.570115e-06 -2.3406947e-06
-8.112908e-06 -5.1943052e-06 -5.4604307e-06 -1.792048e-05 -9.838717e-06 -1.33003e-05 -4.77389e-06 -1.0495896e-05
-1.6740041e-05 -4.657706e-06 -1.0759131e-05 -1.6560458e-05 -1.1842516e-05 -5.2049595e-06 -1.4090891e-06 -7.841639e-06
-2.6094756e-06 -9.37421e-06 -9.136069e-06 -1.37766065e-05 -6.9617777e-06 -8.292872e-06 -1.8360903e-06 -1.8743793e-05
-1.3152494e-06 -1.6894031e-05 -5.081071e-06 -5.3090534e-06 -1.465961e-05 -3.0289104e-06 -3.6069912e-06 -4.6529767e-06
-9.278707e-06 -1.0967549e-05 -2.1614315e-07 -1.0647819e-07 -1.7654365e-05 -3.5865196e-06 -9.494861e-06 -6.1604164e-06
00000000: 1df0 a1b6 e64c 30b7 6272 e0b6 96ff 24b7
00000010: d3f0 11b7 895b 99b7 92d1 12b7 930c 24b6
00000020: 140f 38b7 6c13 5db7 f00e 09b7 7431 25b7
00000030: c1a1 42b7 480c 10b7 4276 88b7 a025 57b7
00000040: 84c8 f7b6 b798 49b7 9d00 25b7 93a1 c2b6
00000050: 8e4c f1b6 69c9 b9b6 0f60 0bb7 d8d0 f7b6
00000060: 7ee9 afb6 8e42 00b7 7c1b d4b6 77e5 01b7
00000070: 64a3 edb6 aaab 58b7 113b 4ab5 c531 1ab7
00000080: 2a19 06b7 8b22 04b7 a1d4 3ab6 b155 43b7
00000090: 9b20 9db6 b590 02b6 b89e 82b7 6d4b 6eb6
000000a0: 31e6 19b7 afc0 c6b6 39d4 beb7 b966 fdb6
000000b0: 8e02 0db7 bf7f 36b7 9747 42b6 65c7 13b7
000000c0: e890 1ab5 854f 41b7 2684 cdb6 5f1c 47b6
000000d0: bbbc 36b7 da7a 1cb7 1fa7 26b6 963b 1bb7
000000e0: 843e 9db6 6536 92b6 59bf 16b7 d090 fdb6
000000f0: bc0f 0db7 844b 2ab7 b19d 0fb7 2fa8 76b5
00000100: 13ce 57b7 b66e 5cb6 3ea6 28b7 76ce 1fb7
00000110: a6c0 efb5 c951 feb6 250a 9eb6 ecbf c2b6
00000120: 92a9 abb6 e9f7 bcb6 adec 24b7 fe0d 08b7
00000130: 48b5 52b7 e494 04b7 911b 56b7 4493 12b7
00000140: c0a4 c8b6 36b4 6eb6 9978 8eb6 6dda 79b7
00000150: f9a0 dcb6 87d0 b1b5 558f 20b7 d414 1db6
00000160: ad1c 08b7 be4a aeb6 be38 b7b6 f053 96b7
00000170: f810 25b7 5b24 5fb7 672f a0b6 8817 30b7
00000180: f76c 8cb7 6449 9cb6 1e82 34b7 50eb 8ab7
00000190: 38af 46b7 43a6 aeb6 ef1f bdb5 958f 03b7
000001a0: 731e 2fb6 ed45 1db7 1e47 19b7 1322 67b7
000001b0: 3799 e9b6 9d21 0bb7 956f f6b5 fd3b 9db7
000001c0: a087 b0b5 a8b7 8db7 117e aab6 6c24 b2b6
000001d0: 8cf2 75b7 4944 4bb6 a30f 72b6 c420 9cb6
000001e0: beab 1bb7 4401 38b7 fa14 68b4 01a9 e4b3
000001f0: 7618 94b7 f0af 70b6 1e4c 1fb7 93b5 ceb6

layer3.weight f4 [128, 128]
-7.04601e-06 7.1767695e-06 7.801764e-06 -3.5598885e-06 1.0057515e-06 1.3758705e-05 -1.721962e-06 -1.1842112e-05
-3.8339854e-06 6.334327e-06 -6.621108e-06 -6.603565e-06 6.650044e-07 1.5897115e-07 1.4231763e-06 -7.675932e-06
5.484114e-06 9.0724313e-07 1.2715322e-05 -2.91024e-06 9.3505005e-06 -6.0675125e-06 -3.704618e-06 4.879031e-06
6.9860653e-06 -1.4454184e-06 1.9989914e-06 -3.245401e-06 -2.4279504e-06 1.5532452e-06 1.0430453e-05 -8.222033e-06
1.9918884e-06 -6.3876187e-06 -1.8580035e-05 9.532736e-07 -9.297498e-06 -1.8379957e-07 5.1673146e-06 7.989351e-06
4.0014347e-06 6.24131e-06 1.094936e-07 -8.49548e-06 8.102995e-06 3.3875901e-06 -2.6555977e-06 -5.660693e-06
1.7477712e-06 -3.9269707e-06 -9.892103e-06 -8.326781e-06 1.4045047e-06 5.557795e-06 3.1448187e-06 -7.6252154e-06
8.814685e-06 -1.1887013e-05 4.3893324e-06 7.6673205e-06 7.772931e-06 9.283934e-06 -1.540268e-06 -8.091592e-06
9.047736e-06 -3.900507e-06 6.964045e-06 -6.189363e-06 3.0495669e-06 -1.1619256e-06 5.6250365e-06 -6.211147e-06
-7.29763e-07 -4.0562213e-06 5.375174e-06 5.252367e-06 6.8743348e-06 -1.095246e-06 1.1459673e-05 -9.893801e-06
-8.667756e-06 3.0862705e-06 -1.1013749e-06 6.2206627e-06 2.806036e-06 -5.0018652e-06 -6.545422e-06 2.8231384e-06
1.053273e-05 8.442641e-06 9.128068e-06 1.1091697e-06 5.5861437e-06 -2.86494e-06 3.8802996e-06 5.499786e-06
-2.8322963e-06 -9.156292e-06 -9.2279715e-06 2.9366117e-06 4.4624852e-07 -7.790656e-06 -3.3031495e-06 4.241712e-06
-5.038369e-06 -5.441291e-07 -4.9969235e-06 -8.624244e-06 5.185447e-07 4.0609734e-06 -3.6921197e-08 1.0943785e-05
6.448959e-06 -1.1759426e-05 -5.0776384e-07 5.973555e-06 5.5301916e-07 3.6682175e-06 -7.502934e-06 1.7840509e-07
4.81575e-06 5.675081e-06 8.194723e-06 -3.420284e-06 7.280783e-06 -8.473756e-06 3.8091316e-06 4.2283837e-06
-5.251251e-06 -5.72779e-06 5.737833e-06 -9.204018e-06 -5.5351495e-07 -9.0461235e-06 2.3214518e-06 -1.1397873e-06
-1.1874595e-05 -5.394227e-07 -9.084736e-06 -6.4715955e-06 4.463134e-06 -6.3453635e-06 -9.31596e-06 -1.4074638e-05
-6.841885e-06 -9.60034e-06 3.6584242e-06 -9.300698e-06 -3.6605077e-06 -5.3568414e-08 -5.827549e-06 6.389592e-06
-1.1265574e-05 -5.5743594e-06 -9.1467955e-06 5.337852e-06 -1.0903277e-05 -1.5829506e-05 3.5544715e-06 6.909993e-06
-6.7061824e-06 -4.5336833e-06 3.9568675e-08 -8.545015e-06 -1.1435092e-06 -1.2217593e-05 3.0831134e-06 -4.440436e-06
-1.7615268e-06 -7.5886993e-07 3.3844442e-06 -5.2948385e-06 -1.1021251e-06 1.666553e-06 1.7097284e-06 -2.7817353e-07
-1.3497668e-05 -4.1723188e-06 2.977286e-06 -7.2085004e-06 -6.654458e-06 -6.8423788e-06 7.0777955e-06 -5.016391e-06
8.32988e-06 9.400619e-06 -9.420539e-06 6.6280853e-07 -3.0034354e-07 -1.3711287e-05 -1.5382568e-06 -3.0575443e-06
-5.842811e-06 -1.0075662e-05 -1.8261444e-06 -1.1295919e-05 -7.0544756e-06 -4.868049e-06 -8.897187e-06 -8.281881e-06
7.23325e-06 7.1299314e-07 5.6625513e-06 3.0935025e-06 -5.658783e-06 -1.0514714e-05 1.5048538e-06 -4.5701504e-06
1.4220908e-06 -1.8156428e-06 -3.1724476e-06 -7.2851117e-06 -1.0800983e-05 -3.6668466e-06 -3.5927487e-06 -3.7265647e-06
7.4796817e-06 -9.245339e-06 5.978587e-06 -1.36928065e-05 4.970708e-06 8.064259e-06 -4.6375085e-06 -1.32110945e-05
-2.5524608e-07 4.534086e-06 8.297122e-06 -7.156083e-06 -9.659552e-06 -3.274724e-06 -6.6013786e-06 -7.016336e-06
-8.950932e-06 -2.3100292e-06 -8.036665e-06 -1.4561389e-05 -4.849526e-06 7.94001e-06 1.6394658e-06 2.1110632e-06
-7.495341e-06 -9.863521e-06 -3.6606614e-06 2.6715727e-06 -4.1423203e-07 -1.933271e-06 5.9157765e-07 -4.9941247e-07
-2.2623162e-06 -9.6912e-06 -4.7221733e-06 3.2103546e-07 -1.4070363e-05 -5.703494e-06 -2.5731042e-06 -1.1710175e-05
00000000: c46c ecb6 fbcf f036 52e4 0237 6be6 6eb6
00000010: 5cfd 8635 30d5 6637 2a1e e7b5 7cad 46b7
00000020: afa5 80b6 748b d436 e22a deb6 3194 ddb6
00000030: c182 3235 a8b1 2a34 f703 bf35 e0c7 00b7
00000040: 2e04 b836 4689 7335 e453 5537 8b4d 43b6
00000050: 18e0 1c37 8997 cbb6 da9c 78b6 8fb6 a336
00000060: d869 ea36 3300 c2b5 6926 0636 91cb 59b6
00000070: dfef 22b6 1979 d035 74fe 2e37 5df1 09b7
00000080: 62ac 0536 3a55 d6b6 52dc 9bb7 77e4 7f35
00000090: 73fc 1bb7 715a 45b4 e562 ad36 000a 0637
000000a0: 1044 8636 726c d136 be22 eb33 cf87 0eb7
000000b0: 19f2 0737 5b56 6336 d236 32b6 fcf0 bdb6
000000c0: f694 ea35 6cc4 83b6 42f6 25b7 41b3 0bb7
000000d0: 6a82 bc35 187d ba36 930b 5336 1adc ffb6
000000e0: c9e2 1337 556e 47b7 1448 9336 e4a2 0037
000000f0: 7c68 0237 31c2 1b37 35bb ceb5 1fc1 07b7
00000100: bbcb 1737 1ae1 82b6 b1ac e936 39ae cfb6
00000110: 29a7 4c36 76f3 9bb5 b2be bc36 5969 d0b6
00000120: eee4 43b5 ad1a 88b6 655c b436 7d3d b036
00000130: 16aa e636 5e00 93b5 ec42 4037 8dfd 25b7
00000140: bb6b 11b7 b91d 4f36 f4d2 93b5 16bb d036
00000150: 554f 3c36 b2d5 a7b6 bfa0 dbb6 2675 3d36
00000160: bbb5 3037 dea4 0d37 c124 1937 c8de 9435
00000170: 9c70 bb36 4b43 40b6 8533 8236 cd8a b836
00000180: 7b12 3eb6 fa9d 19b7 d6d1 1ab7 9b12 4536
00000190: ee93 ef34 9db4 02b7 adab 5db6 0754 8e36
000001a0: 430f a9b6 4410 12b5 3fab a7b6 d9b0 10b7
000001b0: 1f32 0b35 7f43 8836 4993 1eb3 339b 3737
000001c0: 2364 d836 5a4a 45b7 444d 08b5 7270 c836
000001d0: 3073 1435 7f2b 7636 b6c1 fbb6 9e8f 3f34
000001e0: fa96 a136 936c be36 117c 0937 0888 65b6
000001f0: 734d f436 812a 0eb7 62a0 7f36 8ae1 8d36
00000200: e733 b0b6 5731 c0b6 9c87 c036 f56a 1ab7
00000210: 4295 14b5 cec4 17b7 3dca 1b36 cbfa 98b5
00000220: ff38 47b7 d8cc 10b5 a56a 18b7 9526 d9b6
00000230: 07c2 9536 42ea d4b6 be4b 1cb7 1c22 6cb7
00000240: 5893 e5b6 2511 21b7 4083 7536 320a 1cb7
00000250: 0ba7 75b6 1813 66b3 448a c3b6 2d66 d636
00000260: 4601 3db7 620b bbb6 3075 19b7 cd1b b336
00000270: 38ed 36b7 9bc9 84b7 5b89 6e36 63dc e736
00000280: ab05 e1b6 0b20 98b6 38f2 2933 8f5c 0fb7
00000290: ad7a 99b5 2afa 4cb7 7ce7 4e36 0eff 94b6
000002a0: 9a6d ecb5 25b5 4bb5 4f20 6336 51aa b1b6
000002b0: bbec 93b5 53ae df35 d279 e535 e157 95b4
000002c0: 0b74 62b7 f2ff 8bb6 62cd 4736 8ce0 f1b6
000002d0: 5c49 dfb6 9697 e5b6 cd7d ed36 7852 a8b6
000002e0: 90c0 0b37 5ab7 1d37 e80c 1eb7 dbeb 3135
000002f0: e73e a1b4 8709 66b7 1a76 ceb5 3630 4db6
00000300: 5d0d c4b6 a40a 29b7 d819 f5b5 9a83 3db7
00000310: 7cb5 ecb6 3958 a3b6 2145 15b7 68f2 0ab7
00000320: 25b5 f236 8464 3f35 f200 be36 f899 4f36
00000330: 93e0 bdb6 5a68 30b7 62fa c935 4b59 99b6
00000340: abde be35 03b1 f3b5 3ce6 54b6 a272 f4b6
00000350: de35 35b7 f213 76b6 f41a 71b6 e515 7ab6
00000360: faf9 fa36 6e1c 1bb7 ac9b c836 28ba 65b7
00000370: 0eca a636 bb4b 0737 e59b 9bb6 38a5 5db7
00000380: c108 89b4 8123 9836 de33 0b37 491e f0b6
00000390: 760f 22b7 54c3 5bb6 6981 ddb6 de6d ebb6
000003a0: f62b 16b7 0006 1bb6 37d5 06b7 b14c 74b7
000003b0: 1cb9 a2b6 1536 0537 9e0b dc35 caab 0d36
000003c0: 7d80 fbb6 807b 25b7 afa9 75b6 4549 3336
000003d0: 9e63 deb4 58bd 01b6 e8cc 1e35 5d0f 06b5
000003e0: 4cd2 17b6 6397 22b7 2973 9eb6 c75a ac34
000003f0: c00f 6cb7 a460 bfb6 98ad 2cb6 d276 44b7

layer3.bias f4 [128]
-6.9091657e-06 -7.673489e-07 -7.4245863e-06 -8.0725357e-07 -5.6250196e-06 -8.238824e-06 -9.8624e-06 -3.819335e-06
-5.8540077e-06 -8.130365e-06 -8.833703e-06 -9.899845e-06 -1.0083193e-05 -8.229428e-06 -1.93376e-06 -3.8777034e-06
-3.2125445e-06 -6.9924668e-06 -3.5717617e-06 -4.2903725e-06 -7.922438e-06 -9.409472e-06 -1.8873869e-05 -8.41223e-06
-2.7576966e-06 -6.304255e-06 -1.5348072e-05 -1.3805707e-05 -4.04676e-06 -4.823199e-06 -1.352324e-06 -9.690484e-06
-5.4499096e-06 -5.109025e-06 -1.6622546e-06 -1.3701045e-06 -2.6732246e-06 -2.303402e-06 -1.3746268e-05 -8.356034e-06
-8.873922e-06 -2.7182082e-06 -5.5312256e-07 -6.7046117e-06 -1.6247802e-06 -1.7455764e-06 -3.2537562e-06 -3.5825824e-06
-3.2896248e-06 -7.695057e-06 -1.8442972e-06 -7.566213e-06 -4.8484385e-06 -1.5855458e-05 -1.497827e-05 -1.5966061e-05
-4.1100957e-06 -1.5772937e-05 -9.037531e-06 -2.971561e-06 -8.271835e-06 -6.608226e-07 -6.2432555e-06 -8.372267e-06
-1.1928672e-05 -8.929803e-06 -1.1430327e-05 -1.0627592e-05 -2.8501736e-06 -3.2643127e-06 -3.0753024e-06 -2.8023271e-06
-4.884289e-06 -1.1285595e-05 -8.770785e-06 -1.1320142e-06 -8.280129e-06 -2.8233853e-06 -2.6013488e-06 -6.3996395e-06
-8.024303e-06 -8.075699e-06 -9.474057e-06 -1.05035415e-05 -1.6268053e-06 -1.27801895e-05 -1.1423537e-05 -6.1608516e-06
-1.5597021e-05 -4.3683153e-06 -1.5659814e-05 -1.0197987e-05 -6.37469e-06 -5.738207e-06 -2.4317699e-06 -9.784147e-06
-9.363606e-06 -9.344907e-06 -1.3580022e-05 -1.2813871e-05 -5.9462747e-07 -9.993807e-06 -5.276601e-06 -2.408584e-06
-6.8022814e-06 -6.371901e-06 -9.950618e-07 -2.462839e-06 -8.814996e-06 -1.9107435e-06 -2.0123814e-05 -1.5147332e-06
-2.117175e-06 -7.62914e-06 -3.167585e-06 -1.4760325e-05 -1.3469921e-05 -5.204548e-06 -3.764645e-06 -8.710368e-06
-3.154632e-07 -3.003841e-06 -1.0088699e-05 -5.793805e-06 -9.446086e-06 -8.853992e-06 -4.4599656e-06 -4.6877185e-06
00000000: 48d5 e7b6 d1fb 4db5 b620 f9b6 0bb2 58b5
00000010: 8dbe bcb6 7b39 0ab7 af76 25b7 d627 80b6
00000020: 8b6d c4b6 a767 08b7 7734 14b7 8317 26b7
00000030: fc2a 29b7 2011 0ab7 bec5 01b6 381d 82b6
00000040: 1897 57b6 d5a0 eab6 66b2 6fb6 05f6 8fb6
00000050: 9dea 04b7 60dd 1db7 5353 9eb7 4122 0db7
00000060: de10 39b6 2389 d3b6 bcbf 80b7 0f9f 67b7
00000070: 67c9 87b6 f7d6 a1b6 8081 b5b5 5094 22b7
00000080: 5ede b6b6 316e abb6 a21a dfb5 6fe4 b7b5
00000090: a665 33b6 2594 1ab6 c69f 66b7 e530 0cb7
000000a0: 34e1 14b7 766a 36b6 4b7a 14b5 2df8 e0b6
000000b0: 0613 dab5 8c49 eab5 1b5b 5ab6 4c6c 70b6
000000c0: 53c3 5cb6 051a 01b7 9289 f7b5 46e1 fdb6
000000d0: c5af a2b6 5601 85b7 2e4b 7bb7 dbee 85b7
000000e0: 74e9 89b6 2050 84b7 e69f 17b7 076b 47b6
000000f0: 43c7 0ab7 6263 31b5 287d d1b6 9d76 0cb7
00000100: 4221 48b7 36d1 15b7 e1c4 3fb7 294d 32b7
00000110: 9c45 3fb6 7710 5bb6 4b61 4eb6 9d0f 3cb6
00000120: b9e3 a3b6 4357 3db7 3c26 13b7 b6ef 97b5
00000130: e2ea 0ab7 6479 3db6 d592 2eb6 7cbc d6b6
00000140: 1ea0 06b7 dd7c 07b7 c4f2 1eb7 5e38 30b7
00000150: 9b58 dab5 7f6a 56b7 b8a7 3fb7 50b9 ceb6
00000160: 59d6 82b7 8b93 92b6 325d 83b7 0518 2bb7
00000170: 2ce6 d5b6 d38a c0b6 7d31 23b6 9726 24b7
00000180: 6218 1db7 12c8 1cb7 c0d5 63b7 28fb 56b7
00000190: 7d9e 1fb5 13ab 27b7 a80d b1b6 28a3 21b6
000001a0: 273f e4b6 36ce d5b6 108e 85b5 4047 25b6
000001b0: 1fe4 13b7 533a 00b6 90cf a8b7 d64d cbb5
000001c0: ca14 0eb6 d0fd ffb6 b292 54b6 1da3 77b7
000001d0: dffc 61b7 baa2 aeb6 1ca4 7cb6 bf22 12b7
000001e0: ef5c a9b4 9895 49b6 a242 29b7 6868 c2b6
000001f0: a17a 1eb7 9b8b 14b7 d0a6 95b6 324b 9db6

output_layer.weight f4 [9, 128]
-8.422251e-06 9.889388e-06 9.526129e-06 1.5587248e-05 6.7483666e-06 4.7941185e-06 2.122931e-06 2.0525392e-06
-9.517256e-06 7.782378e-06 3.924178e-06 1.1045606e-06 -6.361277e-06 6.926343e-06 1.1693788e-05 -2.3025655e-06
8.734994e-06 -4.9855225e-06 -2.0623124e-06 5.5958293e-07 6.310951e-06 6.66956e-06 3.94171e-06 9.91307e-06
1.1064741e-06 -7.3211486e-06 -3.46317e-06 -4.559525e-06 -3.9819374e-06 1.2578041e-05 6.598159e-06 -2.5708803e-07
-2.575861e-06 5.473382e-06 -2.4545753e-07 3.8203875e-06 2.8133256e-06 1.531306e-05 5.7469683e-06 -1.4005767e-06
-2.9814823e-06 -1.0028576e-05 -2.5677546e-06 2.1025045e-05 -7.0233395e-06 -1.2084088e-07 5.91969e-06 2.2156144e-05
-8.184528e-06 5.579938e-06 9.374714e-06 5.9869053e-06 1.3952859e-05 3.3406968e-06 4.286782e-06 1.0591622e-06
-9.249638e-06 -7.485936e-06 -6.395835e-06 6.8609493e-06 1.4983708e-05 -3.2958937e-06 4.490847e-06 2.971012e-06
8.861209e-06 -9.232352e-07 9.467188e-06 1.380343e-05 -1.1227131e-06 1.3807082e-05 2.1133335e-05 -6.1608685e-06
-2.8947359e-06 1.1884783e-05 8.34178e-06 1.4129679e-05 3.9385636e-06 -8.769907e-06 1.4831035e-05 8.067914e-06
9.172286e-06 -4.3311e-06 1.0442275e-05 -5.714812e-06 5.855281e-06 1.0971379e-05 7.572359e-06 -7.927228e-06
-5.337956e-06 1.1628327e-06 3.1280115e-06 -6.8034233e-06 4.1163544e-06 4.776321e-06 5.9969357e-06 9.959981e-06
-7.0109513e-06 9.326102e-06 5.53242e-06 -6.2411436e-06 7.695993e-06 2.4918706e-06 4.124028e-06 1.34251e-05
8.060774e-06 -3.667824e-06 1.6280434e-06 1.6981357e-06 -2.0550383e-06 -4.85105e-06 -1.8755441e-06 -2.2720535e-06
1.3365348e-05 1.0829318e-05 3.2050777e-06 1.6643318e-05 1.3950481e-06 7.827983e-06 7.6228666e-06 -2.0397329e-06
1.7176136e-06 8.284713e-06 -3.4394213e-06 -5.588419e-06 4.585684e-06 1.0231894e-06 1.1324148e-05 -7.2711423e-06
1.7142615e-05 -6.04279e-06 1.1204201e-05 -1.125691e-06 1.2395566e-05 -2.153145e-06 -4.9918917e-06 8.190932e-06
-1.0442877e-05 -7.897172e-06 4.5000534e-06 4.9664804e-06 -8.663962e-06 -4.7135364e-07 -5.5334567e-07 2.2052227e-06
-8.351749e-07 -2.3464793e-06 -3.635512e-06 -1.6543908e-06 1.6045634e-06 5.8974733e-06 1.3669072e-05 -1.10262545e-05
7.630666e-06 -6.964735e-06 -9.08926e-06 -1.7965962e-05 3.7817626e-06 3.5313321e-06 -3.16948e-08 7.2541593e-07
-1.0713162e-06 9.11653e-06 6.5111967e-06 1.0442363e-05 3.849169e-05 3.7794587e-06 -1.0706918e-06 6.3225066e-06
-6.205664e-07 1.4246011e-05 8.411677e-06 1.4055057e-05 4.4578633e-06 1.3840074e-06 -4.4197319e-07 1.1835192e-05
-9.828006e-06 7.138614e-07 1.6152135e-05 1.0091134e-06 5.831338e-06 3.2350104e-06 -5.0274243e-06 2.711322e-05
-2.2236209e-06 -4.9850673e-06 -1.7519611e-06 2.9938349e-06 6.985524e-06 -1.4268794e-06 9.6862705e-06 7.394228e-06
-2.8112406e-06 6.35281e-06 2.3294471e-05 -5.0728922e-06 1.7856886e-05 -3.2489143e-06 2.991274e-06 2.7705266e-07
7.957384e-06 1.2614407e-05 5.4513407e-07 2.711728e-06 -8.701585e-06 8.121335e-06 -4.7850317e-06 -9.237016e-06
1.5519476e-05 -4.801366e-06 1.0462203e-05 7.3063943e-06 1.2572416e-05 1.6206448e-05 -1.9296902e-05 5.7002617e-06
-7.1426716e-06 -1.7192508e-05 -9.008665e-06 -8.411398e-06 -8.245148e-06 -6.9127896e-07 -6.627559e-07 1.2384991e-06
-5.73491e-06 -8.896017e-06 8.577365e-06 2.5962216e-05 -9.6181975e-06 1.2054683e-06 -3.536078e-07 1.9278311e-06
6.9303214e-06 -9.7709435e-06 -5.4787037e-08 -5.263042e-07 4.6827e-09 7.03489e-06 8.351331e-06 -8.812906e-06
3.7525815e-06 5.2741266e-06 -1.9646695e-06 7.400878e-06 -1.4879046e-05 4.5994643e-06 -1.0073832e-06 5.0336466e-06
6.923988e-06 1.307435e-06 4.5533993e-06 7.953998e-06 6.030743e-06 3.832437e-06 -1.1901545e-06 2.265704e-06
00000000: 4b4d 0db7 99ea 2537 6ad2 1f37 5cc1 8237
00000010: 0770 e236 2add a036 ad77 0e36 5bbe 0936
00000020: 4eac 1fb7 0f91 0237 6fac 8336 6a40 9435
00000030: f472 d5b6 d568 e836 7030 4437 c685 1ab6
00000040: 838c 1237 5049 a7b6 4266 0ab6 3f36 1635
00000050: a8c2 d336 16cb df36 0843 8436 5050 2637
00000060: 2982 9435 30a8 f5b6 cf68 68b6 06fe 98b6
00000070: 959c 85b6 4606 5337 c165 dd36 e905 8ab4
00000080: f4dc 2cb6 fea7 b736 6dc7 83b4 e130 8036
00000090: 91cc 3c36 8c74 8037 15d6 c036 73fb bbb5
000000a0: 7a15 48b6 6840 28b7 b051 2cb6 f15e b037
000000b0: 07aa ebb6 7dc0 01b4 c0a1 c636 f5db b937
000000c0: 4850 09b7 4d3b bb36 1748 1d37 20e3 c836
000000d0: 1317 6a37 bc30 6036 2dd7 8f36 8928 8e35
000000e0: e52e 1bb7 b32f fbb6 ce9b d6b6 1b37 e636
000000f0: 8962 7b37 062f 5db6 15b0 9636 9961 4736
00000100: 9aaa 1437 3dd4 77b5 43d5 1e37 4895 6737
00000110: 21b0 96b5 f7a4 6737 7e47 b137 75b9 ceb6
00000120: 2f43 42b6 c164 4737 acf3 0b37 820e 6d37
00000130: 0128 8436 7722 13b7 cfd2 7837 6d5b 0737
00000140: abe2 1937 de53 91b6 3b31 2f37 dcc1 bfb6
00000150: 7b78 c436 b711 3837 1216 fe36 2fff 04b7
00000160: b11c b3b6 a112 9c35 d4ea 5136 f648 e4b6
00000170: 371f 8a36 4944 a036 4939 c936 cb19 2737
00000180: 9d3f ebb6 4e77 1c37 20a3 b936 046b d1b6
00000190: 0a1e 0137 033a 2736 2161 8a36 5e3c 6137
000001a0: c33c 0737 bd24 76b6 2583 da35 80eb e335
000001b0: 4ae9 09b6 34c6 a2b6 34bb fbb5 9579 18b6
000001c0: bc3b 6037 91af 3537 d116 5736 419d 8b37
000001d0: 7d3d bb35 ee54 0337 edc7 ff36 58e2 08b6
000001e0: c188 e635 92fe 0a37 cfd0 66b6 2784 bbb6
000001f0: bade 9936 8554 8935 d8fc 3d37 a3fa f3b6
00000200: 7ccd 8f37 2cc3 cab6 adf9 3b37 7316 97b5
00000210: 8df6 4f37 c07e 10b6 0680 a7b6 c96b 0937
00000220: d133 2fb7 187e 04b7 2aff 9636 bea5 a636
00000230: 6f5b 11b7 5a0e fdb4 a089 14b5 70fd 1336
00000240: c830 60b5 3578 1db6 9ff9 73b6 6f0c deb5
00000250: 615c d735 e9e2 c536 3854 6537 67fd 38b7
00000260: 7605 0037 9eb2 e9b6 137e 18b7 9cb5 96b7
00000270: 30ca 7d36 d3fb 6c36 cd20 08b3 34ba 4235
00000280: 25ca 8fb5 33f3 1837 c17a da36 9c31 2f37
00000290: 2372 2138 9ba2 7d36 b1b4 8fb5 eb25 d436
000002a0: 0095 26b5 2702 6f37 e11f 0d37 03ce 6b37
000002b0: c194 9536 22c2 b935 5548 edb4 c38f 4637
000002c0: f7e2 24b7 2fa0 3f35 727e 8737 df70 8735
000002d0: d0aa c336 0e19 5936 3fb1 a8b6 3271 e337
000002e0: 8439 15b6 6745 a7b6 ed24 ebb5 b1e9 4836
000002f0: 3265 ea36 3483 bfb5 3782 2237 ef1b f836
00000300: bfa8 3cb6 392a d536 7f68 c337 d037 aab6
00000310: 5fcb 9537 ec07 5ab6 b2bd 4836 d4bd 9434
00000320: b480 0537 77a2 5337 5455 1235 22fb 3536
00000330: 06fd 11b7 de40 0837 1c8f a0b6 aef8 1ab7
00000340: d22f 8237 6b1b a1b6 d286 2f37 7329 f536
00000350: 1eee 5237 15f3 8737 c8df a1b7 e044 bf36
00000360: 15ab efb6 a138 90b7 ec23 17b7 ae1e 0db7
00000370: a454 0ab7 5490 39b5 3de8 31b5 813a a635
00000380: 806e c0b6 1a40 15b7 81e7 0f37 6fc9 d937
00000390: d85d 21b7 93cb a135 7cd7 bdb4 e35f 0136
000003a0: 028b e836 e2ed 23b7 fc4e 6bb3 5947 0db5
000003b0: 77e5 a031 3f0d ec36 b21c 0c37 25db 13b7
000003c0: dcd4 7b36 67f8 b036 c4d8 03b6 0f55 f836
000003d0: 04a1 79b7 1955 9a36 6c35 87b5 b2e6 a836
000003e0: 9b54 e836 207b af35 67c9 9836 2972 0537
000003f0: b05b ca36 6298 8036 66bd 9fb5 800c 1836

output_layer.bias f4 [9]
1.5853138 1.5051508 1.6211625 1.6239177 1.5268115 1.5445137 1.5991688 1.4948012
1.4080548
00000000: 90eb ca3f c8a8 c03f 4182 cf3f 89dc cf3f
00000010: 8f6e c33f a0b2 c53f 90b1 cc3f a555 bf3f
00000020: 243b b43f
