results/train/SAC_robot_weight_5kg_force/best_model.pt (torch, 90959 bytes, 6 tensors)

linear1.weight f4 [128, 40]
000000 b5 df 7b bd 8c 5b 44 be e5 7c 88 be 7b d3 8e 3f
       -0.06149264 -0.19175547 -0.26657787 1.1158289
000010 16 97 a3 bc b9 96 62 be 03 96 e5 3e 43 a7 32 be
       -0.019969504 -0.22127809 0.44841012 -0.17446618
000020 b5 74 6d be 88 2f 29 3d 80 3d 4f 3e bf da 70 bd
       -0.23189051 0.041305095 0.20238304 -0.058802363
000030 c2 45 a3 be 0e 78 5e be 6f 94 2b ba 1a 17 91 be
       -0.31889158 -0.21725485 -0.00065452507 -0.28337938
000040 9d 94 c8 bd 12 b9 a0 3c cf b4 1d be 08 c8 0e be
       -0.09793971 0.019619498 -0.15401004 -0.13943493
000050 d3 96 f8 bd e1 2f 2f 3e c7 ff be 3c 9a f7 f9 bc
       -0.121381424 0.17108108 0.023315324 -0.030513573
000060 c2 50 2e be 3a e8 10 3e 2f 61 81 be c2 94 77 bd
       -0.17022994 0.14151087 -0.25269458 -0.0604446
000070 16 39 2e be 27 a0 02 3c 05 06 93 3d 77 ac ec bd
       -0.17013964 0.007972754 0.071788825 -0.115563326
000080 fe 92 52 3d 12 84 6c be c6 b0 5c 3d b2 a9 a5 bd
       0.051409714 -0.23097256 0.05387952 -0.080890074
000090 0e a2 42 bd fb 22 98 be 2d df 97 bd 57 d1 24 be
       -0.04751783 -0.29714188 -0.07415614 -0.16095482
0000a0 b6 8c 33 3e 6c 0e d1 bd b0 20 23 3e 28 4b ba 3d
       0.17534146 -0.10207829 0.15930438 0.09096366
0000b0 7c d9 af 3d 1f 38 2b be ea bc 1c 3d 7e b2 15 be
       0.08586404 -0.16720627 0.0382661 -0.1461887
0000c0 06 e0 fd 3d f3 8a 1c be 06 85 dc bd ea 82 05 bc
       0.12396245 -0.1528738 -0.1076756 -0.008148888
0000d0 73 a0 ad bd 25 c3 15 be 91 1d 17 3e 1b 13 19 3d
       -0.08477869 -0.14625223 0.14757372 0.037371736
0000e0 7f c2 17 be 60 14 04 be ed f9 a1 bd 9e 42 43 be
       -0.14820288 -0.12898397 -0.07908998 -0.19068381
0000f0 45 89 91 3d 16 a5 8a bd 45 c1 91 3d 48 32 48 3d
       0.0710626 -0.06769769 0.07116941 0.048876077
000100 ce 43 89 bd d3 13 49 be 50 a0 19 3e 04 04 3b 3e
       -0.06702386 -0.19636469 0.1500256 0.1826325
000110 3e 7c cc bd f9 89 ee 3d ef c2 84 bc b0 d8 19 3e
       -0.09984635 0.1164741 -0.016206233 0.15024066
000120 09 ab f2 bc 04 4b 00 be 4b 2b 47 be c1 16 0b be
       -0.029622572 -0.12528616 -0.19450109 -0.13582899
000130 18 76 44 bc 10 a3 47 3d 35 36 26 be b7 1a 9b bd
       -0.011991046 0.048739493 -0.16231616 -0.07573455
000140 95 ce c4 3d c7 4f 84 3d ed 4b c5 3c e3 1f 99 bd
       0.09609715 0.06460529 0.024084056 -0.07476785
000150 8e ea ff bb b9 ab bf 3d 83 c4 75 bc 3b c5 18 be
       -0.0078099435 0.09358925 -0.015000465 -0.14918987
000160 24 98 39 be 32 e9 47 bd 85 2f fb 3d 32 ab 99 bc
       -0.18124443 -0.048806377 0.12264923 -0.01875839
000170 3a 43 d3 3b bb 2a 43 bd fb 07 b5 3d b2 e5 33 be
       0.006447223 -0.047648173 0.08839413 -0.1756809
000180 5f fe d0 bc 07 9d 78 bd de 76 ab 3d 7f 64 0b 3e
       -0.025511919 -0.060696628 0.083722815 0.13612555
000190 fa 05 f7 3d 1c f6 07 bc b2 25 be bd d8 07 18 be
       0.12061687 -0.008298423 -0.092845336 -0.14846742
0001a0 20 49 da 3d 63 1d 1d be 31 37 bd 3d 44 45 25 bd
       0.10658479 -0.15343241 0.092390426 -0.04034926
0001b0 02 81 25 bc 09 de 17 be ca dd 2d 3e bb 47 b9 bd
       -0.010101559 -0.14830793 0.16979137 -0.090468846
0001c0 ff 23 9f bd 16 00 40 be 50 88 b6 bd 18 87 29 bd
       -0.077705376 -0.18750033 -0.08912718 -0.0413886
0001d0 43 a7 1d be e1 40 ae bd df fb f5 3d af 65 31 bc
       -0.15395837 -0.085084684 0.12010931 -0.010827466
0001e0 8d e4 f4 bc 01 5a 5d 3e ac b8 3b 3d e4 50 bb bf
       -0.029894138 0.21616365 0.045830414 -1.4634061
0001f0 27 e3 b7 3d 7c d7 36 be 80 78 3f bf cc de 13 3d
       0.08978873 -0.17855638 -0.74793243 0.036101148
000200 b7 d3 25 3e 9a 2b 85 3d cb 81 83 be 44 ff 81 3e
       0.16194044 0.06502457 -0.25684962 0.25390065
000210 d3 09 13 3e 77 b0 65 3e 2e 70 02 3c d9 ee 64 3d
       0.14359216 0.22430597 0.007961316 0.055891845
000220 4f 2f 22 bc 91 eb 64 3e ad eb 33 bc 90 ea 70 3e
       -0.009898975 0.22355486 -0.010981482 0.23526978
000230 97 e3 2a 3d 37 96 de be fd 39 8c 3d 11 74 19 3e
       0.041720953 -0.4347398 0.06846998 0.14985682
000240 ee c0 29 3e 4e a0 4d be 18 13 4a 3d 92 15 81 3d
       0.16577503 -0.20080683 0.049334615 0.06302942
000250 45 b6 88 bd 82 ae 00 bb 48 dd 81 3e 58 d0 8e 3d
       -0.0667539 -0.0019635265 0.25364137 0.06973332
000260 65 c3 8d bc 98 b2 0e 3e 9d 17 e7 be c5 b3 62 3e
       -0.017305085 0.13935316 -0.45135203 0.22138889
000270 1f dc d6 3c f7 23 85 bd 42 ec 8a bd eb a8 8b bd
       0.026228009 -0.065010004 -0.06783344 -0.06819328
000280 e7 d4 99 3d fc 15 01 bd 7c ca 05 bd 5e 39 9f bf
       0.07511311 -0.031515107 -0.032663807 -1.2439382
000290 63 3e a6 3c 84 20 2f 3d 41 b2 55 bf 98 1e 61 be
       0.02029342 0.04275562 -0.8347512 -0.21984327
0002a0 d4 b6 f0 3d 2a 27 e2 bb 58 54 af be ba aa 6f 3e
       0.11753622 -0.0069016414 -0.34244037 0.23404971
0002b0 59 33 b2 3c 5a 36 94 bd ca 4b 69 3e 48 aa d8 3c
       0.021753 -0.07236929 0.22782817 0.026448384
0002c0 28 33 90 3d cd 86 dd 3d 79 38 73 3e c2 e2 2d 3e
       0.07041007 0.10816727 0.23752011 0.16981032
0002d0 3c ed 45 bc 3e fd 05 bf 44 e1 4c 3e f7 03 16 3e
       -0.012080487 -0.5233954 0.20007807 0.1464995
0002e0 ce a5 f3 bc b1 55 2e be 9c 64 40 3e 4e 83 38 bd
       -0.029742148 -0.17024876 0.1878838 -0.045047097
0002f0 c0 3d 1b 3e 93 52 57 bd bb 98 ef bc f0 3e 60 3e
       0.15160275 -0.052568983 -0.029247632 0.21899009
000300 c7 0a 21 3d a5 45 67 3d 36 3f 87 be 9e 70 c3 3d
       0.03931692 0.056462903 -0.26415414 0.095429644
000310 62 f3 80 3e d4 e3 dd 3d 8b 94 38 bd b3 9d 5e b9
       0.25185686 0.108344704 -0.045063537 -0.00021230317
000320 5b b5 89 3d ea ea 25 be d8 1e 28 be 8e fb 70 3f
       0.06724044 -0.16202894 -0.16418016 0.9413384
000330 5d 61 67 bd d2 23 6a be 61 0e 30 3f 5c b7 4d bc
       -0.056489337 -0.22865227 0.6877194 -0.012555923
000340 b7 0b b2 3c 21 96 9b 3c 61 a1 a9 bc b9 2d 9f be
       0.021734102 0.018992485 -0.020706834 -0.3108957
000350 34 b2 cb be 4e 98 aa be 7e c6 4c be b5 d5 01 be
       -0.39784396 -0.33319324 -0.19997594 -0.12679179
000360 b8 88 ab 3a 81 84 99 be 21 4f 52 bb cb 5c 9a bd
       0.001308701 -0.29983905 -0.0032090622 -0.0753723
000370 c9 9c 2b bd c2 6f 52 3e 0b 3d 4b bd f7 63 7d be
       -0.04189757 0.20550445 -0.049618762 -0.24745165
000380 85 a3 88 be 0b b8 60 be 90 2b 33 3d 30 4d 6d be
       -0.26687256 -0.21945207 0.043742716 -0.23173976
000390 a4 5e f6 bd 86 5c 81 3c 33 49 32 bd 69 01 23 3a
       -0.1202977 0.015791189 -0.04352684 0.00062181667
0003a0 bd 31 d4 bb 50 59 09 bd 23 15 e7 3d 67 57 16 be
       -0.006475656 -0.03353244 0.112833284 -0.14681779
0003b0 d3 a8 90 bd 78 f2 86 be a2 af 62 3d a9 2f b4 3c
       -0.07063451 -0.26356864 0.055343278 0.021995382
0003c0 62 c6 c1 bd f4 8b 64 3c 9c f6 a5 3c 47 25 e7 bd
       -0.09461667 0.013949383 0.020259194 -0.11286407
0003d0 41 f5 0f 3e 56 1c 3c bd ca 56 cc bd 72 a6 ad bd
       0.140584 -0.04592546 -0.09977491 -0.084790125
0003e0 b9 78 43 bd b1 4c 41 3e a0 54 9e 3d c4 86 0b be
       -0.047722552 0.18876912 0.07730985 -0.13625628
0003f0 c6 1c fa bd c9 0a f8 3b 54 8c 84 3b 64 dd aa 3d
       -0.12212519 0.007569645 0.0040450487 0.08343008

linear1.bias f4 [128]
000000 d3 f3 ea bd e5 cf 1b bc c3 5a f6 bb 22 f2 9d 3d
       -0.11472287 -0.009510015 -0.007518144 0.07712199
000010 ec 58 5a 3d 5c de 0f be 00 00 00 00 00 00 00 00
       0.05330746 -0.14049667 0.0 0.0
000020 1e 05 9e bd 72 29 9e bc c5 8c 7e bc 00 00 00 00
       -0.0771582 -0.019306872 -0.015536492 0.0
000030 20 b5 d7 bd 5f 97 b6 bc 94 ae e6 3d 34 eb c4 bd
       -0.10532594 -0.022288976 0.11263767 -0.09615174
000040 a5 3a 54 3c a1 45 42 3c 57 cd b7 bd 8b 3f db bd
       0.012953435 0.011857421 -0.08974712 -0.10705479
000050 4b 9d fd bd 40 f7 78 3d 9b 3d 62 bc 00 00 00 00
       -0.12383517 0.06078267 -0.013808633 0.0
000060 14 fd ca bc 65 66 94 bc 0b 77 1b 3c 00 00 00 00
       -0.02477888 -0.018115232 0.009488831 0.0
000070 00 00 00 00 77 2e 49 bc 3a 4d 76 3d 1e a2 2c 3d
       0.0 -0.0122791445 0.060132243 0.042146794
000080 95 7b bc bc c4 ee a2 bc ad 2f c8 bb 35 bf 88 bc
       -0.023008147 -0.019889243 -0.006109199 -0.016692737
000090 a5 b5 dd bd 1a 80 ea bc c5 ae 97 3d c9 26 ea 3c
       -0.108256616 -0.028625537 0.074063815 0.028582947
0000a0 c6 a9 d3 3d 89 60 d9 bd 3b b5 51 bc 40 ea 1d bd
       0.10335116 -0.10614116 -0.012799556 -0.038553476
0000b0 19 f4 aa bd 89 b2 d9 bd 2d c3 47 bc 2e d8 1c bc
       -0.08347339 -0.10629756 -0.01219253 -0.009573026
0000c0 00 00 00 00 b9 ba aa bd 00 d9 ec bc 00 00 00 00
       0.0 -0.08336396 -0.028912067 0.0
0000d0 00 00 00 00 8a 57 a2 bd 8d 9a b2 bd 29 d4 9e bd
       0.0 -0.07926853 -0.087208845 -0.0775531
0000e0 99 7c 2c bc 7b 1e 89 bd 5c bc b4 3d 15 53 95 bc
       -0.010527753 -0.06695267 0.08824989 -0.018228093
0000f0 91 f5 48 bd cd 86 30 bc a8 a8 b0 bc 09 1e 02 be
       -0.049062315 -0.0107743265 -0.021564797 -0.1270677
000100 64 cb 53 bd 00 00 00 00 93 c0 e4 3d 00 00 00 00
       -0.05170764 0.0 0.11169543 0.0
000110 93 03 bc 3d 00 00 00 00 aa be 78 bd 5e 88 aa bd
       0.09180369 0.0 -0.060728706 -0.08326791
000120 54 aa 2d bc fa 90 5e bc 87 e5 97 3d 62 f5 b3 bd
       -0.010599691 -0.01358437 0.07416826 -0.087870374
000130 3f 63 a9 bc 90 d0 04 be 56 90 8b bd 00 00 00 00
       -0.020677207 -0.12970185 -0.06814639 0.0
000140 00 00 00 00 6d 5c 3e 3d e1 f8 d0 bd 00 00 00 00
       0.0 0.046474863 -0.1020372 0.0
000150 00 00 00 00 8e bc 44 bc 00 00 00 00 50 b7 76 3d
       0.0 -0.012007846 0.0 0.060233414
000160 1e 81 43 bc 20 ad bb bd 00 00 00 00 b6 af a1 bd
       -0.011932639 -0.0916388 0.0 -0.07894842
000170 5f 07 d5 bd 00 00 00 00 00 00 00 00 38 a3 a4 bc
       -0.104017965 0.0 0.0 -0.02009736
000180 41 6a c4 3d 27 c2 90 bd 02 5f 2d bb f8 cd 4e bd
       0.09590579 -0.070682816 -0.0026454334 -0.050489396
000190 83 94 18 bc c2 01 dc bd 13 11 c6 bc d2 1e 64 bc
       -0.009312752 -0.10742523 -0.024178063 -0.013923364
0001a0 34 7e 14 bd 2b 81 83 3d a9 13 cf 3d 9b c7 9a bb
       -0.03625317 0.06421121 0.10111172 -0.004723502
0001b0 00 00 00 00 16 77 7b 3c 85 da 0a bc 48 6a 29 bc
       0.0 0.0153482165 -0.008474951 -0.010340281
0001c0 e2 d2 de bd 00 00 00 00 47 49 ad bc c9 ca 20 bc
       -0.108800665 0.0 -0.021153105 -0.009813973
0001d0 00 00 00 00 ff e7 94 3d 7b ba a6 bc 00 00 00 00
       0.0 0.07270812 -0.020352593 0.0
0001e0 32 7a 57 3d 82 e2 89 bc 00 00 00 00 09 f7 4e bc
       0.05260677 -0.01683164 0.0 -0.01263214
0001f0 42 2d 86 bb 6e 88 51 3d 2d 3b 9c bc eb db 4a bc
       -0.0040947506 0.0511555 -0.019071186 -0.012381534

linear2.weight f4 [128, 128]
000000 80 38 ad bd c9 fd 10 be 46 f8 b1 3c 17 83 09 3f
       -0.08458042 -0.14159311 0.021724831 0.5371565
000010 6c 2f 96 3e 5f cd 28 bb 0c 97 b0 3d 30 d7 e6 bd
       0.29333055 -0.0025757176 0.0862256 -0.112715125
000020 f3 a0 7a be d4 92 08 bd 3c 80 91 bd b2 f0 9a bd
       -0.2447546 -0.03334315 -0.07104537 -0.0756544
000030 3f e4 ca bd d2 ab 06 bd e3 9e c4 3e 8d 29 1b be
       -0.09906816 -0.032878704 0.3840247 -0.15152569
000040 d1 af d5 3d e2 a0 7f 3e 2c af 08 be 16 70 f0 3d
       0.10433925 0.24963716 -0.13348073 0.11740129
000050 b6 93 ce be 85 b7 fb 3e 14 18 f9 bd a3 b6 a3 bd
       -0.4034707 0.49163452 -0.12162796 -0.079938196
000060 37 46 c0 bc 97 7f 8b 3d 4c 5f 5e 3b 3b 31 02 bd
       -0.023470981 0.06811445 0.0033931313 -0.03178523
000070 8c 59 ea 3d 06 48 f9 bd 0e cc 00 3f 5c 8f 0e 3f
       0.11442861 -0.121719405 0.5031136 0.556875
000080 f3 ae b8 bd f4 eb 08 be 36 63 45 3d d0 b5 20 be
       -0.09017744 -0.13371259 0.048190318 -0.15694356
000090 9e 43 fd bd 5d 97 c2 3d 94 6b 23 3e 95 da 55 3e
       -0.123664126 0.095015265 0.15959007 0.20884164
0000a0 2f f2 4f 3e ff 2b 4a be 36 f3 0e 3e 5f 57 a2 bd
       0.2030723 -0.19743346 0.13959965 -0.07926821
0000b0 1c da a5 be bd 64 31 be 48 ff ca bb ec e7 48 bd
       -0.32392967 -0.17323585 -0.0061949827 -0.049049303
0000c0 1e 54 0c 3e 1c 57 50 bd 56 44 01 bd ca 40 c7 bc
       0.13703963 -0.050864324 -0.03155931 -0.024322886
0000d0 33 a3 f6 3d 33 a0 14 be a4 01 b9 be d4 09 f3 bd
       0.120428465 -0.14514236 -0.36134064 -0.11867109
0000e0 40 e8 9d bc e1 cd 5d be de fe a0 3e d3 e4 6b bd
       -0.019275784 -0.21660568 0.31444448 -0.05759127
0000f0 25 78 c1 bd 16 57 99 bd 85 cc 72 3b 82 d1 dd 3c
       -0.09446744 -0.074873134 0.0037048173 0.02707744
000100 96 95 b3 3c ef 08 88 bd ac 05 93 3e dc f2 18 3e
       0.021921914 -0.06642329 0.28715265 0.14936393
000110 d4 b4 df 3e 8e 51 21 3d 3e 5d 9a 3d c3 f0 c3 be
       0.43692648 0.039384417 0.07537316 -0.38269624
000120 10 ef 9d bd 4d cf 12 be 19 68 1d 3f f3 33 ae be
       -0.07711613 -0.14336891 0.61486965 -0.3402401
000130 2b 7e 2e 3e 92 6d 13 be 71 6c d3 be 39 05 a9 bd
       0.17040317 -0.14397267 -0.41293672 -0.08252949
000140 9a 85 1b 3e bb ab a9 3e f2 ef ae be f4 48 d2 bd
       0.15187684 0.33138832 -0.3416744 -0.10267821
000150 35 94 96 bd 55 90 fc 3c cf 64 51 bd eb 03 9f 3e
       -0.07352487 0.030830542 -0.05112153 0.31057677
000160 86 11 0c 3e cf 2c 7e 3d 4c 89 80 bd 80 8b de be
       0.1367856 0.06205445 -0.06276187 -0.43465805
000170 c0 2d ab be 2f 8d c7 3c 86 a3 4a 3c d6 9a a6 3d
       -0.33433342 0.024359314 0.012368089 0.08135001
000180 13 f3 c9 3e 8e dc 06 bd 84 03 46 bd 9a b0 a0 be
       0.39443263 -0.03292518 -0.048343197 -0.31384736
000190 76 4b 1e be 05 8a 87 bc a9 f8 41 3e ec 4d 06 bb
       -0.15458474 -0.016545305 0.18942513 -0.0020493222
0001a0 e7 ed bf bc 60 aa b3 3e c6 e7 c5 3e 31 c5 da 3d
       -0.02342887 0.35090923 0.38653392 0.106821425
0001b0 a3 f0 cd 3d c6 59 b2 3d 55 12 0f be e0 a3 1a 3e
       0.100556634 0.08708529 -0.13971837 0.15101576
0001c0 bf a4 a1 be b4 96 df 3d 0d e5 79 bd ef e5 03 3e
       -0.31571004 0.10917416 -0.061009455 0.12880681
0001d0 f5 39 00 be f8 f6 3b bd 81 10 eb bc 8c cd f0 3d
       -0.12522109 -0.045889825 -0.028694393 0.11757955
0001e0 f8 a6 d6 3e 21 83 06 be d9 b1 5a 3d b5 e1 cd be
       0.41924262 -0.13135959 0.053392265 -0.40211263
0001f0 95 b8 33 bd 1b 50 84 3e 19 8e 4c 3d 86 d9 02 3e
       -0.043877203 0.25842366 0.049940202 0.12778291
000200 ca 07 40 bd 94 ba 11 3e 7e e3 cf bd ba 29 39 be
       -0.04688243 0.1423133 -0.101508126 -0.18082324
000210 c9 0d 8c 3d dd 57 bd 3d f9 98 86 3c 66 0d 63 bc
       0.06838567 0.09245274 0.016430365 -0.013858175
000220 9b 1d 3d bc a7 7f f2 bd 67 5c df bc e7 8c 2b bc
       -0.011542703 -0.11840754 -0.02726574 -0.010470605
000230 b9 57 c6 bd 17 6e 54 3c d7 c7 b9 be da 03 18 be
       -0.096847005 0.012965701 -0.36285278 -0.14845219
000240 12 d0 e2 bc 59 ce 85 3d 33 ea 66 3b ea f4 e8 bd
       -0.027687106 0.06533498 0.0035234808 -0.11374839
000250 8d 79 75 bd 30 98 75 be 29 e0 82 3c c1 92 36 3d
       -0.059930373 -0.23983836 0.015976029 0.04457355
000260 99 57 16 3e 7e 61 5f 3d 54 9d 4e 3d 18 ff cb bd
       0.14681853 0.054536335 0.05044301 -0.09960765
000270 a3 e7 eb 3d a4 c3 8f 3c 97 9a 28 be c8 69 b4 3c
       0.115187906 0.017549343 -0.16465221 0.022023097
000280 d8 5c 85 3d 61 09 cc 3c 6a 5a cd bd 41 51 9f bd
       0.06511849 0.024906816 -0.10027011 -0.0777917
000290 84 f5 8e 3d 7b bd 1a 3d 2d d8 c8 bd 9a 17 3e bc
       0.06980422 0.03777836 -0.09806857 -0.011602307
0002a0 5a 40 bb bc 2b ee 9e 3d 03 a6 16 3d 7b 77 0c be
       -0.022857834 0.07760271 0.036779415 -0.13717453
0002b0 5d 60 65 be 6f 5e 10 bd e9 de 28 bd 16 6d da bd
       -0.22400041 -0.03524631 -0.04122821 -0.10665338
0002c0 7d 09 d5 bd b6 0c 52 3d 9c 32 f3 bd 78 62 0c 3e
       -0.104022 0.051281653 -0.11874887 0.13709438
0002d0 57 61 96 3d a2 c6 da bc ff 16 5f 3d db a2 88 bd
       0.07342785 -0.026706044 0.05446529 -0.06671687
0002e0 15 0a be 3d 2e 14 59 bb 34 ea 86 bd fd 48 e5 bd
       0.09279267 -0.00331236 -0.065876395 -0.11195562
0002f0 17 1f 84 3d d4 85 97 3d cc 21 b2 3d b4 62 8b bb
       0.064512424 0.073985726 0.086978525 -0.0042537097
000300 52 c9 12 bc b7 63 0b 3e 5c 80 c5 3d 21 86 c6 bd
       -0.008959131 0.13612257 0.09643623 -0.09693552
000310 3c 81 c2 bd 34 f3 d3 3d dc c2 09 be f7 62 92 bd
       -0.09497306 0.10349122 -0.13453239 -0.07147782
000320 82 04 82 3c 9e 3a 9a bd f5 e1 80 bd a6 92 9c 3d
       0.01587129 -0.075307116 -0.06293098 0.076451585
000330 b3 64 7a 3c 73 05 3e 38 4b f3 23 3d 56 81 19 bd
       0.015282798 4.5304605e-05 0.040026944 -0.03747686
000340 99 d4 3f bc ee b2 95 be 74 0c ed 3d 06 40 ab bd
       -0.011708402 -0.29238075 0.11574641 -0.08361821
000350 a7 09 8d bd 87 0c 7b 3d 67 e0 bc 3d 96 f9 77 be
       -0.06886607 0.061291244 0.09222489 -0.24216303
000360 22 c2 17 be d7 25 ff bd 6c bc 18 bd e5 d5 94 bd
       -0.1482015 -0.12458389 -0.037289068 -0.0726736
000370 a1 de dc 3d 2a 2c 25 3d 10 f8 9f bd ea 8b ce ba
       0.107846506 0.04032532 -0.07810986 -0.001575825
000380 a8 f6 47 bd 25 76 85 bd 4a ef c8 bc 28 c2 2e 3e
       -0.048819214 -0.06516675 -0.024528164 0.17066252
000390 12 db 85 bd 70 c9 a9 3d 23 16 9c bb 11 a1 3d 3d
       -0.06535925 0.08290374 -0.004763381 0.046296183
0003a0 49 08 ed bd 7b 15 09 be 38 dd 63 be bd 2f ae ba
       -0.11573846 -0.133871 -0.22252357 -0.0013289374
0003b0 16 f3 0a be 64 6b c4 bd ff 38 8d bd 60 6f 2e 3e
       -0.13569292 -0.09590796 -0.06895637 0.17034674
0003c0 ac f9 1c be c3 be 6b bc 71 be a6 3d 51 05 cf 3c
       -0.15329617 -0.014388743 0.081417926 0.02527109
0003d0 4c d1 be bc 20 bc 50 bd 71 de e9 3d 8b 43 13 be
       -0.02329316 -0.05096066 0.114193805 -0.14381234
0003e0 69 37 79 be f0 71 b4 bd b6 d3 b2 3d 57 67 57 bc
       -0.24337544 -0.08810794 0.08731787 -0.013147197
0003f0 8b 70 d9 3d 3c b8 13 3e 66 4e 86 bd c4 ba 89 3d
       0.10617169 0.14425749 -0.06557922 0.06725076

linear2.bias f4 [128]
000000 cb 81 05 3e f7 ee 8f bd 0b 41 23 3e c4 b3 8f bd
       0.13037793 -0.07028001 0.1594278 -0.070167094
000010 c7 c5 21 be 35 dc 33 3d a1 52 a6 bd a9 e2 70 bd
       -0.15798102 0.043911178 -0.08121229 -0.05880991
000020 59 ad ed 3d 12 48 10 bc 55 a7 7d bd e7 df dd bc
       0.11605329 -0.008806245 -0.06192716 -0.027084304
000030 b6 ee 19 bd 03 56 12 bd d1 95 ab bc b8 b4 b9 bc
       -0.037581168 -0.03572656 -0.020945461 -0.022669181
000040 6d 36 e7 bc fc 99 70 be 63 2d 02 bc 84 63 66 bc
       -0.028224194 -0.2349624 -0.007945391 -0.014061812
000050 d4 ed 25 3e 8b c6 0d bd 72 1a c1 bd 83 5d 33 3e
       0.16204005 -0.034613173 -0.09428872 0.1751614
000060 97 c5 a1 3d 3d cb 8c bd 13 b4 32 bd 00 00 00 00
       0.078990154 -0.06874702 -0.043628763 0.0
000070 38 75 72 bd 64 ce 04 bd 14 72 c5 3d b0 30 cd bb
       -0.05919382 -0.032423392 0.09640899 -0.0062619075
000080 fa ba ee bc cf 28 1a 3e dc a2 b3 3c 3a 55 21 bd
       -0.029141892 0.1505463 0.021928243 -0.03938792
000090 1b aa 01 bc 57 53 c5 3c 2f 49 6d 3c c5 e9 25 3e
       -0.007914091 0.024087591 0.01448278 0.16202457
0000a0 17 71 bb bd ff c1 b2 bd 4b e7 86 bd f9 c9 20 bd
       -0.091524296 -0.08728408 -0.065870844 -0.039255116
0000b0 85 1b 6e bd 5a 20 13 be 1f 0a a6 3d f8 0e ed 3c
       -0.058131713 -0.1436781 0.08107399 0.028937802
0000c0 3e 2a f7 bc 3e 7c 2c bd 87 ae 6f bd d3 bd b6 bc
       -0.03017151 -0.042110674 -0.05851605 -0.022307312
0000d0 ba b7 ca bc a3 7e d6 bb bc d8 12 3c fe 5e 55 bd
       -0.02474581 -0.006545858 0.008962806 -0.052092545
0000e0 dd e3 18 bd 41 67 63 3c bf cf 55 3d 61 89 1d 3e
       -0.037326682 0.013879598 0.052200075 0.15384437
0000f0 56 2b 90 bd 81 22 9a bd 38 35 ce 3c 40 64 1e 3e
       -0.07039516 -0.07526112 0.025171861 0.1546793
000100 a9 24 4f bd d1 4e cf 3d 15 5c 69 be 68 8c 06 3e
       -0.05057207 0.10122455 -0.22789033 0.13139498
000110 19 92 4b 3d fd 44 29 3d 09 e8 45 bd ad b9 60 bc
       0.049699876 0.041325558 -0.04831699 -0.013716144
000120 f2 ee 12 3e cf de 78 3d ab 1e fd bc b1 79 20 bd
       0.14348963 0.06075936 -0.030898413 -0.039178554
000130 06 2b 76 bb a8 2e 78 bd a6 4e 98 3c 7c 53 39 3c
       -0.0037562265 -0.06059137 0.01859219 0.011311408
000140 fe e4 f9 bc 84 2c d1 3a 55 54 ac bc 85 f1 39 bd
       -0.0305047 0.0015958701 -0.021036306 -0.045396347
000150 0e f5 1f be 41 76 0f 3e 28 36 1f be b7 c4 4e bd
       -0.15620825 0.14009954 -0.15548003 -0.05048057
000160 58 1d 04 3d 98 1b b9 3d c3 6e 08 3e 81 46 85 be
       0.032254547 0.09038466 0.13323502 -0.26030353
000170 c9 c1 e2 bc d6 c5 9e be 97 79 d3 3d 77 f6 44 bd
       -0.027680295 -0.31010312 0.10325926 -0.04808661
000180 ff 89 99 bb 1a d0 13 3d b5 8c 51 be 8f f8 30 3e
       -0.00468564 0.036087133 -0.20463832 0.17282318
000190 80 4c e1 3d 5d 33 b2 bd 77 90 8e be f0 9f a0 be
       0.11000919 -0.08701203 -0.27844593 -0.31372023
0001a0 14 74 39 bc 43 d9 0a 3e df 33 2b 3d 5a 69 f2 bb
       -0.011319179 0.13559441 0.041797515 -0.007397813
0001b0 a9 b5 35 3b 64 8c f0 3d 1c 51 03 3e 39 40 f4 3d
       0.0027726686 0.117455274 0.1282391 0.11926312
0001c0 d9 99 cd 3d 00 00 00 00 c9 fb 82 3d 3c f4 1d bd
       0.1003911 0.0 0.063956805 -0.038563
0001d0 a4 8a 6e be a9 a9 14 3e c8 47 80 bd c8 30 40 3d
       -0.23295075 0.14517845 -0.06263691 0.04692152
0001e0 73 cb 9b bd 5f e0 2a bd 61 51 31 bd 6e 52 7e 3d
       -0.07607164 -0.041717883 -0.0432905 0.06209033
0001f0 c1 4d 1a bd d2 a5 39 3e e8 19 dc bc c5 36 45 3d
       -0.03767181 0.18129662 -0.026867822 0.048147935

mean_linear.weight f4 [1, 128]
000000 1c d6 8b be 07 15 45 3d e8 e7 b4 be 6e 9b aa 3c
       -0.2731179 0.048115756 -0.3533318 0.020826068
000010 22 6f b4 3e 0f 37 9a 3e 68 07 11 3b 14 4b d5 bd
       0.35241038 0.3012013 0.0022129659 -0.10414711
000020 91 20 33 be d7 60 36 3e 62 d8 48 bd 49 af 01 3e
       -0.17492892 0.17810379 -0.049034484 0.12664522
000030 8f 54 73 3c 4f 9c b0 3d f5 04 10 be 12 51 e7 bb
       0.014851703 0.086235635 -0.14064391 -0.007059225
000040 4e 83 58 bd 95 50 ca 3d 94 1d 90 3d 46 dd b0 3d
       -0.052859597 0.09878651 0.070368916 0.086359546
000050 aa b2 ab be 4f 14 55 bc 06 50 9e be c9 c5 5b be
       -0.33534747 -0.01300533 -0.30920428 -0.21462168
000060 de 2b 97 3e db 1b 1d be 94 3b c9 bb 38 30 02 3e
       0.29525656 -0.15342657 -0.0061411355 0.12713706
000070 97 bb dd bb cf e6 09 bb c6 f6 0c 3f a8 70 d7 bd
       -0.006766747 -0.0021042114 0.55064046 -0.10519534
000080 5b be 99 bd 03 da ba be 09 c6 97 3e 89 db 17 bc
       -0.075070105 -0.36494455 0.29643276 -0.00926865
000090 8f 62 d6 bc 44 0d 78 3e 38 68 f1 3e 1d e2 4a be
       -0.026170043 0.2422381 0.47149825 -0.19812818
0000a0 53 e9 d4 3e 22 9a 90 bd 70 57 b2 bb 9a 21 e4 3d
       0.41584262 -0.070606485 -0.0054425523 0.111392215
0000b0 27 6a 0c bd 86 aa 62 be 33 12 c5 3e b6 9b bf 3e
       -0.034280922 -0.22135362 0.38490447 0.37423486
0000c0 c1 c4 c0 bb e9 15 a9 3d 35 17 3c bd 52 3d 49 bd
       -0.00588283 0.08256132 -0.04592057 -0.049130745
0000d0 d4 63 f2 bd 17 a7 9d 3e 12 25 04 3e c5 3d 20 3a
       -0.11835447 0.30791542 0.12904766 0.000611272
0000e0 8a f3 2c 3e c3 4b 7f 3e 82 4f 84 3e 3f 2d 9f be
       0.16889778 0.24931245 0.2584191 -0.31089208
0000f0 df 5e 19 be 7a 8b 38 3d ae 38 bf bd 6c c1 c4 be
       -0.14977597 0.04505489 -0.09336983 -0.3842882
000100 72 16 cc be cf 3f 8a be e4 f6 cc 3d 42 41 b6 be
       -0.39860874 -0.27001807 0.10008028 -0.35596663
000110 d1 8d e3 3e 8d 85 90 3e 41 e9 d2 3e 2e 81 d3 3d
       0.44444135 0.2822689 0.41193584 0.103273734
000120 37 e2 b2 be c1 77 ec bd 45 10 1d 3e 1a 1f 5d bc
       -0.34938213 -0.11546279 0.15338238 -0.013496185
000130 a1 60 09 3e 43 a1 b8 bd 4a 65 60 3e 65 17 57 3e
       0.13415767 -0.09015133 0.21913639 0.21005018
000140 49 42 a3 3a b0 99 29 3e b0 52 09 bd b1 79 c6 3e
       0.0012455668 0.16562533 -0.033526123 0.38764718
000150 13 55 87 be 8e 8d c7 be c4 2c a7 bc 1c 28 5f 3c
       -0.26432094 -0.38975185 -0.020407088 0.013620403
000160 27 f1 bd 3e 10 e2 cc 3d a6 df a4 be 25 94 42 3c
       0.37098047 0.100040555 -0.3220188 0.011876141
000170 dd 95 e4 ba 37 17 19 3e 23 92 7d 3e e0 69 1b 3e
       -0.0017439682 0.14950262 0.24762778 0.15177107
000180 e1 da f2 3e ee a2 cc 3e ed 90 79 3e c5 0e b9 be
       0.47432616 0.39968055 0.24371691 -0.3614408
000190 8b 97 0d be 44 dc 05 3b 07 c2 ac 3e 5d 36 9d 3c
       -0.1382734 0.0020425478 0.3374178 0.019190961
0001a0 f3 91 50 3e b4 bb 13 be 44 50 f3 3e 85 62 e2 bd
       0.20368175 -0.14427072 0.47522175 -0.11053947
0001b0 cd ea aa 3c d1 38 5d be c3 a6 15 be 06 97 9b be
       0.020863915 -0.21603705 -0.14614396 -0.3038866
0001c0 db 44 06 be 58 a2 4e be 35 67 08 3e ba a8 e8 3d
       -0.13112204 -0.20179117 0.1332062 0.11360307
0001d0 47 1b 06 3e 19 6c bb be 6e fa 80 bd d3 b8 a8 3e
       0.13096343 -0.3660591 -0.06297766 0.3295351
0001e0 81 cc b1 ba 83 e4 9d bd 7f c0 47 bd b4 a8 c4 bd
       -0.0013564975 -0.07709601 -0.048767563 -0.0960249
0001f0 15 ae 2e 3e 1f 4d 0c be 9d e3 75 be 7f 78 c8 3e
       0.17058595 -0.13701294 -0.24012609 0.3915443

log_std_linear.weight f4 [1, 128]
000000 99 76 cf 3d ac d4 62 bd 8c d3 f9 3d b5 b4 da bd
       0.101300426 -0.0553786 0.121985525 -0.106789984
000010 84 3a da bd 05 c0 ef 3e a0 0b 43 bc b7 1a cb bd
       -0.10655692 0.46826187 -0.011904627 -0.09917205
000020 80 9a d5 3d 24 99 50 be 82 0b eb bd da a3 50 be
       0.10429859 -0.20370919 -0.11476804 -0.20375004
000030 da fd c8 3c b6 42 fa 3c 66 7f 03 3d 32 57 07 be
       0.024535108 0.030549388 0.03210392 -0.13216856
000040 63 93 99 3d 5c 80 12 3d ee 5d b2 bd 95 6d 52 be
       0.07498815 0.035766944 -0.08709322 -0.20549615
000050 b5 48 c5 3e bc 39 f5 bd 6d 1e 87 3e 1d 76 2d 3e
       0.38532034 -0.119739026 0.263904 0.16939588
000060 2d e8 2d 3e 01 89 88 3d 56 d0 f6 bd ae 15 29 be
       0.169831 0.066667564 -0.12051456 -0.16512176
000070 1d 49 33 be a1 1a 6f 3b 43 2a c0 3e 8a bf 0a bd
       -0.17508359 0.0036484378 0.37532243 -0.033874072
000080 28 ff e9 3b 25 80 cf 3d 91 4b ba 3e b0 23 07 be
       0.0071410127 0.101318635 0.36385778 -0.13197207
000090 e9 e7 86 3e 70 38 40 3e 41 85 25 3e f3 47 b3 3e
       0.26348808 0.18771529 0.16164114 0.3501583
0000a0 50 7b 9c 3e 5f b4 09 be bb be dc bd 5f fa b3 bd
       0.3056283 -0.13447712 -0.107785664 -0.08787989
0000b0 80 86 8d bd be 76 1a 3e 52 82 9f 3e d4 13 5d 3e
       -0.069104195 0.15084359 0.31154114 0.21589595
0000c0 39 cf 45 be a1 03 24 3e 49 b4 4d be cd 0f 59 3e
       -0.1931733 0.1601701 -0.20088305 0.21197434
0000d0 76 a7 3e 3e 69 29 99 3e 61 95 18 3e ab 4f 21 bd
       0.18618569 0.29914406 0.14900734 -0.039382618
0000e0 3a 35 3f be 68 cd c0 3e e4 76 95 3e f7 8e a5 3e
       -0.18672648 0.37656713 0.2919227 0.32335636
0000f0 2f 0f 1e 3e 7a 10 0a 3e 56 b9 36 3e 5a 4d a4 3e
       0.1543548 0.13482848 0.17844138 0.32090265
000100 1c 90 72 3e 01 7a 5c 3e 4c 6c 48 bd db c6 c3 3d
       0.23687786 0.21530916 -0.048931405 0.09559413
000110 74 32 56 3e f0 b9 dc 3e 99 16 22 3e 59 0d 9b 3d
       0.20917684 0.4311061 0.15828933 0.07570905
000120 dc 8b a9 3e 0c 24 5f bd 1a 1f fb bd d4 71 f1 3d
       0.33114517 -0.054477736 -0.122617915 0.11789289
000130 8a 82 44 be 02 f3 1e be 4a 54 5b 3e c9 a0 61 3e
       -0.19190422 -0.15522388 0.21418872 0.22033991
000140 60 e1 1f be d1 2b 97 3e f6 44 c2 3d 43 19 09 3e
       -0.15613317 0.29525617 0.094858095 0.13388543
000150 d4 5e 5d bd 21 3b ee 3c 4e 5d b2 3e e0 bc 24 3e
       -0.054045513 0.02908093 0.3483681 0.16087675
000160 70 f1 54 3e e3 ad 87 3e ef 39 fd 3d 06 5e 48 3e
       0.20795226 0.26499853 0.123645656 0.19567117
000170 82 b3 8a 3e 13 2b e4 3d 6d b1 78 3c 0a 97 b5 3d
       0.2709008 0.11141028 0.01517902 0.08866699
000180 f1 52 8c 3e 45 6b 3c 3c 54 19 ef 3c 14 e2 b6 3e
       0.2740703 0.011500184 0.029186882 0.3571936
000190 ed 4e fe 3d d6 73 a3 bd 0b 21 82 3b b4 84 90 3e
       0.12417398 -0.07981078 0.003971224 0.28226244
0001a0 0a 56 56 3e 62 f2 db 3e f0 41 77 bd e2 0c f5 3d
       0.20931259 0.4295836 -0.060365617 0.11965348
0001b0 af 83 95 3d b2 12 5e 3e 9c 3f c6 3e a1 69 e1 3d
       0.07300507 0.21686819 0.38720405 0.11006475
0001c0 0c d3 a3 3e af 74 42 3e c4 a1 90 3e 71 ab 39 bc
       0.31996953 0.18989824 0.28248417 -0.011332379
0001d0 f9 16 01 3e 37 30 34 3e 23 df a5 bd f3 d8 96 3e
       0.1260642 0.17596518 -0.080992006 0.29462394
0001e0 32 91 9e 3c 70 34 5a bd 24 59 2a bd 8c 32 97 3e
       0.019356344 -0.053272665 -0.041588917 0.29530752
0001f0 6c c3 31 be b8 8a a2 3e 70 11 a8 3e 25 78 90 3e
       -0.17359704 0.3174646 0.32825804 0.28216663
