results/train/models_distance_30m_flat/name_DQN/best_model.pt (torch, 160591 bytes, 8 tensors)

layer1.weight f4 [128, 40]
0.272867 0.094194815 0.05557271 -0.15725823 -0.045037504 -0.074808426 0.030607022 0.03031695
0.2535516 -0.023176748 0.06947865 0.07024355 0.09561869 -0.0040352326 0.09762622 0.113768704
0.0015474336 -0.011191487 0.12854023 0.088915184 0.019179018 0.09121827 -0.07105215 0.036637064
0.11805938 -0.032097504 0.022332603 0.060235087 0.09294994 0.016988188 0.060581483 0.06942301
0.12337243 0.10903246 -0.037927117 0.10942642 -0.015254487 0.0079673 0.017830644 0.070135735
-0.27839386 -0.076291405 -0.06294953 0.30126804 0.035304833 0.14174147 0.22356689 -0.037931506
-0.18715218 -0.019137774 0.1184356 0.044370748 -0.040831953 0.007448005 0.0645973 0.043852136
-0.05098769 0.09805445 0.046365462 -0.044045676 -0.018801719 0.05117696 0.052658048 0.080712914
-0.097249195 -0.02292969 -0.030339958 -0.060445674 0.058569714 0.010216152 0.061226357 -0.08010168
-0.09505638 -0.09338532 0.0067137782 0.048398096 0.02850749 0.05789995 0.13498102 -0.08780085
0.30789426 0.1229046 0.044929862 0.074786104 -0.026776247 -0.06812435 -0.008809744 0.037693232
0.21202657 0.0370666 0.035903238 0.03294194 0.056427903 0.10636946 0.044545997 -0.04527176
0.11656231 -0.02366028 0.0029961597 0.08313211 -0.023919046 0.08751922 0.06453908 -0.03281962
0.11286306 0.01439118 -0.052769486 0.02617798 0.05493998 0.08434262 -0.014324513 0.010927242
-0.055303868 -0.031376462 0.11071049 0.07161888 0.06740544 0.019295631 -0.002094694 -0.042137604
0.027772442 0.09122501 -0.075632095 0.082489766 0.0010754145 -0.077837415 0.059938177 0.0009568592
0.00070935907 -0.021660728 3.7260952e-07 0.0619667 -0.09159653 0.043511853 -0.050516017 0.045295082
-0.09553766 0.040237457 0.05806746 -0.071130306 0.020317294 0.07045053 -0.022076817 -0.05717625
-0.070139 -0.09705339 -0.1016794 -0.051387314 -0.094437465 -0.010364041 0.09752551 -0.07768042
-0.00034411086 0.06304613 -0.007798521 -0.05445048 -0.10187501 0.02096844 0.068599485 -0.06334545
0.2612023 0.07940736 0.0039048248 0.015163066 0.09333676 -0.034384083 0.04121745 -0.05400296
0.20009401 0.00060548395 -0.060885597 0.034521565 0.06356754 0.081731275 -0.027635913 -0.015697815
-0.06581331 0.08355517 -0.033698868 0.028158387 0.034726456 -0.056316186 -0.084661104 0.047461405
0.054140177 -0.010403085 0.07972299 0.06286978 -0.01816822 0.07338189 0.10242111 -0.06893674
-0.04091457 -0.014314256 -0.042288862 -0.08053534 0.015682282 0.11879295 -0.05784761 0.065241806
-0.38457683 -0.108888805 -0.107725784 0.20102303 0.029112589 0.111114785 0.15702853 -0.060988646
-0.17419443 0.00668199 0.15075359 0.07386408 -0.07419455 -0.09260333 0.08227318 0.08192837
0.02993017 0.045861218 0.0771144 0.060447335 0.043643463 0.10828757 -0.08265993 0.029097183
0.012881535 -0.010144861 0.06553632 0.02917394 -0.06522706 -0.08837915 0.018554319 -0.044795845
-0.03583655 -0.018095687 0.06220249 0.05611511 -0.1048913 -0.058834787 0.019901061 0.057644036
0.04198795 -0.047822934 -0.10006917 -0.087721266 0.010480507 0.0046280534 -0.0632434 0.023401571
-0.03858822 0.051891573 -0.060165163 -0.03816153 -0.027339166 -0.069581695 -0.037077144 0.03264647
00000000: 39b5 8b3e 36e9 c03d 36a0 633d 4d08 21be
00000010: 3f79 38bd 2935 99bd 94bb fa3c 415b f83c
00000020: 84d1 813e 2add bdbc d34a 8e3d dadb 8f3d
00000030: bbd3 c33d fc39 84bb 41f0 c73d 91ff e83d
00000040: 41d3 ca3a 805c 37bc 0da0 033e 2a19 b63d
00000050: 511d 9d3c a5d0 ba3d ca83 91bd bf10 163d
00000060: 1ec9 f13d ac78 03bd ddf2 b63c 11b9 763d
00000070: 8a5c be3d d02a 8b3c 4a24 783d a72d 8e3d
00000080: afaa fc3d 694c df3d 7759 1bbd f51a e03d
00000090: f5ed 79bc 4789 023c 9211 923c 53a3 8f3d
000000a0: a489 8ebe ab3e 9cbd afeb 80bd ce3f 9a3e
000000b0: cd9b 103d ad24 113e b8ee 643e 115e 1bbd
000000c0: d2a4 3fbe d2c6 9cbc 5d8e f23d 1abe 353d
000000d0: 683f 27bd 650e f43b 974b 843d 4c9e 333d
000000e0: 78d8 50bd c5d0 c83d b6e9 3d3d 3d69 34bd
000000f0: 1006 9abc ef9e 513d f7af 573d d04c a53d
00000100: 962a c7bd 0cd7 bbbc 818b f8bc e295 77bd
00000110: cce6 6f3d a661 273c 7dc8 7a3d 590c a4bd
00000120: ebac c2bd cd40 bfbd 41ff db3b 153d 463d
00000130: 8a88 e93c 7f28 6d3d 7738 0a3e efd0 b3bd
00000140: 51a4 9d3e 68b5 fb3d 6008 383d 7529 993d
00000150: dc59 dbbc c784 8bbd bf56 10bc 3864 1a3d
00000160: 7e1d 593e 26d3 173d 460f 133d 21ee 063d
00000170: f220 673d 3bd8 d93d dd75 363d e26e 39bd
00000180: 38b8 ee3d 34d3 c1bc 385b 443b 2b41 aa3d
00000190: e0f1 c3bc 473d b33d 112d 843d de6d 06bd
000001a0: bf24 e73d fcc8 6b3c d124 58bd 3473 d63c
000001b0: bf08 613d d3bb ac3d 5db1 6abc 2d08 333c
000001c0: 4f86 62bd 9b84 00bd 2ebc e23d ebac 923d
000001d0: dd0b 8a3d df11 9e3c 2247 09bb 7b98 2cbd
000001e0: 0883 e33c 2ed4 ba3d 00e5 9abd 65f0 a83d
000001f0: ecf4 8c3a 3969 9fbd bc81 753d bcd5 7a3a
00000200: 48f4 393a d771 b1bc 100b c834 cbd0 7d3d
00000210: f696 bbbd 7c39 323d e2e9 4ebd 5687 393d
00000220: 40a9 c3bd 08d0 243d 25d8 6d3d c4ac 91bd
00000230: 7470 a63c 5e48 903d 71da b4bc a531 6abd
00000240: 09a5 8fbd eec3 c6bd 4a3d d0bd 817b 52bd
00000250: 6e68 c1bd f0cd 29bc 74bb c73d e916 9fbd
00000260: c769 b4b9 541e 813d bc8a ffbb 7707 5fbd
00000270: d8a3 d0bd 02c6 ab3c e37d 8c3d 42bb 81bd
00000280: 4fbc 853e 53a0 a23d 17e8 7f3b 826e 783c
00000290: 5827 bf3d 53d6 0cbd a1d3 283d 3532 5dbd
000002a0: 72e5 4c3e 57b9 1e3a 2d63 79bd 7c66 0d3d
000002b0: b32f 823d ba62 a73d b664 e2bc b498 80bc
000002c0: 21c9 86bd f91e ab3d d307 0abd 6bac e63c
000002d0: 543d 0e3d cdab 66bd cd62 adbd e466 423d
000002e0: 17c2 5d3d b371 2abc cf45 a33d dfc1 803d
000002f0: 85d5 94bc 3f49 963d 29c2 d13d b52e 8dbd
00000300: 0996 27bd 5786 6abc 1637 2dbd b6ef a4bd
00000310: 2178 803c b849 f33d 9ef1 6cbd 7f9d 853d
00000320: 41e7 c4be 1801 dfbd 569f dcbd fbd8 4d3e
00000330: 867d ee3c 2690 e33d 16cc 203e 3bcf 79bd
00000340: 0660 32be 98f4 da3b 265f 1a3e 0d46 973d
00000350: 50f3 97bd d1a6 bdbd d77e a83d 10ca a73d
00000360: 1e30 f53c f9d8 3b3d 28ee 9d3d a097 773d
00000370: 7dc3 323d e0c5 dd3d 9c49 a9bd 375d ee3c
00000380: 130d 533c a236 26bc e837 863d 30fe ee3c
00000390: c495 85bd 2100 b5bd 3aff 973c d97b 37bd
000003a0: 59c9 12bd 683d 94bc 0ac8 7e3d f5d8 653d
000003b0: 40d1 d6bd bffc 70bd 8d07 a33c 271c 6c3d
000003c0: 8ffb 2b3d fbe1 43bd 11f1 ccbd 35a7 b3bd
000003d0: 6fb6 2b3c eda6 973b c185 81bd a7b4 bf3c
000003e0: ae0e 1ebd 428c 543d bf6f 76bd 444f 1cbd
000003f0: 63f6 dfbc d980 8ebd 34de 17bd 4eb8 053d

layer1.bias f4 [128]
0.024405446 -0.07237496 0.052654274 0.059615325 0.0827873 0.04241585 0.036539685 0.08218539
0.046867363 0.0438495 -0.035312343 -0.0032379697 0.12827913 0.11625645 0.006073592 0.06701498
-0.032940343 0.019526491 0.0093233045 0.022191023 -0.0101272585 0.010582868 -0.099946335 0.013467034
0.032157335 0.079114206 0.056584395 0.05094185 -0.056754164 0.00846689 0.043532073 0.090047054
-0.03396298 -0.025676982 0.09037727 -0.024519121 -0.048949882 0.060174722 0.04434399 0.005849332
-0.06958965 0.08384517 0.030419614 0.0126283895 -0.023984725 0.0653591 -0.035533685 -0.07619112
-0.0626978 -0.07400076 0.017716043 -0.040030625 -0.08602988 -0.043767158 -0.025761345 0.013940418
-0.05438303 0.028874913 0.013845028 0.0019901423 0.018149842 0.09397272 -0.07427014 0.017717598
0.024346385 0.021793514 -0.082245536 0.012556728 0.021357808 -0.00487655 0.051018536 -0.005491435
0.03733766 0.10422784 0.01039019 0.016426926 -0.015502288 -0.08015544 0.0346266 0.06485263
0.061948247 0.08322927 0.09058934 0.025747074 0.022355193 -0.029289277 0.0008073355 0.0018777524
0.074971095 -0.022526866 0.09044266 0.07653711 -0.007216015 0.095483944 -0.097615704 0.020931004
0.04923425 -0.03889093 0.020561198 -0.003660612 -0.08953032 -0.064672954 -0.089023925 0.06512768
-0.009737459 0.09649095 0.09652439 -0.03715434 0.08472674 -0.08600063 0.029361013 -0.055199463
-0.018565072 0.00955947 0.015865535 0.04555663 0.080270156 0.059655122 0.034584597 0.058752358
0.010106774 0.004903784 0.0065042423 -0.002874372 0.09096937 -0.05415775 0.05399198 0.019975467
00000000: eeed c73c 5339 94bd 02ac 573d 332f 743d
00000010: 638c a93d 3ebc 2d3d a3aa 153d d050 a83d
00000020: fef7 3f3d 899b 333d ada3 10bd 1e34 54bb
00000030: 9b5b 033e dd17 ee3d fc04 c73b 263f 893d
00000040: 74ec 06bd 05f6 9f3c c6c0 183c f3c9 b53c
00000050: cdec 25bc c463 2d3c aab0 ccbd d6a4 5c3c
00000060: 69b7 033d a106 a23d 0ac5 673d 67a8 503d
00000070: 0e77 68bd b6b8 0a3c b04e 323d 976a b83d
00000080: c41c 0bbd 8958 d2bc b817 b93d 53dc c8bc
00000090: ac7f 48bd c579 763d 0ba2 353d c1ab bf3b
000000a0: 0585 8ebd 04b7 ab3d 8e32 f93c 4ee7 4e3c
000000b0: 9d7b c4bc feda 853d c58b 11bd 170a 9cbd
000000c0: b467 80bd b68d 97bd 3c21 913c 27f7 23bd
000000d0: 6f30 b0bd 3145 33bd 7509 d3bc 5a66 643c
000000e0: bdc0 5ebd 158b ec3c 42d6 623c 0c6d 023b
000000f0: faae 943c c574 c03d f11a 98bd 7f24 913c
00000100: 1272 c73c 5088 b23c 5970 a8bd bcba 4d3c
00000110: 92f6 ae3c 77cb 9fbb d0f8 503d 7ff1 b3bb
00000120: 60ef 183d 6875 d53d 9e3b 2a3c c391 863c
00000130: 4ffd 7dbc 8928 a4bd 9fd4 0d3d 75d1 843d
00000140: 72bd 7d3d 1c74 aa3d e786 b93d 87eb d23c
00000150: 3d22 b73c 11f0 efbc 5ea3 533a ea1e f63a
00000160: 728a 993d 438a b8bc 003a b93d 7dbf 9c3d
00000170: 5274 ecbb 168d c33d beea c7bd 7f77 ab3c
00000180: daa9 493d 194c 1fbd f56f a83c e1e6 6fbb
00000190: ac5b b7bd 4173 84bd 2d52 b6bd a961 853d
000001a0: dd89 1fbc 0c9d c53d 94ae c53d 262f 18bd
000001b0: 3785 ad3d 1921 b0bd 8286 f03c d518 62bd
000001c0: c715 98bc 539f 1c3c 70f8 813c 9799 3a3d
000001d0: ae64 a43d ee58 743d 94a8 0d3d 50a6 703d
000001e0: e296 253c ecaf a03b 8a21 d53b f65f 3cbb
000001f0: 264e ba3d 84d4 5dbd b226 5d3d 97a3 a33c

layer2.weight f4 [128, 128]
0.0018165827 -0.05392302 -0.045279223 0.02978879 -0.027757056 -0.021629883 0.00039950755 -0.055359703
-0.052332625 0.009283287 0.02119825 -0.046590224 0.051895894 -0.020288307 0.043322 0.04936269
0.011150146 -0.0470728 0.011505509 -0.0525406 -0.050400034 0.023463326 0.007843211 0.013863155
0.019892856 -0.024561744 -0.036318734 0.051781155 0.04525459 0.025461959 0.019135641 -0.026610235
-0.052847706 0.047461975 -0.018420102 -0.045747027 0.03676031 0.03471841 -0.013962503 0.044125855
0.03164932 0.019272922 -0.039174408 -0.0520309 -0.03405718 0.046952292 0.0071186796 -0.035277892
-0.051047318 -0.04287628 0.03876332 -0.053582106 0.003264802 -0.0046967533 0.048196144 0.005453505
-0.046866108 -0.012251297 0.018801952 -0.010871045 -0.029420087 0.038992513 -0.00815062 -0.031048084
0.021892386 -0.051223107 0.032501064 -0.020225327 0.02197562 -0.005368867 -0.04124833 -0.039782085
-0.0022782222 0.025558386 0.05443625 0.0557679 -0.052202106 -0.054233346 0.02970442 0.010248796
-0.045183476 0.0420507 0.023075728 -0.049392402 0.013136357 -0.05139441 -0.044694196 0.0358701
-0.011540349 -0.0058950773 -0.025645457 -0.011354397 -0.015561771 -0.05166792 -0.021585999 -0.0006473028
-0.0024929852 0.023439748 0.053316288 -0.052295737 -0.046250716 0.03418367 0.038164616 -0.054463923
-0.038342014 0.03137433 0.054842506 0.019977905 -0.04114117 -0.03428331 -0.0028610236 0.046453856
-0.032869387 -0.004994328 -0.052978672 -0.01908853 -0.0289987 -0.005505311 0.009991799 -0.04729266
0.028123576 0.03832305 0.04009851 -0.05574471 0.053639192 -0.041624375 -0.039797556 0.034589168
0.12402086 -0.5104292 0.05807137 0.013200238 0.06556296 -0.42630872 -0.020045929 0.11104925
-0.20019038 -0.019011684 0.060360882 -0.05671992 0.0729326 -0.39426795 0.11182164 -0.42140582
0.12681441 0.053855635 0.12719268 0.11572193 0.05867059 0.13842396 -0.0023800002 0.07209093
0.13426426 0.08681168 -0.5339345 0.063886695 0.019610077 -0.02434386 -0.47808933 0.008094041
-0.18760252 0.09402779 0.14531459 0.14220029 -0.049585663 0.06434924 -0.7895954 -0.3754042
0.7240226 -0.033234227 0.12385797 -1.252557 -1.1898301 -0.3841425 -0.7498141 -0.0006352037
-0.0016246499 0.055858888 0.14663693 0.07258739 -0.08985262 0.1570959 -0.06748576 0.043605346
0.124030106 -0.048723605 -0.37212986 0.33052176 -0.02439636 0.0007086462 -0.041144196 -0.41982082
-0.036134195 0.13601074 -0.042475805 0.18955296 0.0036987823 0.014082261 -0.001408941 -0.022011036
-0.29586065 -0.16760959 0.03032401 0.16244215 -0.030162897 0.08437295 0.044767458 -0.18278228
0.044156905 -0.35285237 0.14920303 -0.67775565 -0.04529907 -0.08549036 0.08720069 -0.043954816
0.16862124 0.074910946 0.14129362 0.03495055 0.12797853 -0.002531813 -0.020075636 0.12642704
0.16603856 -0.02015802 -0.18824951 0.085433684 -0.042453464 -1.3103688 0.0151433395 0.009361325
-0.03398267 0.14723319 0.13451722 -0.9568686 0.13447058 -1.0505581 0.09926271 -0.02738043
0.05748184 0.1365125 -0.87622726 -0.8560141 -0.87267977 -0.22905307 -0.22751144 0.09480559
-0.019306304 0.023986585 0.105539754 -0.33725595 0.11332291 -0.038957052 0.36515123 -1.2147064
00000000: 671a ee3a 62de 5cbd b576 39bd 9f07 f43c
00000010: c462 e3bc 2731 b1bc ff74 d139 dbc0 62bd
00000020: bc5a 56bd ee18 183c f4a7 ad3c 64d5 3ebd
00000030: ca90 543d aa33 a6bc 6972 313d 8830 4a3d
00000040: 1aaf 363c 69cf 40bd 9a81 3c3c d034 57bd
00000050: 4470 4ebd 2936 c03c d080 003c 4922 633c
00000060: 58f6 a23c b635 c9bc f4c2 14bd 7a18 543d
00000070: e15c 393d 9995 d03c 59c2 9c3c b5fd d9bc
00000080: d676 58bd 7d67 423d c1e5 96bc 3c61 3bbd
00000090: fb91 163d e434 0e3d fbc2 64bc 50bd 343d
000000a0: b8a2 013d 3fe2 9d3c 5875 20bd 5a1e 55bd
000000b0: 8b7f 0bbd 0c51 403d d043 e93b 8d7f 10bd
000000c0: fe16 51bd 0a9f 2fbd 49c6 1e3d e978 5bbd
000000d0: 4af6 553b 39e7 99bb 5269 453d 51b3 b23b
000000e0: adf6 3fbd aab9 48bc 8d06 9a3c 781c 32bc
000000f0: 6502 f1bc 9db6 1f3d 2e8a 05bc 8d58 febc
00000100: a957 b33c 52cf 51bd d61f 053d 96af a5bc
00000110: 3706 b43c 52ed afbb 02f4 28bd 8af2 22bd
00000120: 3a4e 15bb d25f d13c 8cf8 5e3d e26c 643d
00000130: e0d1 55bd c923 5ebd af56 f33c 91ea 273c
00000140: 4f12 39bd 5b3d 2c3d 4f09 bd3c b04f 4abd
00000150: e039 573c f282 52bd 4311 37bd 87ec 123d
00000160: bb13 3dbc 7e2b c1bb 6c16 d2bc cb07 3abc
00000170: ccf6 7ebc bea1 53bd 1fd5 b0bc c1af 29ba
00000180: 5a61 23bb b704 c03c 2e62 5a3d 0e34 56bd
00000190: 6471 3dbd 2d04 0c3d 8052 1c3d 9015 5fbd
000001a0: 840c 1dbd 5f82 003d 89a2 603d b4a8 a33c
000001b0: a583 28bd a86c 0cbd 0380 3bbb 6646 3e3d
000001c0: 0da2 06bd 76a7 a3bb 2a00 59bd 8d5f 9cbc
000001d0: af8e edbc e565 b4bb a4b4 233c f3b5 41bd
000001e0: 6a63 e63c a1f8 1c3d 563e 243d 9154 64bd
000001f0: c5b4 5b3d 527e 2abd c302 23bd 5fad 0d3d
00000200: a6fe fd3d 7dab 02bf 3fdc 6d3d d045 583c
00000210: e045 863d 2345 dabe 5c37 a4bc ca6d e33d
00000220: b5fe 4cbe 64be 9bbc f93c 773d 2653 68bd
00000230: b05d 953d 7ddd c9be be02 e53d 81c2 d7be
00000240: a3db 013e ba97 5c3d cc3e 023e 9fff ec3d
00000250: 9350 703d 03bf 0d3e c7f9 1bbb 69a4 933d
00000260: 927c 093e 52ca b13d eeaf 08bf 07d7 823d
00000270: 50a5 a03c c66c c7bc 20c8 f4be de9c 043c
00000280: e01a 40be a491 c03d 59cd 143e f49c 113e
00000290: 561a 4bbd 89c9 833d ed22 4abf fb34 c0be
000002a0: 8c59 393f 9d20 08bd 3fa9 fd3d ca53 a0bf
000002b0: 5a4c 98bf 53ae c4be d1f3 3fbf cc83 26ba
000002c0: 34f2 d4ba 4acc 643d fe27 163e b3a8 943d
000002d0: a704 b8bd bfdd 203e f935 8abd 859b 323d
000002e0: 7f03 fe3d 6792 47bd ce87 bebe 263a a93e
000002f0: e0da c7bc 71c4 393a d186 28bd c1f2 d6be
00000300: 7301 14bd 6646 0b3e 1cfb 2dbd 2c1a 423e
00000310: 4567 723b 49b9 663c 37ac b8ba 7d50 b4bc
00000320: 0c7b 97be d9a1 2bbe 0f6a f83c 3c57 263e
00000330: 2e18 f7bc bacb ac3d 155e 373d 472b 3bbe
00000340: dfdd 343d 11a9 b4be aec8 183e 6581 2dbf
00000350: 858b 39bd 9215 afbd 4696 b23d f709 34bd
00000360: 0cab 2c3e e96a 993d 46af 103e 4f28 0f3d
00000370: ce0c 033e c6ec 25bb a975 a4bc 1776 013e
00000380: 0306 2a3e 6f22 a5bc 7bc4 40be dbf7 ae3d
00000390: afe3 2dbd 2aba a7bf c51b 783c 3e60 193c
000003a0: 6a31 0bbd 4cc4 163e e2be 093e 57f5 74bf
000003b0: a8b2 093e b078 86bf 3f4a cb3d ec4c e0bc
000003c0: 1472 6b3d efc9 0b3e 6e50 60bf bd23 5bbf
000003d0: f167 5fbf e38c 6abe c2f8 68be 6f29 c23d
000003e0: 4128 9ebc 847f c43c 3a25 d83d d0ac acbe
000003f0: d815 e83d 6e91 1fbd 1af5 ba3e 807b 9bbf

layer2.bias f4 [128]
0.0446929 0.06975881 0.11173995 0.045317724 0.060430318 0.017448993 0.0604565 0.0070945392
0.03620015 0.024461107 0.01325597 -0.03011264 0.021178074 0.0010973198 0.012013393 0.011492114
-0.030113457 0.039271537 0.104174465 0.06851844 -0.047829986 -0.04141342 0.0370766 0.028719129
-0.020079616 -0.00082386093 -0.013851509 0.06655167 -0.028455952 0.0145677915 0.2271869 -0.043523658
0.016356278 0.10778543 0.06363313 0.06471262 -0.026717123 -0.04918012 -0.00013636326 -0.051509425
0.04048928 -0.026662456 0.11204853 0.08324362 0.07743075 0.04034924 -0.021512175 0.051643204
0.028380007 0.038219262 0.06416377 -0.021355968 0.08980202 0.05895629 0.11034155 -0.04965979
-0.04616262 0.0784125 0.01800531 0.020902986 0.0661367 0.013374249 0.07795491 -0.022107376
0.06488263 0.021928279 -0.04676297 0.066056736 -0.010507861 0.086444266 -0.052767023 0.13795286
0.018540984 0.016490005 -0.014565307 -0.023542954 0.04769503 0.041438863 0.08612712 -0.005545637
0.004906985 0.036716692 -0.0009269671 0.041946694 -0.05207129 0.031885806 -0.017063182 -0.0069501875
0.02820601 0.100171104 -0.040503155 -0.011345258 0.023464942 0.061283704 -0.02041184 0.059517406
-0.03624764 0.0024219544 -0.04058226 0.06044355 -0.029854426 -0.0285542 0.03984956 -0.021738276
0.021902733 0.069155194 0.14215603 0.25128853 0.043667197 -0.0064877756 0.055338535 0.081992045
-0.04076275 0.018315146 -0.045507137 0.019187918 0.03713004 -0.008407007 -0.0056962306 -0.050899394
0.12149666 -0.022074167 -0.009887517 -0.024116023 0.07945092 0.038094655 -0.047667652 0.08923698
00000000: e70f 373d b5dd 8e3d ead7 e43d 149f 393d
00000010: c885 773d 31f1 8e3c 3ca1 773d 4f79 e83b
00000020: 9c46 143d a962 c83c 912f 593c c8ae f6bc
00000030: a47d ad3c f1d3 8f3a d3d3 443c 6b49 3c3c
00000040: 7fb0 f6bc 31db 203d 6c59 d53d 6553 8c3d
00000050: 60e9 43bd 1ea1 29bd a2dd 173d 6144 eb3c
00000060: 027e a4bc 5ff8 57ba 71f1 62bc 3e4c 883d
00000070: 751c e9bc bfad 6e3c afa3 683e dd45 32bd
00000080: 9afd 853c 9cbe dc3d 1652 823d 0d88 843d
00000090: dedd dabc 1871 49bd bcfc 0eb9 8cfb 52bd
000000a0: 16d8 253d 396b dabc b379 e53d a27b aa3d
000000b0: 0394 9e3d 3f45 253d 4d3a b0bc d387 533d
000000c0: 307d e83c cd8b 1c3d 4b68 833d b6f2 aebc
000000d0: 1fea b73d 277c 713d c0fa e13d 1068 4bbd
000000e0: 0415 3dbd bc96 a03d df7f 933c bd3c ab3c
000000f0: ae72 873d ab1f 5b3c d3a6 9f3d 871a b5bc
00000100: 2fe1 843d efa2 b33c 878a 3fbd c148 873d
00000110: 2a29 2cbc b109 b13d 3c22 58bd 8443 0d3e
00000120: 43e3 973c 0c16 873c 53a3 6ebc 27dd c0bc
00000130: dd5b 433d ccbb 293d 6a63 b03d 2db8 b5bb
00000140: c6ca a03b 3e64 163d b6ff 72ba 4cd0 2b3d
00000150: b448 55bd b19a 023d 16c8 8bbc 66be e3bb
00000160: 4a10 e73c 8226 cd3d a3e6 25bd 76e1 39bc
00000170: 8d39 c03c 9f04 7b3d bb36 a7bc 86c8 733d
00000180: 6878 14bd a7b9 1e3b 9539 26bd a893 773d
00000190: 4591 f4bc 7fea e9bc 4b39 233d 7814 b2bc
000001a0: 5c6d b33c 3da1 8d3d 5a91 113e e4a8 803e
000001b0: 60dc 323d 6897 d4bb a9aa 623d 72eb a73d
000001c0: d7f6 26bd a509 963c b165 3abd fb2f 9d3c
000001d0: ab15 183d 8bbd 09bc 72a7 babb e27b 50bd
000001e0: 3ed3 f83d e2d4 b4bc 41ff 21bc f78e c5bc
000001f0: 2ab7 a23d 2409 1c3d 283f 43bd e1c1 b63d

layer3.weight f4 [128, 128]
-0.0064836396 0.026801154 0.004195777 -0.019350378 0.013087068 0.03407428 0.009733341 -0.01182279
0.030356096 0.018140232 0.022010207 0.02361814 -0.034619473 -0.016103663 0.012962928 -0.05078666
-0.052916728 0.039737467 0.03220506 -0.044095825 -0.023890255 -0.025118109 -0.0012607037 -0.0131525025
-0.045618027 -0.0006515139 0.031517874 -0.05135428 -0.0100186365 -0.01323477 -0.003749831 -0.04464386
0.0559977 -0.039305814 -0.046952263 0.044291213 0.03902189 0.0019727657 0.00160685 -0.0142840585
-0.005120423 0.002430978 0.033767525 0.024650127 -0.00544656 -0.029270196 0.0023202966 0.023247859
-0.0494305 0.029683853 0.017501106 0.004312299 -0.01864069 0.006416654 0.048660375 0.0013908221
-0.029180793 0.032116577 -0.005733523 -0.030310446 -0.060157176 0.04296309 -0.037057083 0.013331971
0.024955645 -0.0047176876 0.021174163 0.04064094 -0.032250132 -0.047636714 0.0058040763 -0.044789992
0.0012989051 -0.004777083 -0.03414129 -0.042083926 0.030397657 -0.054967307 -0.038190216 -0.04230055
0.022131788 -0.05352412 0.0027736377 0.013643667 0.02007958 0.026988164 0.04509594 -0.02206616
0.031957265 -0.030587152 0.03528029 0.008970122 -0.03782438 0.032337405 -0.020354932 -0.04559791
-0.048173893 -0.02287939 0.048839048 0.014818767 0.030993612 0.005885989 0.006231351 0.008395892
-0.052904636 0.054779194 -0.033361994 -0.013756713 -0.022859747 -0.0059402995 0.04446746 -0.031557493
0.028398402 0.050392456 -0.036055434 0.014462725 0.03226438 0.030461984 -0.012928937 -0.023536304
-0.046694223 -0.030915799 0.050451696 0.034669932 -0.03781418 0.030385641 0.0011958908 0.001861448
0.053461783 -0.05423873 0.016043227 -0.05692773 -0.05080504 -0.03939576 0.033096537 -0.04638135
0.033539508 -0.03547457 0.032489214 -0.025170665 0.049402427 0.013705585 -0.04538343 -0.059737064
0.015527298 0.0038201667 0.02332319 -0.0040438753 -0.022314036 -0.026640322 -0.05349579 0.012428287
-0.034671765 -0.04708687 -0.030618912 0.031759407 0.03728635 0.017483275 0.01078575 -0.013594467
-0.035979915 0.02638118 -0.007438335 -0.05866303 -0.06099052 -0.011492804 0.023749309 0.028040871
-0.018609388 0.025618698 -0.04374406 -0.029092817 -0.010150488 0.033478267 -0.026960105 -0.03958701
0.00014988889 -0.021519473 -0.013551868 -0.03388143 0.019859321 -0.014026381 0.036521584 0.013764913
0.052325662 -0.047966264 -0.03418599 -0.036271054 0.0023087177 0.01186337 0.014809173 0.045856215
0.05112372 0.051157102 0.029194837 -0.0035817951 -0.021856362 0.04873043 -0.038179744 0.012237153
-0.04033693 -0.041258242 0.026548244 0.007874936 -0.031384747 -0.05524856 0.036484767 0.001553595
-0.016280733 0.022061951 -0.012858139 -0.054555222 0.047785446 0.041020453 0.02085909 -0.014445719
-0.024307948 0.030714747 -0.03381777 0.017272707 -0.020733612 0.027088195 0.015960986 0.03996671
-0.04112976 -0.0012216369 -0.037984505 0.012641447 0.028500149 -0.04686592 -0.004596684 -0.0016030122
0.02474396 -0.045737248 -0.026585639 -0.03823924 -0.055913918 0.043233205 -0.050268635 -0.045525257
0.029156283 -0.020679966 0.0051733674 0.047645483 -0.04401648 -0.05199136 -0.015310125 -0.027562456
-0.036427595 -0.05267667 -0.0075568478 -0.015425668 -0.009640173 -0.0022209103 -0.015290323 0.012069156
00000000: b674 d4bb 188e db3c ba7c 893b af84 9ebc
00000010: 246b 563c 7991 0b3d 9778 1f3c 60b4 41bc
00000020: 59ad f83c d39a 943c c04e b43c d47a c13c
00000030: 26cd 0dbd d4eb 83bc 7662 543c ac05 50bd
00000040: 36bf 58bd c1c3 223d 74e9 033d d39d 34bd
00000050: 7fb5 c3bc 7ec4 cdbc 323e a5ba 987d 57bc
00000060: f8d9 3abd 5cca 2aba e318 013d de58 52bd
00000070: 3525 24bc a6d6 58bc babf 75bb 7bdc 36bd
00000080: d85d 653d 22ff 20bd 0451 40bd b46a 353d
00000090: 6bd5 1f3d 8449 013b f09c d23a af07 6abc
000000a0: 39c9 a7bb 0b51 1f3b d14f 0a3d 10ef c93c
000000b0: 0f79 b2bb 0dc8 efbc 1e10 183b 4b72 be3c
000000c0: a377 4abd 8d2b f33c 7b5e 8f3c 304e 8d3b
000000d0: 5cb4 98bc cc42 d23b 1a50 473d 3f4c b63a
000000e0: 8f0c efbc ac8c 033d 47e0 bbbb 9d4d f8bc
000000f0: 5f67 76bd 11fa 2f3d 2bc9 17bd 576e 5a3c
00000100: c86f cc3c d596 9abb 7075 ad3c 1d77 263d
00000110: b718 04bd b71e 43bd 1f30 be3b b675 37bd
00000120: 0640 aa3a 1489 9cbb bdd7 0bbd 3260 2cbd
00000130: 8204 f93c 6625 61bd 586d 1cbd 5743 2dbd
00000140: b94d b53c 1c3c 5bbd ebc5 353b b089 5f3c
00000150: ee7d a43c 4816 dd3c 85b6 383d 17c4 b4bc
00000160: 9fe5 023d e891 fabc 1182 103d 6bf7 123c
00000170: bded 1abd 3a74 043d 63bf a6bc e0c4 3abd
00000180: fd51 45bd 8f6d bbbc 740b 483d 6aca 723c
00000190: 51e6 fd3c 41df c03b 5c30 cc3b ec8e 093c
000001a0: 88b2 58bd 2660 603d 96a6 08bd d663 61bc
000001b0: 5d44 bbbc d8a6 c2bb 8323 363d 6e42 01bd
000001c0: c4a3 e83c 5268 4e3d ddae 13bd 11f5 6c3c
000001d0: a827 043d 698b f93c e4d3 53bc 35cf c0bc
000001e0: 7142 3fbd 2143 fdbc 70a6 4e3d 0f02 0e3d
000001f0: 0be3 1abd 4feb f83c 70bf 9c3a d5fb f33a
00000200: befa 5a3d 6e29 5ebd 166d 833c 0d2d 69bd
00000210: f218 50bd 735d 21bd 3c90 073d 5ffa 3dbd
00000220: b960 093d c84d 11bd 6913 053d b632 cebc
00000230: 335a 4a3d 648d 603c fae3 39bd daae 74bd
00000240: 3566 7e3c c35b 7a3b 4610 bf3c 7c82 84bb
00000250: edcb b6bc ce3c dabc 671e 5bbd 04a0 4b3c
00000260: fb03 0ebd 29de 40bd 83d4 fabc 2716 023d
00000270: 92b9 183d 1639 8f3c b7b6 303c 54bb 5ebc
00000280: ad5f 13bd 581d d83c 47bd f3bb a548 70bd
00000290: 32d1 79bd 504c 3cbc e98d c23c f8b5 e53c
000002a0: b772 98bc 4ede d13c f92c 33bd 0f54 eebc
000002b0: 3b4e 26bc 8220 093d 70db dcbc fd25 22bd
000002c0: 7e2b 1d39 9b49 b0bc a708 5ebc 41c7 0abd
000002d0: 04b0 a23c e8ce 65bc a897 153d 3b86 613c
000002e0: 6f53 563d 4678 44bd 9c06 0cbd f590 14bd
000002f0: db4d 173b 955e 423c 2ca2 723c bad3 3b3d
00000300: 1b67 513d 1c8a 513d 032a ef3c 8dbc 6abb
00000310: 1d0c b3bc 8f99 473d 5d62 1cbd 577e 483c
00000320: 5638 25bd 67fe 28bd b47b d93c e005 013c
00000330: 4b8d 00bd 504c 62bd 0d71 153d ffa1 cb3a
00000340: 2c5f 85bc 44bb b43c f2aa 52bc 4c75 5fbd
00000350: acba 433d 1005 283d afe0 aa3c bdad 6cbc
00000360: 7621 c7bc 7e9d fb3c 8184 0abd 7e7f 8d3c
00000370: 89d9 a9bc 10e8 dd3c 9dc0 823c 22b4 233d
00000380: ae77 28bd 551f a0ba a495 1bbd 121e 4f3c
00000390: 2579 e93c 7bf6 3fbd c89f 96bb 2a1c d2ba
000003a0: d8b3 ca3c fb56 3bbd 20ca d9bc c0a0 1cbd
000003b0: fe05 65bd 4d15 313d 7ce6 4dbd b178 3abd
000003c0: 28d9 ee3c 0869 a9bc 5a85 a93b e927 433d
000003d0: a04a 34bd e4f4 54bd 52d7 7abc a9ca e1bc
000003e0: 1a35 15bd 7ec3 57bd 6f9f f7bb f1bb 7cbc
000003f0: d1f1 1dbc b18c 11bb 4384 7abc b6bd 453c

layer3.bias f4 [128]
-0.054275464 -0.05740252 0.10467279 0.09175646 0.032930925 0.10209317 0.106667355 0.14841251
0.21624489 0.03478303 0.2514318 0.19230866 0.067569755 0.23641695 0.103822626 0.0354712
0.08735412 0.12174727 0.1409132 0.16600424 0.033556037 -0.035128612 0.019005366 0.027589964
0.027680436 0.2598131 0.001980753 -0.024646146 0.03345387 0.22512428 0.05040496 0.042441934
0.12659557 0.040098168 0.094828784 0.030864881 0.17404799 0.11225344 0.075504184 -0.03404587
0.15035143 -0.025861165 0.2640023 0.19376725 0.19536455 0.034027264 0.10471057 0.27839532
-0.002373865 -0.0488509 -0.03262402 0.027732577 -0.042210013 -0.0025460112 0.0072808913 0.04838327
0.09670061 0.038040847 0.08321745 -0.008715787 0.09815904 0.13691126 0.2042369 0.12424163
0.043428987 0.017773576 0.08287701 0.26083812 0.12927707 0.11822556 0.15534376 0.27276364
0.042516768 0.25715214 0.025156848 0.03910072 0.07667323 0.15919116 -0.042952664 0.013426145
0.04840222 0.047992684 0.031419262 -0.044734422 0.07827056 0.014933569 -0.013937961 0.097437076
0.30843168 -0.015964592 0.04325791 0.06757987 0.09915861 0.09905285 0.10048678 -0.024716454
-0.031841174 0.059817307 -0.038253248 0.07032982 0.23270988 -0.0011145524 0.038077857 -0.02148185
-0.00031767218 0.11877068 0.031301215 0.027023686 0.0008122786 0.043468446 0.029868579 0.08980372
0.014547478 -0.014451637 0.04446483 0.0007903931 -0.04110728 0.039746925 -0.038193304 -0.011945477
0.026665466 -0.026963752 0.20887181 -0.0125673115 -0.01407931 0.032695726 0.07409964 0.11010439
00000000: f34f 5ebd e81e 6bbd b05e d63d d0ea bb3d
00000010: 94e2 063d 3916 d13d 6a74 da3d 73f9 173e
00000020: 4d6f 5d3e a778 0e3d abbb 803e 90ec 443e
00000030: 0362 8a3d 4917 723e f5a0 d43d 404a 113d
00000040: b8e6 b23d a256 f93d 8d4b 103e 04fd 293e
00000050: 0e72 093d 05e3 0fbd 24b1 9b3c 5904 e23c
00000060: 15c2 e23c 3906 853e 85cf 013b b7e6 c9bc
00000070: ed06 093d fb86 663e 6e75 4e3d 98d7 2d3d
00000080: 45a2 013e fa3d 243d 9835 c23d 59d8 fc3c
00000090: a339 323e 22e5 e53d f0a1 9a3d af73 0bbd
000000a0: baf5 193e cbda d3bc 4f2b 873e ec6a 463e
000000b0: a50d 483e 2c60 0b3d 7f72 d63d d589 8e3e
000000c0: d992 1bbb e217 48bd c4a0 05bd 6e2f e33c
000000d0: 68e4 2cbd fbda 26bb 8b94 ee3b 892d 463d
000000e0: f80a c63d b8d0 1b3d e96d aa3d a9cc 0ebc
000000f0: 9b07 c93d 7732 0c3e 7a23 513e 6572 fe3d
00000100: 98e2 313d e499 913c 6cbb a93d 938c 853e
00000110: 3561 043e 3e20 f23d 6f12 1f3e ada7 8b3e
00000120: 1026 2e3d 72a9 833e bc15 ce3c 1428 203d
00000130: db06 9d3d 0203 233e 22ef 2fbd 55f9 5b3c
00000140: 6841 463d fa93 443d 7cb1 003d 713b 37bd
00000150: 514c a03d eeab 743c 0c5c 64bc 178d c73d
00000160: c2ea 9d3e 2dc8 82bc 352f 313d 5167 8a3d
00000170: ab13 cb3d 38dc ca3d 03cc cd3d 297a cabc
00000180: e46b 02bd fe02 753d 70af 1cbd 1509 903d
00000190: 804b 6e3e 2c16 92ba 87f7 1b3d b4fa afbc
000001a0: 3d8d a6b9 0b3e f33d b435 003d c760 dd3c
000001b0: 18ef 543a f80b 323d f3ae f43c 03eb b73d
000001c0: 8c58 6e3c 8fc6 6cbc c120 363d 6232 4f3a
000001d0: 1b60 28bd accd 223d 9570 1cbd f6b6 43bc
000001e0: 8971 da3c 16e3 dcbc 7ee2 553e 20e7 4dbc
000001f0: e8ac 66bc f4eb 053d 8dc1 973d 697e e13d

output_layer.weight f4 [9, 128]
0.03287799 0.049502254 0.16670959 0.19231462 0.18554528 0.1661555 0.15630046 -0.350632
-0.36462754 0.14384347 -0.15530078 -0.24958597 0.14665477 -0.2817267 0.061495032 0.20295227
0.102298 0.021615691 -0.116804786 -0.18298289 0.1334502 0.021709546 0.1442044 0.16002385
0.1525207 -0.3903527 -0.015060921 -0.02372757 0.13860628 -0.26512364 0.22613563 0.1302002
-0.3375444 0.2448907 0.195773 0.18170209 -0.39422438 0.08529001 0.19286612 -0.03763406
-0.34622687 0.009533424 -0.1841341 -0.18640803 -0.336817 0.20186669 0.15855528 -0.26616865
0.016462438 0.018602734 0.41715372 -0.103548855 -0.016602349 0.12645143 0.19601509 0.17652851
0.17581943 0.09183509 -0.08922491 -0.011459488 0.18094647 0.081622235 -0.414871 0.037666928
0.22707239 0.3019958 0.09340261 -0.28713077 -0.42578295 -0.3761143 -0.21148829 -0.25309154
0.18850319 -0.38494217 0.24926248 0.13259113 0.22790664 -0.19613717 0.1607238 0.12294719
0.088484414 0.14079885 0.02950989 -0.041015983 0.20577776 0.17299145 0.42940363 0.13216755
-0.4233193 -0.037095558 0.065440655 0.11582697 -0.13214888 0.08140132 0.1698066 -0.0074747307
0.03494845 0.14799644 0.3779944 0.18682022 -0.3722331 -0.07722988 0.186421 0.03552827
0.13578217 0.14461221 0.03789583 0.14818254 0.0020163523 -0.17496867 0.119240865 0.18746488
-0.04807254 0.19810492 0.10770971 0.18994033 -0.04269526 0.14937581 0.037450995 0.10812977
0.18954097 0.06886344 -0.4137684 0.034562323 0.011143507 0.16766292 0.07754142 -0.42156282
0.03039905 0.01480331 0.13814698 0.13955614 0.1985209 0.11181836 0.1788601 -0.28785104
-0.3205765 0.15307994 -0.2913336 -0.2536272 0.08732743 -0.35933536 0.14739309 0.15102248
0.1078809 0.09789313 0.061215952 -0.26511273 0.13413885 0.008342463 0.19791904 0.047561847
0.17134309 -0.36662367 -0.023366036 0.046674263 0.18726315 -0.35903627 0.20352855 0.16227816
-0.30332917 0.20987661 0.09342093 0.124108054 -0.30468825 0.14995138 0.12635952 0.03868726
-0.21276702 -0.028948568 -0.2669958 -0.29417747 -0.29844323 0.17857487 0.14171909 -0.33091915
0.04056526 -0.0052741934 0.19837599 -0.11574838 0.023739178 0.045227855 0.1859325 0.11279209
0.15264921 0.14763045 -0.19219786 -0.02539348 0.17220168 0.108336255 -0.31221527 0.0777009
0.20394316 0.21047118 0.11868702 -0.28222498 -0.34905657 -0.27464223 -0.26122972 -0.3545982
0.19747828 -0.33771625 0.20365445 0.10598405 -0.025431879 -0.3154014 0.08201735 0.19443485
0.082430504 0.16213764 -0.0014584701 0.009810083 0.16025066 -0.037984427 0.26476622 0.117256105
-0.39893773 0.020442216 0.09046741 0.12798955 -0.1660061 0.080645375 0.1278785 -0.10207377
-0.028637713 0.15887076 0.10893697 0.163109 -0.3684394 -0.1455129 0.1657774 0.02522521
0.19951935 0.17238273 -0.00073424005 0.17415293 -0.09309903 -0.20329185 0.16710085 0.1441651
-0.0064456444 0.15364991 0.15131645 0.16306505 0.0060171704 0.107368246 -0.04642787 0.19451796
0.20039837 0.062178385 -0.3252322 -0.062493473 0.037731275 0.18565488 0.15875009 -0.0924673
00000000: 12ab 063d e0c2 4a3d ebb5 2a3e 20ee 443e
00000010: 95ff 3d3e ab24 2a3e 3a0d 203e 0a86 b3be
00000020: 76b0 babe b44b 133e 2b07 1fbe 7793 7fbe
00000030: ab2c 163e 7b3e 90be 37e2 7b3d b8d2 4f3e
00000040: 9d81 d13d 6413 b13c 5937 efbd de5f 3bbe
00000050: 2ba7 083e 38d8 b13c 51aa 133e 4bdd 233e
00000060: 632e 1c3e 4fdc c7be 15c2 76bc 5260 c2bc
00000070: ceee 0d3e 49be 87be 1990 673e 3453 053e
00000080: 9fd2 acbe a1c4 7a3e b878 483e 1d10 3a3e
00000090: c7d7 c9be 87ac ae3d b27e 453e 2c26 1abd
000000a0: a644 b1be 1432 1c3c a68d 3cbe bfe1 3ebe
000000b0: 4773 acbe 24b6 4e3e 515c 223e 4247 88be
000000c0: 3cdc 863c c364 983c 2c95 d53e 6c11 d4bd
000000d0: a601 88bc 7c7c 013e 2eb8 483e e4c3 343e
000000e0: 020a 343e 0914 bc3d 8dbb b6bd 94c0 3bbc
000000f0: 084a 393e 8f29 a73d f969 d4be a348 1a3d
00000100: aa85 683e 329f 9a3e de49 bf3d ce02 93be
00000110: 3900 dabe 0e92 c0be 6390 58be 3795 81be
00000120: fb06 413e 2417 c5be aa3e 7f3e f8c5 073e
00000130: 5c60 693e 2fd8 48be c894 243e bdcb fb3d
00000140: 5137 b53d 932d 103e babe f13c 6000 28bd
00000150: 68b7 523e ac24 313e cbda db3e ee56 073e
00000160: 4fbd d8be 83f1 17bd c005 863d b136 ed3d
00000170: 0952 07be bcb5 a63d c8e1 2d3e 96ee f4bb
00000180: 1b26 0f3d 618c 173e 7b88 c13e cd4d 3f3e
00000190: 5695 bebe b32a 9ebd 26e5 3e3e 1786 113d
000001a0: 7b0a 0b3e 3915 143e a838 1b3d 2abd 173e
000001b0: c724 043b fd2a 33be 8e34 f43d cbf6 3f3e
000001c0: b6e7 44bd 04dc 4a3e e996 dc3d b87f 423e
000001d0: 3ae1 2ebd f9f5 183e 3766 193d 2473 dd3d
000001e0: 0717 423e 4608 8d3d 74d9 d3be 3991 0d3d
000001f0: 4293 363c d4af 2b3e 09ce 9e3d 15d7 d7be
00000200: 6e07 f93c 9589 723c 6776 0d3e cee7 0e3e
00000210: 1049 4b3e 0601 e53d 1a27 373e 3661 93be
00000220: 9a22 a4be fdc0 1c3e ad29 95be 6ddb 81be
00000230: b9d8 b23d cefa b7be 37ee 163e a3a5 1a3e
00000240: a9f0 dc3d 317c c83d 94bd 7a3d dbbc 87be
00000250: b25b 093e d3ae 083c 4aab 4a3e 36d0 423d
00000260: 9074 2f3e 19b6 bbbe 216a bfbc 832d 3f3d
00000270: e9c1 3f3e 9ad3 b7be ca69 503e 3f2c 263e
00000280: f64d 9bbe e5e9 563e 7953 bf3d 5d2c fe3d
00000290: 1900 9cbe db8c 193e 6464 013e 8876 1e3d
000002a0: 99df 59be 8c25 edbc acb3 88be 6e9e 96be
000002b0: 8dcd 98be 55dc 363e cf1e 113e 3c6e a9be
000002c0: c227 263d 24d3 acbb 1323 4b3e 7d0d edbd
000002d0: aa78 c23c d840 393d 1765 3e3e 8aff e63d
000002e0: 1350 1c3e 702c 173e 84cf 44be fd05 d0bc
000002f0: a355 303e 66df dd3d aeda 9fbe a621 9f3d
00000300: 7ad6 503e c285 573e 2e12 f33d cb7f 90be
00000310: 8bb7 b2be e89d 8cbe e7bf 85be e58d b5be
00000320: bf37 4a3e 25e9 acbe cb8a 503e 2a0e d93d
00000330: 8456 d0bc 4b7c a1be b6f8 a73d ee19 473e
00000340: 53d1 a83d 6907 263e 232a bfba 78ba 203c
00000350: c018 243e 8f95 1bbd 708f 873e f823 f03d
00000360: 9141 ccbe 6f76 a73c fa46 b93d b10f 033e
00000370: 81fd 29be 6729 a53d 95f2 023e 0d0c d1bd
00000380: a399 eabc 04af 223e 591a df3d 0c06 273e
00000390: 17a4 bcbe 5501 15be 8dc1 293e 19a5 ce3c
000003a0: cd4e 4c3e 1985 303e 047a 40ba 2555 323e
000003b0: b4aa bebd bd2b 50be 7c1c 2b3e 04a0 133e
000003c0: fc35 d3bb 6756 1d3e b3f2 1a3e 86fa 263e
000003d0: af2b c53b e2e3 db3d 262b 3ebd b72f 473e
000003e0: 3b35 4d3e c3ae 7e3d d684 a6be 28f9 7fbd
000003f0: 1c8c 1a3d 501c 3e3e 628f 223e 7f5f bdbd

output_layer.bias f4 [9]
-0.009168126 -0.0386086 -0.0029350678 0.06362518 0.020463347 0.0007576677 0.008659061 0.03559182
0.095083274
00000000: e835 16bc 0d24 1ebd 445a 40bb eb4d 823d
00000010: c0a2 a73c 389e 463a bcde 0d3c bac8 113d
00000020: 05bb c23d
