results/train/hyperparam_DQN_learning_rate_slope_40m/learning_rate_actor_0.001/best_model.pt (torch, 160591 bytes, 8 tensors)

layer1.weight f4 [128, 40]
00000000: 8aff 5b3c f2af 2f3c 7276 36bd 60c8 58bc
00000010: 1a43 ba3c 8f5a 1cbc 9e16 92bb 0c04 0c3d
00000020: 7736 503c 180d f9bb 8a4a 07bc 37fb 59bd
00000030: 8c76 4abc 14c5 46bd 0118 2d3d 9017 cebc
00000040: 0e8b 6939 fca7 4bbd d053 7b3c 2dd8 6ebd
00000050: b988 20bd 46a4 88ba fbfc 01bd 492c d13c
00000060: da07 0ebd ae0a 08bd 0061 193b 8036 8ebc
00000070: 6f39 9c3a 3264 a13c a6e6 913c 869e 43bd
00000080: 9a2d 9abc 4ee6 01bd 65c3 a33b 2a69 98bc
00000090: 9190 0a3d f744 5b3a 4874 6bbd 7eab 29bd
000000a0: 86e6 42bd 4d7e b1bc a91d 033d 4de5 c0bc
000000b0: b251 97bb 6e19 cdbb 3c7c 943c efcb b9bb
000000c0: f527 3f3d 60f4 0fbd bc2d ccbc e78c ce3c
000000d0: c3d8 b43c 2586 bebb 0bad c73b 681e df3c
000000e0: fcb1 a33b cee0 cbbc ee91 013d efbe a7bc
000000f0: 6bc6 1bbd 1038 e9bc 3a62 78ba 1401 83bc
00000100: 0d7b 453d f582 273d 6447 7c3b b8b5 09bd
00000110: a691 34bd 277f 12bd 2125 3b3a 3f76 c4bc
00000120: 99e7 0cbd a520 08bd 3ce2 7cbc 23bc 0a3d
00000130: 6065 8cbc 0d79 13bd 4811 2ebd ac0f d0bc
00000140: c64b 943c 0ae8 10bc bcfe 423d 6751 c4bc
00000150: 8165 f73a d413 a83b 64a6 e9bb 84df 0f3d
00000160: a9f6 523d aa1e ecbc 014f fabc 2c5c 943b
00000170: aaff 24ba bdb6 0fbd f70d 3ebd dcf4 163c
00000180: f203 bebc c35e adbc ee2a a43b a124 223d
00000190: 5866 45bd ad9b 17bd 21ea 23bd 61a1 1f3d
000001a0: 0194 3ebd 00f2 80bc 8889 293d c543 8f3c
000001b0: e707 323d d80a c63b cb20 17bd 6270 4fbd
000001c0: c91d 17bd bf25 423c 1308 273c 9698 c53c
000001d0: 75e8 23bd 768e 6bbc ebd9 d3bc 5551 abbc
000001e0: 051d 2a3d 150d 243c 6c90 36bd e598 e63c
000001f0: aacc 3cbd d793 403c 868e 0cbd fc06 533d
00000200: 52d6 24bd a2ed ec3c e49c 923a a458 b8bb
00000210: 9554 0cbd 4151 e4bc 60f2 03bd 1e55 acb9
00000220: 2858 fcbb 994c 08bd f06d 29bc 1b49 083d
00000230: 048f 373d 4a2f 913b 6295 53bd 6721 53bd
00000240: e487 dc3c 5acf 3fbd 7507 e13c f7c4 8a3c
00000250: 9e06 29bd de66 77bc 8985 fe3b 685f c43a
00000260: a6aa 293d 7861 c7bb 1f00 453d c22a 5cbc
00000270: eff7 b0bc eb3e f3bb aaf1 98bb 9390 08bd
00000280: 8c04 5ebd bcc3 6fbc c587 923c 22bb 533d
00000290: 3322 03bd 402a cabc 40ae 0b3d 5ec0 07bd
000002a0: b59d c0bb b3a3 353d 22ad 9f3c 3b0e 4ebd
000002b0: 499c 76bc f760 08bd f098 6e3c 2cf0 68bc
000002c0: 5937 05bc 2332 b4bc ee3a ab3b 1eb5 77bb
000002d0: 9197 0abd a169 e1bc 8b60 2cbd b731 95bb
000002e0: 71b5 2bbc 4597 e5bb ed74 de3c eba3 4d3c
000002f0: 4fd0 49bd 411b 7f3c 27f3 4e3d 3b02 52bd
00000300: 7567 f5bc aec1 fc3b 800c c73c a172 d8bc
00000310: 0edf c83c 9842 e8bc 2788 a03c 4cab f33b
00000320: 32fe ae3c 4d9b 05bd 4cdd 8f3b 59be debc
00000330: ae40 e93b 34ee 6bbc 5d40 cb3c d65e 30bc
00000340: 0b5b 0dbc e491 313d d8f0 d33c 1a96 30bd
00000350: 94f7 7bbc ad16 7b3c b380 bc3c ed64 eebc
00000360: 830b e7bc ec93 653c cd92 073d df33 52bd
00000370: aca4 853a eecf b039 3a58 e6bc d864 cebc
00000380: 8e1e 223d e539 2cbd d084 01bd 15d5 03bd
00000390: 0891 bcbb 53e2 43bd 7777 ee3c a74e c9bc
000003a0: 03dd be3c 80af c2bc 7e96 7c3c bc82 e03c
000003b0: d3db 16bd 1ae8 23bb ff16 83bb 9325 303d
000003c0: b76f 133c 81af a2bc e70f 173b 1270 11bd
000003d0: fafd 723c 2c71 d9ba 5683 4abd 6d36 893c
000003e0: 2540 51bc 09e2 e7bb 9f90 10bd e0b0 ec3c
000003f0: 0c60 c43a 8e51 77bd 624a c638 59a3 8bbc
0.0134276245 0.010723101 -0.044546552 -0.013231367 0.022737075 -0.009543075 -0.0044582626 0.034183547
0.012708298 -0.007600438 -0.008257518 -0.053218093 -0.012357365 -0.048527792 0.04225922 -0.02515772
0.00022272413 -0.04972075 0.015339807 -0.05831163 -0.03919289 -0.0010424934 -0.0317354 0.025533812
-0.034675457 -0.03321331 0.0023403764 -0.017359972 0.0011918972 0.019701097 0.017810177 -0.0477586
-0.018820573 -0.031713776 0.004997658 -0.018604834 0.033829276 0.00083644636 -0.05748394 -0.041423313
-0.047583126 -0.02166667 0.032010708 -0.02354684 -0.004617893 -0.006259135 0.018125646 -0.0056700627
0.046668965 -0.035145164 -0.024924152 0.025213672 0.022076016 -0.005814331 0.0060936264 0.027236179
0.0049955826 -0.024887469 0.03163331 -0.020476786 -0.038031023 -0.028469115 -0.0009475086 -0.015991725
0.048213053 0.040896375 0.00384947 -0.033620566 -0.044084214 -0.035765793 0.00071390165 -0.023982165
-0.034400556 -0.033234257 -0.015434798 0.033870827 -0.017138183 -0.036004115 -0.04249695 -0.025398098
0.018102538 -0.008844385 0.047606215 -0.023964597 0.0018874855 0.005129317 -0.007130431 0.03512527
0.051504765 -0.028823216 -0.03055525 0.0045275893 -0.00062942004 -0.035086382 -0.046400037 0.009213652
-0.02319524 -0.02116335 0.0050100004 0.039585713 -0.048193306 -0.0370137 -0.040018205 0.038972262
-0.046527866 -0.015740395 0.041390926 0.01748837 0.043464568 0.006043773 -0.03689651 -0.050644286
-0.03689364 0.01184982 0.010194796 0.02412061 -0.04001661 -0.014377227 -0.025860747 -0.020912806
0.04153158 0.010012885 -0.044571325 0.028149078 -0.04609362 0.011753998 -0.03431561 0.051520333
-0.040243454 0.028921906 0.0011185673 -0.005625801 -0.03426035 -0.027870776 -0.03221357 -0.00032869814
-0.0077009387 -0.033276174 -0.010341153 0.033272844 0.044814125 0.004430686 -0.051656134 -0.051545527
0.026920266 -0.046828605 0.027469376 0.016939623 -0.041266076 -0.015100209 0.0077673835 0.0014982047
0.04142251 -0.006084617 0.04809582 -0.013437929 -0.021602599 -0.007423272 -0.0046674805 -0.033341
-0.054203555 -0.014634069 0.017887006 0.051692136 -0.032015037 -0.02467835 0.034101725 -0.03314244
-0.005878175 0.04434557 0.019491736 -0.05030654 -0.01505191 -0.033295598 0.01456283 -0.014217418
-0.008130872 -0.021996563 0.005225531 -0.0037797163 -0.03383595 -0.027516188 -0.042084258 -0.0045530456
-0.010480271 -0.007006558 0.027155364 0.012551288 -0.049270924 0.015570463 0.050524857 -0.05127166
-0.029956559 0.007713518 0.024297953 -0.026421847 0.024520423 -0.028352067 0.019596172 0.0074361917
0.021361444 -0.03261881 0.0043903943 -0.027190374 0.007118306 -0.014400054 0.024810964 -0.010764798
-0.008627663 0.043352023 0.02587168 -0.043111898 -0.015378851 0.015325231 0.023010587 -0.02910086
-0.028203731 0.014012318 0.033098985 -0.051319 0.0010196171 0.00033724256 -0.028118242 -0.02519457
0.03957992 -0.0420474 -0.0316208 -0.032185633 -0.0057545938 -0.04782326 0.0291097 -0.024573637
0.023298746 -0.023765326 0.0154167395 0.027406089 -0.036830734 -0.002501017 -0.004000544 0.043004584
0.008998803 -0.019859077 0.002305025 -0.03550727 0.014831061 -0.0016589514 -0.049441658 0.016749585
-0.012771641 -0.007076506 -0.03529417 0.028892934 0.0014982237 -0.06038051 9.4552306e-05 -0.017045664

layer1.bias f4 [128]
00000000: e45e 8d3c c27a 54bd e783 4bbd 1eaa debc
00000010: ba85 1b3d 1726 40bc a966 7a3b 1289 35bd
00000020: 852e 32bc bd53 973c eda0 9b3c 3f5c 163c
00000030: ba76 61bd 73d5 78bc 60b8 cb3c d768 3d3c
00000040: 454a 9dbc 58dd eabc 4993 f9ba 5107 8abc
00000050: 690b 82bc b73d 04bd 7f72 a83c dad1 debc
00000060: 6058 7c3d b7c9 353d 26df aa3c 06d1 d0bc
00000070: 8e21 21bd c016 cd3d f155 dfbc 65c0 393d
00000080: b609 193d 6a7b 07bd a33d babc e6f2 60bc
00000090: 9954 81bc fa6c dd3c c640 89bc a7f3 333d
000000a0: a9d4 0cbd 5e6b 45bb 91d1 993c c6cc 7abd
000000b0: 0333 32bd 30b5 4ebd 2fd4 133d 41df 5cbd
000000c0: 41b7 0a3d d632 3e3d 4826 8cbc f69c deba
000000d0: 5854 92bc 47f5 dcbc 8942 24bc 99cc 45bd
000000e0: 4607 50bd 9cbb b43c 5b49 5dbd b408 b5bb
000000f0: 5dc8 913d db48 6cbb a240 7dbc b3f2 e83b
00000100: a10f 1abd fa62 04bd 7f84 e4bc 966b ecba
00000110: 7907 55bd 0f80 16bd 4e46 7cbc 3a2a 203d
00000120: 3020 f3bc 365a 1d3d 24e1 33bc e4d8 473c
00000130: 53e0 18bd 055c 57bc c6e2 22bd af7d a7bc
00000140: caf9 563d 013a 35bc 2d25 243d eb1d 913c
00000150: f6e3 933c 6c85 09bd 4de1 84bb 2ab0 62bd
00000160: 1166 a33c 549c f33c ff8b 353c 390b 0bbd
00000170: ee99 ac3c ca6c 7dbd c99f 4bbd 6036 27bd
00000180: 3300 313b a83e 963c 16cb 6b3c abd1 b33b
00000190: c0da b0bc 97d8 333c de89 b7bc f343 27bd
000001a0: c4c1 873c 7431 00bd e120 1b3d 8f57 4c3c
000001b0: f5bb 9e3c 9049 2ebd 3b9d 75bd 2f8e eabc
000001c0: e2b2 843c 012b 163d f07b f53c 844b babc
000001d0: 1b56 8abc 9e81 96bc 3dfc c93c 3629 10bd
000001e0: 35ae 8a3b 55c0 41bd 62c9 473c fcd1 8ebc
000001f0: 2728 b9bc 471a 333d 8065 28bd 524a 193b
0.017257161 -0.051874883 -0.04968634 -0.027180728 0.03796933 -0.011727831 0.0038208163 -0.044320174
-0.010875349 0.018472547 0.018997634 0.009177267 -0.055044867 -0.015187609 0.02486819 0.01156064
-0.019200454 -0.028669998 -0.0019041087 -0.016849192 -0.015874581 -0.03228542 0.020562408 -0.027199674
0.06160772 0.044381823 0.020858359 -0.025490295 -0.03933864 0.10014105 -0.02726266 0.045349497
0.037362777 -0.03307668 -0.022734469 -0.0137297865 -0.01578741 0.027029503 -0.01675452 0.043933537
-0.034382496 -0.003012381 0.018776687 -0.061230443 -0.04350568 -0.050465763 0.036091026 -0.05392385
0.03386617 0.0464352 -0.017108098 -0.0016984034 -0.017862484 -0.026972426 -0.010025629 -0.048290823
-0.050788186 0.022062115 -0.054025035 -0.005524719 0.071182944 -0.0036054167 -0.015457304 0.00710901
-0.03761256 -0.032320954 -0.02789521 -0.0018037434 -0.05200908 -0.03674322 -0.015397621 0.03910277
-0.029678434 0.03841611 -0.010978971 0.012197707 -0.037323307 -0.013144498 -0.03976705 -0.020445673
0.05248431 -0.0110611925 0.040074516 0.017714461 0.018053036 -0.033574507 -0.0040551783 -0.055343784
0.01994613 0.029737629 0.011080741 -0.03394625 0.021069493 -0.061871327 -0.04971293 -0.04082334
0.0027008175 0.018340424 0.014391681 0.005487641 -0.021588683 0.010976932 -0.022404607 -0.040836286
0.016571887 -0.031297162 0.037873153 0.0124720475 0.019376734 -0.042550623 -0.0599644 -0.028632252
0.01619858 0.036662105 0.029966325 -0.022741087 -0.016886761 -0.018372353 0.02465641 -0.03519555
0.004232193 -0.047302563 0.0121940095 -0.017434113 -0.022602154 0.043726232 -0.041112423 0.0023390246

layer2.weight f4 [128, 128]
00000000: eb14 b13a 60f8 9a3c d022 c8bc c5a1 3c3c
00000010: 12c1 9c3c ee06 073c c002 d1bc 2449 84bc
00000020: b652 623c 3ac6 0ebc 095f 2ebc 8652 7cbc
00000030: ca02 d93c b093 473c be9b 9e3c c449 9abb
00000040: 7278 703b c200 cd3c a417 c2bb 2468 d9bc
00000050: 5c54 c2bc c2df 2ebc 99fd 9a3c f5c0 45bc
00000060: ab66 c43c 6704 bc3b 66a5 d83c a256 1ebc
00000070: 315d 84bc 54da b93c bf8f e1bb 1f92 553c
00000080: 3603 923c a24f 1d3a 8315 043c 9164 eebc
00000090: 9a37 ef3c 7ea2 013c a759 83bc cd44 f43a
000000a0: 0668 333c a212 99bc 2a93 91bc 6928 8cbc
000000b0: 5af2 95bb 92ee 2fbc 5ad8 b9bc a5bc 98bc
000000c0: 2527 763c 7cc2 053c 0007 4f3c 462d a4bc
000000d0: 2cb1 233b 3b00 4dbb b6be 7bbc 89c0 793c
000000e0: 744f 0ebc c9c1 d8bc 689b c43b 4e24 9a3c
000000f0: d003 9abc b893 783c ba1a cd3c de55 ac3c
00000100: c6c1 38ba 5dc6 94bb 166e e13a 6a58 febb
00000110: 2997 ecbc 9cd5 513b c8a8 ad3c f297 353c
00000120: 5f4c 3d3b a7da f53a c1bc 183c 9960 d7bc
00000130: f1a7 a43c d5b9 96bc ca9a ba3c 924e fcbc
00000140: 3137 cb3c ae65 8d3b 6522 eebc b2b1 7fba
00000150: d647 6cbc 3717 ecbb 5bc5 733c b646 33bb
00000160: 8446 d6bc 701d 6f3b bd94 003c 2905 b3bb
00000170: 0c24 1ebc e1fe bcbc 4ac4 c5bc ba55 f7ba
00000180: be20 b13b 24df 273b bd43 a4bc 5c27 f0bc
00000190: bde5 7abc b28b 503c 05ef c1bb 2241 febc
000001a0: d8a0 b33c 837c eeba a507 763c 1b30 b6bb
000001b0: 4471 86bc e011 693c fd68 d13a 2437 9d3c
000001c0: 2e08 35bc 88a7 153c 205a b8bc 5c8f 92bb
000001d0: 1c60 9e3b 0d15 443b fede b83c d382 583c
000001e0: 34b1 483c 66c7 32bb f708 083b 0bea febb
000001f0: bff7 2bbc dc72 513b 0b38 ea3c 135b d6bc
00000200: a081 fc3b 4fee 3abb 3b61 24bc 8291 7f3c
00000210: 3af3 c93c f018 61bb f774 b23c 1cb8 bfba
00000220: 75ba bc3c 47e9 bfbc 1c00 e03c fa40 febb
00000230: 9cbd a53b ce85 cabb 7fa8 5abb 4130 83bc
00000240: 2309 483b c4c2 71bc b449 d43c 7cac 1d3c
00000250: e3f2 80bc fa5a c03c f613 30bc 2daf c33c
00000260: d12a 39bb 6dc9 633a 1fbe 2fbc 45a5 863b
00000270: 82e3 e93c 9321 45bc 70ff 8e3b bcc7 cc3b
00000280: 1643 ffbb fb93 523a 97e8 c33c e56c 973b
00000290: 4d76 dbbc 89ba c9bc 6ff4 bbbc 3280 d0bc
000002a0: a460 50bb 4cc2 813c 370c e0bb 6017 113c
000002b0: 504a 8f3c 0770 523c b351 96bc a67b 0cbc
000002c0: 9015 673b a561 b63b e604 ab3c e3c7 fabc
000002d0: ba1a 853c 1ae1 dcbc b580 ae3c f555 ccbc
000002e0: 05f4 903c 0488 133b ccd1 dcbc 6755 a33b
000002f0: fe67 febc 8e28 b13b c003 9ebc b067 7cbc
00000300: 961e bebb 6a2c 6f3c c234 e9bc 0637 8a3b
00000310: af0c 723c 2352 e9bc 51cb 803a 1f92 a13a
00000320: 2f3c 85bc 9570 bdbc 1754 123c a124 a0bc
00000330: 80be c0bc 8d41 42bc 1b27 d33b 3195 e5bc
00000340: 223e d1bc 3522 60bc 8bb7 473c 3d1f 96bc
00000350: 9619 a2bc 799e a63c 62a5 ed3a 2c53 9d3c
00000360: 4b49 623c 92f6 a0bc 0db3 f7bc d82f 8abb
00000370: e11e e2bc 35d1 47bc beae f03c f50e e7bc
00000380: cf57 0bbd 91dc a73c 88d2 fc3b d510 493b
00000390: fd61 9bbc b985 b73c c1a1 d53b 20c4 adbb
000003a0: ff4c a9bc 1f41 66bc 9bf1 5d3c 4dc2 61bb
000003b0: 0d86 8ebc 0dae 0dbb f483 99bc 99df 563c
000003c0: 32c2 b0bb fd90 cd3c 37cf d73c 9a00 cfbc
000003d0: 68a4 433c 9ce5 cc3c cfc2 653c 34ae 88bb
000003e0: 601a 663a bb23 043c e776 cdbc 6163 2f3b
000003f0: 8ea8 0739 8832 443c d583 0f3c 367e d3bc
0.0013510262 0.018917263 -0.024430662 0.011513178 0.019135032 0.008241398 -0.025514007 -0.016148157
0.013813665 -0.008714253 -0.010642775 -0.0154005345 0.026490588 0.012181208 0.019361373 -0.0047085006
0.0036692885 0.025024775 -0.0059232283 -0.026538916 -0.023721866 -0.010673465 0.018919753 -0.01206993
0.023974737 0.0057378295 0.026446056 -0.00966421 -0.016157718 0.022687115 -0.006883591 0.013035326
0.017823797 0.0006000941 0.008061769 -0.029100688 0.029201318 0.007912276 -0.01603396 0.0018636227
0.010950094 -0.018685643 -0.017770369 -0.017109113 -0.0045760097 -0.010738032 -0.022686172 -0.01864464
0.015023981 0.0081640445 0.012635946 -0.02004112 0.002497743 -0.0031280655 -0.015365293 0.015243658
-0.008685935 -0.026459591 0.005999971 0.01881614 -0.018800646 0.015171938 0.025037158 0.021037038
-0.00070479175 -0.0045402483 0.0017198946 -0.0077620046 -0.028880673 0.003201819 0.021198645 0.01108359
0.0028884632 0.001875718 0.009322346 -0.026291179 0.020099612 -0.018399158 0.022778887 -0.030799184
0.02480659 0.0043150997 -0.029069135 -0.00097539567 -0.014421424 -0.007204916 0.014878596 -0.002735538
-0.026156671 0.0036486052 0.007847962 -0.0054632616 -0.009652149 -0.023070754 -0.02414145 -0.0018870153
0.0054055145 0.002561518 -0.020051831 -0.029315643 -0.015313563 0.012728618 -0.005918386 -0.031036917
0.021927282 -0.0018195066 0.015016471 -0.005559934 -0.016411431 0.014225453 0.0015976724 0.019191332
-0.0110493135 0.009134181 -0.022503912 -0.004472656 0.0048332345 0.0029919774 0.022567268 0.013214785
0.01224928 -0.0027279495 0.0020757297 -0.007779365 -0.010496079 0.003195933 0.028591176 -0.026166474
0.007705882 -0.002852339 -0.010032947 0.015598657 0.024652112 -0.003434714 0.021784289 -0.0014627012
0.023038128 -0.023426665 0.027343802 -0.0077592107 0.0050580036 -0.0061805015 -0.0033364592 -0.01601422
0.0030523024 -0.014755908 0.02591405 0.009623643 -0.015740817 0.023480881 -0.010746947 0.023887241
-0.002825428 0.00086893776 -0.010726481 0.004109057 0.028550867 -0.0120319305 0.0043639466 0.006249396
-0.0077899797 0.0008032915 0.023914618 0.0046211355 -0.026789809 -0.02462508 -0.022943703 -0.025451753
-0.0031795884 0.015839718 -0.0068373936 0.008855671 0.01749149 0.012844092 -0.018349504 -0.008574402
0.0035260655 0.0055658394 0.02087636 -0.030612892 0.016248096 -0.026962806 0.021301607 -0.024943331
0.017694483 0.0022511492 -0.026955508 0.004984546 -0.031055447 0.005406446 -0.019288898 -0.01540558
-0.005801986 0.0145979915 -0.02846754 0.004217985 0.014773532 -0.028481549 0.0009826218 0.0012326873
-0.01626405 -0.023124972 0.008931181 -0.019548716 -0.023528337 -0.011856449 0.0064438707 -0.028025242
-0.025542323 -0.013680031 0.012189756 -0.018325442 -0.019787591 0.020339238 0.0018130953 0.019204699
0.01381142 -0.019648824 -0.030236745 -0.004217129 -0.027602615 -0.012195875 0.029380199 -0.028205374
-0.034019288 0.020490916 0.007715527 0.0030680199 -0.018967623 0.022402631 0.0065195267 -0.005302921
-0.020666597 -0.014053612 0.013546373 -0.0034448088 -0.017397905 -0.0021618635 -0.018739678 0.013114833
-0.0053942436 0.02509355 0.026343925 -0.025268842 0.011941053 0.02501183 0.014023497 -0.0041711573
0.0008777734 0.008065159 -0.025081111 0.0026762115 0.00012937395 0.011974938 0.008759459 -0.025817018

layer2.bias f4 [128]
00000000: a093 d8bc 4273 bfbc 6755 f9bc 8a4c 3c3d
00000010: 4c37 a43d 6a58 f7bc c1cd 3dbc 00d8 5abc
00000020: 5696 59bc c3fc 34bd 6e92 963e ee1a 593d
00000030: f22a e6bb cd52 8e3e 86d1 9f3e 1ce7 833d
00000040: 27fa 9dbc 479e f5bc eba7 33bb dce4 863d
00000050: bcfd 393c 6f99 793d 763e 213b 51a3 19bd
00000060: 0b57 0bbd fd37 0bbd ace4 ef3d ca65 b23e
00000070: ee51 00bc 4a75 eabc 9191 d1bc 6e83 eabc
00000080: 525f baba cf27 84bc 7189 dbbc bd2c a43e
00000090: c960 5fbc 9210 c4bb d76a 9ebc 29c7 bb3d
000000a0: a0d8 90bd d063 21bd 9062 be3a 71c9 dabc
000000b0: d7f3 2fbd 44fb e4bc 28e9 a5bc 045a babc
000000c0: 0fd6 3e3d 4d19 a33e 0720 28bc ee1c 813c
000000d0: bcd7 a03d dc65 8c3e 5a77 4cbb 789a d8b9
000000e0: a1a2 b9bc ab9d 2fbc 9f7d 17bd f332 39bb
000000f0: d4aa 8abd 648a cfbc 8669 5d3e da6f 163e
00000100: 8d13 51bc 6022 dabc 8490 00bc 7144 0dbd
00000110: 6f01 af3b 59b2 b7bb 0487 31bc faa0 2fbc
00000120: 5e1e a43e 7b62 973e 2aaf abbb d6d9 8abc
00000130: 96c6 8cbc 04d8 0abd 67c4 9cbc 8b4b 883e
00000140: 24c6 153e 27fa 1dbb f90e eebc 4cd6 143c
00000150: f069 02bd 10a8 03bd f38f 9c3e a17f 78bc
00000160: a3a9 8fbd 84ff 4b3b 9e90 a53e 6d85 823e
00000170: 8752 91bc f992 9e3e 555a 90bc a6c9 d5bc
00000180: d277 a5bc 01ce 923d 8715 c8bc 7da1 cfbb
00000190: 19e4 50bc e14d 9c3e 3320 76bc d361 d8bc
000001a0: a9fe 383d f003 80bb c3a0 a0bc 9e57 393d
000001b0: 226e bb3d bf27 efbc 7138 d03d f9ce 8e3e
000001c0: 5b43 d4bc d26f 33bd 353f a9bc 1021 81bc
000001d0: 1b43 923e e12a e9bc 9b2e a63e 7030 22bd
000001e0: 462b 29bc 6fa9 2f3e 265f c5bc 2f6b 85bd
000001f0: b52d 42bc 6a24 063e 9d91 0fbc afb7 0bbd
-0.02643758 -0.023370389 -0.03043623 0.04597143 0.080183595 -0.030193526 -0.0115847 -0.0133571625
-0.013280472 -0.044186365 0.29408592 0.053004198 -0.0070241624 0.27797547 0.3121454 0.06440565
-0.019284321 -0.0299827 -0.002741332 0.0658662 0.011351999 0.06093734 0.002460388 -0.037509266
-0.034018558 -0.03398894 0.117135376 0.34843284 -0.007832034 -0.02862038 -0.025582107 -0.028627124
-0.0014219081 -0.016132263 -0.026798936 0.32065383 -0.013633915 -0.0059834206 -0.019338055 0.09168846
-0.07072568 -0.03940183 0.0014525224 -0.026707383 -0.042957153 -0.027951844 -0.02025278 -0.022748
0.04659086 0.3185524 -0.010261542 0.015760865 0.07853648 0.27421463 -0.0031199069 -0.0004131382
-0.022660555 -0.010718743 -0.036985036 -0.0028259128 -0.06770864 -0.025334544 0.21622285 0.14691105
-0.012761009 -0.02662772 -0.007846955 -0.0344891 0.005340747 -0.0056059775 -0.010835413 -0.010719532
0.32054418 0.29567322 -0.005239387 -0.016949575 -0.017184537 -0.033897415 -0.01913662 0.26620135
0.14626366 -0.0024105401 -0.029059874 0.0090842955 -0.03183931 -0.0321427 0.30578575 -0.015167148
-0.070147775 0.003112764 0.32336897 0.2549242 -0.017739547 0.30971506 -0.017621199 -0.02609713
-0.020198736 0.071681984 -0.024424328 -0.0063363896 -0.012749695 0.30528167 -0.015022325 -0.026413834
0.045164738 -0.0039067194 -0.019607907 0.045249574 0.091518655 -0.029193757 0.10167015 0.27892283
-0.025911024 -0.043807812 -0.020660022 -0.015762836 0.28566822 -0.028462829 0.32457432 -0.039596975
-0.010325259 0.17154478 -0.024093222 -0.06514584 -0.011851718 0.13099828 -0.008762744 -0.03411072

layer3.weight f4 [128, 128]
00000000: 1ece 2e3c 6973 36bc 0ee7 c93c 7119 bfbc
00000010: 058e 2d3b dc82 cb3c c8aa 403c 6b02 8fbb
00000020: 0d2c 473c 49bf 93bc b677 ddbc fc45 ab3b
00000030: dab1 55bc 255f 3d3c 5d9f be3b 7c5a fcbc
00000040: 4a9d b5ba bc0e f4bb 4bdd e4bb af24 2ebd
00000050: 86b1 cc3c cbbd 8b3c 47bb b23c 860f 443c
00000060: 02c7 debc 37b7 863b 171a 553c 33b0 713a
00000070: d19e 9dbc 09a7 af3c 64c7 efbb 7b11 e9bc
00000080: a303 2d3c 2a74 9dbc 5369 843b 98ff 923b
00000090: 9a76 d23c c674 4ebc b628 a73c 1dd7 153c
000000a0: 1b40 4bbc 8b97 abbc 84f1 62bc bb00 32bc
000000b0: 6631 d93c 4996 ac3a 2301 643c e9e3 8a3c
000000c0: 5971 cabc 9038 3f3c d070 323c 7de9 e2ba
000000d0: 5338 13bc 37a5 843a 8bf1 70bc 900d 1ebc
000000e0: 3f65 4dbc dba7 f73c cb61 80bb db87 94bc
000000f0: 9491 e53b 6284 b5bc 1861 cabc f9b3 89bc
00000100: e1b3 55bc c546 1ebc 67ae 073c 715a 87bb
00000110: a5fc 36bc bf75 923c 6f8c c1bc 2abb dbbc
00000120: 8ead bbbc e0e3 13bc 537a 063c aaca 12bb
00000130: adca a1bc cb63 8c3c 3bb4 be3b cdce f7bc
00000140: a27c ecbc 3866 273b 32f7 b53b 2065 803c
00000150: 1afb 993b ea73 0abb 2c79 1dbc 390d 793b
00000160: a70c 2fbc 659e 9cbc f398 3bbc eadf 02bd
00000170: 0f5a eb3b 16bb 543c 332d 55bc 5466 22bc
00000180: 1a8b 2dbc ab54 253c 9034 86bc 56c4 113c
00000190: f2af b03c 4925 01bc f20b f3ba 7631 b53c
000001a0: de70 ad3c a3e4 f33a f795 e03c e209 b0bc
000001b0: 5214 913c fc6f 9dbc b420 90bb eb0a 04ba
000001c0: 2347 eb3c 1275 5b3c a6e8 843b 6363 28bc
000001d0: 0a16 26bc 4676 aa3c 6cb0 43bc 5919 a23b
000001e0: 1d8b 42bb b00f c03c 17de a7bc 0b0f 96bc
000001f0: ff1e d23b 7dde 9d3b 139b b83b d842 cfbc
00000200: aa4a bdbc 62ec bfbc 0df8 46bc a1da 89be
00000210: f7bf 7cbe 2bc9 55bc e5da 58bc d73b 513a
00000220: 300c 10bd bad0 02bc 04be b13d e72d 533e
00000230: d138 73bc 1e43 d03d 9604 c13d 26d2 1a3e
00000240: 6d43 c93c aaf6 13bc 2ee5 68bb ab01 833e
00000250: 13f1 00bd f909 5ebe 599f 0f3c 2258 61bc
00000260: c122 fc3c 3cdf 233b 9eb7 febe 5cf8 f33d
00000270: 079c bebc d3b1 33bb c73e 903c 2cbf a3bc
00000280: a788 043d a98e 323d 0407 973b 6cf1 c53d
00000290: d04d 25bd 2863 9b3c 6369 19bd 257c 08bf
000002a0: 2304 073c 5071 babc b9c0 a73b 52cd f03b
000002b0: 0e02 5e3c 9d36 f73c 26b7 253b b293 b83b
000002c0: dae7 04bf 5d7b 983d 2426 66bc b534 dcbe
000002d0: fd73 f1be 08da f53d ef2f 8cbc 0f2a 7a3c
000002e0: db82 fabb e3f7 79bc 0b26 81ba 1362 f0bc
000002f0: 4e59 b7bd 2a05 223b caf3 2b3e 5796 acbe
00000300: 40b3 0fbc e556 52bd 8de3 47bc 6094 50bc
00000310: 4c7c 303c c839 64bc ca14 21bc 7a0e 9dbc
00000320: 5936 f63d 2967 ca3d eee8 a6bc 417f 10bc
00000330: 986b 0bbc d2c5 86bc 296e b03c 4648 353d
00000340: 853d babe f24c 483c 18ef 9cbb 7704 853c
00000350: a4be 903c de09 d2bc a1b8 3d3e 6980 69bc
00000360: 7261 e4bc 0a51 693d bb07 083e 70c8 0f3e
00000370: 32a2 cebc 9c1f b63d e191 b7bc 4fc0 bf3b
00000380: b3a6 a33a 5a3d 6c3d 1dce 243c 4d43 b03b
00000390: 12a3 08bd a732 083e 1b60 a2bb 833c d1bb
000003a0: 02e8 15be efb6 d2bc 736c d6bc 1944 c6bc
000003b0: 152a 07bf 4f46 b0bc 7f01 06bf 3494 d03d
000003c0: 0000 ddbb 51e5 543c 2e35 1c3c 1cf0 89bc
000003d0: c2da c7bb ab78 d5bb 5d8e 8b3d 67af ebbc
000003e0: 91ac c6bc 259f b5be 42f3 df3c 94ee a4bd
000003f0: ceee 8dbc ee0f 04bf 67b2 8e3c 9c0c d1bc
0.010669259 -0.011135914 0.024646308 -0.023327561 0.0026482355 0.024842672 0.011759467 -0.004364302
0.012156499 -0.018035548 -0.027034622 0.0052268486 -0.013042891 0.011558329 0.0058173374 -0.030804865
-0.001385608 -0.0074480455 -0.006984388 -0.042515453 0.024986994 0.017058274 0.021817816 0.011966592
-0.027194504 0.0041111964 0.013006709 0.0009219676 -0.019240769 0.021441953 -0.0073174704 -0.028450718
0.010559949 -0.01922043 0.004040876 0.0044860356 0.02569132 -0.012601083 0.020405155 0.009145525
-0.012405421 -0.020946285 -0.013851527 -0.010864432 0.026512813 0.0013167347 0.013916287 0.01695438
-0.024712251 0.0116712 0.010891154 -0.0017312017 -0.008985597 0.0010120039 -0.014706026 -0.009646788
-0.012536346 0.030231407 -0.003917908 -0.018131187 0.0070058797 -0.022157852 -0.024704501 -0.01680945
-0.013043375 -0.009660427 0.008281327 -0.0041306545 -0.011168634 0.017878411 -0.023626534 -0.026822645
-0.022909906 -0.009026498 0.008207875 -0.002239863 -0.019749964 0.017137429 0.005819825 -0.030249977
-0.028868023 0.0025543105 0.0055531496 0.01567322 0.004699123 -0.002112622 -0.009611409 0.0038002266
-0.010684169 -0.019118497 -0.01145004 -0.031951822 0.0071823667 0.012984058 -0.013011265 -0.009912092
-0.010592246 0.010090987 -0.016382486 0.008896908 0.021568272 -0.007882425 -0.0018542989 0.022118311
0.021171983 0.0018607568 0.027415259 -0.021489087 0.017709885 -0.019218437 -0.0043984298 -0.00050370273
0.028720444 0.013394611 0.004056054 -0.010277602 -0.01013709 0.02080835 -0.011943918 0.0049468693
-0.0029684969 0.02344498 -0.020491643 -0.01831772 0.0064123864 0.0048177824 0.0056337207 -0.025300428
-0.023106892 -0.023428146 -0.012144101 -0.26924613 -0.24682604 -0.01304845 -0.013235782 0.0007981634
-0.035167873 -0.007984335 0.08678821 0.20622979 -0.014845089 0.101690516 0.09424703 0.15119228
0.024568284 -0.009030977 -0.0035536992 0.2558721 -0.031479906 -0.21683492 0.008766019 -0.013753923
0.03077829 0.0025004884 -0.49749464 0.11912605 -0.023267759 -0.0027419224 0.01760806 -0.019988619
0.032356884 0.043593083 0.0046089906 0.09665188 -0.04035741 0.01896818 -0.03745402 -0.5331443
0.008240732 -0.02275911 0.00511941 0.007348695 0.013550295 0.030177409 0.0025286167 0.005632841
-0.5191628 0.07445405 -0.014047179 -0.43008962 -0.47158805 0.12004477 -0.0171127 0.015268817
-0.0076449937 -0.015256855 -0.0009853257 -0.02934364 -0.089525804 0.0024722316 0.16792217 -0.3370845
-0.008770764 -0.0513524 -0.012200248 -0.012730688 0.010771822 -0.013929792 -0.009831617 -0.019171942
0.12022085 0.098829575 -0.020374741 -0.008819402 -0.008509539 -0.01645175 0.021536903 0.04425838
-0.3637506 0.012225376 -0.0047892444 0.01623748 0.01766903 -0.02563947 0.18527462 -0.014251807
-0.027878497 0.05696205 0.13284199 0.14041305 -0.025223825 0.08892748 -0.022408428 0.0058517824
0.0012485593 0.057675697 0.010058907 0.0053791166 -0.03335864 0.13300572 -0.0049553043 -0.0063853874
-0.14639285 -0.025721995 -0.02617476 -0.024202393 -0.5279859 -0.0215179 -0.5234603 0.101845175
-0.0067443848 0.012994126 0.009534163 -0.016838126 -0.006099076 -0.006514629 0.06814263 -0.028770162
-0.024252208 -0.3547298 0.027337674 -0.08053318 -0.017325785 -0.51586807 0.017419053 -0.025518708

layer3.bias f4 [128]
00000000: 9ace ffbc c246 3c3e 3d5c 013b f109 a13e
00000010: 7dd6 e0bc 9e63 00bd 1f29 6f3e f97c d6bb
00000020: 6199 cc3e efc8 edbc b57a b4bc 7301 ddbc
00000030: ca9c 02bc 4092 9bbc 8e8a 01bd ebeb 003c
00000040: 47d9 dcbc 7f66 20bd c650 dcbc 067b 09bc
00000050: d6f7 29bc 43a2 333c 09c7 cf3e f0c1 babc
00000060: 5036 41bd 35a6 843b 8ce0 c2bc 902f c93a
00000070: 8eac 0cbd f181 893a 73c4 45bc b818 62bc
00000080: 3225 e2ba 5790 4bbd cb92 0fbd 94a2 b7bc
00000090: 9869 c1bc 1b3e a93e 785e b7bc 720e d23e
000000a0: 7ce8 81bc 0431 be3e 8d0f 52bb 34c6 4e3e
000000b0: 78f4 c6bc e5af 1cbc 1d20 c93e d734 dd3e
000000c0: f229 4f3e 1fb4 1cbc 8977 dcbc 7ec4 dabc
000000d0: 7628 c63e c5a4 beba 43ff f6bc b031 caba
000000e0: d472 aa3a 3616 093c 3e58 8c3c 0f70 1fbb
000000f0: dd1c 5bbc 1680 d0bc 15ff bdbc 8ea5 0bbd
00000100: fdbc 55bc 2125 be3e 70a2 92bb f132 ba3e
00000110: 822e acbc 238e 3bbd 313e 96bc 8ed6 03bc
00000120: 802d 2bbc 0102 eabc 091d b6bc c0e9 b33e
00000130: e46a 193e 76e0 ba3e ce9a 72bc a0f3 f63c
00000140: eb5e aabc 978a b63e b502 c5bb fc39 09bd
00000150: 0b3c 91bc 2009 27bc 8025 98bc cb34 a13e
00000160: f05d 13bc 001f 093c f910 bcbb 7dd9 55bc
00000170: 4556 a8bb 1ceb 4abc 2915 c03e 4e73 06bd
00000180: a018 11bd 1a9d c53e 679a 6bbc ec09 2a3c
00000190: d9b5 8a3e 17a7 2abb 6304 17bc 10b2 12bc
000001a0: 96ff c1ba 715e 62bc 9430 6fbc 3ad1 afbc
000001b0: a013 053e e77d debc 7e55 e9bc 0526 d4bb
000001c0: 5812 89bc 750a 0cbd 5273 c8bc 0599 9b3e
000001d0: 6f64 dc3e a906 c53e b7e4 85bd c546 d83e
000001e0: c13b 813b 9bfa 433e 99dd eabc c54b 323c
000001f0: d5eb b7bc 7ffb d2bc 6f09 1abd 939b 2e3c
-0.031226445 0.18386367 0.0019738816 0.31452897 -0.027446026 -0.031345002 0.2335553 -0.0065456596
0.3996077 -0.029026477 -0.022031168 -0.02697823 -0.007971952 -0.018990636 -0.031626277 0.007868747
-0.026959075 -0.039160248 -0.026893985 -0.0083911475 -0.01037403 0.010963979 0.4058154 -0.022797555
-0.047170937 0.0040481337 -0.023788713 0.0015349258 -0.03434425 0.0010490996 -0.012070763 -0.013799839
-0.0017253517 -0.0496982 -0.035052102 -0.02241639 -0.023609921 0.33055195 -0.022383913 0.41026646
-0.015857928 0.3714677 -0.0032052726 0.20192796 -0.024286494 -0.009563421 0.39282313 0.43204376
0.20230845 -0.009564429 -0.026912468 -0.026705023 0.38702744 -0.0014544955 -0.030151015 -0.0015426185
0.0013004192 0.008367112 0.01713192 -0.0024328267 -0.013373581 -0.025451701 -0.023192922 -0.034093432
-0.013045547 0.37137702 -0.0044749305 0.3636699 -0.02101827 -0.04578985 -0.018340202 -0.008046759
-0.01044786 -0.028565409 -0.022230642 0.35139275 0.14982182 0.36499375 -0.014807416 0.030145466
-0.020797214 0.3565261 -0.0060122856 -0.033502564 -0.017728826 -0.010195047 -0.018572569 0.3148559
-0.008994564 0.008369207 -0.005739328 -0.0130523415 -0.0051372373 -0.012385156 0.37516144 -0.032824807
-0.035423875 0.3859642 -0.014380074 0.010378342 0.27091864 -0.0026039535 -0.0092173545 -0.008953586
-0.0014800902 -0.013816462 -0.014598984 -0.021462072 0.12995768 -0.027159644 -0.028483149 -0.006474259
-0.01673238 -0.03418966 -0.024469052 0.30390182 0.43045375 0.38481644 -0.065377645 0.42241493
0.003943891 0.19138567 -0.02867012 0.010882323 -0.02245132 -0.025754688 -0.037606653 0.010657209

output_layer.weight f4 [9, 128]
00000000: ba4d 353b 894c 913e 36aa eabb d3d3 f43d
00000010: 57ae d73c 4618 abbb 1f20 3ebc 5262 4cbc
00000020: 431a 9f3e 9fd9 52bc 29c7 963c 9004 c23c
00000030: 1e6f 533c 06d9 d2bb ece3 823c 9a3c dbba
00000040: 709b 94bc 8960 1a3c 9bd7 0aba 3bce 30bc
00000050: 3375 243c b7f2 03bd f207 853e 026e fd3a
00000060: ed5a bdbc 6c49 023d e20c 213b 9238 3dbc
00000070: a7c2 70bb a931 233b e7ae d33a f65b df3b
00000080: 09a7 8fbc 9a92 833c 2feb 8abc c255 9f3c
00000090: bbe6 ccbc 5700 a93d 1849 4abc 877d 9e3e
000000a0: 35f5 84bb d3b7 8b3e 2ab4 0cbb 9a27 933e
000000b0: 9085 863c 058d ee3b ab91 723e 0ba3 853e
000000c0: 166f 903e 5567 d4bc 744e ebba ff0e bcbc
000000d0: abdb 2e3e 74f6 283d 6892 9fbc 8070 673c
000000e0: 974f 9b3c a487 c63c 38ed 36bc 4f66 183c
000000f0: 9ccc ca3c ed45 8bba 5bff da3c b369 e53c
00000100: d50d b23c 3657 5f3e 545d 563b f68e 873e
00000110: ab35 6d3b f59a 86b9 ea13 0b3c c4da 8f3c
00000120: 17fc b1bc 40c0 933c 7430 363c 65b9 963e
00000130: b212 343e 2890 953e 747a c2bb e09b ad3a
00000140: 1b29 863c 4bf3 923e d35b 99bc 8105 d6bc
00000150: 2689 f6ba 868a acba b899 df3b 3c02 5c3e
00000160: aae7 2d3c 9337 12bc 442d 83bc 4cd6 2d3c
00000170: 9bbe 07bc 0671 cfbc 35b6 1c3e 64d4 c43b
00000180: c6e0 bfbc 99c0 903e d1d7 a43c f609 943c
00000190: c258 ae3e 0936 163d 276e 05bb c647 b4bc
000001a0: b664 0ebc 05fc d73b 42a3 ffba c804 6a3c
000001b0: a70c 83be 812d 913c 18c4 bebc 6883 213d
000001c0: 566f 7bbc ef64 a83c fc86 a5bc 9567 8d3e
000001d0: 8d85 943e 8a4f 1b3e 93ff 46bc 79a0 843e
000001e0: 3cb7 963c d0a6 48be b9f4 39bb 655d bf3b
000001f0: 51b6 97bc ca8a 5b3c 76a7 00bb a4cd 753c
00000200: 0afe 223c cbbd a53e de03 c73c 8447 f33d
00000210: 05dd 1f3c 0cbc be3c cd45 9b3c 2376 bf3c
00000220: 574a 943e a686 2bbd 8ad3 103b 26e4 b03c
00000230: 1340 923c 73d2 403b f9c2 93bc 8606 abbc
00000240: e3f7 efbb 907b 5c3c 8e0b b13c e1bf d9bc
00000250: 82f3 f3bc 5c3b 96ba 02d7 7d3e c5cd 10bb
00000260: 6578 2b3b 6331 af3a b810 763c cd1d 803c
00000270: 867a b1bb 3998 38bc ab8b de3b 99b9 1d3c
00000280: e691 e3bc 92f8 44bd 56b6 813c 8171 663c
00000290: 169f 91bc a463 d43d b639 d7bc 0f32 8c3e
000002a0: 3281 633b 1327 863e cae5 9fbc e07a 963e
000002b0: 0082 acbc 660e 8ebc d4e6 8b3e a465 7e3e
000002c0: d3d6 9e3e c941 8c3c 0b3c 4cbc e189 a53c
000002d0: 961f 503e 1d31 503b 1af6 14bc a91b e339
000002e0: d98c c83b 0026 bcbb e513 06bc 1302 a53b
000002f0: 1cc5 8a3c 69f8 8d3c c06d 8abc 4336 533b
00000300: 16f6 483b bbbd 6d3e 9f6b e43c 59eb 863e
00000310: ae05 e73c 2c88 8b3c 1ac9 063d c9f4 43bc
00000320: 9ba4 2b3c b0d6 d43c 1fe6 e03c 7fe2 903e
00000330: d8c3 4d3e 5fa2 863e 7878 933c fe98 7fbb
00000340: 8418 663c 39f5 8b3e b53c 17bc 78a2 b2bc
00000350: d955 c1bc a111 c4bb 3590 a53c ebea 653e
00000360: aad1 82bc 4280 86bc c447 49bc c636 cc3b
00000370: df12 963c 3667 c93a edbc 633e 5636 203c
00000380: 35b9 a83c 49f9 883e 2e2b 16bc 221e 933c
00000390: a441 a73e 77fc fd3c 8786 e63b 395f 223c
000003a0: 70f1 763c f791 a4bc af84 00bd ebc0 82bc
000003b0: d8a2 06be c74e 87bc 4013 bf3c 6940 8d3c
000003c0: 98ca 07ba 7ae6 f13a 0481 a43c e2df 8b3e
000003d0: 6943 8e3e bd1b 633e 3fee dd3a 7905 833e
000003e0: ecb6 a83b b7eb 6abe ebde 5aba 71a7 91bb
000003f0: e3fd 80bc 6373 b43c ac80 803c 05c4 93bc
0.0027664737 0.28378704 -0.007161404 0.11954465 0.026328249 -0.0052213995 -0.011604338 -0.012474613
0.31074724 -0.012869268 0.018405514 0.023683816 0.01290491 -0.0064345626 0.015977822 -0.0016726435
-0.018140525 0.00942243 -0.000529641 -0.010791357 0.010037708 -0.032213893 0.25982624 0.0019335153
-0.023114646 0.0318083 0.002457433 -0.011549132 -0.0036737116 0.0024901426 0.0016150147 0.0068163825
-0.017535703 0.016061116 -0.016957847 0.019450072 -0.025012365 0.08252018 -0.0123465285 0.30955145
-0.0040575513 0.27288684 -0.002146969 0.2874115 0.01642111 0.0072799944 0.2368838 0.26100954
0.28209752 -0.025928179 -0.0017952458 -0.02295637 0.17075984 0.04125066 -0.019478992 0.014125943
0.01895885 0.0242346 -0.011164956 0.009301736 0.024755768 -0.0010625698 0.026733091 0.028004503
0.021735111 0.21810612 0.0032709436 0.26476258 0.0036195319 -0.00025673924 0.008488635 0.01756037
-0.021726651 0.018036008 0.011119951 0.2943832 0.17585257 0.29211545 -0.0059350077 0.0013245307
0.016377022 0.28701243 -0.018720543 -0.026125671 -0.0018809184 -0.0013163842 0.0068237446 0.21485227
0.010614315 -0.008924383 -0.016012795 0.010610174 -0.00828519 -0.025322448 0.15303881 0.0060067642
-0.02342261 0.2827194 0.02012244 0.018071156 0.34052092 0.036672626 -0.0020359845 -0.02200688
-0.008691004 0.0065913224 -0.0019503611 0.0142833665 -0.2559559 0.017721893 -0.023286864 0.03943196
-0.015346369 0.020555941 -0.020205967 0.2761809 0.2900814 0.1516706 -0.012145895 0.2590368
0.01839792 -0.19594884 -0.0028374626 0.005839991 -0.018519552 0.013399789 -0.0019631064 0.015002642
0.009948263 0.32371363 0.024293836 0.11878875 0.009757285 0.023283027 0.018954182 0.023371762
0.28962967 -0.041876458 0.0022098743 0.021593165 0.017852819 0.0029422313 -0.018037306 -0.020877134
-0.0073232516 0.013457194 0.021611955 -0.026580753 -0.0297792 -0.0011461782 0.2478905 -0.0022095304
0.002616429 0.0013366159 0.0150186345 0.01563921 -0.0054162173 -0.011266761 0.006791552 0.009626769
-0.02777953 -0.048088618 0.015834015 0.014065147 -0.017776053 0.103705674 -0.026272636 0.27381942
0.0034714458 0.26201686 -0.019518752 0.2939062 -0.021058083 -0.01734085 0.27324545 0.2484346
0.31023273 0.017121213 -0.012465487 0.020207347 0.20324549 0.0031767555 -0.009091878 0.00043317422
0.006120306 -0.0057418346 -0.008183454 0.0050356477 0.016939692 0.017330365 -0.016898036 0.0032228387
0.0030664257 0.23216908 0.027883349 0.2635143 0.02820095 0.017032705 0.03290663 -0.011960217
0.010476257 0.025981277 0.02745348 0.28297803 0.2009424 0.26295754 0.01800178 -0.0039001103
0.014043931 0.27335528 -0.009230782 -0.021805987 -0.023600506 -0.005983547 0.020210365 0.22452895
-0.015969116 -0.01641858 -0.012285177 0.0062321154 0.018319545 0.0015365842 0.22240038 0.00977858
0.020596126 0.2675269 -0.009165568 0.017958704 0.32667267 0.031004174 0.00703508 0.009910398
0.015072212 -0.020089133 -0.031376537 -0.015961131 -0.13148057 -0.016517056 0.023324609 0.017242627
-0.000518003 0.0018455528 0.02008105 0.27319247 0.27785805 0.2217855 0.0016931965 0.25590113
0.005148759 -0.2294148 -0.00083492574 -0.0044450094 -0.015746063 0.022027677 0.015686356 -0.018037805

output_layer.bias f4 [9]
00000000: ae25 833e 3b17 933e 1df9 743e 5475 383e
00000010: ee29 513e 80d7 2b3e 9c14 393e b986 4c3e
00000020: e34e 893e
0.25614685 0.2872866 0.23923154 0.18013507 0.20426151 0.16781425 0.18074268 0.19973268
0.26817998
