results/train/SAC_distance_30m_rerun/best_model.pt (torch, 184143 bytes, 6 tensors)

linear1.weight f4 [192, 40]
-0.09696482 -0.010592478 0.09363861 0.36175433 0.07023024 0.086947516 0.34981441 -0.032208126
-0.052226804 0.16944449 0.13532832 0.04297305 -0.012459296 -0.049295694 -0.066136725 -0.09430536
-0.053374723 0.113728635 0.017529946 0.04729795 0.009091302 0.07111098 -0.009638269 -0.072037466
0.17532246 0.23581858 0.045721076 0.12589142 0.14084774 0.110831134 0.121996514 0.16120294
-0.04626077 -0.06252349 0.13136151 0.031138219 -0.03779654 -0.019025851 0.039019007 -0.11252107
-0.020687046 -0.08523807 -0.14197159 0.096015036 -0.028889433 -0.15599471 0.038592566 0.046844214
-0.17836714 0.04153823 0.047203682 -0.1619485 0.065022364 0.05551412 -0.12076336 -0.026121637
-0.016499655 0.061240636 -0.099036545 -0.035518568 0.008177361 -0.05280335 0.044747215 -0.091153614
-0.010962577 0.07162012 0.06586971 0.03996256 -0.157691 -0.09053616 -0.09995864 0.0006220276
-0.043568395 0.07665006 -0.07756785 -0.10601378 0.068631895 0.044920433 0.012985753 -0.02255398
0.015654135 -0.066324964 -0.16312079 0.69778675 -0.14998622 -0.0019187615 0.6761633 0.08395215
-0.14385946 0.041533604 0.19164672 0.11797325 0.11404356 -0.15649864 0.23295093 -0.02916547
-0.019136634 -0.10705675 0.041778035 -0.04296363 -0.13102843 0.11512846 -0.14963092 -0.058558207
0.04520881 0.25707474 -0.04725883 0.07759937 0.04432287 0.04695139 -0.15169702 -0.1370862
-0.01292082 -0.13779457 0.11568584 -0.07912644 -0.06563952 0.0091884695 0.029841337 -0.15815464
-0.13012865 0.11482086 -0.04775097 0.6500374 -0.07490057 0.09096032 0.6278957 0.065238215
-0.13538527 -0.17054361 0.21297918 -0.026765501 0.00080017076 -0.06755399 0.13376999 0.04626451
-0.051725432 -0.1719492 -0.09047272 -0.07984234 0.040126003 0.36476177 0.04597562 -0.09494952
-0.06720895 0.111970745 -0.17538328 -0.10559338 0.014241184 -0.11898212 -0.14836125 -0.0712469
-0.10644402 0.091789804 0.18896423 -0.1880283 0.08942828 -0.045132283 0.11970126 0.09522146
-0.13391525 -0.14931256 -0.15127581 -0.05974723 -0.015323369 0.028670164 -0.05905012 0.094364315
-0.092921324 0.08511861 -0.11464818 -0.046578284 0.05478907 0.019213924 -0.12857984 -0.05795813
-0.032623656 0.078149 0.01656332 -0.0017618984 0.03957097 -0.0614964 0.105543226 0.15445353
-0.14332882 0.11629335 -0.09050537 0.1178889 -0.008610614 -0.14700446 0.010187571 -0.11071825
-0.009027465 -0.12542418 0.11594841 -0.015405171 -0.13284737 -0.15241024 -0.019195098 -0.0835862
0.05161223 -0.045510095 0.17072795 -0.7191269 -0.06134949 0.12256731 -0.7245617 0.005144634
0.09172803 -0.10333066 -0.27295634 0.010399318 -0.071294226 0.1366365 -0.011515434 0.038168814
-0.010756168 0.015867993 0.06216075 0.18120348 -0.0047773086 -0.18524215 0.20230305 0.082479745
-0.11155219 -0.009878144 0.09157102 0.10454789 0.119312376 0.13113996 -0.04021993 -0.060107443
0.17703995 0.13880408 -0.25416604 0.16116263 0.11397839 0.15805717 -0.2588143 -0.09782086
0.15366463 -0.038701568 -0.07850265 -0.26677763 0.16562632 0.027485924 -0.3955479 0.04636886
0.013099209 -0.055558726 -0.20833535 0.13869895 -0.14670351 0.120893255 -0.052356407 0.107479244
00000000: 7e95 c6bd 138c 2dbc 99c5 bf3d dd37 b93e
00000010: dfd4 8f3d 8a11 b23d e01a b33e abec 03bd
00000020: c6eb 55bd db82 2d3e 8293 0a3e 8204 303d
00000030: 1322 4cbc 48ea 49bd b172 87bd 2b23 c1bd
00000040: 749f 5abd 8fea e83d f69a 8f3c 7fbb 413d
00000050: aff3 143c a2a2 913d d5e9 1dbc 6188 93bd
00000060: bb87 333e 6d7a 713e 0646 3b3d aee9 003e
00000070: 643a 103e 6ffb e23d 4fd9 f93d 6212 253e
00000080: ef7b 3dbd 510c 80bd a283 063e 9415 ff3c
00000090: 8bd0 1abd 1adc 9bbc 65d2 1f3d 7271 e6bd
000000a0: e177 a9bc 4c91 aebd 0061 11be 88a3 c43d
000000b0: 88a9 ecbc 14bd 1fbe 3d13 1e3d b8df 3f3d
000000c0: e0a5 36be fe23 2a3d a658 413d d4d5 25be
000000d0: 722a 853d c662 633d c852 f7bd 0bfd d5bc
000000e0: 492a 87bc 76d7 7a3d acd3 cabd eb7b 11bd
000000f0: 57fa 053c 5348 58bd db48 373d bfae babd
00000100: 619c 33bc 92ad 923d b3e6 863d c8af 233d
00000110: c079 21be 066b b9bd 1eb7 ccbd 910f 233a
00000120: c674 32bd b5fa 9c3d e5db 9ebd c11d d9bd
00000130: e18e 8c3d 7dfe 373d 32c2 543c 20c3 b8bc
00000140: 1a3d 803c 62d5 87bd 2309 27be 27a2 323f
00000150: fd95 19be f47e fbba 0a19 2d3f 1bef ab3d
00000160: e54f 13be 241f 2a3d 0a3f 443e f69b f13d
00000170: ac8f e93d 2e41 20be b08a 6e3e 6cec eebc
00000180: 6ec4 9cbc 9240 dbbd 721f 2b3d a2fa 2fbd
00000190: 512c 06be 78c8 eb3d d938 19be bbda 6fbd
000001a0: e02c 393d 4d9f 833e 7a92 41bd 6bec 9e3d
000001b0: e68b 353d 1a50 403d 7756 1bbe 5360 0cbe
000001c0: d9b1 53bc 051a 0dbe b3ec ec3d 0b0d a2bd
000001d0: 036e 86bd 3c8b 163c d275 f43c 4af3 21be
000001e0: 7240 05be 3327 eb3d 8596 43bd da68 263f
000001f0: 7865 99bd 6749 ba3d c6bd 203f 9d9b 853d
00000200: 70a2 0abe fca2 2ebe 3717 5a3e 5343 dbbc
00000210: 8dc2 513a bf59 8abd 00fb 083e db7f 3d3d
00000220: 0cde 53bd 7313 30be c349 b9bd 6184 a3bd
00000230: 2a5b 243d 0ec2 ba3e ef50 3c3d e574 c2bd
00000240: d9a4 89bd eb50 e53d ad97 33be 5841 d8bd
00000250: db53 693c e6ac f3bd 03ec 17be e5e9 91bd
00000260: 53ff d9bd 4bfc bb3d d77f 413e 7e8a 40be
00000270: 2d26 b73d a1dc 38bd ef25 f53d 7803 c33d
00000280: 1421 09be 64e5 18be 0ce8 1abe 83b9 74bd
00000290: de0e 7bbc b1dd ea3c 8ade 71bd 1442 c13d
000002a0: 894d bebd aa52 ae3d aacc eabd dfc8 3ebd
000002b0: 816a 603d 8566 9d3c 6faa 03be 8165 6dbd
000002c0: 62a0 05bd 950c a03d cdaf 873c 80ef e6ba
000002d0: 2b15 223d a6e3 7bbd 0c27 d83d 1129 1e3e
000002e0: cac4 12be 352b ee3d e15a b9bd bc6f f13d
000002f0: 8813 0dbc 5688 16be c5e9 263c 40c0 e2bd
00000300: efe7 13bc 326f 00be 5c76 ed3d f865 7cbc
00000310: 2409 08be 6e11 1cbe 0a3f 9dbc 3e2f abbd
00000320: 5867 533d cb68 3abd 4fd3 2e3e b318 38bf
00000330: 9a49 7bbd 9204 fb3d e07c 39bf 5194 a83b
00000340: e8db bb3d 069f d3bd efc0 8bbe e761 2a3c
00000350: b502 92bd 70ea 0b3e 3bab 3cbc e756 1c3d
00000360: a33a 30bc 98fd 813c 459c 7e3d 688d 393e
00000370: f88a 9cbb 1eb0 3dbe 8828 4f3e 24eb a83d
00000380: 7975 e4bd f0d7 21bc 9689 bb3d 341d d63d
00000390: 0c5a f43d 8e49 063e a7bd 24bd 3933 76bd
000003a0: f649 353e a822 0e3e 0d22 82be d107 253e
000003b0: 816d e93d bdd9 213e 4f83 84be 4e56 c8bd
000003c0: 435a 1d3e 8985 1ebd ffc5 a0bd 1497 88be
000003d0: f299 293e 292a e13c 4185 cabe 46ed 3d3d
000003e0: 119e 563c 8c91 63bd dd55 55be 1907 0e3e
000003f0: 7239 16be e296 f73d ac73 56bd 141e dc3d

linear1.bias f4 [192]
0.014271924 -0.021591347 -0.0411125 -0.0360814 0.0 0.0459163 0.005802861 -0.029476205
-0.011749084 -0.010929239 0.048622187 -0.048125695 -0.017933642 -0.009458478 0.0 -0.0072141546
-0.04608001 -0.014098325 0.0 0.0 -0.057177193 -0.004068858 -0.0523205 -0.031565115
-0.0073973825 0.042199645 0.029634528 -0.011357915 0.0 0.06053781 -0.014494649 -0.037011087
0.0 -0.07442525 0.0115899835 -0.021768304 0.0 -0.024613166 0.06530938 0.0
-0.04467269 -0.032495014 0.0 -0.01181279 0.05916441 -0.00952973 -0.04257887 -0.00865767
0.07129347 -0.025379093 0.0 -0.04771267 0.05651101 -0.007047884 0.05182283 -0.05687885
0.08221586 -0.0010487247 -0.01747084 0.0 0.059133165 -0.047873467 -0.014709214 -0.02074092
0.0 0.046101514 -0.0074508567 -0.019367637 -0.054878287 -0.00044546375 -0.03182519 -0.0010200418
-0.04148698 -0.0035870771 -0.039425857 -0.080255516 -0.012302061 -0.0031093531 0.0 0.00028715166
-0.050290804 -0.02821995 0.0 -0.015614019 -0.03150832 0.057510044 0.042220734 -0.047682405
-0.014959751 -0.014605135 -0.012297888 -0.05702256 -0.03966862 0.0 -0.050016478 -0.02719497
-0.0073504355 -0.0061232224 -0.009529648 0.03474475 -0.051602244 -0.029535655 -0.010736904 0.0
0.0 -0.0070091514 -0.0030336194 -0.05039945 0.0 -0.0140128005 -0.007947651 -0.04506425
-0.05036207 0.005599073 -0.009253755 -0.053121626 0.0 -0.051526736 0.047356393 -0.058562726
0.0 -0.02347975 0.06708519 0.0 -0.012775545 0.0 -0.064742 -0.0122127235
0.0 -0.009952711 -0.032277446 -0.006386117 0.0 0.0 0.0 -0.028306833
-0.010959138 -0.004525095 -0.0403964 -0.015580366 -0.009529459 -0.047410965 -0.009525529 -0.02388422
0.055708814 -0.0726934 -0.0017463594 0.06475797 -0.019085228 -0.00057174434 -0.009424217 0.043458227
0.0 -0.016030291 -0.053318683 0.0 0.061729405 -0.011000459 0.0 0.04996196
-0.00559733 -0.073147744 -0.013219509 0.0 0.007618379 -0.046811987 0.0 -0.04401759
-0.005829087 -0.02106213 -0.003806067 -0.017867113 0.0 -0.0845394 -0.07907238 0.0
-0.023605995 -0.077380374 -0.0011472987 -0.013086226 -0.0089040715 0.0 0.069207646 -0.039441675
-0.06591883 -0.038871136 -0.011427918 0.027510766 0.0 -0.03393629 0.018617336 0.052688997
00000000: cad4 693c 56e0 b0bc 9565 28bd 17ca 13bd
00000010: 0000 0000 bb12 3c3d ed25 be3b 1578 f1bc
00000020: 3b7f 40bc 8d10 33bc 0f28 473d 731f 45bd
00000030: 93e9 92bc bbf7 1abc 0000 0000 b764 ecbb
00000040: 64be 3cbd a9fc 66bc 0000 0000 0000 0000
00000050: a232 6abd 0e54 85bb 054e 56bd 6c4a 01bd
00000060: be65 f2bb 89d9 2c3d 1cc4 f23c 8c16 3abc
00000070: 0000 0000 7ff6 773d f77a 6dbc f098 17bd
00000080: 0000 0000 446c 98bd eae3 3d3c 7153 b2bc
00000090: 0000 0000 8da1 c9bc edc0 853d 0000 0000
000000a0: b6fa 36bd 7e19 05bd 0000 0000 6f8a 41bc
000000b0: 6156 723d 9622 1cbc 2e67 2ebd e6d8 0dbc
000000c0: 5002 923d d1e7 cfbc 0000 0000 5c6e 43bd
000000d0: 1778 673d f0f1 e6bb 2d44 543d ccf9 68bd
000000e0: ca60 a83d 5d75 89ba 021f 8fbc 0000 0000
000000f0: 9e35 723d f816 44bd eafe 70bc dde8 a9bc
00000100: 0000 0000 f1d4 3c3d 5126 f4bb e1a8 9ebc
00000110: 0ec8 60bd 228d e9b9 215b 02bd ecb2 85ba
00000120: 40ee 29bd 2b15 6bbb 027d 21bd 015d a4bd
00000130: 958e 49bc 4ac6 4bbb 0000 0000 d88c 9639
00000140: bbfd 4dbd 862d e7bc 0000 0000 f1d1 7fbc
00000150: de0e 01bd a78f 6b3d a6ef 2c3d a04e 43bd
00000160: be19 75bc 604a 6fbc 157d 49bc 7d90 69bd
00000170: 907b 22bd 0000 0000 14de 4cbd fcc7 debc
00000180: ecdb f0bb 50a5 c8bb 3e22 1cbc 8350 0e3d
00000190: e05c 53bd c2f4 f1bc d7e9 2fbc 0000 0000
000001a0: 0000 0000 06ad e5bb b0cf 46bb a76f 4ebd
000001b0: 0000 0000 f295 65bc dd36 02bc 4a95 38bd
000001c0: 7548 4ebd 6e78 b73b 109d 17bc 1096 59bd
000001d0: 0000 0000 b30d 53bd c7f8 413d 78df 6fbd
000001e0: 0000 0000 9b58 c0bc f663 893d 0000 0000
000001f0: 8550 51bc 0000 0000 7497 84bd e017 48bc
00000200: 0000 0000 b210 23bc 5b35 04bd a242 d1bb
00000210: 0000 0000 0000 0000 0000 0000 bbe3 e7bc
00000220: f58d 33bc 4047 94bb b276 25bd cb44 7fbc
00000230: 7321 1cbc 0032 42bd f710 1cbc d7a8 c3bc
00000240: ed2e 643d 47e0 94bd 19e6 e4ba d49f 843d
00000250: a058 9cbc 1de1 15ba 0868 1abc 4101 323d
00000260: 0000 0000 f551 83bc b164 5abd 0000 0000
00000270: f9d7 7c3d 453b 34bc 0000 0000 eaa4 4c3d
00000280: cf69 b7bb 7cce 95bd a496 58bc 0000 0000
00000290: 98a3 f93b edbd 3fbd 0000 0000 ca4b 34bd
000002a0: ed01 bfbb 7d8a acbc 356f 79bb 0d5e 92bc
000002b0: 0000 0000 fe22 adbd b3f0 a1bd 0000 0000
000002c0: 5c61 c1bc 9a79 9ebd f560 96ba 9c67 56bc
000002d0: 62e2 11bc 0000 0000 bdbc 8d3d 988d 21bd
000002e0: 7400 87bd 5737 1fbd 2a3c 3bbc 425e e13c
000002f0: 0000 0000 c700 0bbd 6283 983c 6bd0 573d

linear2.weight f4 [192, 192]
-0.097008705 0.06734666 0.10130921 -0.07383168 0.124148086 0.03809245 0.004543796 -0.100321084
0.098262936 -0.10468882 -0.05941011 0.023653772 -0.010165453 -0.010787934 0.09838852 -0.054854825
-0.071113035 0.08763373 0.05197501 0.03874883 0.1235297 0.024164349 0.097314686 0.05675541
0.04373485 0.029013198 -0.06880036 0.025732294 0.07645291 -0.0629073 0.06213306 -0.03646621
0.0070373714 -0.08419575 -0.03225887 -0.041683257 -0.09413226 -0.15633018 0.11882285 -0.08787097
-0.06168867 0.058214575 -0.004866734 -0.09438063 0.02639705 0.046776548 0.0045313314 -0.004203722
0.0643255 -0.099207245 -0.030322298 -0.1340511 -0.05531599 -0.08578579 -0.00045788861 -0.11797455
-0.08472959 0.1231599 -0.077830985 0.032288104 -0.077928685 0.0066634356 0.116541564 -0.04225126
-0.094781294 -0.12654248 -0.10067694 -0.12059249 0.08815141 0.007013199 -0.047130957 0.094345964
-0.13206293 0.116096824 -0.014480367 0.08548784 -0.013692871 0.076018795 -0.06976311 -0.09382728
-0.10532008 0.07092444 0.020104274 -0.09033932 0.07116435 -0.108488016 0.05330769 -0.12852147
-0.081157714 -0.043388277 -0.09159527 -0.037327155 0.12622973 -0.076261595 0.04020258 -0.00352256
-0.01702936 0.084326446 -0.007636726 -0.0665128 0.03518133 -0.121829435 0.015760005 0.07755636
-0.10269064 -0.12165348 0.006063685 -0.022451803 0.0053189695 -0.02672492 -0.0066206455 -0.005840406
0.013754169 0.018154606 -0.12061086 0.055991635 -0.08413187 -0.06973808 0.088338055 0.018327918
-0.02847287 0.035152987 0.01205298 -0.051979423 0.0048820972 -0.10875851 0.109047376 0.06410244
0.03615056 0.07008311 -0.04427819 -0.11325163 0.017530218 -0.10963942 0.09848836 -0.09050104
0.01792577 -0.0051997006 0.0029146587 -0.11654751 -0.042358965 -0.09688815 -0.0042984188 0.07788761
-0.11604744 0.053809956 -0.075201765 0.00088733115 0.038850263 0.028270334 -0.023031475 0.09314002
-0.1062035 0.023335725 0.11236071 -0.066561684 0.09484554 0.058542937 0.06321886 -0.10209133
0.055143073 -0.01849942 -0.10892519 0.026695922 0.00985713 -0.128822 0.00027956069 0.09608148
-0.09567551 0.06825173 0.024745896 -0.069095045 -0.037688017 -0.012134686 -0.092743725 0.05627577
-0.061777934 -0.09428339 0.04017493 -0.09180544 -0.062547594 0.03945753 -0.017639674 0.11594074
0.044255406 0.037189335 -0.017225966 -0.10746062 0.09589991 -0.08478972 -0.031627476 -0.11849254
0.035268337 0.06295402 0.380785 0.24318068 -0.12318799 -0.23698142 -0.061432026 -0.0071028466
0.0059270686 -0.07864329 -0.17160653 0.22649184 0.083494104 -0.06920603 -0.022109225 -0.06427364
0.2686224 -0.08288364 -0.03998995 -0.043346852 -0.06403376 0.03968267 0.08289292 -0.020529833
-0.019989705 -0.24626394 -0.046660647 0.11761556 0.09158577 -0.26901102 -0.031252988 0.02811617
-0.028382823 0.012179373 0.025888396 0.08906995 -0.017100468 0.2661739 -0.30399013 -0.019928917
0.2630003 -0.023815203 0.029709548 -0.045784626 -0.3600763 0.05605315 0.21594377 -0.11364328
-0.104729585 0.1102379 0.0058160126 0.38994458 -0.08697099 0.005602772 0.06515543 0.20358267
-0.027347706 -0.030368906 0.035711214 -0.016587168 -0.19081837 0.27429658 0.026862727 0.10450919
00000000: 80ac c6bd 0ced 893d 347b cf3d 1035 97bd
00000010: 5a41 fe3d d406 1c3d 20e4 943b 2475 cdbd
00000020: 143e c93d 1867 d6bd 0458 73bd 8ec5 c13c
00000030: 008d 26bc e0bf 30bc ec7f c93d 74af 60bd
00000040: b6a3 91bd 5079 b33d c0e3 543d 18b7 1e3d
00000050: 24fd fc3d 50f4 c53c ec4c c73d 5c78 683d
00000060: 5023 333d 16ad ed3c 34e7 8cbd 88cc d23c
00000070: 5893 9c3d 8bd5 80bd 3c7f 7e3d 985d 15bd
00000080: c099 e63b d26e acbd e021 04bd 10bc 2abd
00000090: 6ac8 c0bd 0515 20be 6559 f33d b2f5 b3bd
000000a0: 42ad 7cbd 6872 6e3d 2079 9fbb a24a c1bd
000000b0: a03e d83c c498 3f3d 907b 943b 60bf 89bb
000000c0: 16bd 833d 2b2d cbbd 7866 f8bc b144 09be
000000d0: 0593 62bd 76b0 afbd c510 f0b9 a49c f1bd
000000e0: b586 adbd 423b fc3d da65 9fbd 8840 043d
000000f0: 1399 9fbd f358 da3b 58ad ee3d a80f 2dbd
00000100: b21c c2bd 5a94 01be b62f cebd 32f9 f6bd
00000110: ba88 b43d face e53b 640c 41bd 7538 c13d
00000120: 813b 07be 2cc4 ed3d 103f 6dbc 4014 af3d
00000130: 1058 60bc beaf 9b3d f6df 8ebd 8428 c0bd
00000140: 0eb2 d7bd d540 913d b8b1 a43c d203 b9bd
00000150: 9dbe 913d f72e debd 2a59 5a3d 229b 03be
00000160: 0436 a6bd e8b7 31bd 4d96 bbbd 5ce4 18bd
00000170: 5e42 013e 0a2f 9cbd 76ab 243d c0da 66bb
00000180: 2881 8bbc 58b3 ac3d 803d fabb dd37 88bd
00000190: 4c1a 103d b681 f9bd 201b 813c ded5 9e3d
000001a0: 784f d2bd 7625 f9bd e0b1 c63b d8ec b7bc
000001b0: c04a ae3b 38ee dabc 00f2 d8bb e060 bfbb
000001c0: 2b59 613c f8b8 943c d402 f7bd 7c57 653d
000001d0: 544d acbd d7d2 8ebd 95ea b43d 6e24 963c
000001e0: f03f e9bc 94fc 0f3d dd79 453c 60e8 54bd
000001f0: 00fa 9f3b c8bc debd 3b54 df3d 2448 833d
00000200: 9c12 143d bc87 8f3d 0c5d 35bd 78f0 e7bd
00000210: 889b 8f3c a28a e0bd 44b4 c93d 9c58 b9bd
00000220: 10d9 923c 4062 aabb dc03 3f3b 76b0 eebd
00000230: 9880 2dbd 4b6d c6bd c0d9 8cbb 8a83 9f3d
00000240: 48aa edbd d467 5c3d 6203 9abd c99b 683a
00000250: 7421 1f3d 3097 e73c 81ac bcbc 32c0 be3d
00000260: 3881 d9bd 902a bf3c 5f1d e63d 7e51 88bd
00000270: 613e c23d b8ca 6f3d e478 813d 4215 d1bd
00000280: b4dd 613d 188c 97bc 2c14 dfbd 68b1 da3c
00000290: cd7f 213c eae9 03be 0092 9239 5ec6 c43d
000002a0: 86f1 c3bd 90c7 8b3d e8b7 ca3c b481 8dbd
000002b0: c05e 1abd 90d0 46bc 6cf0 bdbd 6c81 663d
000002c0: dc0a 7dbd a617 c1bd 788e 243d 7e04 bcbd
000002d0: f418 80bd 389e 213d 1481 90bc 5772 ed3d
000002e0: 2845 353d d853 183d 781d 8dbc 5014 dcbd
000002f0: 2c67 c43d 3ca6 adbd d08b 01bd 38ac f2bd
00000300: 8875 103d 0aee 803d 40f6 c23e 5b04 793e
00000310: fc49 fcbd 42ab 72be 26a0 7bbd ffbe e8bb
00000320: db37 c23b bc0f a1bd 9fb9 2fbe 7aed 673e
00000330: f5fe aa3d e4bb 8dbd 681e b5bc e6a1 83bd
00000340: e088 893e e6be a9bd 80cc 23bd 788c 31bd
00000350: 2224 83bd 4c8a 223d c3c3 a93d 2e2e a8bc
00000360: 73c1 a3bc 9d2c 7cbe 3c1f 3fbd 6de0 f03d
00000370: 5291 bb3d d0bb 89be 2203 00bd e253 e63c
00000380: 1883 e8bc fe8b 473c e713 d43c 4e6a b63d
00000390: 4816 8cbc f247 883e 98a4 9bbe f841 a3bc
000003a0: faa7 863e 1a18 c3bc 7061 f33c a988 3bbd
000003b0: ec5b b8be fd97 653d 5d20 5d3e cfbd e8bd
000003c0: 777c d6bd 68c4 e13d 4094 be3b d1a6 c73e
000003d0: d91d b2bd 7597 b73b 3670 853d fa77 503e
000003e0: 4c08 e0bc 36c8 f8bc ec45 123d d0e1 87bc
000003f0: e465 43be 9a70 8c3e 390f dc3c ea08 d63d

linear2.bias f4 [192]
-5.3303655e-05 0.021148525 -0.032708216 0.04475089 -0.017767161 0.10670344 -0.041888732 0.10185544
0.09936814 -0.052512635 -0.014457872 0.04182086 -0.016112614 -0.027671888 -0.045924492 0.014023383
0.020068357 0.088871166 -0.022331946 -0.031392176 -0.009520753 0.05112196 -0.019052839 0.02817483
0.035461057 -0.025953239 -0.033257514 0.082049735 0.116517104 -0.009529662 -0.028124364 0.020042634
0.08346161 0.016317962 0.099544816 -0.012536861 -0.029640434 0.10120982 0.08153525 0.03737511
-0.038528934 0.08721775 -0.051990278 -0.04788891 -0.06951268 -0.03702285 0.10082772 0.042222064
-0.06043155 0.10793797 0.10691046 0.043572173 -0.009528349 0.03125675 -0.044181127 0.08383473
0.106326066 0.10684681 -0.028229205 0.030664593 0.03860582 -0.035608448 -0.022457799 -0.03270763
0.10849698 0.028923603 0.01644816 0.024469595 -0.040003598 -0.04286481 -0.027862351 -0.032206707
-0.033995423 -0.008273139 0.035355236 -0.043660153 -0.02564299 -0.04105313 -0.045584485 -0.03380925
-0.04740906 0.10314178 0.03337059 -0.006642137 0.09152846 -0.018883836 0.11259947 -0.016103057
0.026132848 0.107611045 0.0152915595 0.10978972 0.09773432 0.0945317 0.030878 -0.034793377
0.032358106 0.02135252 -0.03640615 -0.04931559 0.080222316 -0.010457 0.017603334 -0.021979459
-0.03402068 -0.06516372 -0.027117355 -0.07906858 -0.028092 -0.020546267 -0.031402975 0.094203666
-0.018964868 0.111656874 -0.034146678 0.035858348 -0.023140557 -0.054968044 -0.036126975 -0.036723036
-0.030686121 -0.018602619 0.040463082 0.033820592 -0.027967747 0.070987634 0.099098265 0.04367087
-0.022816883 0.02491122 -0.036456387 -0.016209906 0.033416763 -0.016882973 -0.024015406 -0.017731898
-0.027836213 0.08914667 0.10702258 -0.01838325 0.033408396 0.030705867 0.040888645 -0.018647293
0.088958904 -0.007293161 0.03787021 0.049337827 0.11764642 -0.015697619 0.09750474 -0.019357264
0.039970554 0.091468714 0.10352361 0.06250798 0.09049422 -0.026335292 -0.023859717 0.0016334499
0.079508856 -0.023801032 0.035219245 0.10232105 -0.035604335 -0.012045718 -0.018107703 0.032933872
0.014912607 0.029856235 0.09610855 -0.02980614 -0.04163388 0.031469308 -0.02681991 0.10928816
-0.02806922 0.11625198 -0.018676212 -0.018479524 0.10500207 0.100468114 0.12152864 0.011877359
-0.0267637 -0.008711566 -0.05320792 -0.039336085 0.10032834 -0.06268177 0.10629394 0.103115976
00000000: 5d92 5fb8 ac3f ad3c 0df9 05bd b64c 373d
00000010: 708c 91bc 5587 da3d 8593 2bbd 9699 d03d
00000020: 8681 cb3d 7d17 57bd b6e0 6cbc 5a4c 2b3d
00000030: 9afe 83bc 28b0 e2bc 521b 3cbd 55c2 653c
00000040: 6566 a43c 1602 b63d 7cf1 b6bc 1595 00bd
00000050: effc 1bbc 4365 513d b314 9cbc e7ce e63c
00000060: 9d3f 113d e39b d4bc 0839 08bd b109 a83d
00000070: 85a0 ee3d 4d22 1cbc 1165 e6bc 7330 a43c
00000080: eced aa3d 3fad 853c 27de cb3d 6867 4dbc
00000090: 7fd0 f2bc 1847 cf3d f4fb a63d a516 193d
000000a0: 84d0 1dbd 389f b23d c2f3 54bd 2927 44bd
000000b0: aa5c 8ebd 46a5 17bd c37e ce3d 0bf1 2c3d
000000c0: 1387 77bd 950e dd3d dff3 da3d bc78 323d
000000d0: cb1c 1cbc 1407 003d 45f7 34bd 8bb1 ab3d
000000e0: 7bc1 d93d 80d2 da3d ef40 e7bc 5034 fb3c
000000f0: 2321 1e3d 2ada 11bd 6bf9 b7bc 70f8 05bd
00000100: aa33 de3d 31f1 ec3c 4bbe 863c 7674 c83c
00000110: d0da 23bd 0393 2fbd 963f e4bc 2eeb 03bd
00000120: c93e 0bbd 0f8c 07bc a7d0 103d fdd4 32bd
00000130: 3f11 d2bc 5427 28bd ccb6 3abd 917b 0abd
00000140: 0130 42bd ff3b d33d 9aaf 083d 49a6 d9bb
00000150: 4673 bb3d 46b2 9abc 8d9a e63d 8fea 83bc
00000160: 8e14 d63c 2e63 dc3d 7389 7a3c 6fd9 e03d
00000170: ee28 c83d d699 c13d dcf3 fc3c 8083 0ebd
00000180: ef89 043d 7beb ae3c 9d1e 15bd 25ff 49bd
00000190: 994b a43d d653 2bbc de34 903c 440e b4bc
000001a0: 4559 0bbd 8e74 85bd 3725 debc b5ee a1bd
000001b0: 3221 e6bc a550 a8bc 68a0 00bd daed c03d
000001c0: 365c 9bbc 5cac e43d 63dd 0bbd 34e0 123d
000001d0: 4491 bdbc 2c26 61bd e1f9 13bd e56a 16bd
000001e0: 7661 fbbc 8564 98bc 9ebc 253d 7687 0a3d
000001f0: 9e1c e5bc f761 913d 08f4 ca3d 3ae0 323d
00000200: 79ea babc 9d12 cc3c 4b53 15bd a3ca 84bc
00000210: 04e0 083d 294e 8abc f5bb c4bc 7c42 91bc
00000220: c508 e4bc 8892 b63d a82e db3d 7898 96bc
00000230: 3ed7 083d df8a fb3c da7a 273d 35c2 98bc
00000240: 1630 b63d 78fb eebb cb1d 1b3d 7616 4a3d
00000250: 9bf0 f03d 4b98 80bc 91b0 c73d 2093 9ebc
00000260: 2ab8 233d f353 bb3d 3004 d43d 2f04 803d
00000270: 0955 b93d 1cbd d7bc 7475 c3bc 7c19 d63a
00000280: 8ad5 a23d 62fa c2bc 0e42 103d b38d d13d
00000290: dad5 11bd 675b 45bc 9b56 94bc abe5 063d
000002a0: 0254 743c 1095 f43c 8fd4 c43d 022c f4bc
000002b0: 4a88 2abd f6e5 003d 6eb5 dbbc 79d2 df3d
000002c0: 6cf1 e5bc 8515 ee3d dbfe 98bc 5f62 97bc
000002d0: 530b d73d 3ac2 cd3d 02e4 f83d 4199 423c
000002e0: 8c3f dbbc f5ba 0ebc 8cf0 59bd e01e 21bd
000002f0: f278 cd3d 4d5f 80bd a3b0 d93d 782e d33d

mean_linear.weight f4 [1, 192]
-0.09777376 0.2641463 -0.031994574 0.46054044 0.027345633 -0.29073644 -0.005363228 -0.3200157
-0.32962403 0.044422366 -0.05261732 0.26057133 0.12585256 -0.13061722 0.019155085 0.33437037
0.29273218 -0.40006074 -0.04304717 0.068176605 0.0020366062 0.31313404 -0.076566756 0.3511687
0.49591956 -0.17079616 -0.11981562 -0.26485875 -0.38071918 -0.096221074 0.0016603497 0.39511213
-0.20948929 0.107801534 -0.42213744 0.04690998 0.07828598 -0.4389821 -0.39737558 0.35898888
0.049601957 -0.28092745 0.005736218 -0.102795035 -0.06636506 -0.004483967 -0.3497748 0.509163
0.004939662 -0.40866914 -0.2732328 0.35602105 0.070879534 0.4811483 -0.0053894147 -0.29750293
-0.33777574 -0.43629566 -0.0017745241 0.36703682 0.39307386 -0.004498951 -0.09195871 -0.02245659
-0.29497018 0.11122402 0.23649615 0.19207907 0.056244645 0.013696453 -0.023322225 -0.1017983
0.14007322 0.17481455 0.40458623 -0.08130041 0.13420428 0.11177937 0.032622144 -0.09324546
0.090510964 -0.35108826 0.440682 0.12330141 -0.26295403 0.14309777 -0.3731535 -0.022461832
0.44054937 -0.37668672 0.4063567 -0.37111312 -0.2525236 -0.35750124 0.4721386 -0.03201064
0.41591135 -0.060606442 0.051650804 0.046807323 -0.18667811 0.006312262 0.36871362 0.0609619
0.046816014 0.036314834 -0.10959657 0.18178374 0.13018721 0.12110863 0.060220793 -0.40735355
-0.078727975 -0.34389338 -0.006444368 0.40422258 -0.14464599 -0.09874622 0.077546984 0.101454064
-0.0066277036 -0.0525539 0.40400216 0.3110257 -0.020484028 -0.32040825 -0.4137068 0.46305406
-0.0030994334 0.23865679 0.09907026 0.02413281 0.36722016 0.0022453123 -0.14974642 -0.089174315
-0.073131666 -0.4235627 -0.42080006 -0.035197902 0.37568554 0.35534415 0.39058453 0.050655358
-0.4174871 0.170699 0.3225155 0.5193088 -0.31659627 -0.06801924 -0.33290523 -0.123428926
0.48484936 -0.34841952 -0.36820057 -0.30109015 -0.29587895 0.060560837 0.10854949 -0.00943472
-0.3060053 0.052252572 0.41092315 -0.31388438 -0.0262053 -0.016587682 0.009195507 0.37918922
0.05338345 0.33158392 -0.40275514 0.0062866285 -0.023203839 0.35936025 0.090994366 -0.4426546
-0.123382345 -0.271152 -0.07500649 -0.14929272 -0.36668345 -0.39893848 -0.31453937 0.327738
-0.15758544 0.0060158777 -0.03928103 -0.001819771 -0.40178084 -0.008907059 -0.33880582 -0.43262365
00000000: 9c3d c8bd 2f3e 873e be0c 03bd f5cb eb3e
00000010: f303 e03c 68db 94be 04be afbb 19d9 a3be
00000020: 7bc4 a8be 3af4 353d 4285 57bd 9b69 853e
00000030: 7edf 003e 85c0 05be 20eb 9c3c 9832 ab3e
00000040: fee0 953e c3d4 ccbe 3b52 30bd 2da0 8b3d
00000050: 9578 053b 1b53 a03e 08cf 9cbd 62cc b33e
00000060: 2be9 fd3e 30e5 2ebe e461 f5bd 919b 87be
00000070: a0ed c2be 8e0f c5bd 17a0 d93a 234c ca3e
00000080: 5c84 56be 0dc7 dc3d 6622 d8be ae24 403d
00000090: 6654 a03d 43c2 e0be d074 cbbe 64cd b73e
000000a0: 6c2b 4b3d b9d5 8fbe e2f6 bb3b 3486 d2bd
000000b0: 68ea 87bd 3eee 92bb af15 b3be 8258 023f
000000c0: e3dc a13b 153d d1be 2be5 8bbe 6448 b63e
000000d0: 4a29 913d 1259 f63e b099 b0bb 4e52 98be
000000e0: f1f0 acbe 2562 dfbe 2697 e8ba 40ec bb3e
000000f0: fa40 c93e f06b 93bb d954 bcbd e2f6 b7bc
00000100: 5506 97be 6bc9 e33d 0c2c 723e 60b0 443e
00000110: c960 663d 1667 603c 400e bfbc a17b d0bd
00000120: 5b6f 0f3e 9602 333e ed25 cf3e d480 a6bd
00000130: d96c 093e 95ec e43d cc9e 053d 7af7 bebd
00000140: d05d b93d d7c1 b3be 12a1 e13e 7385 fc3d
00000150: e9a1 86be 3988 123e fa0d bfbe e001 b8bc
00000160: b08f e13e 15dd c0be fc0d d03e 8a02 bebe
00000170: c64a 81be 670a b7be 27bc f13e 971d 03bd
00000180: 55f2 d43e 763e 78bd cb8f 533d 09b9 3f3d
00000190: 8c28 3fbe 17d7 ce3b 08c8 bc3e 2fb3 793d
000001a0: 26c2 3f3d ddbe 143d 2b74 e0bd 8425 3a3e
000001b0: cc4f 053e cd07 f83d 14aa 763d a590 d0be
000001c0: 223c a1bd cb12 b0be 472b d3bb 43f6 ce3e
000001d0: 141e 14be 753b cabd f4d0 9e3d 26c7 cf3d
000001e0: 352d d9bb c242 57bd 5fd9 ce3e c33e 9f3e
000001f0: 1fce a7bc 8d0c a4be 61d1 d3be 6c15 ed3e
00000200: dd1f 4bbb 7262 743e 59e5 ca3d 2cb2 c53c
00000210: 4804 bc3e 1726 133b 2057 19be 06a1 b6bd
00000220: 0ec6 95bd 36dd d8be 1b73 d7be ad2b 10bd
00000230: db59 c03e abef b53e b2fa c73e fe7b 4f3d
00000240: dfc0 d5be b8cb 2e3e c020 a53e 6cf1 043f
00000250: e818 a2be ac4d 8bbd 8e72 aabe 4ec8 fcbd
00000260: 2d3e f83e 0b64 b2be c984 bcbe 7d28 9abe
00000270: 727d 97be a40e 783d 324f de3d 1594 1abc
00000280: baac 9cbe cb06 563d 8564 d23e 74b5 a0be
00000290: 7fac d6bc e4e2 87bc c0a8 163c 1725 c23e
000002a0: 9ba8 5a3d 5ec5 a93e ec35 cebe 1000 ce3b
000002b0: fa15 bebc 11fe b73e 415b ba3d a0a3 e2be
000002c0: e2af fcbd 6fd4 8abe 019d 99bd 31e0 18be
000002d0: efbd bbbe aa41 ccbe 4e0b a1be 46cd a73e
000002e0: 145e 21be d720 c53b 25e5 20bd 6285 eeba
000002f0: 38b6 cdbe eaee 11bc f577 adbe d980 ddbe

log_std_linear.weight f4 [1, 192]
-0.17614825 -0.019184487 -0.021110931 -0.04245035 -0.0145656 0.1510591 -0.10666152 0.12799034
0.2286982 -0.008866317 -0.09129962 0.1995885 -0.16601394 -0.08076671 -0.1711419 0.19192556
-0.040909078 0.12856114 0.020622954 -0.015849927 -0.036185075 0.2198516 0.054947384 0.20564874
0.058348745 0.06650182 0.08650104 -0.109585665 0.1925193 0.033713646 -0.13079064 0.019511135
-0.106898725 0.12566626 0.091107585 0.11659513 -0.02625553 0.138008 0.18302439 0.14179704
-0.15143149 0.112951174 0.06471997 -0.010622678 -0.090710685 0.14677146 -0.11641606 -0.056461673
0.082318686 -0.07976199 0.2407929 0.03753771 -0.07328963 -0.063033834 -0.020696023 0.03152391
0.1645208 -0.036114216 -0.12376965 0.1276023 0.14710122 -0.07267185 0.07605437 -0.12250057
0.20961581 0.1622054 0.117543094 -0.02481656 -0.0021854087 -0.104775086 -0.10661071 0.16212538
-0.089209095 -0.04868415 0.07087572 -0.056133546 -0.079787835 -0.0401889 -0.09321921 -8.827878e-06
0.053282093 0.18658876 0.18277599 -0.008488719 0.1801779 0.05053154 -0.0052849385 0.07144046
0.0039549475 0.23483717 0.10276902 0.14454414 -0.10699839 -0.024302209 -0.078391306 -0.0059006508
0.19286072 0.13237125 -0.14211322 0.12746395 0.06037744 0.029513946 0.24585024 -0.065059595
-0.0070264237 -0.11390588 0.14370632 0.08406672 0.14756845 0.14433697 -0.018777011 0.04520148
-0.03582026 0.061280426 0.06862601 0.25359857 -0.018881045 -0.14782532 0.13889976 0.11228084
0.13263297 -0.11454273 0.11831464 0.23208815 0.014296974 0.06467768 0.109454885 0.07423582
-0.1703518 -0.09316167 0.16698462 0.10503475 0.22410974 -0.0609171 -0.12372513 -0.070263565
0.15893379 0.20694706 0.17901142 0.057035472 0.07764755 0.19365788 0.2557278 -0.050174043
-0.029394096 -0.13770467 0.08967776 0.14093411 0.170521 -0.1417988 -0.012788079 0.11547981
-0.094947964 -0.013081977 0.12285066 0.037490055 0.085877344 -0.0866462 -0.04798222 0.02606546
0.14691894 0.07073393 0.024564687 0.22178881 0.086471915 -0.13197966 0.006163803 -0.020886466
-0.023472909 0.23478435 0.23965411 -0.124513775 0.010049532 0.05191365 -0.070419386 0.09833268
-0.043875083 0.17884034 0.13408828 0.011671716 0.18967246 0.066764064 0.1268845 0.17762694
0.15266758 0.08432039 -0.095279165 -0.0040277033 0.1914733 -0.11648462 0.014321901 0.0053870706
00000000: 3560 34be c928 9dbc d5f0 acbc 6be0 2dbd
00000010: 8ea4 6ebc 3daf 1a3e 5b71 dabd e60f 033e
00000020: dc2f 6a3e 0744 11bc 4cfb babd ee60 4c3e
00000030: 8fff 29be 0469 a5bd d23f 2fbe 2288 443e
00000040: 4790 27bd 88a5 033e 78f1 a83c b5d7 81bc
00000050: cd36 14bd c720 613e 8210 613d 9595 523e
00000060: 18ff 6e3d 1b32 883d 7527 b13d 736e e0bd
00000070: c823 453e 5217 0a3d fbed 05be d1d5 9f3c
00000080: b8ed dabd a8ae 003e 9d96 ba3d 6dc9 ee3d
00000090: d615 d7bc f851 0d3e bf6a 3b3e 3e33 113e
000000a0: db10 1bbe f252 e73d e78b 843d be0a 2ebc
000000b0: 86c6 b9bd 424b 163e 8b6b eebd 5b44 67bd
000000c0: b396 a83d 415a a3bd 6a92 763e 24c1 193d
000000d0: e018 96bd e217 81bd b58a a9bc 371f 013d
000000e0: 2478 283e 80ec 13bd f17a fdbd 2daa 023e
000000f0: b4a1 163e fbd4 94bd 65c2 9b3d 94e1 fabd
00000100: 87a5 563e 2c19 263e 6fba f03d 194c cbbc
00000110: 1339 0fbb 5294 d6bd b756 dabd 3204 263e
00000120: 42b3 b6bd 0869 47bd 4a27 913d 4aec 65bd
00000130: ce67 a3bd 1e9d 24bd b7e9 bebd 731b 14b7
00000140: 533e 5a3d 2011 3f3e a129 3b3e 4514 0bbc
00000150: 8e80 383e 29fa 4e3d 472d adbb 604f 923d
00000160: 8198 813b 2879 703e 9078 d23d 6103 143e
00000170: f921 dbbd 6d15 c7bc 9f8b a0bd 3f5a c1bb
00000180: 487d 453e 548c 073e 2186 11be e985 023e
00000190: 564e 773d 3bc7 f13c 2ac0 7b3e f73d 85bd
000001a0: ea3d e6bb 7c47 e9bd c027 133e 2c2b ac3d
000001b0: 2f1c 173e 12cd 133e 3fd2 99bc 3025 393d
000001c0: 44b8 12bd 2f01 7b3d cb8b 8c3d acd7 813e
000001d0: 6cac 9abc 855f 17be bd3b 0e3e 7ff3 e53d
000001e0: f0d0 073e 6195 eabd f24e f23d 84a8 6d3e
000001f0: db3d 6a3c bb75 843d e229 e03d f308 983d
00000200: b470 2ebe 8ccb bebd 04fe 2a3e 761c d73d
00000210: 067d 653e 3684 79bd 9a63 fdbd 58e6 8fbd
00000220: 8abf 223e eee9 533e c54e 373e 079e 693d
00000230: ae05 9f3d 404e 463e c1ee 823e 4c83 4dbd
00000240: e3cb f0bc 7402 0dbe f9a8 b73d 0851 103e
00000250: 0f9d 2e3e b433 11be 1785 51bc ae80 ec3d
00000260: 1474 c2bd ca55 56bc 2099 fb3d 2c8f 193d
00000270: 76e0 af3d 9073 b1bd 0189 44bd 3b87 d53c
00000280: eb71 163e f3dc 903d e23b c93c 9b1c 633e
00000290: 3018 b13d ad25 07be baf9 c93b 181a abbc
000002a0: 424a c0bc 4f6b 703e e367 753e 1401 ffbd
000002b0: cba6 243c 68a3 543d 0a38 90bd a562 c93d
000002c0: 5cb6 33bd ec21 373e 704e 093e ba3a 3f3c
000002d0: 7f39 423e 99bb 883d 03ee 013e d6e3 353e
000002e0: e454 1c3e 2bb0 ac3d b921 c3bd d3fa 83bb
000002f0: 9411 443e 7d8f eebd 68a6 6a3c 0686 b03b
