results/train/hyperaparam_DQN_FLAT_40m/epsilon_decay_type_stretched/best_model.pt (torch, 146255 bytes, 8 tensors)

layer1.weight f4 [128, 12]
0	0xbd8e4c08	-0.069480956
1	0xbcea96a1	-0.028636279
2	0x3dbd6bb4	0.09249058
3	0x3d829c0e	0.06377421
4	0x3df9e98b	0.12202748
5	0x3d31ef7c	0.04344128
6	0xbde065cc	-0.10956916
7	0x3dcee5c1	0.10102416
8	0xbd25b04e	-0.04045134
9	0x3b0c50f9	0.0021410568
10	0xbd3444e9	-0.04401103
11	0x3cd4ce15	0.025977174
12	0x3e27d63b	0.16390316
13	0xbc0b8fc7	-0.008518166
14	0xbd9a184e	-0.07524167
15	0xbe3d108c	-0.18463343
16	0x3d8af6d7	0.06785362
17	0xbc08b668	-0.00834427
18	0x3e58d95a	0.21176663
19	0x3c61d14a	0.013782809
20	0xbdbdb374	-0.092627436
21	0x3d139930	0.036034763
22	0xbc9f90d3	-0.019478237
23	0xbdbfc265	-0.0936325
24	0x3d9296d6	0.07157676
25	0xbdb42309	-0.08795745
26	0xbcfb367d	-0.03066563
27	0xbd89b8ed	-0.06724725
28	0xbd87e396	-0.066352054
29	0x3c9b6901	0.018970968
30	0xbd5697e2	-0.05239094
31	0xbc504a85	-0.012713079
32	0x3d8b947e	0.06815432
33	0xbd561834	-0.052269176
34	0xbb29befe	-0.0025901194
35	0x37017326	7.715809e-06
36	0xbd4e304e	-0.050339036
37	0x3c8b210c	0.016983531
38	0x3d8e5f24	0.069517404
39	0x3e7f5e46	0.24938306
40	0x3e039a9b	0.12851946
41	0x3def00b5	0.11670057
42	0x3d459cff	0.048245426
43	0x3da8dd51	0.08245338
44	0x3e1736b2	0.14766958
45	0x3e0e1164	0.13873821
46	0x3d86c122	0.06579806
47	0x3de1b5ee	0.110210285
48	0x3db93185	0.09042648
49	0x3de52c18	0.11190051
50	0x3dd1d006	0.102447554
51	0xbdd1f6b2	-0.102521315
52	0xbd921285	-0.071324386
53	0x3ce15e36	0.027510744
54	0x3db289b7	0.08717673
55	0xbd3849f5	-0.044992406
56	0xbde85488	-0.11344248
57	0xbd251cd6	-0.040310703
58	0x3caa3129	0.020775395
59	0xbd111838	-0.035423487
60	0xbdac87ff	-0.08424377
61	0xbdb82f23	-0.089933656
62	0x3d63e1a7	0.05563512
63	0xbc8d7110	-0.017265826
64	0xbd2a8a78	-0.04163596
65	0x3d6f75ef	0.05846208
66	0xbb8360a8	-0.004009325
67	0x3d2d95eb	0.0423793
68	0x3b8463f8	0.0040402375
69	0xbd6fdfbc	-0.05856298
70	0xbc50c554	-0.012742359
71	0xbda0b3f7	-0.078468256
72	0xbdf93c70	-0.12169731
73	0xbd7832c2	-0.06059528
74	0x3dc0fe7a	0.094235376
75	0xbd00cdcd	-0.031446267
76	0x3d85949e	0.06522487
77	0x3cfcc695	0.03085641
78	0x3cf69e1e	0.030104693
79	0x3dc0bbd3	0.094108246
80	0xbd5ab679	-0.053396676
81	0x3de2c05a	0.110718444
82	0xbdaf79d8	-0.08568162
83	0x3db73b3f	0.08946847
84	0x3e7b54db	0.24544089
85	0x3d96e6c5	0.073682345
86	0xbd573a68	-0.052545935
87	0xbe50bf0c	-0.20385379
88	0x3d8871fe	0.06662367
89	0xbbcbb667	-0.0062168124
90	0x3e331d0e	0.17491552
91	0xbd4eb509	-0.050465617
92	0xbdc59f40	-0.09649515
93	0xbcee77ec	-0.029109918
94	0x3dc1a04d	0.09454403
95	0x3d234d97	0.039868917
96	0x3e23df8b	0.16003244
97	0x3c19af7b	0.009380217
98	0xbd5b9b65	-0.053614993
99	0x3d80b2db	0.06284114
100	0xbbced3d7	-0.0063118744
101	0xbda0cc08	-0.07851416
102	0x3e4d7696	0.20064768
103	0x3cb90eef	0.022590129
104	0xbca0890c	-0.019596599
105	0xbd07d261	-0.033159617
106	0x3b8a6489	0.0042234105
107	0xbd90039c	-0.070319384
108	0xbc6eab39	-0.01456719
109	0xbc0512e6	-0.0081221815
110	0xbcf1c0cd	-0.02951088
111	0x3e8d0739	0.27544573
112	0x3dbab2b1	0.09116114
113	0xbd646e00	-0.055768967
114	0x3cea3984	0.028591879
115	0x3d4d2a48	0.05008915
116	0x3dda6c6a	0.106652096
117	0x3d923411	0.07138837
118	0xbcc16fea	-0.023612935
119	0x3d86cbd5	0.065818466
120	0xbd572ff2	-0.05253596
121	0x3d962bf8	0.07332605
122	0xb9bdac29	-0.00036177158
123	0x3ceb0a67	0.028691484
124	0xbc133d46	-0.008986777
125	0xbcfac4a7	-0.03061135
126	0xbdad4acd	-0.08461533
127	0x3dada70a	0.08479126
128	0x3d26ae88	0.04069379
129	0xbd8f98c0	-0.070115566
130	0xbc637b57	-0.013884387
131	0xbd5f3381	-0.054492477
132	0xbe1c0ba0	-0.1523881
133	0x3d23ed2d	0.04002111
134	0xbcd4664c	-0.025927685
135	0x3e8da5b2	0.27665478
136	0x3da84e49	0.08218057
137	0x3de8677e	0.113478646
138	0xbdc9ec5c	-0.09859535
139	0x3dd5c141	0.10437251
140	0x3de0b623	0.1097224
141	0xbb9d22ae	-0.004795394
142	0xbd4893cf	-0.048969086
143	0x3d71284d	0.058876324
144	0x3e048158	0.12939966
145	0x3df25b43	0.11833813
146	0x3c83a082	0.016067747
147	0x3e381965	0.17978437
148	0x3d07b719	0.0331336
149	0x3c3c8c57	0.011508069
150	0x3e32c422	0.17457631
151	0xbd3b0a0c	-0.04566388
152	0x3d502b22	0.050822385
153	0x3cbedb6d	0.02329799
154	0x3df5cd65	0.120020665
155	0x3debdc3f	0.11516618
156	0xbe2d9d21	-0.16954471
157	0xbd1361a4	-0.03598179
158	0x3c96eef8	0.018424496
159	0x3e7327a1	0.23745586
160	0x3e154303	0.14576344
161	0x3dc9fda8	0.09862834
162	0xbd8bfc3e	-0.06835221
163	0x3d1cb492	0.038258143
164	0x3d98529c	0.074376315
165	0x3d7124df	0.058873054
166	0x3d7ca890	0.06168419
167	0x3dd98cf6	0.10622589
168	0xbe41506c	-0.18878335
169	0x3d83a102	0.06427194
170	0x3cdc7cf6	0.026915055
171	0x3e7be4cd	0.24599
172	0xbd739768	-0.059470564
173	0xbcd7c1b5	-0.026337484
174	0x3c977079	0.018486248
175	0x3dd369c9	0.10322911
176	0xbd5a8660	-0.053350806
177	0xbc18c51f	-0.009324341
178	0xbd7f68a2	-0.062355645
179	0xbca1da0a	-0.01975729
180	0x3b3ca0f6	0.0028782464
181	0x3d342233	0.043977927
182	0x3d7c576e	0.061606817
183	0x3c8c644a	0.017137665
184	0xbd6d59dc	-0.057947025
185	0xbd76cf81	-0.060256485
186	0xbc163b65	-0.009169434
187	0x3d8290be	0.06375264
188	0x3c6018c6	0.013677781
189	0xbd227947	-0.03966644
190	0xbd847d0f	-0.064691655
191	0xbdab5be0	-0.08367133
192	0xbdc69adc	-0.09697506
193	0x3d9f71b1	0.07785357
194	0x3d87a8c9	0.0662399
195	0x3e6600d2	0.2246125
196	0x3d1532b5	0.03642531
197	0x3c1383e4	0.009003613
198	0xbe223410	-0.15840173
199	0x3cbfffea	0.023437459
200	0x3db3ed12	0.08785452
201	0xbc89fa74	-0.016843058
202	0xbd9151f4	-0.070957094
203	0x3ad9d56f	0.0016619394
204	0xbd89160d	-0.06693659
205	0x3d057ac7	0.032587793
206	0x3d32a1bf	0.043611284
207	0x3ea4e9a0	0.32209492
208	0x3ddad75c	0.10685608
209	0x3d65edeb	0.0561351
210	0xbd35168c	-0.044210956
211	0xbd381a03	-0.04494668
212	0xbbe6aeb7	-0.0070398706
213	0xbd102d15	-0.035199244
214	0xbc01812d	-0.007904333
215	0x3c05c51c	0.00816467
216	0xbd897f72	-0.067137614
217	0x3cd430cc	0.025902174
218	0x3dcd2020	0.10015893
219	0xbe2c7421	-0.16841175
220	0x3beb713e	0.0071851304
221	0x3d41c8a7	0.047310498
222	0x3d671c02	0.056423195
223	0x3df06743	0.117384456
224	0xbdacb70a	-0.084333494
225	0x3d9a7263	0.07541349
226	0xbd13dec9	-0.036101136
227	0x3dc7da50	0.09758437
228	0x3e2a243b	0.16615383
229	0xbca7f2d0	-0.020501524
230	0xbbd330eb	-0.0064450405
231	0xbe22fa1e	-0.15915725
232	0x3d559c0b	0.052150767
233	0x3b5fc8c2	0.003414676
234	0x3d6a069d	0.057135213
235	0x3d8a53e2	0.067542806
236	0xbdaecb62	-0.08534886
237	0xbaeb99e8	-0.0017974945
238	0x3cf7b5d6	0.030238073
239	0xbb68cddc	-0.0035523092
240	0xbe4be3e5	-0.19911154
241	0x3daa6f9b	0.08322068
242	0x3dad584d	0.08464108
243	0x3eadca3f	0.33943364
244	0x3dffc9ad	0.124896385
245	0x3e0344b8	0.12819183
246	0xbcba1d1a	-0.022718955
247	0x3d4d1d64	0.050076857
248	0x3de773c4	0.113013774
249	0x3cf869b8	0.030323848
250	0x3cf0570a	0.029338378
251	0x3c232cef	0.0099594435
252	0xbd240d44	-0.040051714
253	0xbcea90ef	-0.028633563
254	0xbd157ec6	-0.036497854
255	0x3c3aec18	0.011408828

layer1.bias f4 [128]
0	0xbb2f105f	-0.0026712639
1	0x3d8f52d8	0.06998223
2	0xbd155740	-0.03646016
3	0x3e2e3e08	0.1701585
4	0x3cd2c573	0.025728917
5	0x3d363e73	0.04449315
6	0xbc90fa95	-0.017697612
7	0xbd3bd6fa	-0.045859315
8	0x3d719778	0.058982342
9	0x3d597f2a	0.05309979
10	0xbd58ce64	-0.052931204
11	0xbd6e9e46	-0.05825641
12	0x3d8f2eba	0.06991334
13	0x3df51707	0.11967283
14	0xbc99fa68	-0.01879616
15	0xbcfac16a	-0.030609805
16	0x3dad4cb1	0.08461893
17	0xbd4daaac	-0.050211594
18	0x3d8cb66a	0.0687073
19	0x3cf6e73a	0.030139554
20	0xbbe836bc	-0.007086603
21	0xbdadb513	-0.08481803
22	0x3d75960d	0.059957553
23	0x3e1cc09e	0.15307853
24	0xbd30c4f4	-0.04315658
25	0xbd6b976b	-0.05751745
26	0x3d81981d	0.063278414
27	0x3dd17f69	0.1022938
28	0xbb76b07f	-0.003764182
29	0xbc92d296	-0.01792268
30	0xbc22b655	-0.009931167
31	0x3da84e80	0.08218098
32	0xbd42124c	-0.04738073
33	0x3d5c7060	0.053818107
34	0xbc943137	-0.018089874
35	0x3dd11220	0.10208535
36	0x3db2f24c	0.08737621
37	0x3c429efc	0.011878725
38	0x3debf4d4	0.11521307
39	0xbc39d417	-0.01134207
40	0x3cde32bd	0.027123803
41	0x3dca884b	0.09889277
42	0x3e1ce28c	0.15320796
43	0xbb342596	-0.0027488223
44	0xbd075696	-0.03304156
45	0xbacb931a	-0.001553151
46	0xbd74460d	-0.059637118
47	0x3d56985f	0.052391406
48	0x3de769fd	0.112995125
49	0x3d983bd4	0.07433286
50	0x3df107a6	0.11769037
51	0x3e0d4c4d	0.13798638
52	0xbc7d0363	-0.015442702
53	0xbcb13760	-0.02163285
54	0x3c4aa858	0.012369238
55	0x3c18bc27	0.009322203
56	0x3e0c9676	0.13729271
57	0xbd8af56d	-0.067850925
58	0xbd86d3fa	-0.065834
59	0xbc9b7ce2	-0.018980447
60	0xbd49c1c4	-0.049257055
61	0xbd4dd6fe	-0.05025386
62	0xbddf1dff	-0.10894393
63	0xbd5fd4ff	-0.05464649
64	0xbd1ef887	-0.038811233
65	0xbd9a1bf1	-0.07524861
66	0x3e130be6	0.14360008
67	0xbb72b983	-0.0037036843
68	0x3de517b6	0.11186163
69	0x3e08df00	0.13366318
70	0xbdaac1ff	-0.08337783
71	0xbb2f3e8f	-0.0026740169
72	0x3c439c75	0.011939158
73	0xbd377699	-0.044790838
74	0x3e0d329a	0.13788834
75	0xbd32e092	-0.0436712
76	0x3dd75619	0.10514469
77	0x3e07c618	0.1325916
78	0xbd425b7a	-0.04745052
79	0x3e332556	0.17494711
80	0xbce437fc	-0.027858727
81	0x3db1ad07	0.086755805
82	0xbce2f067	-0.027702523
83	0x3ceb36de	0.028712686
84	0x3dbb4508	0.09144026
85	0xbca2006d	-0.019775594
86	0xbbfc8e15	-0.007707367
87	0x3de3e961	0.11128498
88	0x3dc18bd8	0.09450501
89	0x3d9d12b8	0.07669586
90	0x3d5845f3	0.052801084
91	0x3d1fbd61	0.038998965
92	0xbcc9a516	-0.024614852
93	0x3d9ffb4a	0.078116015
94	0x3d97f8d3	0.07420506
95	0x3dbc21f8	0.091861665
96	0xbb5eae4d	-0.0033978403
97	0xbd0da73c	-0.034583315
98	0x3d227b8b	0.0396686
99	0x3d7ce951	0.061745945
100	0x3d14d8cb	0.036339562
101	0xbda18c0b	-0.07888039
102	0x3d5ae4e1	0.053440932
103	0x3c7517f0	0.01495932
104	0xbdb0d291	-0.08633912
105	0x3d8afb3d	0.06786201
106	0xbd9af2a3	-0.075658105
107	0x3da94a4b	0.082661234
108	0xbd16aa8a	-0.036783732
109	0x3d666148	0.05624512
110	0x3b04ceed	0.002026494
111	0xbbbecf07	-0.0058230194
112	0x3cf08774	0.029361464
113	0x3e024748	0.12722504
114	0xbd18b742	-0.037284143
115	0x3d4122c9	0.047152314
116	0x3dfd1953	0.12358346
117	0x3e078989	0.13236059
118	0xbd0a6044	-0.033783212
119	0x3d92a84b	0.071610056
120	0xbdac7377	-0.08420461
121	0x3e335883	0.17514233
122	0x3e03227f	0.12806128
123	0xbd49361f	-0.04912388
124	0x3e190361	0.14942695
125	0xbdb56829	-0.088577576
126	0x3d079b60	0.03310716
127	0x3c75b67d	0.014997122

layer2.weight f4 [128, 128]
0	0x3d107a5b	0.035272937
1	0x3c56d637	0.013112596
2	0x3c4cde08	0.012504108
3	0x3cc8cd21	0.024511876
4	0x3cb5389c	0.02212172
5	0xbcc879b0	-0.024472088
6	0x3daa26ba	0.08308168
7	0xbcd0d834	-0.025493719
8	0xbd82d9ac	-0.06389174
9	0xbd2fd764	-0.042930022
10	0x3bfe9770	0.0077695176
11	0x3a862c0d	0.0010236517
12	0xbd052d81	-0.0325141
13	0xbc5a19e5	-0.013311838
14	0xbd7f8a04	-0.06238748
15	0x3c042946	0.008066481
16	0xbc064a6a	-0.008196453
17	0xbda17401	-0.07883454
18	0x3d908270	0.07056129
19	0x3dcb6765	0.0993183
20	0xbc9deadd	-0.01927703
21	0x3ccfd5d8	0.025370523
22	0xbaf07483	-0.001834527
23	0xbc91e4d2	-0.017809305
24	0xbd8d2245	-0.06891302
25	0x3d035776	0.03206583
26	0x3c7f7c66	0.015593624
27	0xbc189ddd	-0.009314981
28	0x3dd4da63	0.103932165
29	0xbd3d624f	-0.046236333
30	0x3c07c042	0.008285584
31	0x3d8efe99	0.069821544
32	0xbc1eb4dd	-0.009686676
33	0xbc96fd77	-0.018431408
34	0xbd0dddb3	-0.034635257
35	0x3d05775b	0.03258453
36	0xbd02be8c	-0.03192
37	0xbd4497c1	-0.047996286
38	0x3df48c8c	0.1194087
39	0x3e5bb638	0.2145623
40	0xbd643ece	-0.055723958
41	0x3e3ed8b4	0.18637353
42	0x3c73eade	0.01488754
43	0x3e27033e	0.1630983
44	0x3cb21aad	0.021741236
45	0x3db5bfe7	0.08874493
46	0xbc4cc346	-0.012497729
47	0x3c8cf15d	0.017204935
48	0x3e845c6d	0.25851765
49	0x3e13ba1a	0.14426461
50	0x3d18687a	0.03720901
51	0x3d656335	0.056002814
52	0x3c4134ab	0.011792342
53	0xbd618356	-0.055056892
54	0x3bf1164c	0.0073573943
55	0xbbd17119	-0.006391656
56	0xbc320cf5	-0.010867347
57	0x3b3ccbc8	0.0028807987
58	0xbd538385	-0.0516391
59	0xbd74976d	-0.059714723
60	0x3cb4a645	0.02205194
61	0xbc3d5146	-0.011555022
62	0xbd91c4bd	-0.07117603
63	0xbcda76aa	-0.026667912
64	0xbb8122c7	-0.0039409134
65	0xbcaf0c1c	-0.021368079
66	0x3e3c5970	0.18393493
67	0x3c9729f9	0.018452631
68	0x3cac26bf	0.02101457
69	0x3e6e4c1b	0.2327122
70	0x3ba4e788	0.0050324835
71	0xbd644e01	-0.055738453
72	0x3cb9b7b9	0.022670614
73	0xbcd173ea	-0.025567967
74	0x3d4507a6	0.048102997
75	0xbce73f8a	-0.02822854
76	0xbbae570f	-0.005320437
77	0x3dde6c53	0.10860505
78	0xbcef9428	-0.029245451
79	0x3dac0125	0.08398656
80	0xbdbd1783	-0.09233
81	0x3c8477b9	0.01617037
82	0xbd9b240d	-0.075752355
83	0xbd70ea64	-0.058817282
84	0xbc10d126	-0.008838927
85	0x3c4110dc	0.011783805
86	0x3d9835df	0.0743215
87	0x3c8dd53c	0.017313592
88	0x3d43fcaf	0.0478484
89	0x3da6f192	0.08151545
90	0x3e2de103	0.16980366
91	0x3e214f35	0.15752871
92	0xbbf09f2b	-0.007343193
93	0x3ead948b	0.33902392
94	0x3dbca7ed	0.09211717
95	0x3c0d9f8b	0.008643995
96	0x3dadfdbd	0.08495662
97	0xbccc4900	-0.024937153
98	0x3e076383	0.13221554
99	0x3e203189	0.15643896
100	0xbc3cc20d	-0.011520875
101	0x3b494adc	0.0030714786
102	0x3c8bff4c	0.017089508
103	0x3d0713c1	0.032977823
104	0xbc6aba43	-0.014326635
105	0x398ae0c5	0.00026488877
106	0xbdcf1f13	-0.10113349
107	0x3d52e0bb	0.05148385
108	0x3c3703c9	0.011170336
109	0xba8dc6a7	-0.0010816649
110	0xbc301656	-0.010747513
111	0x3bbca797	0.005757283
112	0x3bb4aee4	0.0055140126
113	0x3dc71899	0.097214885
114	0xbb69effa	-0.0035696016
115	0xbbeb82ea	-0.007187237
116	0x3e65901d	0.22418256
117	0x3d7526a1	0.059851293
118	0x3ccc4cf8	0.024939045
119	0x3d38aaa1	0.0450846
120	0xbdb9b0f7	-0.090669565
121	0xbcaddebe	-0.021224376
122	0x3b3cebaf	0.0028827002
123	0xbd4813a0	-0.04884684
124	0x3c130ddd	0.008975473
125	0xbc0bc136	-0.008529952
126	0x3de9a432	0.11408271
127	0xbb6967f7	-0.0035614946
128	0x3d91cec9	0.07119519
129	0xbbb18352	-0.005417266
130	0x3b99f7c4	0.0046987254
131	0x3c9cd324	0.019143648
132	0x3c5e1e9d	0.013557103
133	0xbc573ee0	-0.013137549
134	0x3da9555c	0.08268234
135	0xbabc6cc2	-0.0014375674
136	0xbdbfe961	-0.09370685
137	0xbd028da3	-0.031873357
138	0xbbd50064	-0.0065002907
139	0xbc66d8d7	-0.014089785
140	0xbce1e8f6	-0.027576905
141	0x3d13d692	0.036093302
142	0xbd43d547	-0.04781082
143	0xbcd3d4ca	-0.025858302
144	0x3b18dab1	0.002332371
145	0xbd85ae17	-0.06527346
146	0x3dab4fdf	0.083648436
147	0x3d626ffd	0.05528258
148	0x3bb8e528	0.005642552
149	0xbc6016ff	-0.013677358
150	0x3cab803d	0.020935172
151	0xbcc9b019	-0.024620103
152	0xbd809fd9	-0.062804885
153	0x3c943554	0.018091835
154	0xbbb0f350	-0.005400099
155	0x3c42f006	0.011898046
156	0x3d7821f9	0.060579274
157	0xbd5a3ebf	-0.053282496
158	0xbcc0f033	-0.023552036
159	0x3d2a0abf	0.041514155
160	0xbc8df4c7	-0.017328633
161	0x3cbee31e	0.023301657
162	0xbd2caa56	-0.042154633
163	0x3d42f4bd	0.047596682
164	0xba9392f0	-0.0011259001
165	0xbd81fbbf	-0.06346845
166	0x3dd1beb6	0.10241453
167	0x3e3bddaa	0.18346277
168	0xbd61d454	-0.055134133
169	0x3e16fce9	0.14744915
170	0x3c4f3ca1	0.012648732
171	0x3e21e0a2	0.15808347
172	0x3c7fe38b	0.015618215
173	0x3df56c9e	0.11983608
174	0x3b3bc1f7	0.0028649548
175	0x3c8920a3	0.016739195
176	0x3ea766a7	0.32695505
177	0x3e273940	0.16330433
178	0x3d075c97	0.033047285
179	0x3d07da98	0.03316745
180	0x3b8c7fb4	0.0042876843
181	0xbd3ec4ed	-0.04657452
182	0xbd0b544d	-0.034015942
183	0x3c33293b	0.010935123
184	0xbc8e8132	-0.01739559
185	0x3b8a06ac	0.004212221
186	0xbd8523eb	-0.065009914
187	0xbddbd3e9	-0.10733778
188	0x3c29174d	0.010320497
189	0x3c0867fe	0.008325575
190	0xbdb2eea8	-0.08736926
191	0xbd48c150	-0.049012482
192	0x3b6880b2	0.00354771
193	0xbcc99565	-0.02460737
194	0x3e3246e2	0.17409852
195	0xbcb1e679	-0.021716343
196	0xb9fa9af3	-0.00047799162
197	0x3e992229	0.29908875
198	0x3ba3b0ea	0.004995455
199	0xbd9230cd	-0.07138214
200	0xbca19205	-0.019722948
201	0xbcbe2048	-0.023208752
202	0x3d8c17dc	0.06840488
203	0x3ae396d1	0.0017363672
204	0x3cdfd692	0.027323995
205	0x3dd2fc96	0.10302083
206	0xbca8eaac	-0.020619713
207	0x3d631d6e	0.05544799
208	0xbdf4a7a5	-0.11946038
209	0xbc148907	-0.009065873
210	0xbd9c486e	-0.07631002
211	0xbd8d0a1e	-0.06886695
212	0x3c2dc4dd	0.010606018
213	0xb9a47e9b	-0.00031374846
214	0x3db9ccbd	0.09072254
215	0x3b17b146	0.0023146435
216	0x3c7e66e2	0.015527459
217	0x3deebbb1	0.11656893
218	0x3e1e5f40	0.15466022
219	0x3e3e0f16	0.18560442
220	0xbcb82eae	-0.022483196
221	0x3ed2cad3	0.41170368
222	0x3e135763	0.14388804
223	0x3d210f6b	0.039321344
224	0x3e01bdaf	0.12670015
225	0xbc97c441	-0.018526198
226	0x3dd82558	0.10553998
227	0x3e10d6a1	0.14144374
228	0xbd0e7338	-0.03477785
229	0x3bc64173	0.0060502826
230	0xbc8e0847	-0.017337931
231	0xbc6bca5a	-0.014391506
232	0xbbd36c7e	-0.0064521423
233	0x3c8850ef	0.016640155
234	0xbdf5238a	-0.11969669
235	0x3da49bf8	0.08037561
236	0xbd89a206	-0.06720357
237	0xbc8b77bf	-0.017024873
238	0xbc5ca1e8	-0.013466336
239	0xbca6e056	-0.020370644
240	0x3d4ea4e6	0.05045023
241	0x3def46dd	0.11683438
242	0xbc3c7c54	-0.0115042515
243	0xbc4d521d	-0.012531784
244	0x3e93b646	0.2885
245	0x3db3341b	0.08750173
246	0xbcb2d120	-0.021828234
247	0x3d0a3281	0.03373957
248	0xbdbbe4f4	-0.09174529
249	0xb9d3f3ba	-0.00040426647
250	0x3d7e1fa7	0.062041905
251	0xbcf36656	-0.029711884
252	0xbccdcb5e	-0.025121387
253	0xbbc001ab	-0.005859574
254	0x3dc4e365	0.096136846
255	0xbbd3b331	-0.0064605703

layer2.bias f4 [128]
0	0x3ce80ddd	0.028326923
1	0x3b85e4bc	0.004086105
2	0x3cf144a1	0.02945167
3	0x3d890674	0.06690684
4	0x3a94fd6d	0.0011367031
5	0xbcc00d3e	-0.023443814
6	0xbc11015f	-0.008850425
7	0x3c83a173	0.016068196
8	0x3c718643	0.014741483
9	0xbc9308a3	-0.017948454
10	0x3d36a714	0.044592932
11	0x3c3987b6	0.01132386
12	0xbc73ce03	-0.01488066
13	0xbc9a9983	-0.018872028
14	0x3d9e9d68	0.077448666
15	0xbb8de51f	-0.004330292
16	0xbca8d3c1	-0.020608785
17	0xbc80c35e	-0.015718158
18	0xbb55ff38	-0.0032653343
19	0xbaafff6a	-0.001342756
20	0xbcd4518b	-0.025917789
21	0x3cf50369	0.029908853
22	0x3d7f7a9a	0.06237278
23	0x3d44f42b	0.04808442
24	0x3cbd4d9a	0.023108292
25	0x3ce415a2	0.027842347
26	0xbc6056a6	-0.013692534
27	0x3c9a4e53	0.018836176
28	0xbcd9bdba	-0.026579726
29	0x3c5a8075	0.013336291
30	0xbc360acb	-0.011110972
31	0x3d577080	0.052597523
32	0x3ca3ec54	0.020010151
33	0x3d9ecac4	0.07753518
34	0x3c417192	0.011806862
35	0x3c2664c5	0.010155861
36	0xbc1d1260	-0.0095869005
37	0x3c6c2a65	0.0144144045
38	0xbc9dc1c9	-0.019257443
39	0xba4a4f78	-0.000771753
40	0xbc5bdd53	-0.013419467
41	0x3cfadcae	0.030622806
42	0xbaae0a6f	-0.0013278256
43	0x3c9cee20	0.019156516
44	0xbc8a6390	-0.016893178
45	0x3d1c78b9	0.038201068
46	0xbcb0d7e2	-0.021587316
47	0xbcce093d	-0.02515089
48	0xbcae7dd1	-0.021300228
49	0xbcc5bc33	-0.024137592
50	0xba7f9dc2	-0.0009750986
51	0x3c9711b2	0.018441055
52	0x3af49a45	0.0018661699
53	0x3d3b0a88	0.04566434
54	0x3d242839	0.04007742
55	0xbbad47be	-0.0052880934
56	0x3c838272	0.016053412
57	0x3d1ec7ca	0.038764752
58	0x3d4aaf4d	0.049483586
59	0x3d64819a	0.05578766
60	0x3d5ac825	0.05341353
61	0x3c925e3d	0.017867202
62	0x3cde15e0	0.02711004
63	0x3b1f8690	0.002434168
64	0x3d7945da	0.06085763
65	0xba9594af	-0.0011412109
66	0x3ba2ff94	0.004974315
67	0x3d1d1789	0.038352523
68	0x3d4142ca	0.047182836
69	0x3d128d60	0.035779357
70	0x3ccf720c	0.025322936
71	0x3b587b86	0.003303261
72	0x3bf440b1	0.007454001
73	0x3b9adcce	0.004726029
74	0x3d884d25	0.06655339
75	0x3d3d1638	0.046163768
76	0x3d84c9b4	0.06483784
77	0x3a1da2b7	0.0006013321
78	0x3d0e6f52	0.034774132
79	0xbc25ead8	-0.010126792
80	0xba456de5	-0.0007531329
81	0x3d8e88dc	0.069596976
82	0x3d0bd57a	0.034139134
83	0x3ca3a98d	0.019978309
84	0x3d3246f7	0.04352471
85	0x3c100f01	0.00879264
86	0xbc0de4e0	-0.008660525
87	0x3cf4be3e	0.02987587
88	0xbb5deced	-0.0033863143
89	0x3c2296c5	0.009923642
90	0x3d19db48	0.03756264
91	0x3cf8fa80	0.030392885
92	0x3d30b7b5	0.043143947
93	0x3d1b2939	0.03788111
94	0x3d68f10e	0.056870513
95	0x3cd6b0e0	0.026207387
96	0xbb8d7589	-0.00431699
97	0x3bb47b58	0.005507868
98	0x3d7f7eaf	0.062376674
99	0x3cbaa81b	0.022785237
100	0xbc42b337	-0.011883548
101	0x3dacde0f	0.08440792
102	0x3d6f2576	0.058385335
103	0xbcb23f83	-0.0217588
104	0x3d07f47a	0.033192135
105	0x3d5fc13d	0.054627646
106	0xbc859f55	-0.016311327
107	0xbc46cb6e	-0.012133462
108	0x3d402e64	0.04691924
109	0xbbe7641f	-0.007061496
110	0x3d49f0a4	0.04930176
111	0x3cb9a09d	0.022659594
112	0xbc66bbdb	-0.014082874
113	0x3d5188cb	0.051155847
114	0x3c39efb6	0.011348655
115	0x3d9439e6	0.07237606
116	0x3b6ad940	0.0035835057
117	0xbb858a40	-0.0040753186
118	0x3d4152d9	0.04719815
119	0x3c935653	0.017985499
120	0x3c9ff2aa	0.01952489
121	0xbc0ec8b2	-0.008714842
122	0x3d1eb483	0.03874637
123	0x3c81b29f	0.015832243
124	0x3cb650f4	0.022255398
125	0x3d9e37c8	0.07725483
126	0x3cee3321	0.029077115
127	0xbca3e91e	-0.02000862

layer3.weight f4 [128, 128]
0	0x3d698871	0.057014886
1	0x3e15ac45	0.14616497
2	0xbd22c631	-0.03973979
3	0xbd1dc4a0	-0.038517594
4	0x3bdc07ba	0.0067147883
5	0x3c55533b	0.013020332
6	0xbce29250	-0.027657658
7	0xbcdf1217	-0.027230306
8	0xbcd983fb	-0.026552191
9	0x3c2994f6	0.010350456
10	0x3df34185	0.11877731
11	0x3e0a940b	0.13533036
12	0x3ae10f0d	0.0017170623
13	0x3cad544e	0.021158364
14	0x3bff80e5	0.007797348
15	0x3c8c3c39	0.01711856
16	0x3cb82efc	0.022483341
17	0xbb8b4a19	-0.0042507765
18	0x3d995611	0.07487119
19	0xbcc67a7e	-0.02422833
20	0x3c43c79b	0.011949445
21	0x3de82eb5	0.11337034
22	0x3c9277e7	0.01787944
23	0x3deb53d8	0.11490601
24	0xbced5f07	-0.028975977
25	0x3d99d9de	0.07512258
26	0x3c7cba64	0.015425298
27	0xbcc3697a	-0.023854006
28	0xbc3fbdb0	-0.01170294
29	0x3c34ead5	0.011042316
30	0xbc90cf52	-0.017676983
31	0x3e2a6337	0.1663941
32	0xbc90cb4b	-0.017675063
33	0x3e82f8e5	0.25580516
34	0x3d79bf54	0.06097348
35	0x3d6be211	0.05758864
36	0xbc0dc83f	-0.008653699
37	0xbba46632	-0.0050170654
38	0x3cc14daf	0.023596613
39	0x3ccf6830	0.025318235
40	0xbbebfc53	-0.0072017103
41	0x3d4456b8	0.047934264
42	0xbca8b889	-0.020595806
43	0x3c1d8b65	0.009615754
44	0xbc838203	-0.016053205
45	0x3d9346a1	0.07191206
46	0xbb2b36db	-0.0026125226
47	0x3b9fb8da	0.004874331
48	0xbc540648	-0.012940951
49	0xbc7c0813	-0.015382784
50	0xbd2758d1	-0.040856186
51	0x3de07d8f	0.109614484
52	0x3d3d2643	0.046179067
53	0x3dde66b6	0.10859434
54	0x3d9b85f3	0.07593908
55	0x3b7f2a67	0.0038935186
56	0x3e031720	0.1280179
57	0xbc47f3fd	-0.012204167
58	0x3d812157	0.06305187
59	0x3dd7122d	0.10501514
60	0x3da01d16	0.07818048
61	0xbb942eda	-0.0045221867
62	0xbbe45292	-0.006967851
63	0x3d9121de	0.07086538
64	0x3c8f7c5b	0.017515352
65	0xbc70d207	-0.014698512
66	0x3d8682f0	0.06567943
67	0x3c342b81	0.0109967
68	0xbd3a8864	-0.04554023
69	0x3d93d5af	0.07218491
70	0x3d98d4ae	0.074624404
71	0xbc99c986	-0.018772852
72	0xbc04d205	-0.008106713
73	0xbc7ae973	-0.015314448
74	0x3daf7a57	0.08568256
75	0x3da4b242	0.080418125
76	0x3cc7cb6d	0.024388993
77	0xbb2a892e	-0.0026021707
78	0x3d97b564	0.074076444
79	0x3d3af8a3	0.045647275
80	0x3c69f1ad	0.014278811
81	0x3e542404	0.20716864
82	0x3dac1501	0.08402444
83	0x3dd07359	0.10178251
84	0xbd00c7c8	-0.031440526
85	0xbba49736	-0.0050229086
86	0xbc902e94	-0.017600335
87	0x3dd8df11	0.105894215
88	0xb9d7b660	-0.00041143876
89	0x3dafe70f	0.08588993
90	0x3de497bc	0.111617535
91	0xbd398d78	-0.04530093
92	0x3d856cc4	0.06514886
93	0x3dc37cf4	0.09545317
94	0x3d1133f6	0.035449944
95	0x3da1e963	0.07905843
96	0x3c910de7	0.017706824
97	0x3dd91c56	0.10601108
98	0x3ea68eb6	0.32530755
99	0xbcc4a491	-0.024004253
100	0xbcaa466b	-0.020785531
101	0x3cde2e3e	0.02712166
102	0x3d0f6ec3	0.03501774
103	0xbcc1f3e7	-0.023675872
104	0x3d785e3b	0.06063674
105	0x3d8d229d	0.068913676
106	0x3d906809	0.07051093
107	0xbcc602f6	-0.024171334
108	0x3e8f9be9	0.28048638
109	0x3cdbb1a3	0.026818102
110	0xbcff4f57	-0.031165762
111	0x3b848d7a	0.0040451856
112	0xb9e5b5a6	-0.00043813622
113	0x3d839834	0.06425515
114	0x3d7c1645	0.061544675
115	0x3bb57235	0.005537296
116	0x3d977561	0.07395435
117	0x3c5baf1a	0.013408447
118	0x3dcd6415	0.10028855
119	0x3cdb13b1	0.026742788
120	0xbc7e68cc	-0.015527915
121	0x3c479105	0.012180571
122	0x3db95abf	0.090505116
123	0x3c12fad5	0.008970936
124	0xbbe0895b	-0.0068523115
125	0x3dfbd4a5	0.12296418
126	0x3d1fd788	0.039023906
127	0xbb96dead	-0.0046041817
128	0xbdcd6742	-0.100294605
129	0xbe3f8fc6	-0.18707189
130	0x3e5705d5	0.20998318
131	0x3e37648d	0.17909451
132	0xbb87894c	-0.00413624
133	0x3bbab468	0.0056977756
134	0xbbd756fe	-0.0065716496
135	0x3e9c3fb8	0.30517364
136	0x3cd4834f	0.025941519
137	0x3bf1f9fd	0.0073845373
138	0xbe6fa6f0	-0.23403525
139	0xbe36220f	-0.1778643
140	0x3ca309b2	0.019902084
141	0xbaac2ecf	-0.0013136509
142	0x3e8240bb	0.2544001
143	0x3c845c18	0.016157195
144	0x3cacf8d5	0.021114746
145	0x3ccc1484	0.024912126
146	0xbde4f351	-0.111792214
147	0x3cdcad6a	0.026938159
148	0xb9ef934a	-0.0004569537
149	0xbe273b53	-0.16331224
150	0x3e808568	0.2510178
151	0xbe34394e	-0.17599985
152	0x3e83f1f8	0.25770545
153	0xbe465eff	-0.19372176
154	0xbba82a8d	-0.0051320256
155	0xbcac0470	-0.02099821
156	0xbc3141cd	-0.010818911
157	0xbc7bf2c0	-0.0153777
158	0x3b827008	0.0039806403
159	0xbe4f70cc	-0.20257872
160	0xbb4058d1	-0.0029349814
161	0xbe780ca6	-0.24223575
162	0xbde6a311	-0.11261571
163	0xbd9fcd23	-0.078027986
164	0x3cbbf0cf	0.022941975
165	0xbc4a77a2	-0.012357624
166	0xbc77196c	-0.015081745
167	0x3b893fcf	0.004188515
168	0xbcdb07fe	-0.02673721
169	0xbdb226d4	-0.08698812
170	0xbc93c1c1	-0.018036725
171	0x3c82a969	0.015949922
172	0xbc030f02	-0.007999184
173	0xbd78114d	-0.060563374
174	0x3ca56eff	0.020194529
175	0x3ce0f709	0.027461546
176	0xbc8053d2	-0.015664969
177	0x3c9b2b4e	0.018941548
178	0x3ea99ad0	0.33125925
179	0xbddda8c7	-0.10823207
180	0xbd3e33fc	-0.046436295
181	0xbe2aa1df	-0.16663311
182	0xbe183770	-0.14864898
183	0x3cabc4c7	0.020967854
184	0xbe56dd98	-0.20982969
185	0x3e32b131	0.17450406
186	0xbe4edfda	-0.2020258
187	0xbe030b20	-0.12797213
188	0xbe270082	-0.16308787
189	0x3b3496e7	0.0027555765
190	0xba3798e9	-0.00070036814
191	0xbd012e48	-0.031538278
192	0x3e26fb12	0.16306713
193	0x3c4ad4e1	0.012379856
194	0xbd9d6f27	-0.07687216
195	0x3e6a3b42	0.22874168
196	0x3e453ab2	0.19260672
197	0xbda294cf	-0.07938539
198	0xbe26da66	-0.1629425
199	0xbc22662e	-0.009912057
200	0xbc1cc36d	-0.0095680775
201	0xbbb80e7b	-0.0056169606
202	0xbe1d1043	-0.15338235
203	0xbe1f5150	-0.15558362
204	0x3e74d813	0.23910551
205	0xbbceec12	-0.006314763
206	0xbdc5cc37	-0.096580915
207	0xbcae9bbb	-0.021314492
208	0x3ccf22f4	0.025285222
209	0xbe9e1ef3	-0.30882987
210	0xbdbfff01	-0.0937481
211	0xbe100731	-0.14065243
212	0x3e8f7960	0.2802229
213	0x3ea11212	0.314591
214	0x3ae30e25	0.0017322941
215	0xbe27bf1f	-0.163815
216	0xbb3ff3be	-0.0029289569
217	0xbdd99e45	-0.10625891
218	0xbe18f2c3	-0.14936356
219	0x3e7a9c74	0.24473745
220	0xbe01f331	-0.12690426
221	0xbe26c898	-0.16287458
222	0x3e74c43d	0.23902984
223	0xbe0377c7	-0.1283866
224	0x3c932566	0.017962169
225	0xbe5c343a	-0.21504298
226	0xbebc7399	-0.36806944
227	0x3c7bfdd2	0.01538034
228	0xbcc3ba42	-0.023892526
229	0x3e675586	0.22591218
230	0x3e8d56bb	0.27605233
231	0xbbfa07f5	-0.007630343
232	0xbe217125	-0.15765817
233	0xbe1cb268	-0.15302432
234	0xbdcc7ba1	-0.09984518
235	0xbcc87d70	-0.024473876
236	0xbf0adfd8	-0.5424781
237	0xbcd08076	-0.02545188
238	0x3e57d85e	0.21078631
239	0x3cd948a6	0.0265239
240	0x3a97539b	0.0011545302
241	0xbe423e7a	-0.18969145
242	0xbda44728	-0.080213845
243	0x3e57f99d	0.21091314
244	0xbe231771	-0.15926911
245	0xbaf70e75	-0.0018848913
246	0xbdf745d0	-0.120738626
247	0x3cddac10	0.027059585
248	0xbc934fbf	-0.017982362
249	0xbc8501fa	-0.016236294
250	0xbe0cbf7b	-0.13744919
251	0xbc92d189	-0.01792218
252	0x3c2683c6	0.010163253
253	0xbe746efc	-0.23870462
254	0xbe0baa2c	-0.13639134
255	0x3cc70617	0.024294896

layer3.bias f4 [128]
0	0x3d6618e0	0.056176066
1	0x3d104f07	0.035231616
2	0xbc781aaa	-0.015143076
3	0x3e176646	0.14785108
4	0x3d8ef6e8	0.069806874
5	0x3d764e66	0.06013336
6	0x3dee6244	0.116398364
7	0x3e1d15c7	0.15340339
8	0x3d70cee8	0.05879107
9	0x3db3e3d3	0.087836884
10	0xbcde8a4f	-0.02716556
11	0xbca9f2c5	-0.020745644
12	0x3bf9fa25	0.0076286965
13	0x3c95c82b	0.018283924
14	0x3d2848ef	0.04108518
15	0x3d8e022e	0.069340095
16	0xbced1dfc	-0.028944962
17	0x3dfc6595	0.12324063
18	0x3db61cec	0.08892235
19	0xbc76a7d9	-0.015054666
20	0x3e1b3487	0.15156756
21	0x3db594f4	0.08866301
22	0x3cd0d2c0	0.025491118
23	0x3df06c73	0.11739435
24	0x3d9bfd2b	0.07616647
25	0xbb9ebd00	-0.004844308
26	0x3de7c140	0.113161564
27	0xbccea9be	-0.025227424
28	0x3cbd1b24	0.02308423
29	0x3dfd880d	0.12379465
30	0xbb81f703	-0.0039662137
31	0xbcdde69c	-0.027087502
32	0x3d7b2281	0.061312202
33	0xbca15c61	-0.01969737
34	0x3ca5786b	0.020199021
35	0x3daab7c7	0.08335834
36	0x3de1b283	0.110203765
37	0x3c5a67d9	0.013330423
38	0x3d8bd383	0.06827452
39	0x3bce659b	0.0062987334
40	0x3c567f06	0.013091808
41	0x3cc23f90	0.02371195
42	0x3d34092c	0.04395406
43	0x3e001b1f	0.12510346
44	0x3c070979	0.008242005
45	0xbc5eae61	-0.01359138
46	0xba76195d	-0.00093879347
47	0x3cdad183	0.026711231
48	0xbcc190b3	-0.023628568
49	0xbcf9c00e	-0.030487087
50	0xb969087b	-0.00022223771
51	0xbaec5db3	-0.0018033296
52	0x3e271554	0.1631673
53	0x3d736a33	0.05942745
54	0x3b4e702c	0.0031499965
55	0x3d7c4083	0.06158496
56	0x3d96b203	0.07358172
57	0x3cc80d36	0.024420362
58	0x3db9a923	0.090654634
59	0x3c176305	0.009239917
60	0x3d99c8db	0.07509013
61	0x3c08bc9c	0.008345749
62	0x3c4af84e	0.012388302
63	0x3ddc0c6b	0.10744556
64	0x3da7c0ce	0.081910715
65	0xbccd8366	-0.02508707
66	0x3daa0a32	0.08302726
67	0x3da34073	0.07971277
68	0x3c1b5c5f	0.009482472
69	0x3ca074cc	0.019586943
70	0x3db154ff	0.0865879
71	0x3dbb6c39	0.09151501
72	0xbbc6808c	-0.0060578045
73	0x3db55b1a	0.08855267
74	0x3d5766db	0.052588325
75	0x3df67ddd	0.12035725
76	0x3b219bad	0.002465944
77	0x3cddf1e8	0.027092889
78	0xbc8b9ba1	-0.017041983
79	0x3e0c5e37	0.13707815
80	0xbc39c1fd	-0.011337754
81	0x3b66c814	0.003521447
82	0x3da4b5c8	0.080424845
83	0x3c250e2a	0.010074178
84	0x3da99d12	0.08281912
85	0xbcf08b0d	-0.02936318
86	0x3c8342af	0.016023008
87	0xbc9b9dcb	-0.01899614
88	0x3d06ba96	0.032892786
89	0x3c7bfd31	0.01538019
90	0x3d216521	0.039403085
91	0xbc2ba978	-0.010477416
92	0xbc89c507	-0.016817583
93	0x3d8f4441	0.0699544
94	0x3df09340	0.11746836
95	0x395b7f72	0.00020932945
96	0xbce052a1	-0.02738315
97	0x3d98e80c	0.074661344
98	0x3ca165b4	0.019701816
99	0x3d529a34	0.05141659
100	0x3d24e2bd	0.040255297
101	0x3cb810c3	0.02246893
102	0x3c0f3864	0.008741472
103	0x3c17ffbb	0.0092772795
104	0x3c81c06d	0.015838826
105	0x3dab33f6	0.0835952
106	0x3dd75103	0.10513499
107	0x3ca09b6e	0.019605365
108	0x3d42fbeb	0.04760353
109	0x3dbd1533	0.09232559
110	0x3db18c4f	0.0866934
111	0x3d436ceb	0.047711294
112	0xbc8f2c4a	-0.017477173
113	0x3d2510e1	0.0402993
114	0x3d637ff4	0.055541947
115	0x3d4cc3ea	0.049991526
116	0x3d8b6c97	0.06807821
117	0x3d45a478	0.048252553
118	0x3e1a1433	0.15046768
119	0x3b181563	0.0023206107
120	0xbcd8b38f	-0.026452808
121	0xbcae5b11	-0.021283658
122	0x3d841bf6	0.064506456
123	0x3d880d91	0.066432126
124	0x3dada38d	0.084784605
125	0x3c8e0140	0.01733458
126	0x3d2d57c6	0.042320035
127	0x3d6d849c	0.057987794

output_layer.weight f4 [9, 128]
0	0xbd5c8edb	-0.053847175
1	0x3e160840	0.14651585
2	0x3c2b7155	0.010464032
3	0xbe86031c	-0.26174247
4	0xbd69baf3	-0.057063054
5	0xbd907d62	-0.07055165
6	0xbddc9b37	-0.107717924
7	0xbda68031	-0.08129919
8	0xbd54d084	-0.05195667
9	0x3dbbf519	0.09177608
10	0xbc706ebd	-0.01467484
11	0x3cb614a1	0.022226634
12	0x3c8226b3	0.015887594
13	0x3c8ad2d1	0.016946228
14	0x3d988ce4	0.07448748
15	0x3df6b9c9	0.120471545
16	0xbcc6379b	-0.024196437
17	0xbdaf18bb	-0.08549639
18	0x3dc2025e	0.09473108
19	0xbd93b6ba	-0.07212587
20	0xbd83ff7d	-0.06445215
21	0x3dbfdf8b	0.09368809
22	0x3e31bf3b	0.17358105
23	0xbe2fad88	-0.1715604
24	0x3e0ee4a9	0.13954414
25	0xbd90591e	-0.07048248
26	0xbda5eb41	-0.08101512
27	0xbcb24e4b	-0.021765849
28	0x3c84c488	0.016206995
29	0xbd9ab0d7	-0.07553261
30	0x3cc1fa21	0.023678841
31	0xbc0a5f39	-0.008445554
32	0x3e32dbf3	0.17466716
33	0x3c0a8ea7	0.0084568625
34	0xbcd405f7	-0.02588175
35	0xbcaca4c5	-0.021074662
36	0xbde41bd9	-0.11138124
37	0x3e2f93e9	0.17146267
38	0xbd56c6ca	-0.052435674
39	0x3bdc6695	0.006726096
40	0x3e311f94	0.17297202
41	0xbd2c0792	-0.041999407
42	0x3dd9fa66	0.10643463
43	0xbe5dd96c	-0.21664971
44	0xbc34ca41	-0.011034549
45	0x3c91fc03	0.017820364
46	0xbc46cbe0	-0.0121335685
47	0x3e2e113f	0.16998766
48	0x3bfc8bbc	0.0077070873
49	0x3bd02b9a	0.006352854
50	0x3b916ff1	0.0044383933
51	0x3bf678fd	0.007521747
52	0xbdbac35d	-0.09119294
53	0xbd434ea4	-0.04768242
54	0xbcda1bfe	-0.026624676
55	0x3e06ff90	0.13183427
56	0x3d9a9d54	0.07549539
57	0xbd81b505	-0.06333355
58	0xbd6c3261	-0.057665233
59	0xbca3c80e	-0.019992854
60	0xbd59f811	-0.05321509
61	0xbd532160	-0.0515455
62	0xbb879cdf	-0.0041385735
63	0xbd8b46b5	-0.06800596
64	0xbda47996	-0.08031003
65	0xbc721923	-0.014776501
66	0x3db17423	0.086647294
67	0xbd7f4e53	-0.062330555
68	0xbcaa2d12	-0.020773444
69	0xbc4dd28a	-0.012562403
70	0xbd181314	-0.03712757
71	0xbd0a9ef9	-0.033843014
72	0xbd54ad57	-0.051923122
73	0xbd952da7	-0.07284098
74	0x3e1c6d13	0.15275984
75	0xbd9b62e5	-0.07587222
76	0x3e47a61c	0.1949696
77	0x3e1d6e42	0.15374091
78	0xbc80ea01	-0.015736582
79	0xbdc52d95	-0.09627835
80	0x3b5979b1	0.0033184106
81	0x3ccda560	0.025103271
82	0x3dde41c2	0.10852386
83	0x3c97ea0c	0.01854422
84	0xbdaba8fa	-0.08381839
85	0xbb8b53ce	-0.0042519337
86	0x3cd97839	0.026546584
87	0x3c8fedf9	0.017569529
88	0xbd990ed5	-0.07473532
89	0xbdc47c7d	-0.09594057
90	0xbd4fb273	-0.05070729
91	0xbd84b574	-0.06479922
92	0x3c75fab7	0.015013388
93	0x3dc82783	0.09773161
94	0xbe59b853	-0.2126172
95	0x3b73fb4a	0.0037228637
96	0xbc0108c0	-0.007875621
97	0xbd3189a3	-0.04334415
98	0x3e1bb731	0.152066
99	0x3dc94028	0.0982669
100	0x3e032b48	0.12809479
101	0xbd8c1bd4	-0.06841245
102	0xbdaca39b	-0.08429643
103	0xbd4c9813	-0.049949717
104	0x3c38dff4	0.011283863
105	0xbd4db4f6	-0.050221406
106	0xbe3e7e48	-0.1860286
107	0xbd75f281	-0.060045723
108	0xbd9d5dad	-0.07683883
109	0xbd66c7b9	-0.056342814
110	0xbe17b58f	-0.14815353
111	0x3d8e1f96	0.06939618
112	0xbca634b4	-0.020288803
113	0xbc3af10b	-0.011410008
114	0xbd8fc5ee	-0.07020174
115	0x3e05578a	0.13021675
116	0xbd653d59	-0.05596671
117	0x3e08a1a3	0.1334291
118	0xbdbbd8ba	-0.09172197
119	0x3cb0e5f2	0.021594021
120	0xbc9e65bf	-0.019335626
121	0xbca3b098	-0.019981667
122	0x3d80f60a	0.06296928
123	0xbd1dcfda	-0.0385283
124	0xbd93556f	-0.071940295
125	0x3c905c6f	0.0176222
126	0xbc476a66	-0.012171363
127	0x3e142fc6	0.14471349
128	0xbdb35f3c	-0.08758399
129	0x3e121621	0.14266254
130	0x3c9448e7	0.018101169
131	0xbe598e13	-0.21245603
132	0xbd4a2af9	-0.04935739
133	0xbd7b8e41	-0.06141496
134	0xbd99bfe9	-0.07507307
135	0xbda618e6	-0.08110218
136	0xbd621c5d	-0.05520283
137	0x3df8220e	0.121158704
138	0xbca5e361	-0.020250024
139	0xbb0934e7	-0.0020936073
140	0x3c9cff1a	0.01916461
141	0xbc9e88e0	-0.019352376
142	0x3e026a07	0.12735759
143	0x3e130f5a	0.14361325
144	0xbc757cc8	-0.014983363
145	0xbdb0f0b3	-0.0863966
146	0x3db5e347	0.0888124
147	0xbd525224	-0.051347867
148	0xbd8a09ad	-0.06740127
149	0x3e07ab79	0.13249005
150	0x3e10dda8	0.14147055
151	0xbe1e98d2	-0.15487984
152	0x3e084ab3	0.13309745
153	0xbd873316	-0.06601541
154	0xbd997f00	-0.074949265
155	0x3c90bc9b	0.01766806
156	0x3c03696d	0.008020741
157	0xbd4f6e10	-0.050642073
158	0xbcc9df0f	-0.024642495
159	0x3cbedab8	0.023297653
160	0x3e2898be	0.16464517
161	0xbca09e0d	-0.019606614
162	0x3c574ada	0.013140405
163	0xbd0b76ed	-0.034048963
164	0xbdb3ddfa	-0.08782573
165	0x3e23d8cc	0.1600067
166	0xbd9e16ad	-0.07719169
167	0x3c90a3ff	0.017656324
168	0x3e316231	0.17322613
169	0xbd8daa04	-0.069171935
170	0x3dc9434d	0.0982729
171	0xbe7d2164	-0.24719769
172	0xbd2a8f09	-0.041640315
173	0x3c158c13	0.009127635
174	0xbb832756	-0.004002492
175	0x3df331f5	0.11874763
176	0x3b952f50	0.004552759
177	0xbcb8c6a0	-0.02255565
178	0x3c453034	0.012035418
179	0xbc01249f	-0.007882266
180	0xbde7a79f	-0.11311268
181	0xbd71e06f	-0.059051927
182	0xbb8720e4	-0.004123794
183	0x3dad2a9d	0.084553935
184	0x3da2c357	0.07947414
185	0xbcdaeba3	-0.026723688
186	0xbd997827	-0.0749362
187	0xbc3fcf33	-0.011707115
188	0xbd4c8fee	-0.04994195
189	0xbd255638	-0.040365428
190	0xba7eb4d4	-0.00097162765
191	0xbd292329	-0.041293297
192	0xbd3021c9	-0.04300097
193	0xbc65e170	-0.014030799
194	0x3ddeee1f	0.10885262
195	0xbdb4fe0c	-0.08837518
196	0xba629a42	-0.0008644202
197	0xbcef700c	-0.029228233
198	0xbd7f86ef	-0.062384542
199	0xbd8db122	-0.06918551
200	0xbd50642f	-0.050876793
201	0xbd848908	-0.06471449
202	0x3e0c8dbb	0.13725941
203	0xbd8b484f	-0.06800901
204	0x3e419f23	0.18908362
205	0x3e055f9f	0.13024758
206	0xbc61b156	-0.01377519
207	0xbdcbcdda	-0.099513724
208	0x3bdcc208	0.0067369975
209	0xbcb31bb1	-0.02186379
210	0x3df54956	0.11976878
211	0xbbfa8b3a	-0.0076459916
212	0xbd842b3a	-0.06453557
213	0x3c481ed8	0.012214385
214	0x3b54694e	0.00324114
215	0x3baf9efb	0.005359528
216	0xbd6729e8	-0.05643645
217	0xbd5d5ef7	-0.054045644
218	0xbd70b0ee	-0.058762483
219	0xbd376fa7	-0.044784214
220	0x3ccb047e	0.024782415
221	0x3db59393	0.08866038
222	0xbe693fd2	-0.22778252
223	0x3c8eb28c	0.017419122
224	0xbcd2e398	-0.02574329
225	0xbd49adbb	-0.049237948
226	0x3e211948	0.157323
227	0x3dcd30b8	0.10019058
228	0x3dff03e5	0.12451915
229	0xbd3e1652	-0.046408005
230	0xbc9972ee	-0.01873156
231	0xbd3c2e3a	-0.045942523
232	0xbcc57305	-0.024102697
233	0xbd6ca025	-0.057769913
234	0xbdcef5b8	-0.10105461
235	0xbd80dcf5	-0.06292144
236	0xbd860459	-0.06543798
237	0xbd9db890	-0.07701218
238	0xbdd8ff88	-0.10595614
239	0x3dc951b9	0.098300405
240	0x3c086ea6	0.008327162
241	0xbd6d4f1d	-0.057936776
242	0xbd9855b3	-0.07438221
243	0x3df7a7a3	0.12092521
244	0xbd9c2045	-0.076233424
245	0x3e0897bb	0.1333913
246	0xbdc4ceb7	-0.0960974
247	0x3b8b49c7	0.0042507383
248	0x3cb71367	0.022348119
249	0x3cc0c6b8	0.023532256
250	0x3db6b8b6	0.089219496
251	0xbd6e7322	-0.058215268
252	0xbd929a15	-0.07158295
253	0x3c939310	0.01801446
254	0xbcea2d84	-0.028586157
255	0x3e16f942	0.14743522

output_layer.bias f4 [9]
0	0x3c3e4cea	0.011615017
1	0xbb2a5db5	-0.0025995795
2	0x3d2a80cd	0.04162674
3	0xbcb88a1e	-0.022526797
4	0x3b97e6c0	0.004635662
5	0x3d10a6e9	0.035315428
6	0xbb9da97a	-0.004811463
7	0x3c3f5ab0	0.011679336
8	0x3d0aefe4	0.033920184
